{
  "seeds": [
    "seeds\\real_official_main23\\conversion_arithtollvm_arith_to_llvm_mlir.mlir",
    "seeds\\real_official_main23\\conversion_functollvm_convert_funcs_mlir.mlir",
    "seeds\\real_official_main23\\conversion_memreftollvm_memref_to_llvm_mlir.mlir",
    "seeds\\real_official_main23\\conversion_scftocontrolflow_convert_to_cfg_mlir.mlir",
    "seeds\\real_official_main23\\conversion_tosatolinalg_tosa_to_linalg_mlir.mlir",
    "seeds\\real_official_main23\\conversion_vectortollvm_vector_to_llvm_mlir.mlir",
    "seeds\\real_official_main23\\dialect_affine_affine_data_copy_mlir.mlir",
    "seeds\\real_official_main23\\dialect_affine_affine_loop_invariant_code_motion_mlir.mlir",
    "seeds\\real_official_main23\\dialect_affine_supervectorize_vectorize_1d_mlir.mlir",
    "seeds\\real_official_main23\\dialect_affine_supervectorize_vectorize_2d_mlir.mlir",
    "seeds\\real_official_main23\\dialect_arith_canonicalize_mlir.mlir",
    "seeds\\real_official_main23\\dialect_arith_int_range_interface_mlir.mlir",
    "seeds\\real_official_main23\\dialect_arith_int_range_opts_mlir.mlir",
    "seeds\\real_official_main23\\dialect_bufferization_transforms_one_shot_bufferize_allow_return_allocs_mlir.mlir",
    "seeds\\real_official_main23\\dialect_bufferization_transforms_one_shot_bufferize_analysis_mlir.mlir",
    "seeds\\real_official_main23\\dialect_bufferization_transforms_one_shot_module_bufferize_mlir.mlir",
    "seeds\\real_official_main23\\dialect_gpu_canonicalize_mlir.mlir",
    "seeds\\real_official_main23\\dialect_linalg_canonicalize_mlir.mlir",
    "seeds\\real_official_main23\\dialect_linalg_fusion_elementwise_ops_mlir.mlir",
    "seeds\\real_official_main23\\dialect_linalg_generalize_named_ops_mlir.mlir",
    "seeds\\real_official_main23\\dialect_linalg_inline_scalar_operands_mlir.mlir",
    "seeds\\real_official_main23\\dialect_linalg_loops_mlir.mlir",
    "seeds\\real_official_main23\\dialect_memref_canonicalize_mlir.mlir",
    "seeds\\real_official_main23\\dialect_memref_expand_ops_mlir.mlir",
    "seeds\\real_official_main23\\dialect_memref_fold_memref_alias_ops_mlir.mlir",
    "seeds\\real_official_main23\\dialect_scf_canonicalize_mlir.mlir",
    "seeds\\real_official_main23\\dialect_scf_for_loop_canonicalization_mlir.mlir",
    "seeds\\real_official_main23\\dialect_scf_for_loop_peeling_mlir.mlir",
    "seeds\\real_official_main23\\dialect_shape_canonicalize_mlir.mlir",
    "seeds\\real_official_main23\\dialect_shape_fold_div_mlir.mlir",
    "seeds\\real_official_main23\\dialect_sparsetensor_codegen_buffer_initialization_mlir.mlir",
    "seeds\\real_official_main23\\dialect_sparsetensor_codegen_mlir.mlir",
    "seeds\\real_official_main23\\dialect_tensor_canonicalize_mlir.mlir",
    "seeds\\real_official_main23\\dialect_tensor_decompose_concat_mlir.mlir",
    "seeds\\real_official_main23\\dialect_tensor_fold_into_pack_and_unpack_mlir.mlir",
    "seeds\\real_official_main23\\dialect_tensor_fold_tensor_subset_ops_mlir.mlir",
    "seeds\\real_official_main23\\dialect_tosa_canonicalize_mlir.mlir",
    "seeds\\real_official_main23\\dialect_tosa_ops_mlir.mlir",
    "seeds\\real_official_main23\\dialect_vector_canonicalize_mlir.mlir",
    "seeds\\real_official_main23\\dialect_vector_invalid_mlir.mlir",
    "seeds\\real_official_main23\\dialect_vector_vector_transfer_full_partial_split_mlir.mlir"
  ],
  "pipelines": [
    "parse_verify",
    "canonicalize_cse_sccp",
    "symbol_dce_inliner_canonicalize",
    "affine_lowering_stress",
    "scf_to_cf_stress",
    "vector_lowering_stress",
    "bufferization_probe",
    "linalg_affine_probe",
    "gpu_parallel_probe"
  ],
  "runs": [
    {
      "seed": "seeds\\real_official_main23\\conversion_arithtollvm_arith_to_llvm_mlir.mlir",
      "pipeline": "parse_verify",
      "command": "C:\\Users\\lenovo\\.cache\\codex-runtimes\\codex-primary-runtime\\dependencies\\python\\python.exe scripts\\ssh_mlir_opt.py  -o - < seeds\\real_official_main23\\conversion_arithtollvm_arith_to_llvm_mlir.mlir",
      "return_code": 0,
      "timed_out": false,
      "elapsed_ms": 597,
      "stdout": "module {\n  func.func @vector_ops(%arg0: vector<4xf32>, %arg1: vector<4xi1>, %arg2: vector<4xi64>, %arg3: vector<4xi64>) -> vector<4xf32> {\n    %cst = arith.constant dense<4.200000e+01> : vector<4xf32>\n    %0 = arith.addf %arg0, %cst : vector<4xf32>\n    %1 = arith.divsi %arg2, %arg2 : vector<4xi64>\n    %2 = arith.divui %arg2, %arg2 : vector<4xi64>\n    %3 = arith.remsi %arg2, %arg2 : vector<4xi64>\n    %4 = arith.remui %arg2, %arg2 : vector<4xi64>\n    %5 = arith.divf %arg0, %cst : vector<4xf32>\n    %6 = arith.remf %arg0, %cst : vector<4xf32>\n    %7 = arith.andi %arg2, %arg3 : vector<4xi64>\n    %8 = arith.ori %arg2, %arg3 : vector<4xi64>\n    %9 = arith.xori %arg2, %arg3 : vector<4xi64>\n    %10 = arith.shli %arg2, %arg2 : vector<4xi64>\n    %11 = arith.shrsi %arg2, %arg2 : vector<4xi64>\n    %12 = arith.shrui %arg2, %arg2 : vector<4xi64>\n    return %0 : vector<4xf32>\n  }\n  func.func @ops(%arg0: f32, %arg1: f32, %arg2: i32, %arg3: i32, %arg4: f64) -> (f32, i32) {\n    %0 = arith.subf %arg0, %arg1 : f32\n    %1 = arith.subi %arg2, %arg3 : i32\n    %2 = arith.cmpi slt, %arg2, %1 : i32\n    %3 = arith.cmpi sle, %arg2, %1 : i32\n    %4 = arith.cmpi sgt, %arg2, %1 : i32\n    %5 = arith.cmpi ult, %arg2, %1 : i32\n    %6 = arith.cmpi ule, %arg2, %1 : i32\n    %7 = arith.cmpi ugt, %arg2, %1 : i32\n    %8 = arith.cmpi eq, %arg2, %1 : i32\n    %9 = arith.divsi %arg2, %arg3 : i32\n    %10 = arith.divui %arg2, %arg3 : i32\n    %11 = arith.remsi %arg2, %arg3 : i32\n    %12 = arith.remui %arg2, %arg3 : i32\n    %13 = arith.divf %arg0, %arg1 : f32\n    %14 = arith.remf %arg0, %arg1 : f32\n    %15 = arith.andi %arg2, %arg3 : i32\n    %16 = arith.ori %arg2, %arg3 : i32\n    %17 = arith.xori %arg2, %arg3 : i32\n    %cst = arith.constant 7.900000e-01 : f64\n    %18 = arith.shli %arg2, %arg3 : i32\n    %19 = arith.shrsi %arg2, %arg3 : i32\n    %20 = arith.shrui %arg2, %arg3 : i32\n    %cst_0 = arith.constant 2.000000e+00 : tf32\n    return %0, %10 : f32, i32\n  }\n  func.func @index_cast(%arg0: index, %arg1: i1) {\n    %0 = arith.index_cast %arg0 : index to i1\n    %1 = arith.index_cast %arg1 : i1 to index\n    return\n  }\n  func.func @vector_index_cast(%arg0: vector<2xindex>, %arg1: vector<2xi1>) {\n    %0 = arith.index_cast %arg0 : vector<2xindex> to vector<2xi1>\n    %1 = arith.index_cast %arg1 : vector<2xi1> to vector<2xindex>\n    return\n  }\n  func.func @index_castui(%arg0: index, %arg1: i1) {\n    %0 = arith.index_castui %arg0 : index to i1\n    %1 = arith.index_castui %arg1 : i1 to index\n    return\n  }\n  func.func @vector_index_castui(%arg0: vector<2xindex>, %arg1: vector<2xi1>) {\n    %0 = arith.index_castui %arg0 : vector<2xindex> to vector<2xi1>\n    %1 = arith.index_castui %arg1 : vector<2xi1> to vector<2xindex>\n    return\n  }\n  func.func @index_castui_nneg(%arg0: i1) {\n    %0 = arith.index_castui %arg0 nneg : i1 to index\n    return\n  }\n  func.func @index_castui_nneg_not_set(%arg0: i1) {\n    %0 = arith.index_castui %arg0 : i1 to index\n    return\n  }\n  func.func @memref_index_cast(%arg0: memref<3xi32>) -> memref<3xindex> {\n    %0 = arith.index_cast %arg0 : memref<3xi32> to memref<3xindex>\n    return %0 : memref<3xindex>\n  }\n  func.func @memref_index_castui(%arg0: memref<3xi32>) -> memref<3xindex> {\n    %0 = arith.index_castui %arg0 : memref<3xi32> to memref<3xindex>\n    return %0 : memref<3xindex>\n  }\n  func.func @sitofp(%arg0: i32, %arg1: i64) {\n    %0 = arith.sitofp %arg0 : i32 to f32\n    %1 = arith.sitofp %arg0 : i32 to f64\n    %2 = arith.sitofp %arg1 : i64 to f32\n    %3 = arith.sitofp %arg1 : i64 to f64\n    return\n  }\n  func.func @sitofp_vector(%arg0: vector<2xi16>, %arg1: vector<2xi32>, %arg2: vector<2xi64>) {\n    %0 = arith.sitofp %arg0 : vector<2xi16> to vector<2xf32>\n    %1 = arith.sitofp %arg0 : vector<2xi16> to vector<2xf64>\n    %2 = arith.sitofp %arg1 : vector<2xi32> to vector<2xf32>\n    %3 = arith.sitofp %arg1 : vector<2xi32> to vector<2xf64>\n    %4 = arith.sitofp %arg2 : vector<2xi64> to vector<2xf32>\n    %5 = arith.sitofp %arg2 : vector<2xi64> to vector<2xf64>\n    return\n  }\n  func.func @uitofp(%arg0: i32, %arg1: i64) {\n    %0 = arith.uitofp %arg0 : i32 to f32\n    %1 = arith.uitofp %arg0 : i32 to f64\n    %2 = arith.uitofp %arg1 : i64 to f32\n    %3 = arith.uitofp %arg1 : i64 to f64\n    return\n  }\n  func.func @fpext(%arg0: f16, %arg1: f32) {\n    %0 = arith.extf %arg0 : f16 to f32\n    %1 = arith.extf %arg0 : f16 to f64\n    %2 = arith.extf %arg1 : f32 to f64\n    return\n  }\n  func.func @fpext_vector(%arg0: vector<2xf16>, %arg1: vector<2xf32>) {\n    %0 = arith.extf %arg0 : vector<2xf16> to vector<2xf32>\n    %1 = arith.extf %arg0 : vector<2xf16> to vector<2xf64>\n    %2 = arith.extf %arg1 : vector<2xf32> to vector<2xf64>\n    return\n  }\n  func.func @fptosi(%arg0: f32, %arg1: f64) {\n    %0 = arith.fptosi %arg0 : f32 to i32\n    %1 = arith.fptosi %arg0 : f32 to i64\n    %2 = arith.fptosi %arg1 : f64 to i32\n    %3 = arith.fptosi %arg1 : f64 to i64\n    return\n  }\n  func.func @fptosi_vector(%arg0: vector<2xf16>, %arg1: vector<2xf32>, %arg2: vector<2xf64>) {\n    %0 = arith.fptosi %arg0 : vector<2xf16> to vector<2xi32>\n    %1 = arith.fptosi %arg0 : vector<2xf16> to vector<2xi64>\n    %2 = arith.fptosi %arg1 : vector<2xf32> to vector<2xi32>\n    %3 = arith.fptosi %arg1 : vector<2xf32> to vector<2xi64>\n    %4 = arith.fptosi %arg2 : vector<2xf64> to vector<2xi32>\n    %5 = arith.fptosi %arg2 : vector<2xf64> to vector<2xi64>\n    return\n  }\n  func.func @fptoui(%arg0: f32, %arg1: f64) {\n    %0 = arith.fptoui %arg0 : f32 to i32\n    %1 = arith.fptoui %arg0 : f32 to i64\n    %2 = arith.fptoui %arg1 : f64 to i32\n    %3 = arith.fptoui %arg1 : f64 to i64\n    return\n  }\n  func.func @fptoui_vector(%arg0: vector<2xf16>, %arg1: vector<2xf32>, %arg2: vector<2xf64>) {\n    %0 = arith.fptoui %arg0 : vector<2xf16> to vector<2xi32>\n    %1 = arith.fptoui %arg0 : vector<2xf16> to vector<2xi64>\n    %2 = arith.fptoui %arg1 : vector<2xf32> to vector<2xi32>\n    %3 = arith.fptoui %arg1 : vector<2xf32> to vector<2xi64>\n    %4 = arith.fptoui %arg2 : vector<2xf64> to vector<2xi32>\n    %5 = arith.fptoui %arg2 : vector<2xf64> to vector<2xi64>\n    return\n  }\n  func.func @uitofp_vector(%arg0: vector<2xi16>, %arg1: vector<2xi32>, %arg2: vector<2xi64>) {\n    %0 = arith.uitofp %arg0 : vector<2xi16> to vector<2xf32>\n    %1 = arith.uitofp %arg0 : vector<2xi16> to vector<2xf64>\n    %2 = arith.uitofp %arg1 : vector<2xi32> to vector<2xf32>\n    %3 = arith.uitofp %arg1 : vector<2xi32> to vector<2xf64>\n    %4 = arith.uitofp %arg2 : vector<2xi64> to vector<2xf32>\n    %5 = arith.uitofp %arg2 : vector<2xi64> to vector<2xf64>\n    return\n  }\n  func.func @fptrunc(%arg0: f32, %arg1: f64) {\n    %0 = arith.truncf %arg0 : f32 to f16\n    %1 = arith.truncf %arg1 : f64 to f16\n    %2 = arith.truncf %arg1 : f64 to f32\n    return\n  }\n  func.func @fptrunc_vector(%arg0: vector<2xf32>, %arg1: vector<2xf64>) {\n    %0 = arith.truncf %arg0 : vector<2xf32> to vector<2xf16>\n    %1 = arith.truncf %arg1 : vector<2xf64> to vector<2xf16>\n    %2 = arith.truncf %arg1 : vector<2xf64> to vector<2xf32>\n    return\n  }\n  func.func @experimental_constrained_fptrunc(%arg0: f64) {\n    %0 = arith.truncf %arg0 to_nearest_even : f64 to f32\n    %1 = arith.truncf %arg0 downward : f64 to f32\n    %2 = arith.truncf %arg0 upward : f64 to f32\n    %3 = arith.truncf %arg0 toward_zero : f64 to f32\n    %4 = arith.truncf %arg0 to_nearest_away : f64 to f32\n    return\n  }\n  func.func @experimental_constrained_addf(%arg0: f64, %arg1: f64) {\n    %0 = arith.addf %arg0, %arg1 to_nearest_even : f64\n    %1 = arith.addf %arg0, %arg1 downward : f64\n    %2 = arith.addf %arg0, %arg1 upward : f64\n    %3 = arith.addf %arg0, %arg1 toward_zero : f64\n    %4 = arith.addf %arg0, %arg1 to_nearest_away : f64\n    return\n  }\n  func.func @experimental_constrained_subf(%arg0: f64, %arg1: f64) {\n    %0 = arith.subf %arg0, %arg1 to_nearest_even : f64\n    %1 = arith.subf %arg0, %arg1 downward : f64\n    return\n  }\n  func.func @experimental_constrained_mulf(%arg0: f64, %arg1: f64) {\n    %0 = arith.mulf %arg0, %arg1 upward : f64\n    %1 = arith.mulf %arg0, %arg1 toward_zero : f64\n    return\n  }\n  func.func @experimental_constrained_divf(%arg0: f64, %arg1: f64) {\n    %0 = arith.divf %arg0, %arg1 to_nearest_even : f64\n    %1 = arith.divf %arg0, %arg1 to_nearest_away : f64\n    return\n  }\n  func.func @constrained_addf_with_fastmath(%arg0: f64, %arg1: f64) {\n    %0 = arith.addf %arg0, %arg1 to_nearest_even fastmath<fast> : f64\n    return\n  }\n  func.func @convertf_f16_to_bf16(%arg0: f16) -> bf16 {\n    %0 = arith.convertf %arg0 : f16 to bf16\n    return %0 : bf16\n  }\n  func.func @convertf_bf16_to_f16(%arg0: bf16) -> f16 {\n    %0 = arith.convertf %arg0 : bf16 to f16\n    return %0 : f16\n  }\n  func.func @convertf_vector(%arg0: vector<2xf16>) -> vector<2xbf16> {\n    %0 = arith.convertf %arg0 : vector<2xf16> to vector<2xbf16>\n    return %0 : vector<2xbf16>\n  }\n  func.func @integer_extension_and_truncation(%arg0: i3) {\n    %0 = arith.extsi %arg0 : i3 to i6\n    %1 = arith.extui %arg0 : i3 to i6\n    %2 = arith.trunci %arg0 : i3 to i2\n    return\n  }\n  func.func @integer_cast_0d_vector(%arg0: vector<i3>) {\n    %0 = arith.extsi %arg0 : vector<i3> to vector<i6>\n    %1 = arith.extui %arg0 : vector<i3> to vector<i6>\n    %2 = arith.trunci %arg0 : vector<i3> to vector<i2>\n    return\n  }\n  func.func @fcmp(%arg0: f32, %arg1: f32) {\n    %0 = arith.cmpf oeq, %arg0, %arg1 : f32\n    %1 = arith.cmpf ogt, %arg0, %arg1 : f32\n    %2 = arith.cmpf oge, %arg0, %arg1 : f32\n    %3 = arith.cmpf olt, %arg0, %arg1 : f32\n    %4 = arith.cmpf ole, %arg0, %arg1 : f32\n    %5 = arith.cmpf one, %arg0, %arg1 : f32\n    %6 = arith.cmpf ord, %arg0, %arg1 : f32\n    %7 = arith.cmpf ueq, %arg0, %arg1 : f32\n    %8 = arith.cmpf ugt, %arg0, %arg1 : f32\n    %9 = arith.cmpf uge, %arg0, %arg1 : f32\n    %10 = arith.cmpf ult, %arg0, %arg1 : f32\n    %11 = arith.cmpf ule, %arg0, %arg1 : f32\n    %12 = arith.cmpf une, %arg0, %arg1 : f32\n    %13 = arith.cmpf uno, %arg0, %arg1 : f32\n    %14 = arith.cmpf oeq, %arg0, %arg1 fastmath<fast> : f32\n    return\n  }\n  func.func @index_vector(%arg0: vector<4xindex>) {\n    %cst = arith.constant dense<[0, 1, 2, 3]> : vector<4xindex>\n    %0 = arith.addi %arg0, %cst : vector<4xindex>\n    return\n  }\n  func.func @bitcast_1d(%arg0: vector<2xf32>) {\n    %0 = arith.bitcast %arg0 : vector<2xf32> to vector<2xi32>\n    return\n  }\n  func.func @addui_extended_scalar(%arg0: i32, %arg1: i32) -> (i32, i1) {\n    %sum, %overflow = arith.addui_extended %arg0, %arg1 : i32, i1\n    return %sum, %overflow : i32, i1\n  }\n  func.func @addui_extended_vector1d(%arg0: vector<3xi16>, %arg1: vector<3xi16>) -> (vector<3xi16>, vector<3xi1>) {\n    %sum, %overflow = arith.addui_extended %arg0, %arg1 : vector<3xi16>, vector<3xi1>\n    return %sum, %overflow : vector<3xi16>, vector<3xi1>\n  }\n  func.func @mulsi_extended_scalar(%arg0: i32, %arg1: i32) -> (i32, i32) {\n    %low, %high = arith.mulsi_extended %arg0, %arg1 : i32\n    return %low, %high : i32, i32\n  }\n  func.func @mulsi_extended_vector1d(%arg0: vector<3xi64>, %arg1: vector<3xi64>) -> (vector<3xi64>, vector<3xi64>) {\n    %low, %high = arith.mulsi_extended %arg0, %arg1 : vector<3xi64>\n    return %low, %high : vector<3xi64>, vector<3xi64>\n  }\n  func.func @mului_extended_scalar(%arg0: i32, %arg1: i32) -> (i32, i32) {\n    %low, %high = arith.mului_extended %arg0, %arg1 : i32\n    return %low, %high : i32, i32\n  }\n  func.func @mului_extended_vector1d(%arg0: vector<3xi64>, %arg1: vector<3xi64>) -> (vector<3xi64>, vector<3xi64>) {\n    %low, %high = arith.mului_extended %arg0, %arg1 : vector<3xi64>\n    return %low, %high : vector<3xi64>, vector<3xi64>\n  }\n  func.func @cmpf_2dvector(%arg0: vector<4x3xf32>, %arg1: vector<4x3xf32>) {\n    %0 = arith.cmpf olt, %arg0, %arg1 : vector<4x3xf32>\n    return\n  }\n  func.func @cmpi_0dvector(%arg0: vector<i32>, %arg1: vector<i32>) {\n    %0 = arith.cmpi ult, %arg0, %arg1 : vector<i32>\n    return\n  }\n  func.func @cmpi_2dvector(%arg0: vector<4x3xi32>, %arg1: vector<4x3xi32>) {\n    %0 = arith.cmpi ult, %arg0, %arg1 : vector<4x3xi32>\n    return\n  }\n  func.func @select(%arg0: i1, %arg1: i32, %arg2: i32) -> i32 {\n    %0 = arith.select %arg0, %arg1, %arg2 : i32\n    return %0 : i32\n  }\n  func.func @select_complex(%arg0: i1, %arg1: complex<f32>, %arg2: complex<f32>) -> complex<f32> {\n    %0 = arith.select %arg0, %arg1, %arg2 : complex<f32>\n    return %0 : complex<f32>\n  }\n  func.func @ceildivsi(%arg0: i64, %arg1: i64) -> i64 {\n    %0 = arith.ceildivsi %arg0, %arg1 : i64\n    return %0 : i64\n  }\n  func.func @ceildivui(%arg0: i32) -> i32 {\n    %0 = arith.ceildivui %arg0, %arg0 : i32\n    return %0 : i32\n  }\n  func.func @floordivsi(%arg0: i32, %arg1: i32) -> i32 {\n    %0 = arith.floordivsi %arg0, %arg1 : i32\n    return %0 : i32\n  }\n  func.func @minmaxi(%arg0: i32, %arg1: i32) -> i32 {\n    %0 = arith.minsi %arg0, %arg1 : i32\n    %1 = arith.maxsi %arg0, %arg1 : i32\n    %2 = arith.minui %arg0, %arg1 : i32\n    %3 = arith.maxui %arg0, %arg1 : i32\n    return %0 : i32\n  }\n  func.func @minmaxf(%arg0: f32, %arg1: f32) -> f32 {\n    %0 = arith.minimumf %arg0, %arg1 : f32\n    %1 = arith.maximumf %arg0, %arg1 : f32\n    %2 = arith.minnumf %arg0, %arg1 : f32\n    %3 = arith.maxnumf %arg0, %arg1 : f32\n    return %0 : f32\n  }\n  func.func @fastmath(%arg0: f32, %arg1: f32, %arg2: i32) {\n    %0 = arith.addf %arg0, %arg1 fastmath<fast> : f32\n    %1 = arith.mulf %arg0, %arg1 fastmath<fast> : f32\n    %2 = arith.negf %arg0 fastmath<fast> : f32\n    %3 = arith.addf %arg0, %arg1 : f32\n    %4 = arith.addf %arg0, %arg1 fastmath<nnan,ninf> : f32\n    return\n  }\n  func.func @ops_supporting_fastmath(%arg0: f32, %arg1: f32, %arg2: i32) {\n    %0 = arith.addf %arg0, %arg1 fastmath<fast> : f32\n    %1 = arith.divf %arg0, %arg1 fastmath<fast> : f32\n    %2 = arith.maximumf %arg0, %arg1 fastmath<fast> : f32\n    %3 = arith.minimumf %arg0, %arg1 fastmath<fast> : f32\n    %4 = arith.mulf %arg0, %arg1 fastmath<fast> : f32\n    %5 = arith.negf %arg0 fastmath<fast> : f32\n    %6 = arith.remf %arg0, %arg1 fastmath<fast> : f32\n    %7 = arith.subf %arg0, %arg1 fastmath<fast> : f32\n    return\n  }\n  func.func @ops_supporting_overflow(%arg0: i64, %arg1: i64) {\n    %0 = arith.addi %arg0, %arg1 overflow<nsw> : i64\n    %1 = arith.subi %arg0, %arg1 overflow<nuw> : i64\n    %2 = arith.muli %arg0, %arg1 overflow<nsw, nuw> : i64\n    %3 = arith.shli %arg0, %arg1 overflow<nsw, nuw> : i64\n    %4 = arith.trunci %arg0 overflow<nsw, nuw> : i64 to i32\n    return\n  }\n  func.func @ops_supporting_exact(%arg0: i32, %arg1: i32) {\n    %0 = arith.shrsi %arg0, %arg1 exact : i32\n    %1 = arith.shrui %arg0, %arg1 exact : i32\n    %2 = arith.divsi %arg0, %arg1 exact : i32\n    %3 = arith.divui %arg0, %arg1 exact : i32\n    return\n  }\n  func.func @ops_supporting_nneg(%arg0: i32) {\n    %0 = arith.extui %arg0 nneg : i32 to i64\n    %1 = arith.uitofp %arg0 nneg : i32 to f32\n    return\n  }\n  func.func @ops_nneg_not_set(%arg0: i32) {\n    %0 = arith.extui %arg0 : i32 to i64\n    %1 = arith.uitofp %arg0 : i32 to f32\n    return\n  }\n  func.func @memref_bitcast(%arg0: memref<?xi16>) -> memref<?xbf16> {\n    %0 = arith.bitcast %arg0 : memref<?xi16> to memref<?xbf16>\n    return %0 : memref<?xbf16>\n  }\n  func.func @unsupported_fp_type(%arg0: f4E2M1FN, %arg1: vector<4xf4E2M1FN>, %arg2: vector<8x4xf4E2M1FN>, %arg3: f4E2M1FN, %arg4: i1) {\n    %0 = arith.addf %arg0, %arg0 : f4E2M1FN\n    %1 = arith.addf %arg1, %arg1 : vector<4xf4E2M1FN>\n    %2 = arith.addf %arg2, %arg2 : vector<8x4xf4E2M1FN>\n    %3 = arith.cmpf oeq, %arg0, %arg3 : f4E2M1FN\n    %4 = arith.select %arg4, %arg0, %arg3 : f4E2M1FN\n    return\n  }\n  func.func @supported_fp_type(%arg0: f32, %arg1: vector<4xf32>, %arg2: vector<4x8xf32>, %arg3: f32) {\n    %0 = arith.addf %arg0, %arg0 : f32\n    %1 = arith.addf %arg1, %arg1 : vector<4xf32>\n    %2 = arith.addf %arg2, %arg2 : vector<4x8xf32>\n    %3 = arith.cmpf oeq, %arg0, %arg3 : f32\n    return\n  }\n}\n\n",
      "stderr": "",
      "stdout_path": "outputs\\discovery_mlir23_mainseed\\artifacts\\conversion_arithtollvm_arith_to_llvm_mlir__parse_verify.stdout.mlir",
      "stderr_path": "outputs\\discovery_mlir23_mainseed\\artifacts\\conversion_arithtollvm_arith_to_llvm_mlir__parse_verify.stderr.txt",
      "category": "success"
    },
    {
      "seed": "seeds\\real_official_main23\\conversion_arithtollvm_arith_to_llvm_mlir.mlir",
      "pipeline": "canonicalize_cse_sccp",
      "command": "C:\\Users\\lenovo\\.cache\\codex-runtimes\\codex-primary-runtime\\dependencies\\python\\python.exe scripts\\ssh_mlir_opt.py --canonicalize --cse --sccp --canonicalize -o - < seeds\\real_official_main23\\conversion_arithtollvm_arith_to_llvm_mlir.mlir",
      "return_code": 0,
      "timed_out": false,
      "elapsed_ms": 568,
      "stdout": "module {\n  func.func @vector_ops(%arg0: vector<4xf32>, %arg1: vector<4xi1>, %arg2: vector<4xi64>, %arg3: vector<4xi64>) -> vector<4xf32> {\n    %cst = arith.constant dense<4.200000e+01> : vector<4xf32>\n    %0 = arith.addf %arg0, %cst : vector<4xf32>\n    return %0 : vector<4xf32>\n  }\n  func.func @ops(%arg0: f32, %arg1: f32, %arg2: i32, %arg3: i32, %arg4: f64) -> (f32, i32) {\n    %0 = arith.subf %arg0, %arg1 : f32\n    %1 = arith.divui %arg2, %arg3 : i32\n    return %0, %1 : f32, i32\n  }\n  func.func @index_cast(%arg0: index, %arg1: i1) {\n    return\n  }\n  func.func @vector_index_cast(%arg0: vector<2xindex>, %arg1: vector<2xi1>) {\n    return\n  }\n  func.func @index_castui(%arg0: index, %arg1: i1) {\n    return\n  }\n  func.func @vector_index_castui(%arg0: vector<2xindex>, %arg1: vector<2xi1>) {\n    return\n  }\n  func.func @index_castui_nneg(%arg0: i1) {\n    return\n  }\n  func.func @index_castui_nneg_not_set(%arg0: i1) {\n    return\n  }\n  func.func @memref_index_cast(%arg0: memref<3xi32>) -> memref<3xindex> {\n    %0 = arith.index_cast %arg0 : memref<3xi32> to memref<3xindex>\n    return %0 : memref<3xindex>\n  }\n  func.func @memref_index_castui(%arg0: memref<3xi32>) -> memref<3xindex> {\n    %0 = arith.index_castui %arg0 : memref<3xi32> to memref<3xindex>\n    return %0 : memref<3xindex>\n  }\n  func.func @sitofp(%arg0: i32, %arg1: i64) {\n    return\n  }\n  func.func @sitofp_vector(%arg0: vector<2xi16>, %arg1: vector<2xi32>, %arg2: vector<2xi64>) {\n    return\n  }\n  func.func @uitofp(%arg0: i32, %arg1: i64) {\n    return\n  }\n  func.func @fpext(%arg0: f16, %arg1: f32) {\n    return\n  }\n  func.func @fpext_vector(%arg0: vector<2xf16>, %arg1: vector<2xf32>) {\n    return\n  }\n  func.func @fptosi(%arg0: f32, %arg1: f64) {\n    return\n  }\n  func.func @fptosi_vector(%arg0: vector<2xf16>, %arg1: vector<2xf32>, %arg2: vector<2xf64>) {\n    return\n  }\n  func.func @fptoui(%arg0: f32, %arg1: f64) {\n    return\n  }\n  func.func @fptoui_vector(%arg0: vector<2xf16>, %arg1: vector<2xf32>, %arg2: vector<2xf64>) {\n    return\n  }\n  func.func @uitofp_vector(%arg0: vector<2xi16>, %arg1: vector<2xi32>, %arg2: vector<2xi64>) {\n    return\n  }\n  func.func @fptrunc(%arg0: f32, %arg1: f64) {\n    return\n  }\n  func.func @fptrunc_vector(%arg0: vector<2xf32>, %arg1: vector<2xf64>) {\n    return\n  }\n  func.func @experimental_constrained_fptrunc(%arg0: f64) {\n    return\n  }\n  func.func @experimental_constrained_addf(%arg0: f64, %arg1: f64) {\n    return\n  }\n  func.func @experimental_constrained_subf(%arg0: f64, %arg1: f64) {\n    return\n  }\n  func.func @experimental_constrained_mulf(%arg0: f64, %arg1: f64) {\n    return\n  }\n  func.func @experimental_constrained_divf(%arg0: f64, %arg1: f64) {\n    return\n  }\n  func.func @constrained_addf_with_fastmath(%arg0: f64, %arg1: f64) {\n    return\n  }\n  func.func @convertf_f16_to_bf16(%arg0: f16) -> bf16 {\n    %0 = arith.convertf %arg0 : f16 to bf16\n    return %0 : bf16\n  }\n  func.func @convertf_bf16_to_f16(%arg0: bf16) -> f16 {\n    %0 = arith.convertf %arg0 : bf16 to f16\n    return %0 : f16\n  }\n  func.func @convertf_vector(%arg0: vector<2xf16>) -> vector<2xbf16> {\n    %0 = arith.convertf %arg0 : vector<2xf16> to vector<2xbf16>\n    return %0 : vector<2xbf16>\n  }\n  func.func @integer_extension_and_truncation(%arg0: i3) {\n    return\n  }\n  func.func @integer_cast_0d_vector(%arg0: vector<i3>) {\n    return\n  }\n  func.func @fcmp(%arg0: f32, %arg1: f32) {\n    return\n  }\n  func.func @index_vector(%arg0: vector<4xindex>) {\n    return\n  }\n  func.func @bitcast_1d(%arg0: vector<2xf32>) {\n    return\n  }\n  func.func @addui_extended_scalar(%arg0: i32, %arg1: i32) -> (i32, i1) {\n    %sum, %overflow = arith.addui_extended %arg0, %arg1 : i32, i1\n    return %sum, %overflow : i32, i1\n  }\n  func.func @addui_extended_vector1d(%arg0: vector<3xi16>, %arg1: vector<3xi16>) -> (vector<3xi16>, vector<3xi1>) {\n    %sum, %overflow = arith.addui_extended %arg0, %arg1 : vector<3xi16>, vector<3xi1>\n    return %sum, %overflow : vector<3xi16>, vector<3xi1>\n  }\n  func.func @mulsi_extended_scalar(%arg0: i32, %arg1: i32) -> (i32, i32) {\n    %low, %high = arith.mulsi_extended %arg0, %arg1 : i32\n    return %low, %high : i32, i32\n  }\n  func.func @mulsi_extended_vector1d(%arg0: vector<3xi64>, %arg1: vector<3xi64>) -> (vector<3xi64>, vector<3xi64>) {\n    %low, %high = arith.mulsi_extended %arg0, %arg1 : vector<3xi64>\n    return %low, %high : vector<3xi64>, vector<3xi64>\n  }\n  func.func @mului_extended_scalar(%arg0: i32, %arg1: i32) -> (i32, i32) {\n    %low, %high = arith.mului_extended %arg0, %arg1 : i32\n    return %low, %high : i32, i32\n  }\n  func.func @mului_extended_vector1d(%arg0: vector<3xi64>, %arg1: vector<3xi64>) -> (vector<3xi64>, vector<3xi64>) {\n    %low, %high = arith.mului_extended %arg0, %arg1 : vector<3xi64>\n    return %low, %high : vector<3xi64>, vector<3xi64>\n  }\n  func.func @cmpf_2dvector(%arg0: vector<4x3xf32>, %arg1: vector<4x3xf32>) {\n    return\n  }\n  func.func @cmpi_0dvector(%arg0: vector<i32>, %arg1: vector<i32>) {\n    return\n  }\n  func.func @cmpi_2dvector(%arg0: vector<4x3xi32>, %arg1: vector<4x3xi32>) {\n    return\n  }\n  func.func @select(%arg0: i1, %arg1: i32, %arg2: i32) -> i32 {\n    %0 = arith.select %arg0, %arg1, %arg2 : i32\n    return %0 : i32\n  }\n  func.func @select_complex(%arg0: i1, %arg1: complex<f32>, %arg2: complex<f32>) -> complex<f32> {\n    %0 = arith.select %arg0, %arg1, %arg2 : complex<f32>\n    return %0 : complex<f32>\n  }\n  func.func @ceildivsi(%arg0: i64, %arg1: i64) -> i64 {\n    %0 = arith.ceildivsi %arg0, %arg1 : i64\n    return %0 : i64\n  }\n  func.func @ceildivui(%arg0: i32) -> i32 {\n    %0 = arith.ceildivui %arg0, %arg0 : i32\n    return %0 : i32\n  }\n  func.func @floordivsi(%arg0: i32, %arg1: i32) -> i32 {\n    %0 = arith.floordivsi %arg0, %arg1 : i32\n    return %0 : i32\n  }\n  func.func @minmaxi(%arg0: i32, %arg1: i32) -> i32 {\n    %0 = arith.minsi %arg0, %arg1 : i32\n    return %0 : i32\n  }\n  func.func @minmaxf(%arg0: f32, %arg1: f32) -> f32 {\n    %0 = arith.minimumf %arg0, %arg1 : f32\n    return %0 : f32\n  }\n  func.func @fastmath(%arg0: f32, %arg1: f32, %arg2: i32) {\n    return\n  }\n  func.func @ops_supporting_fastmath(%arg0: f32, %arg1: f32, %arg2: i32) {\n    return\n  }\n  func.func @ops_supporting_overflow(%arg0: i64, %arg1: i64) {\n    return\n  }\n  func.func @ops_supporting_exact(%arg0: i32, %arg1: i32) {\n    return\n  }\n  func.func @ops_supporting_nneg(%arg0: i32) {\n    return\n  }\n  func.func @ops_nneg_not_set(%arg0: i32) {\n    return\n  }\n  func.func @memref_bitcast(%arg0: memref<?xi16>) -> memref<?xbf16> {\n    %0 = arith.bitcast %arg0 : memref<?xi16> to memref<?xbf16>\n    return %0 : memref<?xbf16>\n  }\n  func.func @unsupported_fp_type(%arg0: f4E2M1FN, %arg1: vector<4xf4E2M1FN>, %arg2: vector<8x4xf4E2M1FN>, %arg3: f4E2M1FN, %arg4: i1) {\n    return\n  }\n  func.func @supported_fp_type(%arg0: f32, %arg1: vector<4xf32>, %arg2: vector<4x8xf32>, %arg3: f32) {\n    return\n  }\n}\n\n",
      "stderr": "",
      "stdout_path": "outputs\\discovery_mlir23_mainseed\\artifacts\\conversion_arithtollvm_arith_to_llvm_mlir__canonicalize_cse_sccp.stdout.mlir",
      "stderr_path": "outputs\\discovery_mlir23_mainseed\\artifacts\\conversion_arithtollvm_arith_to_llvm_mlir__canonicalize_cse_sccp.stderr.txt",
      "category": "success"
    },
    {
      "seed": "seeds\\real_official_main23\\conversion_arithtollvm_arith_to_llvm_mlir.mlir",
      "pipeline": "symbol_dce_inliner_canonicalize",
      "command": "C:\\Users\\lenovo\\.cache\\codex-runtimes\\codex-primary-runtime\\dependencies\\python\\python.exe scripts\\ssh_mlir_opt.py --symbol-dce --inline --canonicalize --cse -o - < seeds\\real_official_main23\\conversion_arithtollvm_arith_to_llvm_mlir.mlir",
      "return_code": 0,
      "timed_out": false,
      "elapsed_ms": 579,
      "stdout": "module {\n  func.func @vector_ops(%arg0: vector<4xf32>, %arg1: vector<4xi1>, %arg2: vector<4xi64>, %arg3: vector<4xi64>) -> vector<4xf32> {\n    %cst = arith.constant dense<4.200000e+01> : vector<4xf32>\n    %0 = arith.addf %arg0, %cst : vector<4xf32>\n    return %0 : vector<4xf32>\n  }\n  func.func @ops(%arg0: f32, %arg1: f32, %arg2: i32, %arg3: i32, %arg4: f64) -> (f32, i32) {\n    %0 = arith.subf %arg0, %arg1 : f32\n    %1 = arith.divui %arg2, %arg3 : i32\n    return %0, %1 : f32, i32\n  }\n  func.func @index_cast(%arg0: index, %arg1: i1) {\n    return\n  }\n  func.func @vector_index_cast(%arg0: vector<2xindex>, %arg1: vector<2xi1>) {\n    return\n  }\n  func.func @index_castui(%arg0: index, %arg1: i1) {\n    return\n  }\n  func.func @vector_index_castui(%arg0: vector<2xindex>, %arg1: vector<2xi1>) {\n    return\n  }\n  func.func @index_castui_nneg(%arg0: i1) {\n    return\n  }\n  func.func @index_castui_nneg_not_set(%arg0: i1) {\n    return\n  }\n  func.func @memref_index_cast(%arg0: memref<3xi32>) -> memref<3xindex> {\n    %0 = arith.index_cast %arg0 : memref<3xi32> to memref<3xindex>\n    return %0 : memref<3xindex>\n  }\n  func.func @memref_index_castui(%arg0: memref<3xi32>) -> memref<3xindex> {\n    %0 = arith.index_castui %arg0 : memref<3xi32> to memref<3xindex>\n    return %0 : memref<3xindex>\n  }\n  func.func @sitofp(%arg0: i32, %arg1: i64) {\n    return\n  }\n  func.func @sitofp_vector(%arg0: vector<2xi16>, %arg1: vector<2xi32>, %arg2: vector<2xi64>) {\n    return\n  }\n  func.func @uitofp(%arg0: i32, %arg1: i64) {\n    return\n  }\n  func.func @fpext(%arg0: f16, %arg1: f32) {\n    return\n  }\n  func.func @fpext_vector(%arg0: vector<2xf16>, %arg1: vector<2xf32>) {\n    return\n  }\n  func.func @fptosi(%arg0: f32, %arg1: f64) {\n    return\n  }\n  func.func @fptosi_vector(%arg0: vector<2xf16>, %arg1: vector<2xf32>, %arg2: vector<2xf64>) {\n    return\n  }\n  func.func @fptoui(%arg0: f32, %arg1: f64) {\n    return\n  }\n  func.func @fptoui_vector(%arg0: vector<2xf16>, %arg1: vector<2xf32>, %arg2: vector<2xf64>) {\n    return\n  }\n  func.func @uitofp_vector(%arg0: vector<2xi16>, %arg1: vector<2xi32>, %arg2: vector<2xi64>) {\n    return\n  }\n  func.func @fptrunc(%arg0: f32, %arg1: f64) {\n    return\n  }\n  func.func @fptrunc_vector(%arg0: vector<2xf32>, %arg1: vector<2xf64>) {\n    return\n  }\n  func.func @experimental_constrained_fptrunc(%arg0: f64) {\n    return\n  }\n  func.func @experimental_constrained_addf(%arg0: f64, %arg1: f64) {\n    return\n  }\n  func.func @experimental_constrained_subf(%arg0: f64, %arg1: f64) {\n    return\n  }\n  func.func @experimental_constrained_mulf(%arg0: f64, %arg1: f64) {\n    return\n  }\n  func.func @experimental_constrained_divf(%arg0: f64, %arg1: f64) {\n    return\n  }\n  func.func @constrained_addf_with_fastmath(%arg0: f64, %arg1: f64) {\n    return\n  }\n  func.func @convertf_f16_to_bf16(%arg0: f16) -> bf16 {\n    %0 = arith.convertf %arg0 : f16 to bf16\n    return %0 : bf16\n  }\n  func.func @convertf_bf16_to_f16(%arg0: bf16) -> f16 {\n    %0 = arith.convertf %arg0 : bf16 to f16\n    return %0 : f16\n  }\n  func.func @convertf_vector(%arg0: vector<2xf16>) -> vector<2xbf16> {\n    %0 = arith.convertf %arg0 : vector<2xf16> to vector<2xbf16>\n    return %0 : vector<2xbf16>\n  }\n  func.func @integer_extension_and_truncation(%arg0: i3) {\n    return\n  }\n  func.func @integer_cast_0d_vector(%arg0: vector<i3>) {\n    return\n  }\n  func.func @fcmp(%arg0: f32, %arg1: f32) {\n    return\n  }\n  func.func @index_vector(%arg0: vector<4xindex>) {\n    return\n  }\n  func.func @bitcast_1d(%arg0: vector<2xf32>) {\n    return\n  }\n  func.func @addui_extended_scalar(%arg0: i32, %arg1: i32) -> (i32, i1) {\n    %sum, %overflow = arith.addui_extended %arg0, %arg1 : i32, i1\n    return %sum, %overflow : i32, i1\n  }\n  func.func @addui_extended_vector1d(%arg0: vector<3xi16>, %arg1: vector<3xi16>) -> (vector<3xi16>, vector<3xi1>) {\n    %sum, %overflow = arith.addui_extended %arg0, %arg1 : vector<3xi16>, vector<3xi1>\n    return %sum, %overflow : vector<3xi16>, vector<3xi1>\n  }\n  func.func @mulsi_extended_scalar(%arg0: i32, %arg1: i32) -> (i32, i32) {\n    %low, %high = arith.mulsi_extended %arg0, %arg1 : i32\n    return %low, %high : i32, i32\n  }\n  func.func @mulsi_extended_vector1d(%arg0: vector<3xi64>, %arg1: vector<3xi64>) -> (vector<3xi64>, vector<3xi64>) {\n    %low, %high = arith.mulsi_extended %arg0, %arg1 : vector<3xi64>\n    return %low, %high : vector<3xi64>, vector<3xi64>\n  }\n  func.func @mului_extended_scalar(%arg0: i32, %arg1: i32) -> (i32, i32) {\n    %low, %high = arith.mului_extended %arg0, %arg1 : i32\n    return %low, %high : i32, i32\n  }\n  func.func @mului_extended_vector1d(%arg0: vector<3xi64>, %arg1: vector<3xi64>) -> (vector<3xi64>, vector<3xi64>) {\n    %low, %high = arith.mului_extended %arg0, %arg1 : vector<3xi64>\n    return %low, %high : vector<3xi64>, vector<3xi64>\n  }\n  func.func @cmpf_2dvector(%arg0: vector<4x3xf32>, %arg1: vector<4x3xf32>) {\n    return\n  }\n  func.func @cmpi_0dvector(%arg0: vector<i32>, %arg1: vector<i32>) {\n    return\n  }\n  func.func @cmpi_2dvector(%arg0: vector<4x3xi32>, %arg1: vector<4x3xi32>) {\n    return\n  }\n  func.func @select(%arg0: i1, %arg1: i32, %arg2: i32) -> i32 {\n    %0 = arith.select %arg0, %arg1, %arg2 : i32\n    return %0 : i32\n  }\n  func.func @select_complex(%arg0: i1, %arg1: complex<f32>, %arg2: complex<f32>) -> complex<f32> {\n    %0 = arith.select %arg0, %arg1, %arg2 : complex<f32>\n    return %0 : complex<f32>\n  }\n  func.func @ceildivsi(%arg0: i64, %arg1: i64) -> i64 {\n    %0 = arith.ceildivsi %arg0, %arg1 : i64\n    return %0 : i64\n  }\n  func.func @ceildivui(%arg0: i32) -> i32 {\n    %0 = arith.ceildivui %arg0, %arg0 : i32\n    return %0 : i32\n  }\n  func.func @floordivsi(%arg0: i32, %arg1: i32) -> i32 {\n    %0 = arith.floordivsi %arg0, %arg1 : i32\n    return %0 : i32\n  }\n  func.func @minmaxi(%arg0: i32, %arg1: i32) -> i32 {\n    %0 = arith.minsi %arg0, %arg1 : i32\n    return %0 : i32\n  }\n  func.func @minmaxf(%arg0: f32, %arg1: f32) -> f32 {\n    %0 = arith.minimumf %arg0, %arg1 : f32\n    return %0 : f32\n  }\n  func.func @fastmath(%arg0: f32, %arg1: f32, %arg2: i32) {\n    return\n  }\n  func.func @ops_supporting_fastmath(%arg0: f32, %arg1: f32, %arg2: i32) {\n    return\n  }\n  func.func @ops_supporting_overflow(%arg0: i64, %arg1: i64) {\n    return\n  }\n  func.func @ops_supporting_exact(%arg0: i32, %arg1: i32) {\n    return\n  }\n  func.func @ops_supporting_nneg(%arg0: i32) {\n    return\n  }\n  func.func @ops_nneg_not_set(%arg0: i32) {\n    return\n  }\n  func.func @memref_bitcast(%arg0: memref<?xi16>) -> memref<?xbf16> {\n    %0 = arith.bitcast %arg0 : memref<?xi16> to memref<?xbf16>\n    return %0 : memref<?xbf16>\n  }\n  func.func @unsupported_fp_type(%arg0: f4E2M1FN, %arg1: vector<4xf4E2M1FN>, %arg2: vector<8x4xf4E2M1FN>, %arg3: f4E2M1FN, %arg4: i1) {\n    return\n  }\n  func.func @supported_fp_type(%arg0: f32, %arg1: vector<4xf32>, %arg2: vector<4x8xf32>, %arg3: f32) {\n    return\n  }\n}\n\n",
      "stderr": "",
      "stdout_path": "outputs\\discovery_mlir23_mainseed\\artifacts\\conversion_arithtollvm_arith_to_llvm_mlir__symbol_dce_inliner_canonicalize.stdout.mlir",
      "stderr_path": "outputs\\discovery_mlir23_mainseed\\artifacts\\conversion_arithtollvm_arith_to_llvm_mlir__symbol_dce_inliner_canonicalize.stderr.txt",
      "category": "success"
    },
    {
      "seed": "seeds\\real_official_main23\\conversion_arithtollvm_arith_to_llvm_mlir.mlir",
      "pipeline": "affine_lowering_stress",
      "command": "C:\\Users\\lenovo\\.cache\\codex-runtimes\\codex-primary-runtime\\dependencies\\python\\python.exe scripts\\ssh_mlir_opt.py --lower-affine --canonicalize --cse -o - < seeds\\real_official_main23\\conversion_arithtollvm_arith_to_llvm_mlir.mlir",
      "return_code": 0,
      "timed_out": false,
      "elapsed_ms": 582,
      "stdout": "module {\n  func.func @vector_ops(%arg0: vector<4xf32>, %arg1: vector<4xi1>, %arg2: vector<4xi64>, %arg3: vector<4xi64>) -> vector<4xf32> {\n    %cst = arith.constant dense<4.200000e+01> : vector<4xf32>\n    %0 = arith.addf %arg0, %cst : vector<4xf32>\n    return %0 : vector<4xf32>\n  }\n  func.func @ops(%arg0: f32, %arg1: f32, %arg2: i32, %arg3: i32, %arg4: f64) -> (f32, i32) {\n    %0 = arith.subf %arg0, %arg1 : f32\n    %1 = arith.divui %arg2, %arg3 : i32\n    return %0, %1 : f32, i32\n  }\n  func.func @index_cast(%arg0: index, %arg1: i1) {\n    return\n  }\n  func.func @vector_index_cast(%arg0: vector<2xindex>, %arg1: vector<2xi1>) {\n    return\n  }\n  func.func @index_castui(%arg0: index, %arg1: i1) {\n    return\n  }\n  func.func @vector_index_castui(%arg0: vector<2xindex>, %arg1: vector<2xi1>) {\n    return\n  }\n  func.func @index_castui_nneg(%arg0: i1) {\n    return\n  }\n  func.func @index_castui_nneg_not_set(%arg0: i1) {\n    return\n  }\n  func.func @memref_index_cast(%arg0: memref<3xi32>) -> memref<3xindex> {\n    %0 = arith.index_cast %arg0 : memref<3xi32> to memref<3xindex>\n    return %0 : memref<3xindex>\n  }\n  func.func @memref_index_castui(%arg0: memref<3xi32>) -> memref<3xindex> {\n    %0 = arith.index_castui %arg0 : memref<3xi32> to memref<3xindex>\n    return %0 : memref<3xindex>\n  }\n  func.func @sitofp(%arg0: i32, %arg1: i64) {\n    return\n  }\n  func.func @sitofp_vector(%arg0: vector<2xi16>, %arg1: vector<2xi32>, %arg2: vector<2xi64>) {\n    return\n  }\n  func.func @uitofp(%arg0: i32, %arg1: i64) {\n    return\n  }\n  func.func @fpext(%arg0: f16, %arg1: f32) {\n    return\n  }\n  func.func @fpext_vector(%arg0: vector<2xf16>, %arg1: vector<2xf32>) {\n    return\n  }\n  func.func @fptosi(%arg0: f32, %arg1: f64) {\n    return\n  }\n  func.func @fptosi_vector(%arg0: vector<2xf16>, %arg1: vector<2xf32>, %arg2: vector<2xf64>) {\n    return\n  }\n  func.func @fptoui(%arg0: f32, %arg1: f64) {\n    return\n  }\n  func.func @fptoui_vector(%arg0: vector<2xf16>, %arg1: vector<2xf32>, %arg2: vector<2xf64>) {\n    return\n  }\n  func.func @uitofp_vector(%arg0: vector<2xi16>, %arg1: vector<2xi32>, %arg2: vector<2xi64>) {\n    return\n  }\n  func.func @fptrunc(%arg0: f32, %arg1: f64) {\n    return\n  }\n  func.func @fptrunc_vector(%arg0: vector<2xf32>, %arg1: vector<2xf64>) {\n    return\n  }\n  func.func @experimental_constrained_fptrunc(%arg0: f64) {\n    return\n  }\n  func.func @experimental_constrained_addf(%arg0: f64, %arg1: f64) {\n    return\n  }\n  func.func @experimental_constrained_subf(%arg0: f64, %arg1: f64) {\n    return\n  }\n  func.func @experimental_constrained_mulf(%arg0: f64, %arg1: f64) {\n    return\n  }\n  func.func @experimental_constrained_divf(%arg0: f64, %arg1: f64) {\n    return\n  }\n  func.func @constrained_addf_with_fastmath(%arg0: f64, %arg1: f64) {\n    return\n  }\n  func.func @convertf_f16_to_bf16(%arg0: f16) -> bf16 {\n    %0 = arith.convertf %arg0 : f16 to bf16\n    return %0 : bf16\n  }\n  func.func @convertf_bf16_to_f16(%arg0: bf16) -> f16 {\n    %0 = arith.convertf %arg0 : bf16 to f16\n    return %0 : f16\n  }\n  func.func @convertf_vector(%arg0: vector<2xf16>) -> vector<2xbf16> {\n    %0 = arith.convertf %arg0 : vector<2xf16> to vector<2xbf16>\n    return %0 : vector<2xbf16>\n  }\n  func.func @integer_extension_and_truncation(%arg0: i3) {\n    return\n  }\n  func.func @integer_cast_0d_vector(%arg0: vector<i3>) {\n    return\n  }\n  func.func @fcmp(%arg0: f32, %arg1: f32) {\n    return\n  }\n  func.func @index_vector(%arg0: vector<4xindex>) {\n    return\n  }\n  func.func @bitcast_1d(%arg0: vector<2xf32>) {\n    return\n  }\n  func.func @addui_extended_scalar(%arg0: i32, %arg1: i32) -> (i32, i1) {\n    %sum, %overflow = arith.addui_extended %arg0, %arg1 : i32, i1\n    return %sum, %overflow : i32, i1\n  }\n  func.func @addui_extended_vector1d(%arg0: vector<3xi16>, %arg1: vector<3xi16>) -> (vector<3xi16>, vector<3xi1>) {\n    %sum, %overflow = arith.addui_extended %arg0, %arg1 : vector<3xi16>, vector<3xi1>\n    return %sum, %overflow : vector<3xi16>, vector<3xi1>\n  }\n  func.func @mulsi_extended_scalar(%arg0: i32, %arg1: i32) -> (i32, i32) {\n    %low, %high = arith.mulsi_extended %arg0, %arg1 : i32\n    return %low, %high : i32, i32\n  }\n  func.func @mulsi_extended_vector1d(%arg0: vector<3xi64>, %arg1: vector<3xi64>) -> (vector<3xi64>, vector<3xi64>) {\n    %low, %high = arith.mulsi_extended %arg0, %arg1 : vector<3xi64>\n    return %low, %high : vector<3xi64>, vector<3xi64>\n  }\n  func.func @mului_extended_scalar(%arg0: i32, %arg1: i32) -> (i32, i32) {\n    %low, %high = arith.mului_extended %arg0, %arg1 : i32\n    return %low, %high : i32, i32\n  }\n  func.func @mului_extended_vector1d(%arg0: vector<3xi64>, %arg1: vector<3xi64>) -> (vector<3xi64>, vector<3xi64>) {\n    %low, %high = arith.mului_extended %arg0, %arg1 : vector<3xi64>\n    return %low, %high : vector<3xi64>, vector<3xi64>\n  }\n  func.func @cmpf_2dvector(%arg0: vector<4x3xf32>, %arg1: vector<4x3xf32>) {\n    return\n  }\n  func.func @cmpi_0dvector(%arg0: vector<i32>, %arg1: vector<i32>) {\n    return\n  }\n  func.func @cmpi_2dvector(%arg0: vector<4x3xi32>, %arg1: vector<4x3xi32>) {\n    return\n  }\n  func.func @select(%arg0: i1, %arg1: i32, %arg2: i32) -> i32 {\n    %0 = arith.select %arg0, %arg1, %arg2 : i32\n    return %0 : i32\n  }\n  func.func @select_complex(%arg0: i1, %arg1: complex<f32>, %arg2: complex<f32>) -> complex<f32> {\n    %0 = arith.select %arg0, %arg1, %arg2 : complex<f32>\n    return %0 : complex<f32>\n  }\n  func.func @ceildivsi(%arg0: i64, %arg1: i64) -> i64 {\n    %0 = arith.ceildivsi %arg0, %arg1 : i64\n    return %0 : i64\n  }\n  func.func @ceildivui(%arg0: i32) -> i32 {\n    %0 = arith.ceildivui %arg0, %arg0 : i32\n    return %0 : i32\n  }\n  func.func @floordivsi(%arg0: i32, %arg1: i32) -> i32 {\n    %0 = arith.floordivsi %arg0, %arg1 : i32\n    return %0 : i32\n  }\n  func.func @minmaxi(%arg0: i32, %arg1: i32) -> i32 {\n    %0 = arith.minsi %arg0, %arg1 : i32\n    return %0 : i32\n  }\n  func.func @minmaxf(%arg0: f32, %arg1: f32) -> f32 {\n    %0 = arith.minimumf %arg0, %arg1 : f32\n    return %0 : f32\n  }\n  func.func @fastmath(%arg0: f32, %arg1: f32, %arg2: i32) {\n    return\n  }\n  func.func @ops_supporting_fastmath(%arg0: f32, %arg1: f32, %arg2: i32) {\n    return\n  }\n  func.func @ops_supporting_overflow(%arg0: i64, %arg1: i64) {\n    return\n  }\n  func.func @ops_supporting_exact(%arg0: i32, %arg1: i32) {\n    return\n  }\n  func.func @ops_supporting_nneg(%arg0: i32) {\n    return\n  }\n  func.func @ops_nneg_not_set(%arg0: i32) {\n    return\n  }\n  func.func @memref_bitcast(%arg0: memref<?xi16>) -> memref<?xbf16> {\n    %0 = arith.bitcast %arg0 : memref<?xi16> to memref<?xbf16>\n    return %0 : memref<?xbf16>\n  }\n  func.func @unsupported_fp_type(%arg0: f4E2M1FN, %arg1: vector<4xf4E2M1FN>, %arg2: vector<8x4xf4E2M1FN>, %arg3: f4E2M1FN, %arg4: i1) {\n    return\n  }\n  func.func @supported_fp_type(%arg0: f32, %arg1: vector<4xf32>, %arg2: vector<4x8xf32>, %arg3: f32) {\n    return\n  }\n}\n\n",
      "stderr": "",
      "stdout_path": "outputs\\discovery_mlir23_mainseed\\artifacts\\conversion_arithtollvm_arith_to_llvm_mlir__affine_lowering_stress.stdout.mlir",
      "stderr_path": "outputs\\discovery_mlir23_mainseed\\artifacts\\conversion_arithtollvm_arith_to_llvm_mlir__affine_lowering_stress.stderr.txt",
      "category": "success"
    },
    {
      "seed": "seeds\\real_official_main23\\conversion_arithtollvm_arith_to_llvm_mlir.mlir",
      "pipeline": "scf_to_cf_stress",
      "command": "C:\\Users\\lenovo\\.cache\\codex-runtimes\\codex-primary-runtime\\dependencies\\python\\python.exe scripts\\ssh_mlir_opt.py --convert-scf-to-cf --canonicalize --cse -o - < seeds\\real_official_main23\\conversion_arithtollvm_arith_to_llvm_mlir.mlir",
      "return_code": 0,
      "timed_out": false,
      "elapsed_ms": 562,
      "stdout": "module {\n  func.func @vector_ops(%arg0: vector<4xf32>, %arg1: vector<4xi1>, %arg2: vector<4xi64>, %arg3: vector<4xi64>) -> vector<4xf32> {\n    %cst = arith.constant dense<4.200000e+01> : vector<4xf32>\n    %0 = arith.addf %arg0, %cst : vector<4xf32>\n    return %0 : vector<4xf32>\n  }\n  func.func @ops(%arg0: f32, %arg1: f32, %arg2: i32, %arg3: i32, %arg4: f64) -> (f32, i32) {\n    %0 = arith.subf %arg0, %arg1 : f32\n    %1 = arith.divui %arg2, %arg3 : i32\n    return %0, %1 : f32, i32\n  }\n  func.func @index_cast(%arg0: index, %arg1: i1) {\n    return\n  }\n  func.func @vector_index_cast(%arg0: vector<2xindex>, %arg1: vector<2xi1>) {\n    return\n  }\n  func.func @index_castui(%arg0: index, %arg1: i1) {\n    return\n  }\n  func.func @vector_index_castui(%arg0: vector<2xindex>, %arg1: vector<2xi1>) {\n    return\n  }\n  func.func @index_castui_nneg(%arg0: i1) {\n    return\n  }\n  func.func @index_castui_nneg_not_set(%arg0: i1) {\n    return\n  }\n  func.func @memref_index_cast(%arg0: memref<3xi32>) -> memref<3xindex> {\n    %0 = arith.index_cast %arg0 : memref<3xi32> to memref<3xindex>\n    return %0 : memref<3xindex>\n  }\n  func.func @memref_index_castui(%arg0: memref<3xi32>) -> memref<3xindex> {\n    %0 = arith.index_castui %arg0 : memref<3xi32> to memref<3xindex>\n    return %0 : memref<3xindex>\n  }\n  func.func @sitofp(%arg0: i32, %arg1: i64) {\n    return\n  }\n  func.func @sitofp_vector(%arg0: vector<2xi16>, %arg1: vector<2xi32>, %arg2: vector<2xi64>) {\n    return\n  }\n  func.func @uitofp(%arg0: i32, %arg1: i64) {\n    return\n  }\n  func.func @fpext(%arg0: f16, %arg1: f32) {\n    return\n  }\n  func.func @fpext_vector(%arg0: vector<2xf16>, %arg1: vector<2xf32>) {\n    return\n  }\n  func.func @fptosi(%arg0: f32, %arg1: f64) {\n    return\n  }\n  func.func @fptosi_vector(%arg0: vector<2xf16>, %arg1: vector<2xf32>, %arg2: vector<2xf64>) {\n    return\n  }\n  func.func @fptoui(%arg0: f32, %arg1: f64) {\n    return\n  }\n  func.func @fptoui_vector(%arg0: vector<2xf16>, %arg1: vector<2xf32>, %arg2: vector<2xf64>) {\n    return\n  }\n  func.func @uitofp_vector(%arg0: vector<2xi16>, %arg1: vector<2xi32>, %arg2: vector<2xi64>) {\n    return\n  }\n  func.func @fptrunc(%arg0: f32, %arg1: f64) {\n    return\n  }\n  func.func @fptrunc_vector(%arg0: vector<2xf32>, %arg1: vector<2xf64>) {\n    return\n  }\n  func.func @experimental_constrained_fptrunc(%arg0: f64) {\n    return\n  }\n  func.func @experimental_constrained_addf(%arg0: f64, %arg1: f64) {\n    return\n  }\n  func.func @experimental_constrained_subf(%arg0: f64, %arg1: f64) {\n    return\n  }\n  func.func @experimental_constrained_mulf(%arg0: f64, %arg1: f64) {\n    return\n  }\n  func.func @experimental_constrained_divf(%arg0: f64, %arg1: f64) {\n    return\n  }\n  func.func @constrained_addf_with_fastmath(%arg0: f64, %arg1: f64) {\n    return\n  }\n  func.func @convertf_f16_to_bf16(%arg0: f16) -> bf16 {\n    %0 = arith.convertf %arg0 : f16 to bf16\n    return %0 : bf16\n  }\n  func.func @convertf_bf16_to_f16(%arg0: bf16) -> f16 {\n    %0 = arith.convertf %arg0 : bf16 to f16\n    return %0 : f16\n  }\n  func.func @convertf_vector(%arg0: vector<2xf16>) -> vector<2xbf16> {\n    %0 = arith.convertf %arg0 : vector<2xf16> to vector<2xbf16>\n    return %0 : vector<2xbf16>\n  }\n  func.func @integer_extension_and_truncation(%arg0: i3) {\n    return\n  }\n  func.func @integer_cast_0d_vector(%arg0: vector<i3>) {\n    return\n  }\n  func.func @fcmp(%arg0: f32, %arg1: f32) {\n    return\n  }\n  func.func @index_vector(%arg0: vector<4xindex>) {\n    return\n  }\n  func.func @bitcast_1d(%arg0: vector<2xf32>) {\n    return\n  }\n  func.func @addui_extended_scalar(%arg0: i32, %arg1: i32) -> (i32, i1) {\n    %sum, %overflow = arith.addui_extended %arg0, %arg1 : i32, i1\n    return %sum, %overflow : i32, i1\n  }\n  func.func @addui_extended_vector1d(%arg0: vector<3xi16>, %arg1: vector<3xi16>) -> (vector<3xi16>, vector<3xi1>) {\n    %sum, %overflow = arith.addui_extended %arg0, %arg1 : vector<3xi16>, vector<3xi1>\n    return %sum, %overflow : vector<3xi16>, vector<3xi1>\n  }\n  func.func @mulsi_extended_scalar(%arg0: i32, %arg1: i32) -> (i32, i32) {\n    %low, %high = arith.mulsi_extended %arg0, %arg1 : i32\n    return %low, %high : i32, i32\n  }\n  func.func @mulsi_extended_vector1d(%arg0: vector<3xi64>, %arg1: vector<3xi64>) -> (vector<3xi64>, vector<3xi64>) {\n    %low, %high = arith.mulsi_extended %arg0, %arg1 : vector<3xi64>\n    return %low, %high : vector<3xi64>, vector<3xi64>\n  }\n  func.func @mului_extended_scalar(%arg0: i32, %arg1: i32) -> (i32, i32) {\n    %low, %high = arith.mului_extended %arg0, %arg1 : i32\n    return %low, %high : i32, i32\n  }\n  func.func @mului_extended_vector1d(%arg0: vector<3xi64>, %arg1: vector<3xi64>) -> (vector<3xi64>, vector<3xi64>) {\n    %low, %high = arith.mului_extended %arg0, %arg1 : vector<3xi64>\n    return %low, %high : vector<3xi64>, vector<3xi64>\n  }\n  func.func @cmpf_2dvector(%arg0: vector<4x3xf32>, %arg1: vector<4x3xf32>) {\n    return\n  }\n  func.func @cmpi_0dvector(%arg0: vector<i32>, %arg1: vector<i32>) {\n    return\n  }\n  func.func @cmpi_2dvector(%arg0: vector<4x3xi32>, %arg1: vector<4x3xi32>) {\n    return\n  }\n  func.func @select(%arg0: i1, %arg1: i32, %arg2: i32) -> i32 {\n    %0 = arith.select %arg0, %arg1, %arg2 : i32\n    return %0 : i32\n  }\n  func.func @select_complex(%arg0: i1, %arg1: complex<f32>, %arg2: complex<f32>) -> complex<f32> {\n    %0 = arith.select %arg0, %arg1, %arg2 : complex<f32>\n    return %0 : complex<f32>\n  }\n  func.func @ceildivsi(%arg0: i64, %arg1: i64) -> i64 {\n    %0 = arith.ceildivsi %arg0, %arg1 : i64\n    return %0 : i64\n  }\n  func.func @ceildivui(%arg0: i32) -> i32 {\n    %0 = arith.ceildivui %arg0, %arg0 : i32\n    return %0 : i32\n  }\n  func.func @floordivsi(%arg0: i32, %arg1: i32) -> i32 {\n    %0 = arith.floordivsi %arg0, %arg1 : i32\n    return %0 : i32\n  }\n  func.func @minmaxi(%arg0: i32, %arg1: i32) -> i32 {\n    %0 = arith.minsi %arg0, %arg1 : i32\n    return %0 : i32\n  }\n  func.func @minmaxf(%arg0: f32, %arg1: f32) -> f32 {\n    %0 = arith.minimumf %arg0, %arg1 : f32\n    return %0 : f32\n  }\n  func.func @fastmath(%arg0: f32, %arg1: f32, %arg2: i32) {\n    return\n  }\n  func.func @ops_supporting_fastmath(%arg0: f32, %arg1: f32, %arg2: i32) {\n    return\n  }\n  func.func @ops_supporting_overflow(%arg0: i64, %arg1: i64) {\n    return\n  }\n  func.func @ops_supporting_exact(%arg0: i32, %arg1: i32) {\n    return\n  }\n  func.func @ops_supporting_nneg(%arg0: i32) {\n    return\n  }\n  func.func @ops_nneg_not_set(%arg0: i32) {\n    return\n  }\n  func.func @memref_bitcast(%arg0: memref<?xi16>) -> memref<?xbf16> {\n    %0 = arith.bitcast %arg0 : memref<?xi16> to memref<?xbf16>\n    return %0 : memref<?xbf16>\n  }\n  func.func @unsupported_fp_type(%arg0: f4E2M1FN, %arg1: vector<4xf4E2M1FN>, %arg2: vector<8x4xf4E2M1FN>, %arg3: f4E2M1FN, %arg4: i1) {\n    return\n  }\n  func.func @supported_fp_type(%arg0: f32, %arg1: vector<4xf32>, %arg2: vector<4x8xf32>, %arg3: f32) {\n    return\n  }\n}\n\n",
      "stderr": "",
      "stdout_path": "outputs\\discovery_mlir23_mainseed\\artifacts\\conversion_arithtollvm_arith_to_llvm_mlir__scf_to_cf_stress.stdout.mlir",
      "stderr_path": "outputs\\discovery_mlir23_mainseed\\artifacts\\conversion_arithtollvm_arith_to_llvm_mlir__scf_to_cf_stress.stderr.txt",
      "category": "success"
    },
    {
      "seed": "seeds\\real_official_main23\\conversion_arithtollvm_arith_to_llvm_mlir.mlir",
      "pipeline": "vector_lowering_stress",
      "command": "C:\\Users\\lenovo\\.cache\\codex-runtimes\\codex-primary-runtime\\dependencies\\python\\python.exe scripts\\ssh_mlir_opt.py --convert-vector-to-scf --convert-vector-to-llvm --canonicalize -o - < seeds\\real_official_main23\\conversion_arithtollvm_arith_to_llvm_mlir.mlir",
      "return_code": 0,
      "timed_out": false,
      "elapsed_ms": 612,
      "stdout": "module {\n  func.func @vector_ops(%arg0: vector<4xf32>, %arg1: vector<4xi1>, %arg2: vector<4xi64>, %arg3: vector<4xi64>) -> vector<4xf32> {\n    %cst = arith.constant dense<4.200000e+01> : vector<4xf32>\n    %0 = arith.addf %arg0, %cst : vector<4xf32>\n    return %0 : vector<4xf32>\n  }\n  func.func @ops(%arg0: f32, %arg1: f32, %arg2: i32, %arg3: i32, %arg4: f64) -> (f32, i32) {\n    %0 = arith.subf %arg0, %arg1 : f32\n    %1 = arith.divui %arg2, %arg3 : i32\n    return %0, %1 : f32, i32\n  }\n  func.func @index_cast(%arg0: index, %arg1: i1) {\n    return\n  }\n  func.func @vector_index_cast(%arg0: vector<2xindex>, %arg1: vector<2xi1>) {\n    return\n  }\n  func.func @index_castui(%arg0: index, %arg1: i1) {\n    return\n  }\n  func.func @vector_index_castui(%arg0: vector<2xindex>, %arg1: vector<2xi1>) {\n    return\n  }\n  func.func @index_castui_nneg(%arg0: i1) {\n    return\n  }\n  func.func @index_castui_nneg_not_set(%arg0: i1) {\n    return\n  }\n  func.func @memref_index_cast(%arg0: memref<3xi32>) -> memref<3xindex> {\n    %0 = arith.index_cast %arg0 : memref<3xi32> to memref<3xindex>\n    return %0 : memref<3xindex>\n  }\n  func.func @memref_index_castui(%arg0: memref<3xi32>) -> memref<3xindex> {\n    %0 = arith.index_castui %arg0 : memref<3xi32> to memref<3xindex>\n    return %0 : memref<3xindex>\n  }\n  func.func @sitofp(%arg0: i32, %arg1: i64) {\n    return\n  }\n  func.func @sitofp_vector(%arg0: vector<2xi16>, %arg1: vector<2xi32>, %arg2: vector<2xi64>) {\n    return\n  }\n  func.func @uitofp(%arg0: i32, %arg1: i64) {\n    return\n  }\n  func.func @fpext(%arg0: f16, %arg1: f32) {\n    return\n  }\n  func.func @fpext_vector(%arg0: vector<2xf16>, %arg1: vector<2xf32>) {\n    return\n  }\n  func.func @fptosi(%arg0: f32, %arg1: f64) {\n    return\n  }\n  func.func @fptosi_vector(%arg0: vector<2xf16>, %arg1: vector<2xf32>, %arg2: vector<2xf64>) {\n    return\n  }\n  func.func @fptoui(%arg0: f32, %arg1: f64) {\n    return\n  }\n  func.func @fptoui_vector(%arg0: vector<2xf16>, %arg1: vector<2xf32>, %arg2: vector<2xf64>) {\n    return\n  }\n  func.func @uitofp_vector(%arg0: vector<2xi16>, %arg1: vector<2xi32>, %arg2: vector<2xi64>) {\n    return\n  }\n  func.func @fptrunc(%arg0: f32, %arg1: f64) {\n    return\n  }\n  func.func @fptrunc_vector(%arg0: vector<2xf32>, %arg1: vector<2xf64>) {\n    return\n  }\n  func.func @experimental_constrained_fptrunc(%arg0: f64) {\n    return\n  }\n  func.func @experimental_constrained_addf(%arg0: f64, %arg1: f64) {\n    return\n  }\n  func.func @experimental_constrained_subf(%arg0: f64, %arg1: f64) {\n    return\n  }\n  func.func @experimental_constrained_mulf(%arg0: f64, %arg1: f64) {\n    return\n  }\n  func.func @experimental_constrained_divf(%arg0: f64, %arg1: f64) {\n    return\n  }\n  func.func @constrained_addf_with_fastmath(%arg0: f64, %arg1: f64) {\n    return\n  }\n  func.func @convertf_f16_to_bf16(%arg0: f16) -> bf16 {\n    %0 = arith.convertf %arg0 : f16 to bf16\n    return %0 : bf16\n  }\n  func.func @convertf_bf16_to_f16(%arg0: bf16) -> f16 {\n    %0 = arith.convertf %arg0 : bf16 to f16\n    return %0 : f16\n  }\n  func.func @convertf_vector(%arg0: vector<2xf16>) -> vector<2xbf16> {\n    %0 = arith.convertf %arg0 : vector<2xf16> to vector<2xbf16>\n    return %0 : vector<2xbf16>\n  }\n  func.func @integer_extension_and_truncation(%arg0: i3) {\n    return\n  }\n  func.func @integer_cast_0d_vector(%arg0: vector<i3>) {\n    return\n  }\n  func.func @fcmp(%arg0: f32, %arg1: f32) {\n    return\n  }\n  func.func @index_vector(%arg0: vector<4xindex>) {\n    return\n  }\n  func.func @bitcast_1d(%arg0: vector<2xf32>) {\n    return\n  }\n  func.func @addui_extended_scalar(%arg0: i32, %arg1: i32) -> (i32, i1) {\n    %sum, %overflow = arith.addui_extended %arg0, %arg1 : i32, i1\n    return %sum, %overflow : i32, i1\n  }\n  func.func @addui_extended_vector1d(%arg0: vector<3xi16>, %arg1: vector<3xi16>) -> (vector<3xi16>, vector<3xi1>) {\n    %sum, %overflow = arith.addui_extended %arg0, %arg1 : vector<3xi16>, vector<3xi1>\n    return %sum, %overflow : vector<3xi16>, vector<3xi1>\n  }\n  func.func @mulsi_extended_scalar(%arg0: i32, %arg1: i32) -> (i32, i32) {\n    %low, %high = arith.mulsi_extended %arg0, %arg1 : i32\n    return %low, %high : i32, i32\n  }\n  func.func @mulsi_extended_vector1d(%arg0: vector<3xi64>, %arg1: vector<3xi64>) -> (vector<3xi64>, vector<3xi64>) {\n    %low, %high = arith.mulsi_extended %arg0, %arg1 : vector<3xi64>\n    return %low, %high : vector<3xi64>, vector<3xi64>\n  }\n  func.func @mului_extended_scalar(%arg0: i32, %arg1: i32) -> (i32, i32) {\n    %low, %high = arith.mului_extended %arg0, %arg1 : i32\n    return %low, %high : i32, i32\n  }\n  func.func @mului_extended_vector1d(%arg0: vector<3xi64>, %arg1: vector<3xi64>) -> (vector<3xi64>, vector<3xi64>) {\n    %low, %high = arith.mului_extended %arg0, %arg1 : vector<3xi64>\n    return %low, %high : vector<3xi64>, vector<3xi64>\n  }\n  func.func @cmpf_2dvector(%arg0: vector<4x3xf32>, %arg1: vector<4x3xf32>) {\n    return\n  }\n  func.func @cmpi_0dvector(%arg0: vector<i32>, %arg1: vector<i32>) {\n    return\n  }\n  func.func @cmpi_2dvector(%arg0: vector<4x3xi32>, %arg1: vector<4x3xi32>) {\n    return\n  }\n  func.func @select(%arg0: i1, %arg1: i32, %arg2: i32) -> i32 {\n    %0 = arith.select %arg0, %arg1, %arg2 : i32\n    return %0 : i32\n  }\n  func.func @select_complex(%arg0: i1, %arg1: complex<f32>, %arg2: complex<f32>) -> complex<f32> {\n    %0 = arith.select %arg0, %arg1, %arg2 : complex<f32>\n    return %0 : complex<f32>\n  }\n  func.func @ceildivsi(%arg0: i64, %arg1: i64) -> i64 {\n    %0 = arith.ceildivsi %arg0, %arg1 : i64\n    return %0 : i64\n  }\n  func.func @ceildivui(%arg0: i32) -> i32 {\n    %0 = arith.ceildivui %arg0, %arg0 : i32\n    return %0 : i32\n  }\n  func.func @floordivsi(%arg0: i32, %arg1: i32) -> i32 {\n    %0 = arith.floordivsi %arg0, %arg1 : i32\n    return %0 : i32\n  }\n  func.func @minmaxi(%arg0: i32, %arg1: i32) -> i32 {\n    %0 = arith.minsi %arg0, %arg1 : i32\n    return %0 : i32\n  }\n  func.func @minmaxf(%arg0: f32, %arg1: f32) -> f32 {\n    %0 = arith.minimumf %arg0, %arg1 : f32\n    return %0 : f32\n  }\n  func.func @fastmath(%arg0: f32, %arg1: f32, %arg2: i32) {\n    return\n  }\n  func.func @ops_supporting_fastmath(%arg0: f32, %arg1: f32, %arg2: i32) {\n    return\n  }\n  func.func @ops_supporting_overflow(%arg0: i64, %arg1: i64) {\n    return\n  }\n  func.func @ops_supporting_exact(%arg0: i32, %arg1: i32) {\n    return\n  }\n  func.func @ops_supporting_nneg(%arg0: i32) {\n    return\n  }\n  func.func @ops_nneg_not_set(%arg0: i32) {\n    return\n  }\n  func.func @memref_bitcast(%arg0: memref<?xi16>) -> memref<?xbf16> {\n    %0 = arith.bitcast %arg0 : memref<?xi16> to memref<?xbf16>\n    return %0 : memref<?xbf16>\n  }\n  func.func @unsupported_fp_type(%arg0: f4E2M1FN, %arg1: vector<4xf4E2M1FN>, %arg2: vector<8x4xf4E2M1FN>, %arg3: f4E2M1FN, %arg4: i1) {\n    return\n  }\n  func.func @supported_fp_type(%arg0: f32, %arg1: vector<4xf32>, %arg2: vector<4x8xf32>, %arg3: f32) {\n    return\n  }\n}\n\n",
      "stderr": "",
      "stdout_path": "outputs\\discovery_mlir23_mainseed\\artifacts\\conversion_arithtollvm_arith_to_llvm_mlir__vector_lowering_stress.stdout.mlir",
      "stderr_path": "outputs\\discovery_mlir23_mainseed\\artifacts\\conversion_arithtollvm_arith_to_llvm_mlir__vector_lowering_stress.stderr.txt",
      "category": "success"
    },
    {
      "seed": "seeds\\real_official_main23\\conversion_arithtollvm_arith_to_llvm_mlir.mlir",
      "pipeline": "bufferization_probe",
      "command": "C:\\Users\\lenovo\\.cache\\codex-runtimes\\codex-primary-runtime\\dependencies\\python\\python.exe scripts\\ssh_mlir_opt.py --one-shot-bufferize --canonicalize -o - < seeds\\real_official_main23\\conversion_arithtollvm_arith_to_llvm_mlir.mlir",
      "return_code": 0,
      "timed_out": false,
      "elapsed_ms": 594,
      "stdout": "module {\n  func.func @vector_ops(%arg0: vector<4xf32>, %arg1: vector<4xi1>, %arg2: vector<4xi64>, %arg3: vector<4xi64>) -> vector<4xf32> {\n    %cst = arith.constant dense<4.200000e+01> : vector<4xf32>\n    %0 = arith.addf %arg0, %cst : vector<4xf32>\n    return %0 : vector<4xf32>\n  }\n  func.func @ops(%arg0: f32, %arg1: f32, %arg2: i32, %arg3: i32, %arg4: f64) -> (f32, i32) {\n    %0 = arith.subf %arg0, %arg1 : f32\n    %1 = arith.divui %arg2, %arg3 : i32\n    return %0, %1 : f32, i32\n  }\n  func.func @index_cast(%arg0: index, %arg1: i1) {\n    return\n  }\n  func.func @vector_index_cast(%arg0: vector<2xindex>, %arg1: vector<2xi1>) {\n    return\n  }\n  func.func @index_castui(%arg0: index, %arg1: i1) {\n    return\n  }\n  func.func @vector_index_castui(%arg0: vector<2xindex>, %arg1: vector<2xi1>) {\n    return\n  }\n  func.func @index_castui_nneg(%arg0: i1) {\n    return\n  }\n  func.func @index_castui_nneg_not_set(%arg0: i1) {\n    return\n  }\n  func.func @memref_index_cast(%arg0: memref<3xi32>) -> memref<3xindex> {\n    %0 = arith.index_cast %arg0 : memref<3xi32> to memref<3xindex>\n    return %0 : memref<3xindex>\n  }\n  func.func @memref_index_castui(%arg0: memref<3xi32>) -> memref<3xindex> {\n    %0 = arith.index_castui %arg0 : memref<3xi32> to memref<3xindex>\n    return %0 : memref<3xindex>\n  }\n  func.func @sitofp(%arg0: i32, %arg1: i64) {\n    return\n  }\n  func.func @sitofp_vector(%arg0: vector<2xi16>, %arg1: vector<2xi32>, %arg2: vector<2xi64>) {\n    return\n  }\n  func.func @uitofp(%arg0: i32, %arg1: i64) {\n    return\n  }\n  func.func @fpext(%arg0: f16, %arg1: f32) {\n    return\n  }\n  func.func @fpext_vector(%arg0: vector<2xf16>, %arg1: vector<2xf32>) {\n    return\n  }\n  func.func @fptosi(%arg0: f32, %arg1: f64) {\n    return\n  }\n  func.func @fptosi_vector(%arg0: vector<2xf16>, %arg1: vector<2xf32>, %arg2: vector<2xf64>) {\n    return\n  }\n  func.func @fptoui(%arg0: f32, %arg1: f64) {\n    return\n  }\n  func.func @fptoui_vector(%arg0: vector<2xf16>, %arg1: vector<2xf32>, %arg2: vector<2xf64>) {\n    return\n  }\n  func.func @uitofp_vector(%arg0: vector<2xi16>, %arg1: vector<2xi32>, %arg2: vector<2xi64>) {\n    return\n  }\n  func.func @fptrunc(%arg0: f32, %arg1: f64) {\n    return\n  }\n  func.func @fptrunc_vector(%arg0: vector<2xf32>, %arg1: vector<2xf64>) {\n    return\n  }\n  func.func @experimental_constrained_fptrunc(%arg0: f64) {\n    return\n  }\n  func.func @experimental_constrained_addf(%arg0: f64, %arg1: f64) {\n    return\n  }\n  func.func @experimental_constrained_subf(%arg0: f64, %arg1: f64) {\n    return\n  }\n  func.func @experimental_constrained_mulf(%arg0: f64, %arg1: f64) {\n    return\n  }\n  func.func @experimental_constrained_divf(%arg0: f64, %arg1: f64) {\n    return\n  }\n  func.func @constrained_addf_with_fastmath(%arg0: f64, %arg1: f64) {\n    return\n  }\n  func.func @convertf_f16_to_bf16(%arg0: f16) -> bf16 {\n    %0 = arith.convertf %arg0 : f16 to bf16\n    return %0 : bf16\n  }\n  func.func @convertf_bf16_to_f16(%arg0: bf16) -> f16 {\n    %0 = arith.convertf %arg0 : bf16 to f16\n    return %0 : f16\n  }\n  func.func @convertf_vector(%arg0: vector<2xf16>) -> vector<2xbf16> {\n    %0 = arith.convertf %arg0 : vector<2xf16> to vector<2xbf16>\n    return %0 : vector<2xbf16>\n  }\n  func.func @integer_extension_and_truncation(%arg0: i3) {\n    return\n  }\n  func.func @integer_cast_0d_vector(%arg0: vector<i3>) {\n    return\n  }\n  func.func @fcmp(%arg0: f32, %arg1: f32) {\n    return\n  }\n  func.func @index_vector(%arg0: vector<4xindex>) {\n    return\n  }\n  func.func @bitcast_1d(%arg0: vector<2xf32>) {\n    return\n  }\n  func.func @addui_extended_scalar(%arg0: i32, %arg1: i32) -> (i32, i1) {\n    %sum, %overflow = arith.addui_extended %arg0, %arg1 : i32, i1\n    return %sum, %overflow : i32, i1\n  }\n  func.func @addui_extended_vector1d(%arg0: vector<3xi16>, %arg1: vector<3xi16>) -> (vector<3xi16>, vector<3xi1>) {\n    %sum, %overflow = arith.addui_extended %arg0, %arg1 : vector<3xi16>, vector<3xi1>\n    return %sum, %overflow : vector<3xi16>, vector<3xi1>\n  }\n  func.func @mulsi_extended_scalar(%arg0: i32, %arg1: i32) -> (i32, i32) {\n    %low, %high = arith.mulsi_extended %arg0, %arg1 : i32\n    return %low, %high : i32, i32\n  }\n  func.func @mulsi_extended_vector1d(%arg0: vector<3xi64>, %arg1: vector<3xi64>) -> (vector<3xi64>, vector<3xi64>) {\n    %low, %high = arith.mulsi_extended %arg0, %arg1 : vector<3xi64>\n    return %low, %high : vector<3xi64>, vector<3xi64>\n  }\n  func.func @mului_extended_scalar(%arg0: i32, %arg1: i32) -> (i32, i32) {\n    %low, %high = arith.mului_extended %arg0, %arg1 : i32\n    return %low, %high : i32, i32\n  }\n  func.func @mului_extended_vector1d(%arg0: vector<3xi64>, %arg1: vector<3xi64>) -> (vector<3xi64>, vector<3xi64>) {\n    %low, %high = arith.mului_extended %arg0, %arg1 : vector<3xi64>\n    return %low, %high : vector<3xi64>, vector<3xi64>\n  }\n  func.func @cmpf_2dvector(%arg0: vector<4x3xf32>, %arg1: vector<4x3xf32>) {\n    return\n  }\n  func.func @cmpi_0dvector(%arg0: vector<i32>, %arg1: vector<i32>) {\n    return\n  }\n  func.func @cmpi_2dvector(%arg0: vector<4x3xi32>, %arg1: vector<4x3xi32>) {\n    return\n  }\n  func.func @select(%arg0: i1, %arg1: i32, %arg2: i32) -> i32 {\n    %0 = arith.select %arg0, %arg1, %arg2 : i32\n    return %0 : i32\n  }\n  func.func @select_complex(%arg0: i1, %arg1: complex<f32>, %arg2: complex<f32>) -> complex<f32> {\n    %0 = arith.select %arg0, %arg1, %arg2 : complex<f32>\n    return %0 : complex<f32>\n  }\n  func.func @ceildivsi(%arg0: i64, %arg1: i64) -> i64 {\n    %0 = arith.ceildivsi %arg0, %arg1 : i64\n    return %0 : i64\n  }\n  func.func @ceildivui(%arg0: i32) -> i32 {\n    %0 = arith.ceildivui %arg0, %arg0 : i32\n    return %0 : i32\n  }\n  func.func @floordivsi(%arg0: i32, %arg1: i32) -> i32 {\n    %0 = arith.floordivsi %arg0, %arg1 : i32\n    return %0 : i32\n  }\n  func.func @minmaxi(%arg0: i32, %arg1: i32) -> i32 {\n    %0 = arith.minsi %arg0, %arg1 : i32\n    return %0 : i32\n  }\n  func.func @minmaxf(%arg0: f32, %arg1: f32) -> f32 {\n    %0 = arith.minimumf %arg0, %arg1 : f32\n    return %0 : f32\n  }\n  func.func @fastmath(%arg0: f32, %arg1: f32, %arg2: i32) {\n    return\n  }\n  func.func @ops_supporting_fastmath(%arg0: f32, %arg1: f32, %arg2: i32) {\n    return\n  }\n  func.func @ops_supporting_overflow(%arg0: i64, %arg1: i64) {\n    return\n  }\n  func.func @ops_supporting_exact(%arg0: i32, %arg1: i32) {\n    return\n  }\n  func.func @ops_supporting_nneg(%arg0: i32) {\n    return\n  }\n  func.func @ops_nneg_not_set(%arg0: i32) {\n    return\n  }\n  func.func @memref_bitcast(%arg0: memref<?xi16>) -> memref<?xbf16> {\n    %0 = arith.bitcast %arg0 : memref<?xi16> to memref<?xbf16>\n    return %0 : memref<?xbf16>\n  }\n  func.func @unsupported_fp_type(%arg0: f4E2M1FN, %arg1: vector<4xf4E2M1FN>, %arg2: vector<8x4xf4E2M1FN>, %arg3: f4E2M1FN, %arg4: i1) {\n    return\n  }\n  func.func @supported_fp_type(%arg0: f32, %arg1: vector<4xf32>, %arg2: vector<4x8xf32>, %arg3: f32) {\n    return\n  }\n}\n\n",
      "stderr": "",
      "stdout_path": "outputs\\discovery_mlir23_mainseed\\artifacts\\conversion_arithtollvm_arith_to_llvm_mlir__bufferization_probe.stdout.mlir",
      "stderr_path": "outputs\\discovery_mlir23_mainseed\\artifacts\\conversion_arithtollvm_arith_to_llvm_mlir__bufferization_probe.stderr.txt",
      "category": "success"
    },
    {
      "seed": "seeds\\real_official_main23\\conversion_arithtollvm_arith_to_llvm_mlir.mlir",
      "pipeline": "linalg_affine_probe",
      "command": "C:\\Users\\lenovo\\.cache\\codex-runtimes\\codex-primary-runtime\\dependencies\\python\\python.exe scripts\\ssh_mlir_opt.py --convert-linalg-to-affine-loops --canonicalize -o - < seeds\\real_official_main23\\conversion_arithtollvm_arith_to_llvm_mlir.mlir",
      "return_code": 0,
      "timed_out": false,
      "elapsed_ms": 611,
      "stdout": "module {\n  func.func @vector_ops(%arg0: vector<4xf32>, %arg1: vector<4xi1>, %arg2: vector<4xi64>, %arg3: vector<4xi64>) -> vector<4xf32> {\n    %cst = arith.constant dense<4.200000e+01> : vector<4xf32>\n    %0 = arith.addf %arg0, %cst : vector<4xf32>\n    return %0 : vector<4xf32>\n  }\n  func.func @ops(%arg0: f32, %arg1: f32, %arg2: i32, %arg3: i32, %arg4: f64) -> (f32, i32) {\n    %0 = arith.subf %arg0, %arg1 : f32\n    %1 = arith.divui %arg2, %arg3 : i32\n    return %0, %1 : f32, i32\n  }\n  func.func @index_cast(%arg0: index, %arg1: i1) {\n    return\n  }\n  func.func @vector_index_cast(%arg0: vector<2xindex>, %arg1: vector<2xi1>) {\n    return\n  }\n  func.func @index_castui(%arg0: index, %arg1: i1) {\n    return\n  }\n  func.func @vector_index_castui(%arg0: vector<2xindex>, %arg1: vector<2xi1>) {\n    return\n  }\n  func.func @index_castui_nneg(%arg0: i1) {\n    return\n  }\n  func.func @index_castui_nneg_not_set(%arg0: i1) {\n    return\n  }\n  func.func @memref_index_cast(%arg0: memref<3xi32>) -> memref<3xindex> {\n    %0 = arith.index_cast %arg0 : memref<3xi32> to memref<3xindex>\n    return %0 : memref<3xindex>\n  }\n  func.func @memref_index_castui(%arg0: memref<3xi32>) -> memref<3xindex> {\n    %0 = arith.index_castui %arg0 : memref<3xi32> to memref<3xindex>\n    return %0 : memref<3xindex>\n  }\n  func.func @sitofp(%arg0: i32, %arg1: i64) {\n    return\n  }\n  func.func @sitofp_vector(%arg0: vector<2xi16>, %arg1: vector<2xi32>, %arg2: vector<2xi64>) {\n    return\n  }\n  func.func @uitofp(%arg0: i32, %arg1: i64) {\n    return\n  }\n  func.func @fpext(%arg0: f16, %arg1: f32) {\n    return\n  }\n  func.func @fpext_vector(%arg0: vector<2xf16>, %arg1: vector<2xf32>) {\n    return\n  }\n  func.func @fptosi(%arg0: f32, %arg1: f64) {\n    return\n  }\n  func.func @fptosi_vector(%arg0: vector<2xf16>, %arg1: vector<2xf32>, %arg2: vector<2xf64>) {\n    return\n  }\n  func.func @fptoui(%arg0: f32, %arg1: f64) {\n    return\n  }\n  func.func @fptoui_vector(%arg0: vector<2xf16>, %arg1: vector<2xf32>, %arg2: vector<2xf64>) {\n    return\n  }\n  func.func @uitofp_vector(%arg0: vector<2xi16>, %arg1: vector<2xi32>, %arg2: vector<2xi64>) {\n    return\n  }\n  func.func @fptrunc(%arg0: f32, %arg1: f64) {\n    return\n  }\n  func.func @fptrunc_vector(%arg0: vector<2xf32>, %arg1: vector<2xf64>) {\n    return\n  }\n  func.func @experimental_constrained_fptrunc(%arg0: f64) {\n    return\n  }\n  func.func @experimental_constrained_addf(%arg0: f64, %arg1: f64) {\n    return\n  }\n  func.func @experimental_constrained_subf(%arg0: f64, %arg1: f64) {\n    return\n  }\n  func.func @experimental_constrained_mulf(%arg0: f64, %arg1: f64) {\n    return\n  }\n  func.func @experimental_constrained_divf(%arg0: f64, %arg1: f64) {\n    return\n  }\n  func.func @constrained_addf_with_fastmath(%arg0: f64, %arg1: f64) {\n    return\n  }\n  func.func @convertf_f16_to_bf16(%arg0: f16) -> bf16 {\n    %0 = arith.convertf %arg0 : f16 to bf16\n    return %0 : bf16\n  }\n  func.func @convertf_bf16_to_f16(%arg0: bf16) -> f16 {\n    %0 = arith.convertf %arg0 : bf16 to f16\n    return %0 : f16\n  }\n  func.func @convertf_vector(%arg0: vector<2xf16>) -> vector<2xbf16> {\n    %0 = arith.convertf %arg0 : vector<2xf16> to vector<2xbf16>\n    return %0 : vector<2xbf16>\n  }\n  func.func @integer_extension_and_truncation(%arg0: i3) {\n    return\n  }\n  func.func @integer_cast_0d_vector(%arg0: vector<i3>) {\n    return\n  }\n  func.func @fcmp(%arg0: f32, %arg1: f32) {\n    return\n  }\n  func.func @index_vector(%arg0: vector<4xindex>) {\n    return\n  }\n  func.func @bitcast_1d(%arg0: vector<2xf32>) {\n    return\n  }\n  func.func @addui_extended_scalar(%arg0: i32, %arg1: i32) -> (i32, i1) {\n    %sum, %overflow = arith.addui_extended %arg0, %arg1 : i32, i1\n    return %sum, %overflow : i32, i1\n  }\n  func.func @addui_extended_vector1d(%arg0: vector<3xi16>, %arg1: vector<3xi16>) -> (vector<3xi16>, vector<3xi1>) {\n    %sum, %overflow = arith.addui_extended %arg0, %arg1 : vector<3xi16>, vector<3xi1>\n    return %sum, %overflow : vector<3xi16>, vector<3xi1>\n  }\n  func.func @mulsi_extended_scalar(%arg0: i32, %arg1: i32) -> (i32, i32) {\n    %low, %high = arith.mulsi_extended %arg0, %arg1 : i32\n    return %low, %high : i32, i32\n  }\n  func.func @mulsi_extended_vector1d(%arg0: vector<3xi64>, %arg1: vector<3xi64>) -> (vector<3xi64>, vector<3xi64>) {\n    %low, %high = arith.mulsi_extended %arg0, %arg1 : vector<3xi64>\n    return %low, %high : vector<3xi64>, vector<3xi64>\n  }\n  func.func @mului_extended_scalar(%arg0: i32, %arg1: i32) -> (i32, i32) {\n    %low, %high = arith.mului_extended %arg0, %arg1 : i32\n    return %low, %high : i32, i32\n  }\n  func.func @mului_extended_vector1d(%arg0: vector<3xi64>, %arg1: vector<3xi64>) -> (vector<3xi64>, vector<3xi64>) {\n    %low, %high = arith.mului_extended %arg0, %arg1 : vector<3xi64>\n    return %low, %high : vector<3xi64>, vector<3xi64>\n  }\n  func.func @cmpf_2dvector(%arg0: vector<4x3xf32>, %arg1: vector<4x3xf32>) {\n    return\n  }\n  func.func @cmpi_0dvector(%arg0: vector<i32>, %arg1: vector<i32>) {\n    return\n  }\n  func.func @cmpi_2dvector(%arg0: vector<4x3xi32>, %arg1: vector<4x3xi32>) {\n    return\n  }\n  func.func @select(%arg0: i1, %arg1: i32, %arg2: i32) -> i32 {\n    %0 = arith.select %arg0, %arg1, %arg2 : i32\n    return %0 : i32\n  }\n  func.func @select_complex(%arg0: i1, %arg1: complex<f32>, %arg2: complex<f32>) -> complex<f32> {\n    %0 = arith.select %arg0, %arg1, %arg2 : complex<f32>\n    return %0 : complex<f32>\n  }\n  func.func @ceildivsi(%arg0: i64, %arg1: i64) -> i64 {\n    %0 = arith.ceildivsi %arg0, %arg1 : i64\n    return %0 : i64\n  }\n  func.func @ceildivui(%arg0: i32) -> i32 {\n    %0 = arith.ceildivui %arg0, %arg0 : i32\n    return %0 : i32\n  }\n  func.func @floordivsi(%arg0: i32, %arg1: i32) -> i32 {\n    %0 = arith.floordivsi %arg0, %arg1 : i32\n    return %0 : i32\n  }\n  func.func @minmaxi(%arg0: i32, %arg1: i32) -> i32 {\n    %0 = arith.minsi %arg0, %arg1 : i32\n    return %0 : i32\n  }\n  func.func @minmaxf(%arg0: f32, %arg1: f32) -> f32 {\n    %0 = arith.minimumf %arg0, %arg1 : f32\n    return %0 : f32\n  }\n  func.func @fastmath(%arg0: f32, %arg1: f32, %arg2: i32) {\n    return\n  }\n  func.func @ops_supporting_fastmath(%arg0: f32, %arg1: f32, %arg2: i32) {\n    return\n  }\n  func.func @ops_supporting_overflow(%arg0: i64, %arg1: i64) {\n    return\n  }\n  func.func @ops_supporting_exact(%arg0: i32, %arg1: i32) {\n    return\n  }\n  func.func @ops_supporting_nneg(%arg0: i32) {\n    return\n  }\n  func.func @ops_nneg_not_set(%arg0: i32) {\n    return\n  }\n  func.func @memref_bitcast(%arg0: memref<?xi16>) -> memref<?xbf16> {\n    %0 = arith.bitcast %arg0 : memref<?xi16> to memref<?xbf16>\n    return %0 : memref<?xbf16>\n  }\n  func.func @unsupported_fp_type(%arg0: f4E2M1FN, %arg1: vector<4xf4E2M1FN>, %arg2: vector<8x4xf4E2M1FN>, %arg3: f4E2M1FN, %arg4: i1) {\n    return\n  }\n  func.func @supported_fp_type(%arg0: f32, %arg1: vector<4xf32>, %arg2: vector<4x8xf32>, %arg3: f32) {\n    return\n  }\n}\n\n",
      "stderr": "",
      "stdout_path": "outputs\\discovery_mlir23_mainseed\\artifacts\\conversion_arithtollvm_arith_to_llvm_mlir__linalg_affine_probe.stdout.mlir",
      "stderr_path": "outputs\\discovery_mlir23_mainseed\\artifacts\\conversion_arithtollvm_arith_to_llvm_mlir__linalg_affine_probe.stderr.txt",
      "category": "success"
    },
    {
      "seed": "seeds\\real_official_main23\\conversion_arithtollvm_arith_to_llvm_mlir.mlir",
      "pipeline": "gpu_parallel_probe",
      "command": "C:\\Users\\lenovo\\.cache\\codex-runtimes\\codex-primary-runtime\\dependencies\\python\\python.exe scripts\\ssh_mlir_opt.py --convert-parallel-loops-to-gpu --canonicalize -o - < seeds\\real_official_main23\\conversion_arithtollvm_arith_to_llvm_mlir.mlir",
      "return_code": 0,
      "timed_out": false,
      "elapsed_ms": 626,
      "stdout": "module {\n  func.func @vector_ops(%arg0: vector<4xf32>, %arg1: vector<4xi1>, %arg2: vector<4xi64>, %arg3: vector<4xi64>) -> vector<4xf32> {\n    %cst = arith.constant dense<4.200000e+01> : vector<4xf32>\n    %0 = arith.addf %arg0, %cst : vector<4xf32>\n    return %0 : vector<4xf32>\n  }\n  func.func @ops(%arg0: f32, %arg1: f32, %arg2: i32, %arg3: i32, %arg4: f64) -> (f32, i32) {\n    %0 = arith.subf %arg0, %arg1 : f32\n    %1 = arith.divui %arg2, %arg3 : i32\n    return %0, %1 : f32, i32\n  }\n  func.func @index_cast(%arg0: index, %arg1: i1) {\n    return\n  }\n  func.func @vector_index_cast(%arg0: vector<2xindex>, %arg1: vector<2xi1>) {\n    return\n  }\n  func.func @index_castui(%arg0: index, %arg1: i1) {\n    return\n  }\n  func.func @vector_index_castui(%arg0: vector<2xindex>, %arg1: vector<2xi1>) {\n    return\n  }\n  func.func @index_castui_nneg(%arg0: i1) {\n    return\n  }\n  func.func @index_castui_nneg_not_set(%arg0: i1) {\n    return\n  }\n  func.func @memref_index_cast(%arg0: memref<3xi32>) -> memref<3xindex> {\n    %0 = arith.index_cast %arg0 : memref<3xi32> to memref<3xindex>\n    return %0 : memref<3xindex>\n  }\n  func.func @memref_index_castui(%arg0: memref<3xi32>) -> memref<3xindex> {\n    %0 = arith.index_castui %arg0 : memref<3xi32> to memref<3xindex>\n    return %0 : memref<3xindex>\n  }\n  func.func @sitofp(%arg0: i32, %arg1: i64) {\n    return\n  }\n  func.func @sitofp_vector(%arg0: vector<2xi16>, %arg1: vector<2xi32>, %arg2: vector<2xi64>) {\n    return\n  }\n  func.func @uitofp(%arg0: i32, %arg1: i64) {\n    return\n  }\n  func.func @fpext(%arg0: f16, %arg1: f32) {\n    return\n  }\n  func.func @fpext_vector(%arg0: vector<2xf16>, %arg1: vector<2xf32>) {\n    return\n  }\n  func.func @fptosi(%arg0: f32, %arg1: f64) {\n    return\n  }\n  func.func @fptosi_vector(%arg0: vector<2xf16>, %arg1: vector<2xf32>, %arg2: vector<2xf64>) {\n    return\n  }\n  func.func @fptoui(%arg0: f32, %arg1: f64) {\n    return\n  }\n  func.func @fptoui_vector(%arg0: vector<2xf16>, %arg1: vector<2xf32>, %arg2: vector<2xf64>) {\n    return\n  }\n  func.func @uitofp_vector(%arg0: vector<2xi16>, %arg1: vector<2xi32>, %arg2: vector<2xi64>) {\n    return\n  }\n  func.func @fptrunc(%arg0: f32, %arg1: f64) {\n    return\n  }\n  func.func @fptrunc_vector(%arg0: vector<2xf32>, %arg1: vector<2xf64>) {\n    return\n  }\n  func.func @experimental_constrained_fptrunc(%arg0: f64) {\n    return\n  }\n  func.func @experimental_constrained_addf(%arg0: f64, %arg1: f64) {\n    return\n  }\n  func.func @experimental_constrained_subf(%arg0: f64, %arg1: f64) {\n    return\n  }\n  func.func @experimental_constrained_mulf(%arg0: f64, %arg1: f64) {\n    return\n  }\n  func.func @experimental_constrained_divf(%arg0: f64, %arg1: f64) {\n    return\n  }\n  func.func @constrained_addf_with_fastmath(%arg0: f64, %arg1: f64) {\n    return\n  }\n  func.func @convertf_f16_to_bf16(%arg0: f16) -> bf16 {\n    %0 = arith.convertf %arg0 : f16 to bf16\n    return %0 : bf16\n  }\n  func.func @convertf_bf16_to_f16(%arg0: bf16) -> f16 {\n    %0 = arith.convertf %arg0 : bf16 to f16\n    return %0 : f16\n  }\n  func.func @convertf_vector(%arg0: vector<2xf16>) -> vector<2xbf16> {\n    %0 = arith.convertf %arg0 : vector<2xf16> to vector<2xbf16>\n    return %0 : vector<2xbf16>\n  }\n  func.func @integer_extension_and_truncation(%arg0: i3) {\n    return\n  }\n  func.func @integer_cast_0d_vector(%arg0: vector<i3>) {\n    return\n  }\n  func.func @fcmp(%arg0: f32, %arg1: f32) {\n    return\n  }\n  func.func @index_vector(%arg0: vector<4xindex>) {\n    return\n  }\n  func.func @bitcast_1d(%arg0: vector<2xf32>) {\n    return\n  }\n  func.func @addui_extended_scalar(%arg0: i32, %arg1: i32) -> (i32, i1) {\n    %sum, %overflow = arith.addui_extended %arg0, %arg1 : i32, i1\n    return %sum, %overflow : i32, i1\n  }\n  func.func @addui_extended_vector1d(%arg0: vector<3xi16>, %arg1: vector<3xi16>) -> (vector<3xi16>, vector<3xi1>) {\n    %sum, %overflow = arith.addui_extended %arg0, %arg1 : vector<3xi16>, vector<3xi1>\n    return %sum, %overflow : vector<3xi16>, vector<3xi1>\n  }\n  func.func @mulsi_extended_scalar(%arg0: i32, %arg1: i32) -> (i32, i32) {\n    %low, %high = arith.mulsi_extended %arg0, %arg1 : i32\n    return %low, %high : i32, i32\n  }\n  func.func @mulsi_extended_vector1d(%arg0: vector<3xi64>, %arg1: vector<3xi64>) -> (vector<3xi64>, vector<3xi64>) {\n    %low, %high = arith.mulsi_extended %arg0, %arg1 : vector<3xi64>\n    return %low, %high : vector<3xi64>, vector<3xi64>\n  }\n  func.func @mului_extended_scalar(%arg0: i32, %arg1: i32) -> (i32, i32) {\n    %low, %high = arith.mului_extended %arg0, %arg1 : i32\n    return %low, %high : i32, i32\n  }\n  func.func @mului_extended_vector1d(%arg0: vector<3xi64>, %arg1: vector<3xi64>) -> (vector<3xi64>, vector<3xi64>) {\n    %low, %high = arith.mului_extended %arg0, %arg1 : vector<3xi64>\n    return %low, %high : vector<3xi64>, vector<3xi64>\n  }\n  func.func @cmpf_2dvector(%arg0: vector<4x3xf32>, %arg1: vector<4x3xf32>) {\n    return\n  }\n  func.func @cmpi_0dvector(%arg0: vector<i32>, %arg1: vector<i32>) {\n    return\n  }\n  func.func @cmpi_2dvector(%arg0: vector<4x3xi32>, %arg1: vector<4x3xi32>) {\n    return\n  }\n  func.func @select(%arg0: i1, %arg1: i32, %arg2: i32) -> i32 {\n    %0 = arith.select %arg0, %arg1, %arg2 : i32\n    return %0 : i32\n  }\n  func.func @select_complex(%arg0: i1, %arg1: complex<f32>, %arg2: complex<f32>) -> complex<f32> {\n    %0 = arith.select %arg0, %arg1, %arg2 : complex<f32>\n    return %0 : complex<f32>\n  }\n  func.func @ceildivsi(%arg0: i64, %arg1: i64) -> i64 {\n    %0 = arith.ceildivsi %arg0, %arg1 : i64\n    return %0 : i64\n  }\n  func.func @ceildivui(%arg0: i32) -> i32 {\n    %0 = arith.ceildivui %arg0, %arg0 : i32\n    return %0 : i32\n  }\n  func.func @floordivsi(%arg0: i32, %arg1: i32) -> i32 {\n    %0 = arith.floordivsi %arg0, %arg1 : i32\n    return %0 : i32\n  }\n  func.func @minmaxi(%arg0: i32, %arg1: i32) -> i32 {\n    %0 = arith.minsi %arg0, %arg1 : i32\n    return %0 : i32\n  }\n  func.func @minmaxf(%arg0: f32, %arg1: f32) -> f32 {\n    %0 = arith.minimumf %arg0, %arg1 : f32\n    return %0 : f32\n  }\n  func.func @fastmath(%arg0: f32, %arg1: f32, %arg2: i32) {\n    return\n  }\n  func.func @ops_supporting_fastmath(%arg0: f32, %arg1: f32, %arg2: i32) {\n    return\n  }\n  func.func @ops_supporting_overflow(%arg0: i64, %arg1: i64) {\n    return\n  }\n  func.func @ops_supporting_exact(%arg0: i32, %arg1: i32) {\n    return\n  }\n  func.func @ops_supporting_nneg(%arg0: i32) {\n    return\n  }\n  func.func @ops_nneg_not_set(%arg0: i32) {\n    return\n  }\n  func.func @memref_bitcast(%arg0: memref<?xi16>) -> memref<?xbf16> {\n    %0 = arith.bitcast %arg0 : memref<?xi16> to memref<?xbf16>\n    return %0 : memref<?xbf16>\n  }\n  func.func @unsupported_fp_type(%arg0: f4E2M1FN, %arg1: vector<4xf4E2M1FN>, %arg2: vector<8x4xf4E2M1FN>, %arg3: f4E2M1FN, %arg4: i1) {\n    return\n  }\n  func.func @supported_fp_type(%arg0: f32, %arg1: vector<4xf32>, %arg2: vector<4x8xf32>, %arg3: f32) {\n    return\n  }\n}\n\n",
      "stderr": "",
      "stdout_path": "outputs\\discovery_mlir23_mainseed\\artifacts\\conversion_arithtollvm_arith_to_llvm_mlir__gpu_parallel_probe.stdout.mlir",
      "stderr_path": "outputs\\discovery_mlir23_mainseed\\artifacts\\conversion_arithtollvm_arith_to_llvm_mlir__gpu_parallel_probe.stderr.txt",
      "category": "success"
    },
    {
      "seed": "seeds\\real_official_main23\\conversion_functollvm_convert_funcs_mlir.mlir",
      "pipeline": "parse_verify",
      "command": "C:\\Users\\lenovo\\.cache\\codex-runtimes\\codex-primary-runtime\\dependencies\\python\\python.exe scripts\\ssh_mlir_opt.py  -o - < seeds\\real_official_main23\\conversion_functollvm_convert_funcs_mlir.mlir",
      "return_code": 1,
      "timed_out": false,
      "elapsed_ms": 583,
      "stdout": "",
      "stderr": "<stdin>:71:1: error: redefinition of symbol named 'variadic_func'\nfunc.func @variadic_func(%arg0: i32) attributes { \"func.varargs\" = true, \"llvm.emit_c_interface\" } {\n^\n<stdin>:71:1: note: see current operation: \n\"func.func\"() <{function_type = (i32) -> (), sym_name = \"variadic_func\"}> ({\n^bb0(%arg0: i32):\n  \"func.return\"() : () -> ()\n}) {func.varargs = true, llvm.emit_c_interface} : () -> ()\n<stdin>:37:1: note: see existing symbol definition here\nfunc.func @variadic_func(%arg0: i32) attributes { \"func.varargs\" = true } {\n^\n<stdin>:65:4: error: expected error \"'func.func' op invalid llvm.func propertyInvalid attribute `linkage` in property conversion: 3 : i64\" was not produced\n// expected-error@+1{{'func.func' op invalid llvm.func propertyInvalid attribute `linkage` in property conversion: 3 : i64}}\n   ^~~~~~~~~~~~~~~~~~~~~~~~~~~~~~~~~~~~~~~~~~~~~~~~~~~~~~~~~~~~~~~~~~~~~~~~~~~~~~~~~~~~~~~~~~~~~~~~~~~~\n<stdin>:70:4: error: expected error \"C interface for variadic functions is not supported yet.\" was not produced\n// expected-error@+1{{C interface for variadic functions is not supported yet.}}\n   ^~~~~~~~~~~~~~~~~~~~~~~~~~~~~~~~~~~~~~~~~~~~~~~~~~~~~~~~\n",
      "stdout_path": "outputs\\discovery_mlir23_mainseed\\artifacts\\conversion_functollvm_convert_funcs_mlir__parse_verify.stdout.mlir",
      "stderr_path": "outputs\\discovery_mlir23_mainseed\\artifacts\\conversion_functollvm_convert_funcs_mlir__parse_verify.stderr.txt",
      "category": "parser"
    },
    {
      "seed": "seeds\\real_official_main23\\conversion_functollvm_convert_funcs_mlir.mlir",
      "pipeline": "canonicalize_cse_sccp",
      "command": "C:\\Users\\lenovo\\.cache\\codex-runtimes\\codex-primary-runtime\\dependencies\\python\\python.exe scripts\\ssh_mlir_opt.py --canonicalize --cse --sccp --canonicalize -o - < seeds\\real_official_main23\\conversion_functollvm_convert_funcs_mlir.mlir",
      "return_code": 1,
      "timed_out": false,
      "elapsed_ms": 571,
      "stdout": "",
      "stderr": "<stdin>:71:1: error: redefinition of symbol named 'variadic_func'\nfunc.func @variadic_func(%arg0: i32) attributes { \"func.varargs\" = true, \"llvm.emit_c_interface\" } {\n^\n<stdin>:71:1: note: see current operation: \n\"func.func\"() <{function_type = (i32) -> (), sym_name = \"variadic_func\"}> ({\n^bb0(%arg0: i32):\n  \"func.return\"() : () -> ()\n}) {func.varargs = true, llvm.emit_c_interface} : () -> ()\n<stdin>:37:1: note: see existing symbol definition here\nfunc.func @variadic_func(%arg0: i32) attributes { \"func.varargs\" = true } {\n^\n<stdin>:65:4: error: expected error \"'func.func' op invalid llvm.func propertyInvalid attribute `linkage` in property conversion: 3 : i64\" was not produced\n// expected-error@+1{{'func.func' op invalid llvm.func propertyInvalid attribute `linkage` in property conversion: 3 : i64}}\n   ^~~~~~~~~~~~~~~~~~~~~~~~~~~~~~~~~~~~~~~~~~~~~~~~~~~~~~~~~~~~~~~~~~~~~~~~~~~~~~~~~~~~~~~~~~~~~~~~~~~~\n<stdin>:70:4: error: expected error \"C interface for variadic functions is not supported yet.\" was not produced\n// expected-error@+1{{C interface for variadic functions is not supported yet.}}\n   ^~~~~~~~~~~~~~~~~~~~~~~~~~~~~~~~~~~~~~~~~~~~~~~~~~~~~~~~\n",
      "stdout_path": "outputs\\discovery_mlir23_mainseed\\artifacts\\conversion_functollvm_convert_funcs_mlir__canonicalize_cse_sccp.stdout.mlir",
      "stderr_path": "outputs\\discovery_mlir23_mainseed\\artifacts\\conversion_functollvm_convert_funcs_mlir__canonicalize_cse_sccp.stderr.txt",
      "category": "parser"
    },
    {
      "seed": "seeds\\real_official_main23\\conversion_functollvm_convert_funcs_mlir.mlir",
      "pipeline": "symbol_dce_inliner_canonicalize",
      "command": "C:\\Users\\lenovo\\.cache\\codex-runtimes\\codex-primary-runtime\\dependencies\\python\\python.exe scripts\\ssh_mlir_opt.py --symbol-dce --inline --canonicalize --cse -o - < seeds\\real_official_main23\\conversion_functollvm_convert_funcs_mlir.mlir",
      "return_code": 1,
      "timed_out": false,
      "elapsed_ms": 569,
      "stdout": "",
      "stderr": "<stdin>:71:1: error: redefinition of symbol named 'variadic_func'\nfunc.func @variadic_func(%arg0: i32) attributes { \"func.varargs\" = true, \"llvm.emit_c_interface\" } {\n^\n<stdin>:71:1: note: see current operation: \n\"func.func\"() <{function_type = (i32) -> (), sym_name = \"variadic_func\"}> ({\n^bb0(%arg0: i32):\n  \"func.return\"() : () -> ()\n}) {func.varargs = true, llvm.emit_c_interface} : () -> ()\n<stdin>:37:1: note: see existing symbol definition here\nfunc.func @variadic_func(%arg0: i32) attributes { \"func.varargs\" = true } {\n^\n<stdin>:65:4: error: expected error \"'func.func' op invalid llvm.func propertyInvalid attribute `linkage` in property conversion: 3 : i64\" was not produced\n// expected-error@+1{{'func.func' op invalid llvm.func propertyInvalid attribute `linkage` in property conversion: 3 : i64}}\n   ^~~~~~~~~~~~~~~~~~~~~~~~~~~~~~~~~~~~~~~~~~~~~~~~~~~~~~~~~~~~~~~~~~~~~~~~~~~~~~~~~~~~~~~~~~~~~~~~~~~~\n<stdin>:70:4: error: expected error \"C interface for variadic functions is not supported yet.\" was not produced\n// expected-error@+1{{C interface for variadic functions is not supported yet.}}\n   ^~~~~~~~~~~~~~~~~~~~~~~~~~~~~~~~~~~~~~~~~~~~~~~~~~~~~~~~\n",
      "stdout_path": "outputs\\discovery_mlir23_mainseed\\artifacts\\conversion_functollvm_convert_funcs_mlir__symbol_dce_inliner_canonicalize.stdout.mlir",
      "stderr_path": "outputs\\discovery_mlir23_mainseed\\artifacts\\conversion_functollvm_convert_funcs_mlir__symbol_dce_inliner_canonicalize.stderr.txt",
      "category": "parser"
    },
    {
      "seed": "seeds\\real_official_main23\\conversion_functollvm_convert_funcs_mlir.mlir",
      "pipeline": "affine_lowering_stress",
      "command": "C:\\Users\\lenovo\\.cache\\codex-runtimes\\codex-primary-runtime\\dependencies\\python\\python.exe scripts\\ssh_mlir_opt.py --lower-affine --canonicalize --cse -o - < seeds\\real_official_main23\\conversion_functollvm_convert_funcs_mlir.mlir",
      "return_code": 1,
      "timed_out": false,
      "elapsed_ms": 595,
      "stdout": "",
      "stderr": "<stdin>:71:1: error: redefinition of symbol named 'variadic_func'\nfunc.func @variadic_func(%arg0: i32) attributes { \"func.varargs\" = true, \"llvm.emit_c_interface\" } {\n^\n<stdin>:71:1: note: see current operation: \n\"func.func\"() <{function_type = (i32) -> (), sym_name = \"variadic_func\"}> ({\n^bb0(%arg0: i32):\n  \"func.return\"() : () -> ()\n}) {func.varargs = true, llvm.emit_c_interface} : () -> ()\n<stdin>:37:1: note: see existing symbol definition here\nfunc.func @variadic_func(%arg0: i32) attributes { \"func.varargs\" = true } {\n^\n<stdin>:65:4: error: expected error \"'func.func' op invalid llvm.func propertyInvalid attribute `linkage` in property conversion: 3 : i64\" was not produced\n// expected-error@+1{{'func.func' op invalid llvm.func propertyInvalid attribute `linkage` in property conversion: 3 : i64}}\n   ^~~~~~~~~~~~~~~~~~~~~~~~~~~~~~~~~~~~~~~~~~~~~~~~~~~~~~~~~~~~~~~~~~~~~~~~~~~~~~~~~~~~~~~~~~~~~~~~~~~~\n<stdin>:70:4: error: expected error \"C interface for variadic functions is not supported yet.\" was not produced\n// expected-error@+1{{C interface for variadic functions is not supported yet.}}\n   ^~~~~~~~~~~~~~~~~~~~~~~~~~~~~~~~~~~~~~~~~~~~~~~~~~~~~~~~\n",
      "stdout_path": "outputs\\discovery_mlir23_mainseed\\artifacts\\conversion_functollvm_convert_funcs_mlir__affine_lowering_stress.stdout.mlir",
      "stderr_path": "outputs\\discovery_mlir23_mainseed\\artifacts\\conversion_functollvm_convert_funcs_mlir__affine_lowering_stress.stderr.txt",
      "category": "parser"
    },
    {
      "seed": "seeds\\real_official_main23\\conversion_functollvm_convert_funcs_mlir.mlir",
      "pipeline": "scf_to_cf_stress",
      "command": "C:\\Users\\lenovo\\.cache\\codex-runtimes\\codex-primary-runtime\\dependencies\\python\\python.exe scripts\\ssh_mlir_opt.py --convert-scf-to-cf --canonicalize --cse -o - < seeds\\real_official_main23\\conversion_functollvm_convert_funcs_mlir.mlir",
      "return_code": 1,
      "timed_out": false,
      "elapsed_ms": 579,
      "stdout": "",
      "stderr": "<stdin>:71:1: error: redefinition of symbol named 'variadic_func'\nfunc.func @variadic_func(%arg0: i32) attributes { \"func.varargs\" = true, \"llvm.emit_c_interface\" } {\n^\n<stdin>:71:1: note: see current operation: \n\"func.func\"() <{function_type = (i32) -> (), sym_name = \"variadic_func\"}> ({\n^bb0(%arg0: i32):\n  \"func.return\"() : () -> ()\n}) {func.varargs = true, llvm.emit_c_interface} : () -> ()\n<stdin>:37:1: note: see existing symbol definition here\nfunc.func @variadic_func(%arg0: i32) attributes { \"func.varargs\" = true } {\n^\n<stdin>:65:4: error: expected error \"'func.func' op invalid llvm.func propertyInvalid attribute `linkage` in property conversion: 3 : i64\" was not produced\n// expected-error@+1{{'func.func' op invalid llvm.func propertyInvalid attribute `linkage` in property conversion: 3 : i64}}\n   ^~~~~~~~~~~~~~~~~~~~~~~~~~~~~~~~~~~~~~~~~~~~~~~~~~~~~~~~~~~~~~~~~~~~~~~~~~~~~~~~~~~~~~~~~~~~~~~~~~~~\n<stdin>:70:4: error: expected error \"C interface for variadic functions is not supported yet.\" was not produced\n// expected-error@+1{{C interface for variadic functions is not supported yet.}}\n   ^~~~~~~~~~~~~~~~~~~~~~~~~~~~~~~~~~~~~~~~~~~~~~~~~~~~~~~~\n",
      "stdout_path": "outputs\\discovery_mlir23_mainseed\\artifacts\\conversion_functollvm_convert_funcs_mlir__scf_to_cf_stress.stdout.mlir",
      "stderr_path": "outputs\\discovery_mlir23_mainseed\\artifacts\\conversion_functollvm_convert_funcs_mlir__scf_to_cf_stress.stderr.txt",
      "category": "parser"
    },
    {
      "seed": "seeds\\real_official_main23\\conversion_functollvm_convert_funcs_mlir.mlir",
      "pipeline": "vector_lowering_stress",
      "command": "C:\\Users\\lenovo\\.cache\\codex-runtimes\\codex-primary-runtime\\dependencies\\python\\python.exe scripts\\ssh_mlir_opt.py --convert-vector-to-scf --convert-vector-to-llvm --canonicalize -o - < seeds\\real_official_main23\\conversion_functollvm_convert_funcs_mlir.mlir",
      "return_code": 1,
      "timed_out": false,
      "elapsed_ms": 577,
      "stdout": "",
      "stderr": "<stdin>:71:1: error: redefinition of symbol named 'variadic_func'\nfunc.func @variadic_func(%arg0: i32) attributes { \"func.varargs\" = true, \"llvm.emit_c_interface\" } {\n^\n<stdin>:71:1: note: see current operation: \n\"func.func\"() <{function_type = (i32) -> (), sym_name = \"variadic_func\"}> ({\n^bb0(%arg0: i32):\n  \"func.return\"() : () -> ()\n}) {func.varargs = true, llvm.emit_c_interface} : () -> ()\n<stdin>:37:1: note: see existing symbol definition here\nfunc.func @variadic_func(%arg0: i32) attributes { \"func.varargs\" = true } {\n^\n<stdin>:65:4: error: expected error \"'func.func' op invalid llvm.func propertyInvalid attribute `linkage` in property conversion: 3 : i64\" was not produced\n// expected-error@+1{{'func.func' op invalid llvm.func propertyInvalid attribute `linkage` in property conversion: 3 : i64}}\n   ^~~~~~~~~~~~~~~~~~~~~~~~~~~~~~~~~~~~~~~~~~~~~~~~~~~~~~~~~~~~~~~~~~~~~~~~~~~~~~~~~~~~~~~~~~~~~~~~~~~~\n<stdin>:70:4: error: expected error \"C interface for variadic functions is not supported yet.\" was not produced\n// expected-error@+1{{C interface for variadic functions is not supported yet.}}\n   ^~~~~~~~~~~~~~~~~~~~~~~~~~~~~~~~~~~~~~~~~~~~~~~~~~~~~~~~\n",
      "stdout_path": "outputs\\discovery_mlir23_mainseed\\artifacts\\conversion_functollvm_convert_funcs_mlir__vector_lowering_stress.stdout.mlir",
      "stderr_path": "outputs\\discovery_mlir23_mainseed\\artifacts\\conversion_functollvm_convert_funcs_mlir__vector_lowering_stress.stderr.txt",
      "category": "parser"
    },
    {
      "seed": "seeds\\real_official_main23\\conversion_functollvm_convert_funcs_mlir.mlir",
      "pipeline": "bufferization_probe",
      "command": "C:\\Users\\lenovo\\.cache\\codex-runtimes\\codex-primary-runtime\\dependencies\\python\\python.exe scripts\\ssh_mlir_opt.py --one-shot-bufferize --canonicalize -o - < seeds\\real_official_main23\\conversion_functollvm_convert_funcs_mlir.mlir",
      "return_code": 1,
      "timed_out": false,
      "elapsed_ms": 564,
      "stdout": "",
      "stderr": "<stdin>:71:1: error: redefinition of symbol named 'variadic_func'\nfunc.func @variadic_func(%arg0: i32) attributes { \"func.varargs\" = true, \"llvm.emit_c_interface\" } {\n^\n<stdin>:71:1: note: see current operation: \n\"func.func\"() <{function_type = (i32) -> (), sym_name = \"variadic_func\"}> ({\n^bb0(%arg0: i32):\n  \"func.return\"() : () -> ()\n}) {func.varargs = true, llvm.emit_c_interface} : () -> ()\n<stdin>:37:1: note: see existing symbol definition here\nfunc.func @variadic_func(%arg0: i32) attributes { \"func.varargs\" = true } {\n^\n<stdin>:65:4: error: expected error \"'func.func' op invalid llvm.func propertyInvalid attribute `linkage` in property conversion: 3 : i64\" was not produced\n// expected-error@+1{{'func.func' op invalid llvm.func propertyInvalid attribute `linkage` in property conversion: 3 : i64}}\n   ^~~~~~~~~~~~~~~~~~~~~~~~~~~~~~~~~~~~~~~~~~~~~~~~~~~~~~~~~~~~~~~~~~~~~~~~~~~~~~~~~~~~~~~~~~~~~~~~~~~~\n<stdin>:70:4: error: expected error \"C interface for variadic functions is not supported yet.\" was not produced\n// expected-error@+1{{C interface for variadic functions is not supported yet.}}\n   ^~~~~~~~~~~~~~~~~~~~~~~~~~~~~~~~~~~~~~~~~~~~~~~~~~~~~~~~\n",
      "stdout_path": "outputs\\discovery_mlir23_mainseed\\artifacts\\conversion_functollvm_convert_funcs_mlir__bufferization_probe.stdout.mlir",
      "stderr_path": "outputs\\discovery_mlir23_mainseed\\artifacts\\conversion_functollvm_convert_funcs_mlir__bufferization_probe.stderr.txt",
      "category": "parser"
    },
    {
      "seed": "seeds\\real_official_main23\\conversion_functollvm_convert_funcs_mlir.mlir",
      "pipeline": "linalg_affine_probe",
      "command": "C:\\Users\\lenovo\\.cache\\codex-runtimes\\codex-primary-runtime\\dependencies\\python\\python.exe scripts\\ssh_mlir_opt.py --convert-linalg-to-affine-loops --canonicalize -o - < seeds\\real_official_main23\\conversion_functollvm_convert_funcs_mlir.mlir",
      "return_code": 1,
      "timed_out": false,
      "elapsed_ms": 593,
      "stdout": "",
      "stderr": "<stdin>:71:1: error: redefinition of symbol named 'variadic_func'\nfunc.func @variadic_func(%arg0: i32) attributes { \"func.varargs\" = true, \"llvm.emit_c_interface\" } {\n^\n<stdin>:71:1: note: see current operation: \n\"func.func\"() <{function_type = (i32) -> (), sym_name = \"variadic_func\"}> ({\n^bb0(%arg0: i32):\n  \"func.return\"() : () -> ()\n}) {func.varargs = true, llvm.emit_c_interface} : () -> ()\n<stdin>:37:1: note: see existing symbol definition here\nfunc.func @variadic_func(%arg0: i32) attributes { \"func.varargs\" = true } {\n^\n<stdin>:65:4: error: expected error \"'func.func' op invalid llvm.func propertyInvalid attribute `linkage` in property conversion: 3 : i64\" was not produced\n// expected-error@+1{{'func.func' op invalid llvm.func propertyInvalid attribute `linkage` in property conversion: 3 : i64}}\n   ^~~~~~~~~~~~~~~~~~~~~~~~~~~~~~~~~~~~~~~~~~~~~~~~~~~~~~~~~~~~~~~~~~~~~~~~~~~~~~~~~~~~~~~~~~~~~~~~~~~~\n<stdin>:70:4: error: expected error \"C interface for variadic functions is not supported yet.\" was not produced\n// expected-error@+1{{C interface for variadic functions is not supported yet.}}\n   ^~~~~~~~~~~~~~~~~~~~~~~~~~~~~~~~~~~~~~~~~~~~~~~~~~~~~~~~\n",
      "stdout_path": "outputs\\discovery_mlir23_mainseed\\artifacts\\conversion_functollvm_convert_funcs_mlir__linalg_affine_probe.stdout.mlir",
      "stderr_path": "outputs\\discovery_mlir23_mainseed\\artifacts\\conversion_functollvm_convert_funcs_mlir__linalg_affine_probe.stderr.txt",
      "category": "parser"
    },
    {
      "seed": "seeds\\real_official_main23\\conversion_functollvm_convert_funcs_mlir.mlir",
      "pipeline": "gpu_parallel_probe",
      "command": "C:\\Users\\lenovo\\.cache\\codex-runtimes\\codex-primary-runtime\\dependencies\\python\\python.exe scripts\\ssh_mlir_opt.py --convert-parallel-loops-to-gpu --canonicalize -o - < seeds\\real_official_main23\\conversion_functollvm_convert_funcs_mlir.mlir",
      "return_code": 1,
      "timed_out": false,
      "elapsed_ms": 568,
      "stdout": "",
      "stderr": "<stdin>:71:1: error: redefinition of symbol named 'variadic_func'\nfunc.func @variadic_func(%arg0: i32) attributes { \"func.varargs\" = true, \"llvm.emit_c_interface\" } {\n^\n<stdin>:71:1: note: see current operation: \n\"func.func\"() <{function_type = (i32) -> (), sym_name = \"variadic_func\"}> ({\n^bb0(%arg0: i32):\n  \"func.return\"() : () -> ()\n}) {func.varargs = true, llvm.emit_c_interface} : () -> ()\n<stdin>:37:1: note: see existing symbol definition here\nfunc.func @variadic_func(%arg0: i32) attributes { \"func.varargs\" = true } {\n^\n<stdin>:65:4: error: expected error \"'func.func' op invalid llvm.func propertyInvalid attribute `linkage` in property conversion: 3 : i64\" was not produced\n// expected-error@+1{{'func.func' op invalid llvm.func propertyInvalid attribute `linkage` in property conversion: 3 : i64}}\n   ^~~~~~~~~~~~~~~~~~~~~~~~~~~~~~~~~~~~~~~~~~~~~~~~~~~~~~~~~~~~~~~~~~~~~~~~~~~~~~~~~~~~~~~~~~~~~~~~~~~~\n<stdin>:70:4: error: expected error \"C interface for variadic functions is not supported yet.\" was not produced\n// expected-error@+1{{C interface for variadic functions is not supported yet.}}\n   ^~~~~~~~~~~~~~~~~~~~~~~~~~~~~~~~~~~~~~~~~~~~~~~~~~~~~~~~\n",
      "stdout_path": "outputs\\discovery_mlir23_mainseed\\artifacts\\conversion_functollvm_convert_funcs_mlir__gpu_parallel_probe.stdout.mlir",
      "stderr_path": "outputs\\discovery_mlir23_mainseed\\artifacts\\conversion_functollvm_convert_funcs_mlir__gpu_parallel_probe.stderr.txt",
      "category": "parser"
    },
    {
      "seed": "seeds\\real_official_main23\\conversion_memreftollvm_memref_to_llvm_mlir.mlir",
      "pipeline": "parse_verify",
      "command": "C:\\Users\\lenovo\\.cache\\codex-runtimes\\codex-primary-runtime\\dependencies\\python\\python.exe scripts\\ssh_mlir_opt.py  -o - < seeds\\real_official_main23\\conversion_memreftollvm_memref_to_llvm_mlir.mlir",
      "return_code": 0,
      "timed_out": false,
      "elapsed_ms": 594,
      "stdout": "module {\n  func.func @view(%arg0: index, %arg1: index, %arg2: index) {\n    %alloc = memref.alloc() : memref<2048xi8>\n    %view = memref.view %alloc[%arg2][%arg0, %arg1] : memref<2048xi8> to memref<?x?xf32>\n    %view_0 = memref.view %alloc[%arg2][%arg1] : memref<2048xi8> to memref<4x?xf32>\n    %view_1 = memref.view %alloc[%arg2][] : memref<2048xi8> to memref<64x4xf32>\n    %alloc_2 = memref.alloc() : memref<2048xi8, 4>\n    %view_3 = memref.view %alloc_2[%arg2][] : memref<2048xi8, 4> to memref<64x4xf32, 4>\n    return\n  }\n  func.func @view_empty_memref(%arg0: index, %arg1: memref<0xi8>) {\n    %view = memref.view %arg1[%arg0][] : memref<0xi8> to memref<0x4xf32>\n    return\n  }\n  func.func @view_memref_as_rank0(%arg0: index, %arg1: memref<2xi8>) {\n    %view = memref.view %arg1[%arg0][] : memref<2xi8> to memref<bf16>\n    return\n  }\n  func.func @subview(%arg0: memref<64x4xf32, strided<[4, 1]>>, %arg1: index, %arg2: index, %arg3: index) {\n    %subview = memref.subview %arg0[%arg1, %arg2] [%arg1, %arg2] [%arg1, %arg2] : memref<64x4xf32, strided<[4, 1]>> to memref<?x?xf32, strided<[?, ?], offset: ?>>\n    return\n  }\n  func.func @assume_alignment(%arg0: memref<4x4xf16>) {\n    %assume_align = memref.assume_alignment %arg0, 16 : memref<4x4xf16>\n    return\n  }\n  func.func @distinct_objects(%arg0: memref<?xf16>, %arg1: memref<?xf32>, %arg2: memref<?xf64>) -> (memref<?xf16>, memref<?xf32>, memref<?xf64>) {\n    %0:3 = memref.distinct_objects %arg0, %arg1, %arg2 : memref<?xf16>, memref<?xf32>, memref<?xf64>\n    return %0#0, %0#1, %0#2 : memref<?xf16>, memref<?xf32>, memref<?xf64>\n  }\n  func.func @distinct_objects_noop(%arg0: memref<?xf16>) -> memref<?xf16> {\n    %0 = memref.distinct_objects %arg0 : memref<?xf16>\n    return %0 : memref<?xf16>\n  }\n  func.func @assume_alignment_w_offset(%arg0: memref<4x4xf16, strided<[?, ?], offset: ?>>) {\n    %assume_align = memref.assume_alignment %arg0, 16 : memref<4x4xf16, strided<[?, ?], offset: ?>>\n    return\n  }\n  func.func @dim_of_unranked(%arg0: memref<*xi32>) -> index {\n    %c0 = arith.constant 0 : index\n    %dim = memref.dim %arg0, %c0 : memref<*xi32>\n    return %dim : index\n  }\n  func.func @address_space(%arg0: memref<32xf32, 7>) {\n    %alloc = memref.alloc() : memref<32xf32, 5>\n    %c7 = arith.constant 7 : index\n    %0 = memref.load %alloc[%c7] : memref<32xf32, 5>\n    return\n  }\n  func.func @transpose(%arg0: memref<?x?x?xf32, strided<[?, ?, 1], offset: ?>>) {\n    %transpose = memref.transpose %arg0 (d0, d1, d2) -> (d2, d0, d1) : memref<?x?x?xf32, strided<[?, ?, 1], offset: ?>> to memref<?x?x?xf32, strided<[1, ?, ?], offset: ?>>\n    return\n  }\n  memref.global @gv0 : memref<2xf32> = uninitialized\n  memref.global \"private\" @gv1 : memref<2xf32>\n  memref.global @gv2 : memref<2x3xf32> = dense<[[0.000000e+00, 1.000000e+00, 2.000000e+00], [3.000000e+00, 4.000000e+00, 5.000000e+00]]>\n  func.func @get_gv0_memref() {\n    %0 = memref.get_global @gv0 : memref<2xf32>\n    return\n  }\n  func.func @get_gv2_memref() {\n    %0 = memref.get_global @gv2 : memref<2x3xf32>\n    return\n  }\n  memref.global @gv3 : memref<f32> = dense<1.000000e+00>\n  func.func @get_gv3_memref() {\n    %0 = memref.get_global @gv3 : memref<f32>\n    return\n  }\n  memref.global \"private\" @gv4 : memref<f32> = dense<1.000000e+00> {alignment = 64 : i64}\n  func.func @expand_shape_static(%arg0: memref<3x4x5xf32>) -> memref<1x3x4x1x5xf32> {\n    %expand_shape = memref.expand_shape %arg0 [[0, 1], [2], [3, 4]] output_shape [1, 3, 4, 1, 5] : memref<3x4x5xf32> into memref<1x3x4x1x5xf32>\n    return %expand_shape : memref<1x3x4x1x5xf32>\n  }\n  func.func @collapse_shape_static(%arg0: memref<1x3x4x1x5xf32>) -> memref<3x4x5xf32> {\n    %collapse_shape = memref.collapse_shape %arg0 [[0, 1], [2], [3, 4]] : memref<1x3x4x1x5xf32> into memref<3x4x5xf32>\n    return %collapse_shape : memref<3x4x5xf32>\n  }\n  func.func @rank_of_unranked(%arg0: memref<*xi32>) {\n    %0 = memref.rank %arg0 : memref<*xi32>\n    return\n  }\n  func.func @rank_of_ranked(%arg0: memref<?xi32>) {\n    %0 = memref.rank %arg0 : memref<?xi32>\n    return\n  }\n  func.func @atomic_rmw(%arg0: memref<10xi32>, %arg1: i32, %arg2: memref<10xf32>, %arg3: f32, %arg4: index) {\n    %0 = memref.atomic_rmw assign %arg3, %arg2[%arg4] : (f32, memref<10xf32>) -> f32\n    %1 = memref.atomic_rmw addi %arg1, %arg0[%arg4] : (i32, memref<10xi32>) -> i32\n    %2 = memref.atomic_rmw maxs %arg1, %arg0[%arg4] : (i32, memref<10xi32>) -> i32\n    %3 = memref.atomic_rmw mins %arg1, %arg0[%arg4] : (i32, memref<10xi32>) -> i32\n    %4 = memref.atomic_rmw maxu %arg1, %arg0[%arg4] : (i32, memref<10xi32>) -> i32\n    %5 = memref.atomic_rmw minu %arg1, %arg0[%arg4] : (i32, memref<10xi32>) -> i32\n    %6 = memref.atomic_rmw addf %arg3, %arg2[%arg4] : (f32, memref<10xf32>) -> f32\n    %7 = memref.atomic_rmw maximumf %arg3, %arg2[%arg4] : (f32, memref<10xf32>) -> f32\n    %8 = memref.atomic_rmw maxnumf %arg3, %arg2[%arg4] : (f32, memref<10xf32>) -> f32\n    %9 = memref.atomic_rmw minimumf %arg3, %arg2[%arg4] : (f32, memref<10xf32>) -> f32\n    %10 = memref.atomic_rmw minnumf %arg3, %arg2[%arg4] : (f32, memref<10xf32>) -> f32\n    %11 = memref.atomic_rmw ori %arg1, %arg0[%arg4] : (i32, memref<10xi32>) -> i32\n    %12 = memref.atomic_rmw andi %arg1, %arg0[%arg4] : (i32, memref<10xi32>) -> i32\n    %13 = memref.atomic_rmw xori %arg1, %arg0[%arg4] : (i32, memref<10xi32>) -> i32\n    return\n  }\n  func.func @atomic_rmw_with_offset(%arg0: memref<10xi32, strided<[1], offset: 5>>, %arg1: i32, %arg2: index) {\n    %0 = memref.atomic_rmw andi %arg1, %arg0[%arg2] : (i32, memref<10xi32, strided<[1], offset: 5>>) -> i32\n    return\n  }\n  llvm.func @generic_atomic_rmw() {\n    %0 = \"test.foo\"() : () -> memref<10xi32>\n    %1 = \"test.foo\"() : () -> index\n    %2 = memref.generic_atomic_rmw %0[%1] : memref<10xi32> {\n    ^bb0(%arg0: i32):\n      memref.atomic_yield %arg0 : i32\n    }\n    llvm.return\n  }\n  llvm.func @generic_atomic_rmw_f16() {\n    %0 = \"test.foo\"() : () -> memref<10xf16>\n    %1 = \"test.foo\"() : () -> index\n    %2 = memref.generic_atomic_rmw %0[%1] : memref<10xf16> {\n    ^bb0(%arg0: f16):\n      memref.atomic_yield %arg0 : f16\n    }\n    llvm.return\n  }\n  llvm.func @generic_atomic_rmw_in_alloca_scope() {\n    %c1 = arith.constant 1 : index\n    %alloc = memref.alloc() : memref<2x3xi32>\n    memref.alloca_scope  {\n      %0 = memref.generic_atomic_rmw %alloc[%c1, %c1] : memref<2x3xi32> {\n      ^bb0(%arg0: i32):\n        memref.atomic_yield %arg0 : i32\n      }\n    }\n    llvm.return\n  }\n  func.func @memref_copy_ranked() {\n    %alloc = memref.alloc() : memref<2xf32>\n    %cast = memref.cast %alloc : memref<2xf32> to memref<?xf32>\n    %alloc_0 = memref.alloc() : memref<2xf32>\n    %cast_1 = memref.cast %alloc_0 : memref<2xf32> to memref<?xf32>\n    memref.copy %cast, %cast_1 : memref<?xf32> to memref<?xf32>\n    return\n  }\n  func.func @memref_copy_contiguous(%arg0: memref<16x4xi32>, %arg1: index) {\n    %alloc = memref.alloc() : memref<1x2xi32>\n    %subview = memref.subview %arg0[%arg1, 0] [1, 2] [1, 1] : memref<16x4xi32> to memref<1x2xi32, strided<[4, 1], offset: ?>>\n    memref.copy %subview, %alloc : memref<1x2xi32, strided<[4, 1], offset: ?>> to memref<1x2xi32>\n    return\n  }\n  func.func @memref_copy_0d_offset(%arg0: memref<2xi32>) {\n    %alloc = memref.alloc() : memref<i32>\n    %subview = memref.subview %arg0[1] [1] [1] : memref<2xi32> to memref<1xi32, strided<[1], offset: 1>>\n    %collapse_shape = memref.collapse_shape %subview [] : memref<1xi32, strided<[1], offset: 1>> into memref<i32, strided<[], offset: 1>>\n    memref.copy %collapse_shape, %alloc : memref<i32, strided<[], offset: 1>> to memref<i32>\n    return\n  }\n  func.func @memref_copy_noncontiguous(%arg0: memref<16x2xi32>, %arg1: index) {\n    %alloc = memref.alloc() : memref<2x1xi32>\n    %subview = memref.subview %arg0[%arg1, 0] [2, 1] [1, 1] : memref<16x2xi32> to memref<2x1xi32, strided<[2, 1], offset: ?>>\n    memref.copy %subview, %alloc : memref<2x1xi32, strided<[2, 1], offset: ?>> to memref<2x1xi32>\n    return\n  }\n  func.func @memref_copy_unranked() {\n    %alloc = memref.alloc() : memref<2xi1>\n    %cast = memref.cast %alloc : memref<2xi1> to memref<*xi1>\n    %alloc_0 = memref.alloc() : memref<2xi1>\n    %cast_1 = memref.cast %alloc_0 : memref<2xi1> to memref<*xi1>\n    memref.copy %cast, %cast_1 : memref<*xi1> to memref<*xi1>\n    return\n  }\n  func.func @extract_aligned_pointer_as_index(%arg0: memref<?xf32>) -> index {\n    %intptr = memref.extract_aligned_pointer_as_index %arg0 : memref<?xf32> -> index\n    return %intptr : index\n  }\n  func.func @extract_aligned_pointer_as_index_unranked(%arg0: memref<*xf32>) -> index {\n    %intptr = memref.extract_aligned_pointer_as_index %arg0 : memref<*xf32> -> index\n    return %intptr : index\n  }\n  func.func @extract_strided_metadata(%arg0: memref<?x?xf32, strided<[?, ?], offset: ?>>) {\n    %base_buffer, %offset, %sizes:2, %strides:2 = memref.extract_strided_metadata %arg0 : memref<?x?xf32, strided<[?, ?], offset: ?>> -> memref<f32>, index, index, index, index, index\n    return\n  }\n  func.func @load_non_temporal(%arg0: memref<32xf32>) {\n    %c7 = arith.constant 7 : index\n    %0 = memref.load %arg0[%c7] {nontemporal = true} : memref<32xf32>\n    return\n  }\n  func.func @load_with_alignment(%arg0: memref<32xf32>, %arg1: index) {\n    %0 = memref.load %arg0[%arg1] {alignment = 32 : i64} : memref<32xf32>\n    return\n  }\n  func.func @store_non_temporal(%arg0: memref<32xf32>, %arg1: memref<32xf32>) {\n    %c7 = arith.constant 7 : index\n    %0 = memref.load %arg0[%c7] {nontemporal = true} : memref<32xf32>\n    memref.store %0, %arg1[%c7] {nontemporal = true} : memref<32xf32>\n    return\n  }\n  func.func @store_with_alignment(%arg0: memref<32xf32>, %arg1: f32, %arg2: index) {\n    memref.store %arg1, %arg0[%arg2] {alignment = 32 : i64} : memref<32xf32>\n    return\n  }\n  func.func @alloca_unconvertable_memory_space() {\n    %alloca = memref.alloca() : memref<1x32x33xi32, #spirv.storage_class<StorageBuffer>>\n    return\n  }\n  func.func @alloca_huge(%arg0: index) {\n    %alloca = memref.alloca() : memref<9223372036854775807x3xi32>\n    return\n  }\n}\n\n",
      "stderr": "",
      "stdout_path": "outputs\\discovery_mlir23_mainseed\\artifacts\\conversion_memreftollvm_memref_to_llvm_mlir__parse_verify.stdout.mlir",
      "stderr_path": "outputs\\discovery_mlir23_mainseed\\artifacts\\conversion_memreftollvm_memref_to_llvm_mlir__parse_verify.stderr.txt",
      "category": "success"
    },
    {
      "seed": "seeds\\real_official_main23\\conversion_memreftollvm_memref_to_llvm_mlir.mlir",
      "pipeline": "canonicalize_cse_sccp",
      "command": "C:\\Users\\lenovo\\.cache\\codex-runtimes\\codex-primary-runtime\\dependencies\\python\\python.exe scripts\\ssh_mlir_opt.py --canonicalize --cse --sccp --canonicalize -o - < seeds\\real_official_main23\\conversion_memreftollvm_memref_to_llvm_mlir.mlir",
      "return_code": 0,
      "timed_out": false,
      "elapsed_ms": 585,
      "stdout": "module {\n  func.func @view(%arg0: index, %arg1: index, %arg2: index) {\n    return\n  }\n  func.func @view_empty_memref(%arg0: index, %arg1: memref<0xi8>) {\n    return\n  }\n  func.func @view_memref_as_rank0(%arg0: index, %arg1: memref<2xi8>) {\n    return\n  }\n  func.func @subview(%arg0: memref<64x4xf32, strided<[4, 1]>>, %arg1: index, %arg2: index, %arg3: index) {\n    return\n  }\n  func.func @assume_alignment(%arg0: memref<4x4xf16>) {\n    return\n  }\n  func.func @distinct_objects(%arg0: memref<?xf16>, %arg1: memref<?xf32>, %arg2: memref<?xf64>) -> (memref<?xf16>, memref<?xf32>, memref<?xf64>) {\n    %0:3 = memref.distinct_objects %arg0, %arg1, %arg2 : memref<?xf16>, memref<?xf32>, memref<?xf64>\n    return %0#0, %0#1, %0#2 : memref<?xf16>, memref<?xf32>, memref<?xf64>\n  }\n  func.func @distinct_objects_noop(%arg0: memref<?xf16>) -> memref<?xf16> {\n    %0 = memref.distinct_objects %arg0 : memref<?xf16>\n    return %0 : memref<?xf16>\n  }\n  func.func @assume_alignment_w_offset(%arg0: memref<4x4xf16, strided<[?, ?], offset: ?>>) {\n    return\n  }\n  func.func @dim_of_unranked(%arg0: memref<*xi32>) -> index {\n    %c0 = arith.constant 0 : index\n    %dim = memref.dim %arg0, %c0 : memref<*xi32>\n    return %dim : index\n  }\n  func.func @address_space(%arg0: memref<32xf32, 7>) {\n    return\n  }\n  func.func @transpose(%arg0: memref<?x?x?xf32, strided<[?, ?, 1], offset: ?>>) {\n    return\n  }\n  memref.global @gv0 : memref<2xf32> = uninitialized\n  memref.global \"private\" @gv1 : memref<2xf32>\n  memref.global @gv2 : memref<2x3xf32> = dense<[[0.000000e+00, 1.000000e+00, 2.000000e+00], [3.000000e+00, 4.000000e+00, 5.000000e+00]]>\n  func.func @get_gv0_memref() {\n    return\n  }\n  func.func @get_gv2_memref() {\n    return\n  }\n  memref.global @gv3 : memref<f32> = dense<1.000000e+00>\n  func.func @get_gv3_memref() {\n    return\n  }\n  memref.global \"private\" @gv4 : memref<f32> = dense<1.000000e+00> {alignment = 64 : i64}\n  func.func @expand_shape_static(%arg0: memref<3x4x5xf32>) -> memref<1x3x4x1x5xf32> {\n    %expand_shape = memref.expand_shape %arg0 [[0, 1], [2], [3, 4]] output_shape [1, 3, 4, 1, 5] : memref<3x4x5xf32> into memref<1x3x4x1x5xf32>\n    return %expand_shape : memref<1x3x4x1x5xf32>\n  }\n  func.func @collapse_shape_static(%arg0: memref<1x3x4x1x5xf32>) -> memref<3x4x5xf32> {\n    %collapse_shape = memref.collapse_shape %arg0 [[0, 1], [2], [3, 4]] : memref<1x3x4x1x5xf32> into memref<3x4x5xf32>\n    return %collapse_shape : memref<3x4x5xf32>\n  }\n  func.func @rank_of_unranked(%arg0: memref<*xi32>) {\n    return\n  }\n  func.func @rank_of_ranked(%arg0: memref<?xi32>) {\n    return\n  }\n  func.func @atomic_rmw(%arg0: memref<10xi32>, %arg1: i32, %arg2: memref<10xf32>, %arg3: f32, %arg4: index) {\n    %0 = memref.atomic_rmw assign %arg3, %arg2[%arg4] : (f32, memref<10xf32>) -> f32\n    %1 = memref.atomic_rmw addi %arg1, %arg0[%arg4] : (i32, memref<10xi32>) -> i32\n    %2 = memref.atomic_rmw maxs %arg1, %arg0[%arg4] : (i32, memref<10xi32>) -> i32\n    %3 = memref.atomic_rmw mins %arg1, %arg0[%arg4] : (i32, memref<10xi32>) -> i32\n    %4 = memref.atomic_rmw maxu %arg1, %arg0[%arg4] : (i32, memref<10xi32>) -> i32\n    %5 = memref.atomic_rmw minu %arg1, %arg0[%arg4] : (i32, memref<10xi32>) -> i32\n    %6 = memref.atomic_rmw addf %arg3, %arg2[%arg4] : (f32, memref<10xf32>) -> f32\n    %7 = memref.atomic_rmw maximumf %arg3, %arg2[%arg4] : (f32, memref<10xf32>) -> f32\n    %8 = memref.atomic_rmw maxnumf %arg3, %arg2[%arg4] : (f32, memref<10xf32>) -> f32\n    %9 = memref.atomic_rmw minimumf %arg3, %arg2[%arg4] : (f32, memref<10xf32>) -> f32\n    %10 = memref.atomic_rmw minnumf %arg3, %arg2[%arg4] : (f32, memref<10xf32>) -> f32\n    %11 = memref.atomic_rmw ori %arg1, %arg0[%arg4] : (i32, memref<10xi32>) -> i32\n    %12 = memref.atomic_rmw andi %arg1, %arg0[%arg4] : (i32, memref<10xi32>) -> i32\n    %13 = memref.atomic_rmw xori %arg1, %arg0[%arg4] : (i32, memref<10xi32>) -> i32\n    return\n  }\n  func.func @atomic_rmw_with_offset(%arg0: memref<10xi32, strided<[1], offset: 5>>, %arg1: i32, %arg2: index) {\n    %0 = memref.atomic_rmw andi %arg1, %arg0[%arg2] : (i32, memref<10xi32, strided<[1], offset: 5>>) -> i32\n    return\n  }\n  llvm.func @generic_atomic_rmw() {\n    %0 = \"test.foo\"() : () -> memref<10xi32>\n    %1 = \"test.foo\"() : () -> index\n    %2 = memref.generic_atomic_rmw %0[%1] : memref<10xi32> {\n    ^bb0(%arg0: i32):\n      memref.atomic_yield %arg0 : i32\n    }\n    llvm.return\n  }\n  llvm.func @generic_atomic_rmw_f16() {\n    %0 = \"test.foo\"() : () -> memref<10xf16>\n    %1 = \"test.foo\"() : () -> index\n    %2 = memref.generic_atomic_rmw %0[%1] : memref<10xf16> {\n    ^bb0(%arg0: f16):\n      memref.atomic_yield %arg0 : f16\n    }\n    llvm.return\n  }\n  llvm.func @generic_atomic_rmw_in_alloca_scope() {\n    %c1 = arith.constant 1 : index\n    %alloc = memref.alloc() : memref<2x3xi32>\n    %0 = memref.generic_atomic_rmw %alloc[%c1, %c1] : memref<2x3xi32> {\n    ^bb0(%arg0: i32):\n      memref.atomic_yield %arg0 : i32\n    }\n    llvm.return\n  }\n  func.func @memref_copy_ranked() {\n    %alloc = memref.alloc() : memref<2xf32>\n    %alloc_0 = memref.alloc() : memref<2xf32>\n    memref.copy %alloc, %alloc_0 : memref<2xf32> to memref<2xf32>\n    return\n  }\n  func.func @memref_copy_contiguous(%arg0: memref<16x4xi32>, %arg1: index) {\n    %alloc = memref.alloc() : memref<1x2xi32>\n    %subview = memref.subview %arg0[%arg1, 0] [1, 2] [1, 1] : memref<16x4xi32> to memref<1x2xi32, strided<[4, 1], offset: ?>>\n    memref.copy %subview, %alloc : memref<1x2xi32, strided<[4, 1], offset: ?>> to memref<1x2xi32>\n    return\n  }\n  func.func @memref_copy_0d_offset(%arg0: memref<2xi32>) {\n    %alloc = memref.alloc() : memref<i32>\n    %subview = memref.subview %arg0[1] [1] [1] : memref<2xi32> to memref<1xi32, strided<[1], offset: 1>>\n    %collapse_shape = memref.collapse_shape %subview [] : memref<1xi32, strided<[1], offset: 1>> into memref<i32, strided<[], offset: 1>>\n    memref.copy %collapse_shape, %alloc : memref<i32, strided<[], offset: 1>> to memref<i32>\n    return\n  }\n  func.func @memref_copy_noncontiguous(%arg0: memref<16x2xi32>, %arg1: index) {\n    %alloc = memref.alloc() : memref<2x1xi32>\n    %subview = memref.subview %arg0[%arg1, 0] [2, 1] [1, 1] : memref<16x2xi32> to memref<2x1xi32, strided<[2, 1], offset: ?>>\n    memref.copy %subview, %alloc : memref<2x1xi32, strided<[2, 1], offset: ?>> to memref<2x1xi32>\n    return\n  }\n  func.func @memref_copy_unranked() {\n    %alloc = memref.alloc() : memref<2xi1>\n    %cast = memref.cast %alloc : memref<2xi1> to memref<*xi1>\n    %alloc_0 = memref.alloc() : memref<2xi1>\n    %cast_1 = memref.cast %alloc_0 : memref<2xi1> to memref<*xi1>\n    memref.copy %cast, %cast_1 : memref<*xi1> to memref<*xi1>\n    return\n  }\n  func.func @extract_aligned_pointer_as_index(%arg0: memref<?xf32>) -> index {\n    %intptr = memref.extract_aligned_pointer_as_index %arg0 : memref<?xf32> -> index\n    return %intptr : index\n  }\n  func.func @extract_aligned_pointer_as_index_unranked(%arg0: memref<*xf32>) -> index {\n    %intptr = memref.extract_aligned_pointer_as_index %arg0 : memref<*xf32> -> index\n    return %intptr : index\n  }\n  func.func @extract_strided_metadata(%arg0: memref<?x?xf32, strided<[?, ?], offset: ?>>) {\n    return\n  }\n  func.func @load_non_temporal(%arg0: memref<32xf32>) {\n    return\n  }\n  func.func @load_with_alignment(%arg0: memref<32xf32>, %arg1: index) {\n    return\n  }\n  func.func @store_non_temporal(%arg0: memref<32xf32>, %arg1: memref<32xf32>) {\n    %c7 = arith.constant 7 : index\n    %0 = memref.load %arg0[%c7] {nontemporal = true} : memref<32xf32>\n    memref.store %0, %arg1[%c7] {nontemporal = true} : memref<32xf32>\n    return\n  }\n  func.func @store_with_alignment(%arg0: memref<32xf32>, %arg1: f32, %arg2: index) {\n    memref.store %arg1, %arg0[%arg2] {alignment = 32 : i64} : memref<32xf32>\n    return\n  }\n  func.func @alloca_unconvertable_memory_space() {\n    return\n  }\n  func.func @alloca_huge(%arg0: index) {\n    return\n  }\n}\n\n",
      "stderr": "",
      "stdout_path": "outputs\\discovery_mlir23_mainseed\\artifacts\\conversion_memreftollvm_memref_to_llvm_mlir__canonicalize_cse_sccp.stdout.mlir",
      "stderr_path": "outputs\\discovery_mlir23_mainseed\\artifacts\\conversion_memreftollvm_memref_to_llvm_mlir__canonicalize_cse_sccp.stderr.txt",
      "category": "success"
    },
    {
      "seed": "seeds\\real_official_main23\\conversion_memreftollvm_memref_to_llvm_mlir.mlir",
      "pipeline": "symbol_dce_inliner_canonicalize",
      "command": "C:\\Users\\lenovo\\.cache\\codex-runtimes\\codex-primary-runtime\\dependencies\\python\\python.exe scripts\\ssh_mlir_opt.py --symbol-dce --inline --canonicalize --cse -o - < seeds\\real_official_main23\\conversion_memreftollvm_memref_to_llvm_mlir.mlir",
      "return_code": 0,
      "timed_out": false,
      "elapsed_ms": 619,
      "stdout": "module {\n  func.func @view(%arg0: index, %arg1: index, %arg2: index) {\n    return\n  }\n  func.func @view_empty_memref(%arg0: index, %arg1: memref<0xi8>) {\n    return\n  }\n  func.func @view_memref_as_rank0(%arg0: index, %arg1: memref<2xi8>) {\n    return\n  }\n  func.func @subview(%arg0: memref<64x4xf32, strided<[4, 1]>>, %arg1: index, %arg2: index, %arg3: index) {\n    return\n  }\n  func.func @assume_alignment(%arg0: memref<4x4xf16>) {\n    return\n  }\n  func.func @distinct_objects(%arg0: memref<?xf16>, %arg1: memref<?xf32>, %arg2: memref<?xf64>) -> (memref<?xf16>, memref<?xf32>, memref<?xf64>) {\n    %0:3 = memref.distinct_objects %arg0, %arg1, %arg2 : memref<?xf16>, memref<?xf32>, memref<?xf64>\n    return %0#0, %0#1, %0#2 : memref<?xf16>, memref<?xf32>, memref<?xf64>\n  }\n  func.func @distinct_objects_noop(%arg0: memref<?xf16>) -> memref<?xf16> {\n    %0 = memref.distinct_objects %arg0 : memref<?xf16>\n    return %0 : memref<?xf16>\n  }\n  func.func @assume_alignment_w_offset(%arg0: memref<4x4xf16, strided<[?, ?], offset: ?>>) {\n    return\n  }\n  func.func @dim_of_unranked(%arg0: memref<*xi32>) -> index {\n    %c0 = arith.constant 0 : index\n    %dim = memref.dim %arg0, %c0 : memref<*xi32>\n    return %dim : index\n  }\n  func.func @address_space(%arg0: memref<32xf32, 7>) {\n    return\n  }\n  func.func @transpose(%arg0: memref<?x?x?xf32, strided<[?, ?, 1], offset: ?>>) {\n    return\n  }\n  memref.global @gv0 : memref<2xf32> = uninitialized\n  memref.global @gv2 : memref<2x3xf32> = dense<[[0.000000e+00, 1.000000e+00, 2.000000e+00], [3.000000e+00, 4.000000e+00, 5.000000e+00]]>\n  func.func @get_gv0_memref() {\n    return\n  }\n  func.func @get_gv2_memref() {\n    return\n  }\n  memref.global @gv3 : memref<f32> = dense<1.000000e+00>\n  func.func @get_gv3_memref() {\n    return\n  }\n  func.func @expand_shape_static(%arg0: memref<3x4x5xf32>) -> memref<1x3x4x1x5xf32> {\n    %expand_shape = memref.expand_shape %arg0 [[0, 1], [2], [3, 4]] output_shape [1, 3, 4, 1, 5] : memref<3x4x5xf32> into memref<1x3x4x1x5xf32>\n    return %expand_shape : memref<1x3x4x1x5xf32>\n  }\n  func.func @collapse_shape_static(%arg0: memref<1x3x4x1x5xf32>) -> memref<3x4x5xf32> {\n    %collapse_shape = memref.collapse_shape %arg0 [[0, 1], [2], [3, 4]] : memref<1x3x4x1x5xf32> into memref<3x4x5xf32>\n    return %collapse_shape : memref<3x4x5xf32>\n  }\n  func.func @rank_of_unranked(%arg0: memref<*xi32>) {\n    return\n  }\n  func.func @rank_of_ranked(%arg0: memref<?xi32>) {\n    return\n  }\n  func.func @atomic_rmw(%arg0: memref<10xi32>, %arg1: i32, %arg2: memref<10xf32>, %arg3: f32, %arg4: index) {\n    %0 = memref.atomic_rmw assign %arg3, %arg2[%arg4] : (f32, memref<10xf32>) -> f32\n    %1 = memref.atomic_rmw addi %arg1, %arg0[%arg4] : (i32, memref<10xi32>) -> i32\n    %2 = memref.atomic_rmw maxs %arg1, %arg0[%arg4] : (i32, memref<10xi32>) -> i32\n    %3 = memref.atomic_rmw mins %arg1, %arg0[%arg4] : (i32, memref<10xi32>) -> i32\n    %4 = memref.atomic_rmw maxu %arg1, %arg0[%arg4] : (i32, memref<10xi32>) -> i32\n    %5 = memref.atomic_rmw minu %arg1, %arg0[%arg4] : (i32, memref<10xi32>) -> i32\n    %6 = memref.atomic_rmw addf %arg3, %arg2[%arg4] : (f32, memref<10xf32>) -> f32\n    %7 = memref.atomic_rmw maximumf %arg3, %arg2[%arg4] : (f32, memref<10xf32>) -> f32\n    %8 = memref.atomic_rmw maxnumf %arg3, %arg2[%arg4] : (f32, memref<10xf32>) -> f32\n    %9 = memref.atomic_rmw minimumf %arg3, %arg2[%arg4] : (f32, memref<10xf32>) -> f32\n    %10 = memref.atomic_rmw minnumf %arg3, %arg2[%arg4] : (f32, memref<10xf32>) -> f32\n    %11 = memref.atomic_rmw ori %arg1, %arg0[%arg4] : (i32, memref<10xi32>) -> i32\n    %12 = memref.atomic_rmw andi %arg1, %arg0[%arg4] : (i32, memref<10xi32>) -> i32\n    %13 = memref.atomic_rmw xori %arg1, %arg0[%arg4] : (i32, memref<10xi32>) -> i32\n    return\n  }\n  func.func @atomic_rmw_with_offset(%arg0: memref<10xi32, strided<[1], offset: 5>>, %arg1: i32, %arg2: index) {\n    %0 = memref.atomic_rmw andi %arg1, %arg0[%arg2] : (i32, memref<10xi32, strided<[1], offset: 5>>) -> i32\n    return\n  }\n  llvm.func @generic_atomic_rmw() {\n    %0 = \"test.foo\"() : () -> memref<10xi32>\n    %1 = \"test.foo\"() : () -> index\n    %2 = memref.generic_atomic_rmw %0[%1] : memref<10xi32> {\n    ^bb0(%arg0: i32):\n      memref.atomic_yield %arg0 : i32\n    }\n    llvm.return\n  }\n  llvm.func @generic_atomic_rmw_f16() {\n    %0 = \"test.foo\"() : () -> memref<10xf16>\n    %1 = \"test.foo\"() : () -> index\n    %2 = memref.generic_atomic_rmw %0[%1] : memref<10xf16> {\n    ^bb0(%arg0: f16):\n      memref.atomic_yield %arg0 : f16\n    }\n    llvm.return\n  }\n  llvm.func @generic_atomic_rmw_in_alloca_scope() {\n    %c1 = arith.constant 1 : index\n    %alloc = memref.alloc() : memref<2x3xi32>\n    %0 = memref.generic_atomic_rmw %alloc[%c1, %c1] : memref<2x3xi32> {\n    ^bb0(%arg0: i32):\n      memref.atomic_yield %arg0 : i32\n    }\n    llvm.return\n  }\n  func.func @memref_copy_ranked() {\n    %alloc = memref.alloc() : memref<2xf32>\n    %alloc_0 = memref.alloc() : memref<2xf32>\n    memref.copy %alloc, %alloc_0 : memref<2xf32> to memref<2xf32>\n    return\n  }\n  func.func @memref_copy_contiguous(%arg0: memref<16x4xi32>, %arg1: index) {\n    %alloc = memref.alloc() : memref<1x2xi32>\n    %subview = memref.subview %arg0[%arg1, 0] [1, 2] [1, 1] : memref<16x4xi32> to memref<1x2xi32, strided<[4, 1], offset: ?>>\n    memref.copy %subview, %alloc : memref<1x2xi32, strided<[4, 1], offset: ?>> to memref<1x2xi32>\n    return\n  }\n  func.func @memref_copy_0d_offset(%arg0: memref<2xi32>) {\n    %alloc = memref.alloc() : memref<i32>\n    %subview = memref.subview %arg0[1] [1] [1] : memref<2xi32> to memref<1xi32, strided<[1], offset: 1>>\n    %collapse_shape = memref.collapse_shape %subview [] : memref<1xi32, strided<[1], offset: 1>> into memref<i32, strided<[], offset: 1>>\n    memref.copy %collapse_shape, %alloc : memref<i32, strided<[], offset: 1>> to memref<i32>\n    return\n  }\n  func.func @memref_copy_noncontiguous(%arg0: memref<16x2xi32>, %arg1: index) {\n    %alloc = memref.alloc() : memref<2x1xi32>\n    %subview = memref.subview %arg0[%arg1, 0] [2, 1] [1, 1] : memref<16x2xi32> to memref<2x1xi32, strided<[2, 1], offset: ?>>\n    memref.copy %subview, %alloc : memref<2x1xi32, strided<[2, 1], offset: ?>> to memref<2x1xi32>\n    return\n  }\n  func.func @memref_copy_unranked() {\n    %alloc = memref.alloc() : memref<2xi1>\n    %cast = memref.cast %alloc : memref<2xi1> to memref<*xi1>\n    %alloc_0 = memref.alloc() : memref<2xi1>\n    %cast_1 = memref.cast %alloc_0 : memref<2xi1> to memref<*xi1>\n    memref.copy %cast, %cast_1 : memref<*xi1> to memref<*xi1>\n    return\n  }\n  func.func @extract_aligned_pointer_as_index(%arg0: memref<?xf32>) -> index {\n    %intptr = memref.extract_aligned_pointer_as_index %arg0 : memref<?xf32> -> index\n    return %intptr : index\n  }\n  func.func @extract_aligned_pointer_as_index_unranked(%arg0: memref<*xf32>) -> index {\n    %intptr = memref.extract_aligned_pointer_as_index %arg0 : memref<*xf32> -> index\n    return %intptr : index\n  }\n  func.func @extract_strided_metadata(%arg0: memref<?x?xf32, strided<[?, ?], offset: ?>>) {\n    return\n  }\n  func.func @load_non_temporal(%arg0: memref<32xf32>) {\n    return\n  }\n  func.func @load_with_alignment(%arg0: memref<32xf32>, %arg1: index) {\n    return\n  }\n  func.func @store_non_temporal(%arg0: memref<32xf32>, %arg1: memref<32xf32>) {\n    %c7 = arith.constant 7 : index\n    %0 = memref.load %arg0[%c7] {nontemporal = true} : memref<32xf32>\n    memref.store %0, %arg1[%c7] {nontemporal = true} : memref<32xf32>\n    return\n  }\n  func.func @store_with_alignment(%arg0: memref<32xf32>, %arg1: f32, %arg2: index) {\n    memref.store %arg1, %arg0[%arg2] {alignment = 32 : i64} : memref<32xf32>\n    return\n  }\n  func.func @alloca_unconvertable_memory_space() {\n    return\n  }\n  func.func @alloca_huge(%arg0: index) {\n    return\n  }\n}\n\n",
      "stderr": "",
      "stdout_path": "outputs\\discovery_mlir23_mainseed\\artifacts\\conversion_memreftollvm_memref_to_llvm_mlir__symbol_dce_inliner_canonicalize.stdout.mlir",
      "stderr_path": "outputs\\discovery_mlir23_mainseed\\artifacts\\conversion_memreftollvm_memref_to_llvm_mlir__symbol_dce_inliner_canonicalize.stderr.txt",
      "category": "success"
    },
    {
      "seed": "seeds\\real_official_main23\\conversion_memreftollvm_memref_to_llvm_mlir.mlir",
      "pipeline": "affine_lowering_stress",
      "command": "C:\\Users\\lenovo\\.cache\\codex-runtimes\\codex-primary-runtime\\dependencies\\python\\python.exe scripts\\ssh_mlir_opt.py --lower-affine --canonicalize --cse -o - < seeds\\real_official_main23\\conversion_memreftollvm_memref_to_llvm_mlir.mlir",
      "return_code": 0,
      "timed_out": false,
      "elapsed_ms": 596,
      "stdout": "module {\n  func.func @view(%arg0: index, %arg1: index, %arg2: index) {\n    return\n  }\n  func.func @view_empty_memref(%arg0: index, %arg1: memref<0xi8>) {\n    return\n  }\n  func.func @view_memref_as_rank0(%arg0: index, %arg1: memref<2xi8>) {\n    return\n  }\n  func.func @subview(%arg0: memref<64x4xf32, strided<[4, 1]>>, %arg1: index, %arg2: index, %arg3: index) {\n    return\n  }\n  func.func @assume_alignment(%arg0: memref<4x4xf16>) {\n    return\n  }\n  func.func @distinct_objects(%arg0: memref<?xf16>, %arg1: memref<?xf32>, %arg2: memref<?xf64>) -> (memref<?xf16>, memref<?xf32>, memref<?xf64>) {\n    %0:3 = memref.distinct_objects %arg0, %arg1, %arg2 : memref<?xf16>, memref<?xf32>, memref<?xf64>\n    return %0#0, %0#1, %0#2 : memref<?xf16>, memref<?xf32>, memref<?xf64>\n  }\n  func.func @distinct_objects_noop(%arg0: memref<?xf16>) -> memref<?xf16> {\n    %0 = memref.distinct_objects %arg0 : memref<?xf16>\n    return %0 : memref<?xf16>\n  }\n  func.func @assume_alignment_w_offset(%arg0: memref<4x4xf16, strided<[?, ?], offset: ?>>) {\n    return\n  }\n  func.func @dim_of_unranked(%arg0: memref<*xi32>) -> index {\n    %c0 = arith.constant 0 : index\n    %dim = memref.dim %arg0, %c0 : memref<*xi32>\n    return %dim : index\n  }\n  func.func @address_space(%arg0: memref<32xf32, 7>) {\n    return\n  }\n  func.func @transpose(%arg0: memref<?x?x?xf32, strided<[?, ?, 1], offset: ?>>) {\n    return\n  }\n  memref.global @gv0 : memref<2xf32> = uninitialized\n  memref.global \"private\" @gv1 : memref<2xf32>\n  memref.global @gv2 : memref<2x3xf32> = dense<[[0.000000e+00, 1.000000e+00, 2.000000e+00], [3.000000e+00, 4.000000e+00, 5.000000e+00]]>\n  func.func @get_gv0_memref() {\n    return\n  }\n  func.func @get_gv2_memref() {\n    return\n  }\n  memref.global @gv3 : memref<f32> = dense<1.000000e+00>\n  func.func @get_gv3_memref() {\n    return\n  }\n  memref.global \"private\" @gv4 : memref<f32> = dense<1.000000e+00> {alignment = 64 : i64}\n  func.func @expand_shape_static(%arg0: memref<3x4x5xf32>) -> memref<1x3x4x1x5xf32> {\n    %expand_shape = memref.expand_shape %arg0 [[0, 1], [2], [3, 4]] output_shape [1, 3, 4, 1, 5] : memref<3x4x5xf32> into memref<1x3x4x1x5xf32>\n    return %expand_shape : memref<1x3x4x1x5xf32>\n  }\n  func.func @collapse_shape_static(%arg0: memref<1x3x4x1x5xf32>) -> memref<3x4x5xf32> {\n    %collapse_shape = memref.collapse_shape %arg0 [[0, 1], [2], [3, 4]] : memref<1x3x4x1x5xf32> into memref<3x4x5xf32>\n    return %collapse_shape : memref<3x4x5xf32>\n  }\n  func.func @rank_of_unranked(%arg0: memref<*xi32>) {\n    return\n  }\n  func.func @rank_of_ranked(%arg0: memref<?xi32>) {\n    return\n  }\n  func.func @atomic_rmw(%arg0: memref<10xi32>, %arg1: i32, %arg2: memref<10xf32>, %arg3: f32, %arg4: index) {\n    %0 = memref.atomic_rmw assign %arg3, %arg2[%arg4] : (f32, memref<10xf32>) -> f32\n    %1 = memref.atomic_rmw addi %arg1, %arg0[%arg4] : (i32, memref<10xi32>) -> i32\n    %2 = memref.atomic_rmw maxs %arg1, %arg0[%arg4] : (i32, memref<10xi32>) -> i32\n    %3 = memref.atomic_rmw mins %arg1, %arg0[%arg4] : (i32, memref<10xi32>) -> i32\n    %4 = memref.atomic_rmw maxu %arg1, %arg0[%arg4] : (i32, memref<10xi32>) -> i32\n    %5 = memref.atomic_rmw minu %arg1, %arg0[%arg4] : (i32, memref<10xi32>) -> i32\n    %6 = memref.atomic_rmw addf %arg3, %arg2[%arg4] : (f32, memref<10xf32>) -> f32\n    %7 = memref.atomic_rmw maximumf %arg3, %arg2[%arg4] : (f32, memref<10xf32>) -> f32\n    %8 = memref.atomic_rmw maxnumf %arg3, %arg2[%arg4] : (f32, memref<10xf32>) -> f32\n    %9 = memref.atomic_rmw minimumf %arg3, %arg2[%arg4] : (f32, memref<10xf32>) -> f32\n    %10 = memref.atomic_rmw minnumf %arg3, %arg2[%arg4] : (f32, memref<10xf32>) -> f32\n    %11 = memref.atomic_rmw ori %arg1, %arg0[%arg4] : (i32, memref<10xi32>) -> i32\n    %12 = memref.atomic_rmw andi %arg1, %arg0[%arg4] : (i32, memref<10xi32>) -> i32\n    %13 = memref.atomic_rmw xori %arg1, %arg0[%arg4] : (i32, memref<10xi32>) -> i32\n    return\n  }\n  func.func @atomic_rmw_with_offset(%arg0: memref<10xi32, strided<[1], offset: 5>>, %arg1: i32, %arg2: index) {\n    %0 = memref.atomic_rmw andi %arg1, %arg0[%arg2] : (i32, memref<10xi32, strided<[1], offset: 5>>) -> i32\n    return\n  }\n  llvm.func @generic_atomic_rmw() {\n    %0 = \"test.foo\"() : () -> memref<10xi32>\n    %1 = \"test.foo\"() : () -> index\n    %2 = memref.generic_atomic_rmw %0[%1] : memref<10xi32> {\n    ^bb0(%arg0: i32):\n      memref.atomic_yield %arg0 : i32\n    }\n    llvm.return\n  }\n  llvm.func @generic_atomic_rmw_f16() {\n    %0 = \"test.foo\"() : () -> memref<10xf16>\n    %1 = \"test.foo\"() : () -> index\n    %2 = memref.generic_atomic_rmw %0[%1] : memref<10xf16> {\n    ^bb0(%arg0: f16):\n      memref.atomic_yield %arg0 : f16\n    }\n    llvm.return\n  }\n  llvm.func @generic_atomic_rmw_in_alloca_scope() {\n    %c1 = arith.constant 1 : index\n    %alloc = memref.alloc() : memref<2x3xi32>\n    %0 = memref.generic_atomic_rmw %alloc[%c1, %c1] : memref<2x3xi32> {\n    ^bb0(%arg0: i32):\n      memref.atomic_yield %arg0 : i32\n    }\n    llvm.return\n  }\n  func.func @memref_copy_ranked() {\n    %alloc = memref.alloc() : memref<2xf32>\n    %alloc_0 = memref.alloc() : memref<2xf32>\n    memref.copy %alloc, %alloc_0 : memref<2xf32> to memref<2xf32>\n    return\n  }\n  func.func @memref_copy_contiguous(%arg0: memref<16x4xi32>, %arg1: index) {\n    %alloc = memref.alloc() : memref<1x2xi32>\n    %subview = memref.subview %arg0[%arg1, 0] [1, 2] [1, 1] : memref<16x4xi32> to memref<1x2xi32, strided<[4, 1], offset: ?>>\n    memref.copy %subview, %alloc : memref<1x2xi32, strided<[4, 1], offset: ?>> to memref<1x2xi32>\n    return\n  }\n  func.func @memref_copy_0d_offset(%arg0: memref<2xi32>) {\n    %alloc = memref.alloc() : memref<i32>\n    %subview = memref.subview %arg0[1] [1] [1] : memref<2xi32> to memref<1xi32, strided<[1], offset: 1>>\n    %collapse_shape = memref.collapse_shape %subview [] : memref<1xi32, strided<[1], offset: 1>> into memref<i32, strided<[], offset: 1>>\n    memref.copy %collapse_shape, %alloc : memref<i32, strided<[], offset: 1>> to memref<i32>\n    return\n  }\n  func.func @memref_copy_noncontiguous(%arg0: memref<16x2xi32>, %arg1: index) {\n    %alloc = memref.alloc() : memref<2x1xi32>\n    %subview = memref.subview %arg0[%arg1, 0] [2, 1] [1, 1] : memref<16x2xi32> to memref<2x1xi32, strided<[2, 1], offset: ?>>\n    memref.copy %subview, %alloc : memref<2x1xi32, strided<[2, 1], offset: ?>> to memref<2x1xi32>\n    return\n  }\n  func.func @memref_copy_unranked() {\n    %alloc = memref.alloc() : memref<2xi1>\n    %cast = memref.cast %alloc : memref<2xi1> to memref<*xi1>\n    %alloc_0 = memref.alloc() : memref<2xi1>\n    %cast_1 = memref.cast %alloc_0 : memref<2xi1> to memref<*xi1>\n    memref.copy %cast, %cast_1 : memref<*xi1> to memref<*xi1>\n    return\n  }\n  func.func @extract_aligned_pointer_as_index(%arg0: memref<?xf32>) -> index {\n    %intptr = memref.extract_aligned_pointer_as_index %arg0 : memref<?xf32> -> index\n    return %intptr : index\n  }\n  func.func @extract_aligned_pointer_as_index_unranked(%arg0: memref<*xf32>) -> index {\n    %intptr = memref.extract_aligned_pointer_as_index %arg0 : memref<*xf32> -> index\n    return %intptr : index\n  }\n  func.func @extract_strided_metadata(%arg0: memref<?x?xf32, strided<[?, ?], offset: ?>>) {\n    return\n  }\n  func.func @load_non_temporal(%arg0: memref<32xf32>) {\n    return\n  }\n  func.func @load_with_alignment(%arg0: memref<32xf32>, %arg1: index) {\n    return\n  }\n  func.func @store_non_temporal(%arg0: memref<32xf32>, %arg1: memref<32xf32>) {\n    %c7 = arith.constant 7 : index\n    %0 = memref.load %arg0[%c7] {nontemporal = true} : memref<32xf32>\n    memref.store %0, %arg1[%c7] {nontemporal = true} : memref<32xf32>\n    return\n  }\n  func.func @store_with_alignment(%arg0: memref<32xf32>, %arg1: f32, %arg2: index) {\n    memref.store %arg1, %arg0[%arg2] {alignment = 32 : i64} : memref<32xf32>\n    return\n  }\n  func.func @alloca_unconvertable_memory_space() {\n    return\n  }\n  func.func @alloca_huge(%arg0: index) {\n    return\n  }\n}\n\n",
      "stderr": "",
      "stdout_path": "outputs\\discovery_mlir23_mainseed\\artifacts\\conversion_memreftollvm_memref_to_llvm_mlir__affine_lowering_stress.stdout.mlir",
      "stderr_path": "outputs\\discovery_mlir23_mainseed\\artifacts\\conversion_memreftollvm_memref_to_llvm_mlir__affine_lowering_stress.stderr.txt",
      "category": "success"
    },
    {
      "seed": "seeds\\real_official_main23\\conversion_memreftollvm_memref_to_llvm_mlir.mlir",
      "pipeline": "scf_to_cf_stress",
      "command": "C:\\Users\\lenovo\\.cache\\codex-runtimes\\codex-primary-runtime\\dependencies\\python\\python.exe scripts\\ssh_mlir_opt.py --convert-scf-to-cf --canonicalize --cse -o - < seeds\\real_official_main23\\conversion_memreftollvm_memref_to_llvm_mlir.mlir",
      "return_code": 0,
      "timed_out": false,
      "elapsed_ms": 615,
      "stdout": "module {\n  func.func @view(%arg0: index, %arg1: index, %arg2: index) {\n    return\n  }\n  func.func @view_empty_memref(%arg0: index, %arg1: memref<0xi8>) {\n    return\n  }\n  func.func @view_memref_as_rank0(%arg0: index, %arg1: memref<2xi8>) {\n    return\n  }\n  func.func @subview(%arg0: memref<64x4xf32, strided<[4, 1]>>, %arg1: index, %arg2: index, %arg3: index) {\n    return\n  }\n  func.func @assume_alignment(%arg0: memref<4x4xf16>) {\n    return\n  }\n  func.func @distinct_objects(%arg0: memref<?xf16>, %arg1: memref<?xf32>, %arg2: memref<?xf64>) -> (memref<?xf16>, memref<?xf32>, memref<?xf64>) {\n    %0:3 = memref.distinct_objects %arg0, %arg1, %arg2 : memref<?xf16>, memref<?xf32>, memref<?xf64>\n    return %0#0, %0#1, %0#2 : memref<?xf16>, memref<?xf32>, memref<?xf64>\n  }\n  func.func @distinct_objects_noop(%arg0: memref<?xf16>) -> memref<?xf16> {\n    %0 = memref.distinct_objects %arg0 : memref<?xf16>\n    return %0 : memref<?xf16>\n  }\n  func.func @assume_alignment_w_offset(%arg0: memref<4x4xf16, strided<[?, ?], offset: ?>>) {\n    return\n  }\n  func.func @dim_of_unranked(%arg0: memref<*xi32>) -> index {\n    %c0 = arith.constant 0 : index\n    %dim = memref.dim %arg0, %c0 : memref<*xi32>\n    return %dim : index\n  }\n  func.func @address_space(%arg0: memref<32xf32, 7>) {\n    return\n  }\n  func.func @transpose(%arg0: memref<?x?x?xf32, strided<[?, ?, 1], offset: ?>>) {\n    return\n  }\n  memref.global @gv0 : memref<2xf32> = uninitialized\n  memref.global \"private\" @gv1 : memref<2xf32>\n  memref.global @gv2 : memref<2x3xf32> = dense<[[0.000000e+00, 1.000000e+00, 2.000000e+00], [3.000000e+00, 4.000000e+00, 5.000000e+00]]>\n  func.func @get_gv0_memref() {\n    return\n  }\n  func.func @get_gv2_memref() {\n    return\n  }\n  memref.global @gv3 : memref<f32> = dense<1.000000e+00>\n  func.func @get_gv3_memref() {\n    return\n  }\n  memref.global \"private\" @gv4 : memref<f32> = dense<1.000000e+00> {alignment = 64 : i64}\n  func.func @expand_shape_static(%arg0: memref<3x4x5xf32>) -> memref<1x3x4x1x5xf32> {\n    %expand_shape = memref.expand_shape %arg0 [[0, 1], [2], [3, 4]] output_shape [1, 3, 4, 1, 5] : memref<3x4x5xf32> into memref<1x3x4x1x5xf32>\n    return %expand_shape : memref<1x3x4x1x5xf32>\n  }\n  func.func @collapse_shape_static(%arg0: memref<1x3x4x1x5xf32>) -> memref<3x4x5xf32> {\n    %collapse_shape = memref.collapse_shape %arg0 [[0, 1], [2], [3, 4]] : memref<1x3x4x1x5xf32> into memref<3x4x5xf32>\n    return %collapse_shape : memref<3x4x5xf32>\n  }\n  func.func @rank_of_unranked(%arg0: memref<*xi32>) {\n    return\n  }\n  func.func @rank_of_ranked(%arg0: memref<?xi32>) {\n    return\n  }\n  func.func @atomic_rmw(%arg0: memref<10xi32>, %arg1: i32, %arg2: memref<10xf32>, %arg3: f32, %arg4: index) {\n    %0 = memref.atomic_rmw assign %arg3, %arg2[%arg4] : (f32, memref<10xf32>) -> f32\n    %1 = memref.atomic_rmw addi %arg1, %arg0[%arg4] : (i32, memref<10xi32>) -> i32\n    %2 = memref.atomic_rmw maxs %arg1, %arg0[%arg4] : (i32, memref<10xi32>) -> i32\n    %3 = memref.atomic_rmw mins %arg1, %arg0[%arg4] : (i32, memref<10xi32>) -> i32\n    %4 = memref.atomic_rmw maxu %arg1, %arg0[%arg4] : (i32, memref<10xi32>) -> i32\n    %5 = memref.atomic_rmw minu %arg1, %arg0[%arg4] : (i32, memref<10xi32>) -> i32\n    %6 = memref.atomic_rmw addf %arg3, %arg2[%arg4] : (f32, memref<10xf32>) -> f32\n    %7 = memref.atomic_rmw maximumf %arg3, %arg2[%arg4] : (f32, memref<10xf32>) -> f32\n    %8 = memref.atomic_rmw maxnumf %arg3, %arg2[%arg4] : (f32, memref<10xf32>) -> f32\n    %9 = memref.atomic_rmw minimumf %arg3, %arg2[%arg4] : (f32, memref<10xf32>) -> f32\n    %10 = memref.atomic_rmw minnumf %arg3, %arg2[%arg4] : (f32, memref<10xf32>) -> f32\n    %11 = memref.atomic_rmw ori %arg1, %arg0[%arg4] : (i32, memref<10xi32>) -> i32\n    %12 = memref.atomic_rmw andi %arg1, %arg0[%arg4] : (i32, memref<10xi32>) -> i32\n    %13 = memref.atomic_rmw xori %arg1, %arg0[%arg4] : (i32, memref<10xi32>) -> i32\n    return\n  }\n  func.func @atomic_rmw_with_offset(%arg0: memref<10xi32, strided<[1], offset: 5>>, %arg1: i32, %arg2: index) {\n    %0 = memref.atomic_rmw andi %arg1, %arg0[%arg2] : (i32, memref<10xi32, strided<[1], offset: 5>>) -> i32\n    return\n  }\n  llvm.func @generic_atomic_rmw() {\n    %0 = \"test.foo\"() : () -> memref<10xi32>\n    %1 = \"test.foo\"() : () -> index\n    %2 = memref.generic_atomic_rmw %0[%1] : memref<10xi32> {\n    ^bb0(%arg0: i32):\n      memref.atomic_yield %arg0 : i32\n    }\n    llvm.return\n  }\n  llvm.func @generic_atomic_rmw_f16() {\n    %0 = \"test.foo\"() : () -> memref<10xf16>\n    %1 = \"test.foo\"() : () -> index\n    %2 = memref.generic_atomic_rmw %0[%1] : memref<10xf16> {\n    ^bb0(%arg0: f16):\n      memref.atomic_yield %arg0 : f16\n    }\n    llvm.return\n  }\n  llvm.func @generic_atomic_rmw_in_alloca_scope() {\n    %c1 = arith.constant 1 : index\n    %alloc = memref.alloc() : memref<2x3xi32>\n    %0 = memref.generic_atomic_rmw %alloc[%c1, %c1] : memref<2x3xi32> {\n    ^bb0(%arg0: i32):\n      memref.atomic_yield %arg0 : i32\n    }\n    llvm.return\n  }\n  func.func @memref_copy_ranked() {\n    %alloc = memref.alloc() : memref<2xf32>\n    %alloc_0 = memref.alloc() : memref<2xf32>\n    memref.copy %alloc, %alloc_0 : memref<2xf32> to memref<2xf32>\n    return\n  }\n  func.func @memref_copy_contiguous(%arg0: memref<16x4xi32>, %arg1: index) {\n    %alloc = memref.alloc() : memref<1x2xi32>\n    %subview = memref.subview %arg0[%arg1, 0] [1, 2] [1, 1] : memref<16x4xi32> to memref<1x2xi32, strided<[4, 1], offset: ?>>\n    memref.copy %subview, %alloc : memref<1x2xi32, strided<[4, 1], offset: ?>> to memref<1x2xi32>\n    return\n  }\n  func.func @memref_copy_0d_offset(%arg0: memref<2xi32>) {\n    %alloc = memref.alloc() : memref<i32>\n    %subview = memref.subview %arg0[1] [1] [1] : memref<2xi32> to memref<1xi32, strided<[1], offset: 1>>\n    %collapse_shape = memref.collapse_shape %subview [] : memref<1xi32, strided<[1], offset: 1>> into memref<i32, strided<[], offset: 1>>\n    memref.copy %collapse_shape, %alloc : memref<i32, strided<[], offset: 1>> to memref<i32>\n    return\n  }\n  func.func @memref_copy_noncontiguous(%arg0: memref<16x2xi32>, %arg1: index) {\n    %alloc = memref.alloc() : memref<2x1xi32>\n    %subview = memref.subview %arg0[%arg1, 0] [2, 1] [1, 1] : memref<16x2xi32> to memref<2x1xi32, strided<[2, 1], offset: ?>>\n    memref.copy %subview, %alloc : memref<2x1xi32, strided<[2, 1], offset: ?>> to memref<2x1xi32>\n    return\n  }\n  func.func @memref_copy_unranked() {\n    %alloc = memref.alloc() : memref<2xi1>\n    %cast = memref.cast %alloc : memref<2xi1> to memref<*xi1>\n    %alloc_0 = memref.alloc() : memref<2xi1>\n    %cast_1 = memref.cast %alloc_0 : memref<2xi1> to memref<*xi1>\n    memref.copy %cast, %cast_1 : memref<*xi1> to memref<*xi1>\n    return\n  }\n  func.func @extract_aligned_pointer_as_index(%arg0: memref<?xf32>) -> index {\n    %intptr = memref.extract_aligned_pointer_as_index %arg0 : memref<?xf32> -> index\n    return %intptr : index\n  }\n  func.func @extract_aligned_pointer_as_index_unranked(%arg0: memref<*xf32>) -> index {\n    %intptr = memref.extract_aligned_pointer_as_index %arg0 : memref<*xf32> -> index\n    return %intptr : index\n  }\n  func.func @extract_strided_metadata(%arg0: memref<?x?xf32, strided<[?, ?], offset: ?>>) {\n    return\n  }\n  func.func @load_non_temporal(%arg0: memref<32xf32>) {\n    return\n  }\n  func.func @load_with_alignment(%arg0: memref<32xf32>, %arg1: index) {\n    return\n  }\n  func.func @store_non_temporal(%arg0: memref<32xf32>, %arg1: memref<32xf32>) {\n    %c7 = arith.constant 7 : index\n    %0 = memref.load %arg0[%c7] {nontemporal = true} : memref<32xf32>\n    memref.store %0, %arg1[%c7] {nontemporal = true} : memref<32xf32>\n    return\n  }\n  func.func @store_with_alignment(%arg0: memref<32xf32>, %arg1: f32, %arg2: index) {\n    memref.store %arg1, %arg0[%arg2] {alignment = 32 : i64} : memref<32xf32>\n    return\n  }\n  func.func @alloca_unconvertable_memory_space() {\n    return\n  }\n  func.func @alloca_huge(%arg0: index) {\n    return\n  }\n}\n\n",
      "stderr": "",
      "stdout_path": "outputs\\discovery_mlir23_mainseed\\artifacts\\conversion_memreftollvm_memref_to_llvm_mlir__scf_to_cf_stress.stdout.mlir",
      "stderr_path": "outputs\\discovery_mlir23_mainseed\\artifacts\\conversion_memreftollvm_memref_to_llvm_mlir__scf_to_cf_stress.stderr.txt",
      "category": "success"
    },
    {
      "seed": "seeds\\real_official_main23\\conversion_memreftollvm_memref_to_llvm_mlir.mlir",
      "pipeline": "vector_lowering_stress",
      "command": "C:\\Users\\lenovo\\.cache\\codex-runtimes\\codex-primary-runtime\\dependencies\\python\\python.exe scripts\\ssh_mlir_opt.py --convert-vector-to-scf --convert-vector-to-llvm --canonicalize -o - < seeds\\real_official_main23\\conversion_memreftollvm_memref_to_llvm_mlir.mlir",
      "return_code": 0,
      "timed_out": false,
      "elapsed_ms": 626,
…
3xi8>, tensor<3x11x11x3xi4>, tensor<3xi32>, tensor<1xi8>, tensor<1xi4>) -> tensor<1x1x1x3xi32>\n+%9 = tosa.rescale %8, %4, %5, %6, %7 {input_unsigned = false, output_unsigned = false, per_channel = true, rounding_mode = DOUBLE_ROUND, scale32 = true} : (tensor<1x1x1x3xi32>, tensor<3xi32>, tensor<3xi8>, tensor<1xi32>, tensor<1xi8>) -> tensor<1x1x1x3xi8>\n return %9 : tensor<1x1x1x3xi8>\n }\n func.func @test_conv3d(%arg0: tensor<1x4x8x21x17xf32>, %arg1: tensor<34x1x1x1x17xf32>, %arg2: tensor<34xf32>, %arg3: tensor<1xf32>, %arg4: tensor<1xf32>) -> tensor<1x4x8x21x34xf32> {\n@@ -150,9 +120,8 @@\n }\n func.func @test_matmul(%arg0: tensor<1x14x19xf32>, %arg1: tensor<1x19x28xf32>) -> tensor<1x14x28xf32> {\n %0 = \"tosa.const\"() <{values = dense<0.000000e+00> : tensor<1xf32>}> : () -> tensor<1xf32>\n-%1 = \"tosa.const\"() <{values = dense<0.000000e+00> : tensor<1xf32>}> : () -> tensor<1xf32>\n-%2 = tosa.matmul %arg0, %arg1, %0, %1 : (tensor<1x14x19xf32>, tensor<1x19x28xf32>, tensor<1xf32>, tensor<1xf32>) -> tensor<1x14x28xf32>\n-return %2 : tensor<1x14x28xf32>\n+%1 = tosa.matmul %arg0, %arg1, %0, %0 : (tensor<1x14x19xf32>, tensor<1x19x28xf32>, tensor<1xf32>, tensor<1xf32>) -> tensor<1x14x28xf32>\n+return %1 : tensor<1x14x28xf32>\n }\n func.func @test_max_pool2d_f32(%arg0: tensor<1x32x32x8xf32>) -> tensor<1x32x32x8xf32> {\n %0 = tosa.max_pool2d %arg0 {kernel = array<i64: 1, 1>, pad = array<i64: 0, 0, 0, 0>, stride = array<i64: 1, 1>} : (tensor<1x32x32x8xf32>) -> tensor<1x32x32x8xf32>\n@@ -167,39 +136,24 @@\n return %0 : tensor<1x32x32x8xf16>\n }\n func.func @test_max_pool2d_adaptive_f32(%arg0: tensor<1x32x32x8xf32>) -> tensor<1x32x32x8xf32> {\n-%0 = tosa.const_shape  {values = dense<1> : tensor<2xindex>} : () -> !tosa.shape<2>\n-%1 = tosa.const_shape  {values = dense<1> : tensor<2xindex>} : () -> !tosa.shape<2>\n-%2 = tosa.const_shape  {values = dense<0> : tensor<4xindex>} : () -> !tosa.shape<4>\n-%3 = tosa.max_pool2d_adaptive %arg0, %0, %1, %2 : (tensor<1x32x32x8xf32>, !tosa.shape<2>, !tosa.shape<2>, !tosa.shape<4>) -> tensor<1x32x32x8xf32>\n-return %3 : tensor<1x32x32x8xf32>\n+%0 = tosa.max_pool2d %arg0 {kernel = array<i64: 1, 1>, pad = array<i64: 0, 0, 0, 0>, stride = array<i64: 1, 1>} : (tensor<1x32x32x8xf32>) -> tensor<1x32x32x8xf32>\n+return %0 : tensor<1x32x32x8xf32>\n }\n func.func @test_max_pool2d_adaptive_bf16(%arg0: tensor<1x32x32x8xbf16>) -> tensor<1x32x32x8xbf16> {\n-%0 = tosa.const_shape  {values = dense<1> : tensor<2xindex>} : () -> !tosa.shape<2>\n-%1 = tosa.const_shape  {values = dense<1> : tensor<2xindex>} : () -> !tosa.shape<2>\n-%2 = tosa.const_shape  {values = dense<0> : tensor<4xindex>} : () -> !tosa.shape<4>\n-%3 = tosa.max_pool2d_adaptive %arg0, %0, %1, %2 : (tensor<1x32x32x8xbf16>, !tosa.shape<2>, !tosa.shape<2>, !tosa.shape<4>) -> tensor<1x32x32x8xbf16>\n-return %3 : tensor<1x32x32x8xbf16>\n+%0 = tosa.max_pool2d %arg0 {kernel = array<i64: 1, 1>, pad = array<i64: 0, 0, 0, 0>, stride = array<i64: 1, 1>} : (tensor<1x32x32x8xbf16>) -> tensor<1x32x32x8xbf16>\n+return %0 : tensor<1x32x32x8xbf16>\n }\n func.func @test_max_pool2d_adaptive_f16(%arg0: tensor<1x32x32x8xf16>) -> tensor<1x32x32x8xf16> {\n-%0 = tosa.const_shape  {values = dense<1> : tensor<2xindex>} : () -> !tosa.shape<2>\n-%1 = tosa.const_shape  {values = dense<1> : tensor<2xindex>} : () -> !tosa.shape<2>\n-%2 = tosa.const_shape  {values = dense<0> : tensor<4xindex>} : () -> !tosa.shape<4>\n-%3 = tosa.max_pool2d_adaptive %arg0, %0, %1, %2 : (tensor<1x32x32x8xf16>, !tosa.shape<2>, !tosa.shape<2>, !tosa.shape<4>) -> tensor<1x32x32x8xf16>\n-return %3 : tensor<1x32x32x8xf16>\n+%0 = tosa.max_pool2d %arg0 {kernel = array<i64: 1, 1>, pad = array<i64: 0, 0, 0, 0>, stride = array<i64: 1, 1>} : (tensor<1x32x32x8xf16>) -> tensor<1x32x32x8xf16>\n+return %0 : tensor<1x32x32x8xf16>\n }\n func.func @test_dynamic_max_pool2d_adaptive_f16(%arg0: tensor<1x?x?x8xf16>) -> tensor<1x?x?x8xf16> {\n-%0 = tosa.const_shape  {values = dense<1> : tensor<2xindex>} : () -> !tosa.shape<2>\n-%1 = tosa.const_shape  {values = dense<1> : tensor<2xindex>} : () -> !tosa.shape<2>\n-%2 = tosa.const_shape  {values = dense<0> : tensor<4xindex>} : () -> !tosa.shape<4>\n-%3 = tosa.max_pool2d_adaptive %arg0, %0, %1, %2 : (tensor<1x?x?x8xf16>, !tosa.shape<2>, !tosa.shape<2>, !tosa.shape<4>) -> tensor<1x?x?x8xf16>\n-return %3 : tensor<1x?x?x8xf16>\n+%0 = tosa.max_pool2d %arg0 {kernel = array<i64: 1, 1>, pad = array<i64: 0, 0, 0, 0>, stride = array<i64: 1, 1>} : (tensor<1x?x?x8xf16>) -> tensor<1x?x?x8xf16>\n+return %0 : tensor<1x?x?x8xf16>\n }\n func.func @test_unranked_max_pool2d_adaptive_f16(%arg0: tensor<*xf16>) -> tensor<*xf16> {\n-%0 = tosa.const_shape  {values = dense<1> : tensor<2xindex>} : () -> !tosa.shape<2>\n-%1 = tosa.const_shape  {values = dense<1> : tensor<2xindex>} : () -> !tosa.shape<2>\n-%2 = tosa.const_shape  {values = dense<0> : tensor<4xindex>} : () -> !tosa.shape<4>\n-%3 = tosa.max_pool2d_adaptive %arg0, %0, %1, %2 : (tensor<*xf16>, !tosa.shape<2>, !tosa.shape<2>, !tosa.shape<4>) -> tensor<*xf16>\n-return %3 : tensor<*xf16>\n+%0 = tosa.max_pool2d %arg0 {kernel = array<i64: 1, 1>, pad = array<i64: 0, 0, 0, 0>, stride = array<i64: 1, 1>} : (tensor<*xf16>) -> tensor<*xf16>\n+return %0 : tensor<*xf16>\n }\n func.func @test_rfft2d(%arg0: tensor<13x8x16xf32>) -> (tensor<13x8x9xf32>, tensor<13x8x9xf32>) {\n %output_real, %output_imag = tosa.rfft2d %arg0 : (tensor<13x8x16xf32>) -> (tensor<13x8x9xf32>, tensor<13x8x9xf32>)\n@@ -453,39 +407,39 @@\n return %0 : tensor<13x21x3xi1>\n }\n func.func @test_reduce_all(%arg0: tensor<13x21x3xi1>) -> tensor<21x3xi1> {\n-%0 = tosa.reduce_all %arg0 {axis = 0 : i32} : (tensor<13x21x3xi1>) -> tensor<1x21x3xi1>\n-%1 = tosa.const_shape  {values = dense<[21, 3]> : tensor<2xindex>} : () -> !tosa.shape<2>\n-%2 = tosa.reshape %0, %1 : (tensor<1x21x3xi1>, !tosa.shape<2>) -> tensor<21x3xi1>\n+%0 = tosa.const_shape  {values = dense<[21, 3]> : tensor<2xindex>} : () -> !tosa.shape<2>\n+%1 = tosa.reduce_all %arg0 {axis = 0 : i32} : (tensor<13x21x3xi1>) -> tensor<1x21x3xi1>\n+%2 = tosa.reshape %1, %0 : (tensor<1x21x3xi1>, !tosa.shape<2>) -> tensor<21x3xi1>\n return %2 : tensor<21x3xi1>\n }\n func.func @test_reduce_any(%arg0: tensor<13x21x3xi1>) -> tensor<21x3xi1> {\n-%0 = tosa.reduce_any %arg0 {axis = 0 : i32} : (tensor<13x21x3xi1>) -> tensor<1x21x3xi1>\n-%1 = tosa.const_shape  {values = dense<[21, 3]> : tensor<2xindex>} : () -> !tosa.shape<2>\n-%2 = tosa.reshape %0, %1 : (tensor<1x21x3xi1>, !tosa.shape<2>) -> tensor<21x3xi1>\n+%0 = tosa.const_shape  {values = dense<[21, 3]> : tensor<2xindex>} : () -> !tosa.shape<2>\n+%1 = tosa.reduce_any %arg0 {axis = 0 : i32} : (tensor<13x21x3xi1>) -> tensor<1x21x3xi1>\n+%2 = tosa.reshape %1, %0 : (tensor<1x21x3xi1>, !tosa.shape<2>) -> tensor<21x3xi1>\n return %2 : tensor<21x3xi1>\n }\n func.func @test_reduce_max(%arg0: tensor<13x21x3xf32>) -> tensor<21x3xf32> {\n-%0 = tosa.reduce_max %arg0 {axis = 0 : i32} : (tensor<13x21x3xf32>) -> tensor<1x21x3xf32>\n-%1 = tosa.const_shape  {values = dense<[21, 3]> : tensor<2xindex>} : () -> !tosa.shape<2>\n-%2 = tosa.reshape %0, %1 : (tensor<1x21x3xf32>, !tosa.shape<2>) -> tensor<21x3xf32>\n+%0 = tosa.const_shape  {values = dense<[21, 3]> : tensor<2xindex>} : () -> !tosa.shape<2>\n+%1 = tosa.reduce_max %arg0 {axis = 0 : i32} : (tensor<13x21x3xf32>) -> tensor<1x21x3xf32>\n+%2 = tosa.reshape %1, %0 : (tensor<1x21x3xf32>, !tosa.shape<2>) -> tensor<21x3xf32>\n return %2 : tensor<21x3xf32>\n }\n func.func @test_reduce_min(%arg0: tensor<13x21x3xf32>) -> tensor<21x3xf32> {\n-%0 = tosa.reduce_min %arg0 {axis = 0 : i32} : (tensor<13x21x3xf32>) -> tensor<1x21x3xf32>\n-%1 = tosa.const_shape  {values = dense<[21, 3]> : tensor<2xindex>} : () -> !tosa.shape<2>\n-%2 = tosa.reshape %0, %1 : (tensor<1x21x3xf32>, !tosa.shape<2>) -> tensor<21x3xf32>\n+%0 = tosa.const_shape  {values = dense<[21, 3]> : tensor<2xindex>} : () -> !tosa.shape<2>\n+%1 = tosa.reduce_min %arg0 {axis = 0 : i32} : (tensor<13x21x3xf32>) -> tensor<1x21x3xf32>\n+%2 = tosa.reshape %1, %0 : (tensor<1x21x3xf32>, !tosa.shape<2>) -> tensor<21x3xf32>\n return %2 : tensor<21x3xf32>\n }\n func.func @test_reduce_product(%arg0: tensor<13x21x3xf32>) -> tensor<21x3xf32> {\n-%0 = tosa.reduce_product %arg0 {axis = 0 : i32} : (tensor<13x21x3xf32>) -> tensor<1x21x3xf32>\n-%1 = tosa.const_shape  {values = dense<[21, 3]> : tensor<2xindex>} : () -> !tosa.shape<2>\n-%2 = tosa.reshape %0, %1 : (tensor<1x21x3xf32>, !tosa.shape<2>) -> tensor<21x3xf32>\n+%0 = tosa.const_shape  {values = dense<[21, 3]> : tensor<2xindex>} : () -> !tosa.shape<2>\n+%1 = tosa.reduce_product %arg0 {axis = 0 : i32} : (tensor<13x21x3xf32>) -> tensor<1x21x3xf32>\n+%2 = tosa.reshape %1, %0 : (tensor<1x21x3xf32>, !tosa.shape<2>) -> tensor<21x3xf32>\n return %2 : tensor<21x3xf32>\n }\n func.func @test_reduce_sum(%arg0: tensor<13x21x3xf32>) -> tensor<21x3xf32> {\n-%0 = tosa.reduce_sum %arg0 {axis = 0 : i32} : (tensor<13x21x3xf32>) -> tensor<1x21x3xf32>\n-%1 = tosa.const_shape  {values = dense<[21, 3]> : tensor<2xindex>} : () -> !tosa.shape<2>\n-%2 = tosa.reshape %0, %1 : (tensor<1x21x3xf32>, !tosa.shape<2>) -> tensor<21x3xf32>\n+%0 = tosa.const_shape  {values = dense<[21, 3]> : tensor<2xindex>} : () -> !tosa.shape<2>\n+%1 = tosa.reduce_sum %arg0 {axis = 0 : i32} : (tensor<13x21x3xf32>) -> tensor<1x21x3xf32>\n+%2 = tosa.reshape %1, %0 : (tensor<1x21x3xf32>, !tosa.shape<2>) -> tensor<21x3xf32>\n return %2 : tensor<21x3xf32>\n }\n func.func @test_concat(%arg0: tensor<13x21x3xf32>, %arg1: tensor<13x21x3xf32>) -> tensor<26x21x3xf32> {\n@@ -493,17 +447,10 @@\n return %0 : tensor<26x21x3xf32>\n }\n func.func @test_pad_explicit_value(%arg0: tensor<13x21x3xf32>) -> tensor<13x21x3xf32> {\n-%0 = \"tosa.const\"() <{values = dense<3.140000e+00> : tensor<1xf32>}> : () -> tensor<1xf32>\n-%1 = tosa.const_shape  {values = dense<0> : tensor<6xindex>} : () -> !tosa.shape<6>\n-%2 = tosa.pad %arg0, %1, %0 : (tensor<13x21x3xf32>, !tosa.shape<6>, tensor<1xf32>) -> tensor<13x21x3xf32>\n-return %2 : tensor<13x21x3xf32>\n+return %arg0 : tensor<13x21x3xf32>\n }\n func.func @test_pad_dynamic_padding(%arg0: tensor<1x?x?x576xf32>) -> tensor<1x?x?x576xf32> {\n-%0 = tosa.const_shape  {values = dense<0> : tensor<1xindex>} : () -> !tosa.shape<1>\n-%1 = tosa.concat_shape %0, %0, %0, %0, %0, %0, %0, %0 : (!tosa.shape<1>, !tosa.shape<1>, !tosa.shape<1>, !tosa.shape<1>, !tosa.shape<1>, !tosa.shape<1>, !tosa.shape<1>, !tosa.shape<1>) -> !tosa.shape<8>\n-%2 = \"tosa.const\"() <{values = dense<0.000000e+00> : tensor<1xf32>}> : () -> tensor<1xf32>\n-%3 = tosa.pad %arg0, %1, %2 : (tensor<1x?x?x576xf32>, !tosa.shape<8>, tensor<1xf32>) -> tensor<1x?x?x576xf32>\n-return %3 : tensor<1x?x?x576xf32>\n+return %arg0 : tensor<1x?x?x576xf32>\n }\n func.func @test_reshape(%arg0: tensor<13x21x3xf32>) -> tensor<1x819xf32> {\n %0 = tosa.const_shape  {values = dense<[1, 819]> : tensor<2xindex>} : () -> !tosa.shape<2>\n@@ -554,15 +501,15 @@\n return %0 : tensor<*xf32>\n }\n func.func @test_slice(%arg0: tensor<13x21x3xf32>) -> tensor<4x11x1xf32> {\n-%0 = tosa.const_shape  {values = dense<[4, 11, 1]> : tensor<3xindex>} : () -> !tosa.shape<3>\n-%1 = tosa.const_shape  {values = dense<[6, 8, 0]> : tensor<3xindex>} : () -> !tosa.shape<3>\n-%2 = tosa.slice %arg0, %1, %0 : (tensor<13x21x3xf32>, !tosa.shape<3>, !tosa.shape<3>) -> tensor<4x11x1xf32>\n+%0 = tosa.const_shape  {values = dense<[6, 8, 0]> : tensor<3xindex>} : () -> !tosa.shape<3>\n+%1 = tosa.const_shape  {values = dense<[4, 11, 1]> : tensor<3xindex>} : () -> !tosa.shape<3>\n+%2 = tosa.slice %arg0, %0, %1 : (tensor<13x21x3xf32>, !tosa.shape<3>, !tosa.shape<3>) -> tensor<4x11x1xf32>\n return %2 : tensor<4x11x1xf32>\n }\n func.func @test_slice_size(%arg0: tensor<13x21x3xf32>) -> tensor<7x11x1xf32> {\n-%0 = tosa.const_shape  {values = dense<[7, 11, 1]> : tensor<3xindex>} : () -> !tosa.shape<3>\n-%1 = tosa.const_shape  {values = dense<[6, 8, 0]> : tensor<3xindex>} : () -> !tosa.shape<3>\n-%2 = tosa.slice %arg0, %1, %0 : (tensor<13x21x3xf32>, !tosa.shape<3>, !tosa.shape<3>) -> tensor<7x11x1xf32>\n+%0 = tosa.const_shape  {values = dense<[6, 8, 0]> : tensor<3xindex>} : () -> !tosa.shape<3>\n+%1 = tosa.const_shape  {values = dense<[7, 11, 1]> : tensor<3xindex>} : () -> !tosa.shape<3>\n+%2 = tosa.slice %arg0, %0, %1 : (tensor<13x21x3xf32>, !tosa.shape<3>, !tosa.shape<3>) -> tensor<7x11x1xf32>\n return %2 : tensor<7x11x1xf32>\n }\n func.func @test_tile(%arg0: tensor<13x21x3xf32>) -> tensor<39x21x6xf32> {\n@@ -617,31 +564,31 @@\n return %0 : tensor<13x21x3xf32>\n }\n func.func @test_resize(%arg0: tensor<1x32x32x8xf32>) -> tensor<1x64x64x8xf32> {\n-%0 = tosa.const_shape  {values = dense<[4, 2, 4, 2]> : tensor<4xindex>} : () -> !tosa.shape<4>\n+%0 = tosa.const_shape  {values = dense<1> : tensor<2xindex>} : () -> !tosa.shape<2>\n %1 = tosa.const_shape  {values = dense<-1> : tensor<2xindex>} : () -> !tosa.shape<2>\n-%2 = tosa.const_shape  {values = dense<1> : tensor<2xindex>} : () -> !tosa.shape<2>\n-%3 = tosa.resize %arg0, %0, %1, %2 {mode = BILINEAR} : (tensor<1x32x32x8xf32>, !tosa.shape<4>, !tosa.shape<2>, !tosa.shape<2>) -> tensor<1x64x64x8xf32>\n+%2 = tosa.const_shape  {values = dense<[4, 2, 4, 2]> : tensor<4xindex>} : () -> !tosa.shape<4>\n+%3 = tosa.resize %arg0, %2, %1, %0 {mode = BILINEAR} : (tensor<1x32x32x8xf32>, !tosa.shape<4>, !tosa.shape<2>, !tosa.shape<2>) -> tensor<1x64x64x8xf32>\n return %3 : tensor<1x64x64x8xf32>\n }\n func.func @test_resize_unranked_output(%arg0: tensor<1x32x32x8xf32>) -> tensor<*xf32> {\n-%0 = tosa.const_shape  {values = dense<[4, 2, 4, 2]> : tensor<4xindex>} : () -> !tosa.shape<4>\n+%0 = tosa.const_shape  {values = dense<1> : tensor<2xindex>} : () -> !tosa.shape<2>\n %1 = tosa.const_shape  {values = dense<-1> : tensor<2xindex>} : () -> !tosa.shape<2>\n-%2 = tosa.const_shape  {values = dense<1> : tensor<2xindex>} : () -> !tosa.shape<2>\n-%3 = tosa.resize %arg0, %0, %1, %2 {mode = BILINEAR} : (tensor<1x32x32x8xf32>, !tosa.shape<4>, !tosa.shape<2>, !tosa.shape<2>) -> tensor<*xf32>\n+%2 = tosa.const_shape  {values = dense<[4, 2, 4, 2]> : tensor<4xindex>} : () -> !tosa.shape<4>\n+%3 = tosa.resize %arg0, %2, %1, %0 {mode = BILINEAR} : (tensor<1x32x32x8xf32>, !tosa.shape<4>, !tosa.shape<2>, !tosa.shape<2>) -> tensor<*xf32>\n return %3 : tensor<*xf32>\n }\n func.func @test_resize_unranked_input(%arg0: tensor<*xf32>) -> tensor<1x64x64x8xf32> {\n-%0 = tosa.const_shape  {values = dense<[4, 2, 4, 2]> : tensor<4xindex>} : () -> !tosa.shape<4>\n+%0 = tosa.const_shape  {values = dense<1> : tensor<2xindex>} : () -> !tosa.shape<2>\n %1 = tosa.const_shape  {values = dense<-1> : tensor<2xindex>} : () -> !tosa.shape<2>\n-%2 = tosa.const_shape  {values = dense<1> : tensor<2xindex>} : () -> !tosa.shape<2>\n-%3 = tosa.resize %arg0, %0, %1, %2 {mode = BILINEAR} : (tensor<*xf32>, !tosa.shape<4>, !tosa.shape<2>, !tosa.shape<2>) -> tensor<1x64x64x8xf32>\n+%2 = tosa.const_shape  {values = dense<[4, 2, 4, 2]> : tensor<4xindex>} : () -> !tosa.shape<4>\n+%3 = tosa.resize %arg0, %2, %1, %0 {mode = BILINEAR} : (tensor<*xf32>, !tosa.shape<4>, !tosa.shape<2>, !tosa.shape<2>) -> tensor<1x64x64x8xf32>\n return %3 : tensor<1x64x64x8xf32>\n }\n func.func @test_resize_enum(%arg0: tensor<1x32x32x8xf32>) -> tensor<1x64x64x8xf32> {\n-%0 = tosa.const_shape  {values = dense<[4, 2, 4, 2]> : tensor<4xindex>} : () -> !tosa.shape<4>\n+%0 = tosa.const_shape  {values = dense<1> : tensor<2xindex>} : () -> !tosa.shape<2>\n %1 = tosa.const_shape  {values = dense<-1> : tensor<2xindex>} : () -> !tosa.shape<2>\n-%2 = tosa.const_shape  {values = dense<1> : tensor<2xindex>} : () -> !tosa.shape<2>\n-%3 = tosa.resize %arg0, %0, %1, %2 {mode = BILINEAR} : (tensor<1x32x32x8xf32>, !tosa.shape<4>, !tosa.shape<2>, !tosa.shape<2>) -> tensor<1x64x64x8xf32>\n+%2 = tosa.const_shape  {values = dense<[4, 2, 4, 2]> : tensor<4xindex>} : () -> !tosa.shape<4>\n+%3 = tosa.resize %arg0, %2, %1, %0 {mode = BILINEAR} : (tensor<1x32x32x8xf32>, !tosa.shape<4>, !tosa.shape<2>, !tosa.shape<2>) -> tensor<1x64x64x8xf32>\n return %3 : tensor<1x64x64x8xf32>\n }\n func.func @test_cast1(%arg0: tensor<13x21x3xi32>) -> tensor<13x21x3xf32> {\n@@ -657,27 +604,27 @@\n return %0 : tensor<13x21x3x!quant.uniform<i16:f32, 0.078431375324726104:128>>\n }\n func.func @test_rescale(%arg0: tensor<13x21x3x!quant.uniform<u8:f32, 0.015655439347028732:127>>) -> tensor<13x21x3x!quant.uniform<i8:f32, 0.015655439347028732:-1>> {\n-%0 = \"tosa.const\"() <{values = dense<1073741824> : tensor<1xi32>}> : () -> tensor<1xi32>\n-%1 = \"tosa.const\"() <{values = dense<30> : tensor<1xi8>}> : () -> tensor<1xi8>\n-%2 = \"tosa.const\"() <{values = dense<127> : tensor<1xi8>}> : () -> tensor<1xi8>\n-%3 = \"tosa.const\"() <{values = dense<-1> : tensor<1xi8>}> : () -> tensor<1xi8>\n-%4 = tosa.rescale %arg0, %0, %1, %2, %3 {input_unsigned = false, output_unsigned = false, per_channel = false, rounding_mode = SINGLE_ROUND, scale32 = true} : (tensor<13x21x3x!quant.uniform<u8:f32, 0.015655439347028732:127>>, tensor<1xi32>, tensor<1xi8>, tensor<1xi8>, tensor<1xi8>) -> tensor<13x21x3x!quant.uniform<i8:f32, 0.015655439347028732:-1>>\n+%0 = \"tosa.const\"() <{values = dense<-1> : tensor<1xi8>}> : () -> tensor<1xi8>\n+%1 = \"tosa.const\"() <{values = dense<127> : tensor<1xi8>}> : () -> tensor<1xi8>\n+%2 = \"tosa.const\"() <{values = dense<30> : tensor<1xi8>}> : () -> tensor<1xi8>\n+%3 = \"tosa.const\"() <{values = dense<1073741824> : tensor<1xi32>}> : () -> tensor<1xi32>\n+%4 = tosa.rescale %arg0, %3, %2, %1, %0 {input_unsigned = false, output_unsigned = false, per_channel = false, rounding_mode = SINGLE_ROUND, scale32 = true} : (tensor<13x21x3x!quant.uniform<u8:f32, 0.015655439347028732:127>>, tensor<1xi32>, tensor<1xi8>, tensor<1xi8>, tensor<1xi8>) -> tensor<13x21x3x!quant.uniform<i8:f32, 0.015655439347028732:-1>>\n return %4 : tensor<13x21x3x!quant.uniform<i8:f32, 0.015655439347028732:-1>>\n }\n func.func @test_rescale_i16_zp32768(%arg0: tensor<2xi8>) -> tensor<2xi16> {\n-%0 = \"tosa.const\"() <{values = dense<19689> : tensor<1xi16>}> : () -> tensor<1xi16>\n-%1 = \"tosa.const\"() <{values = dense<15> : tensor<1xi8>}> : () -> tensor<1xi8>\n-%2 = \"tosa.const\"() <{values = dense<17> : tensor<1xi8>}> : () -> tensor<1xi8>\n-%3 = \"tosa.const\"() <{values = dense<-32768> : tensor<1xi16>}> : () -> tensor<1xi16>\n-%4 = tosa.rescale %arg0, %0, %1, %2, %3 {input_unsigned = false, output_unsigned = true, per_channel = false, rounding_mode = SINGLE_ROUND, scale32 = false} : (tensor<2xi8>, tensor<1xi16>, tensor<1xi8>, tensor<1xi8>, tensor<1xi16>) -> tensor<2xi16>\n+%0 = \"tosa.const\"() <{values = dense<-32768> : tensor<1xi16>}> : () -> tensor<1xi16>\n+%1 = \"tosa.const\"() <{values = dense<17> : tensor<1xi8>}> : () -> tensor<1xi8>\n+%2 = \"tosa.const\"() <{values = dense<15> : tensor<1xi8>}> : () -> tensor<1xi8>\n+%3 = \"tosa.const\"() <{values = dense<19689> : tensor<1xi16>}> : () -> tensor<1xi16>\n+%4 = tosa.rescale %arg0, %3, %2, %1, %0 {input_unsigned = false, output_unsigned = true, per_channel = false, rounding_mode = SINGLE_ROUND, scale32 = false} : (tensor<2xi8>, tensor<1xi16>, tensor<1xi8>, tensor<1xi8>, tensor<1xi16>) -> tensor<2xi16>\n return %4 : tensor<2xi16>\n }\n func.func @test_rescale_i16_rounding_mode(%arg0: tensor<2xi8>) -> tensor<2xi16> {\n-%0 = \"tosa.const\"() <{values = dense<19689> : tensor<1xi16>}> : () -> tensor<1xi16>\n-%1 = \"tosa.const\"() <{values = dense<15> : tensor<1xi8>}> : () -> tensor<1xi8>\n-%2 = \"tosa.const\"() <{values = dense<17> : tensor<1xi8>}> : () -> tensor<1xi8>\n-%3 = \"tosa.const\"() <{values = dense<-32768> : tensor<1xi16>}> : () -> tensor<1xi16>\n-%4 = tosa.rescale %arg0, %0, %1, %2, %3 {input_unsigned = false, output_unsigned = true, per_channel = false, rounding_mode = SINGLE_ROUND, scale32 = false} : (tensor<2xi8>, tensor<1xi16>, tensor<1xi8>, tensor<1xi8>, tensor<1xi16>) -> tensor<2xi16>\n+%0 = \"tosa.const\"() <{values = dense<-32768> : tensor<1xi16>}> : () -> tensor<1xi16>\n+%1 = \"tosa.const\"() <{values = dense<17> : tensor<1xi8>}> : () -> tensor<1xi8>\n+%2 = \"tosa.const\"() <{values = dense<15> : tensor<1xi8>}> : () -> tensor<1xi8>\n+%3 = \"tosa.const\"() <{values = dense<19689> : tensor<1xi16>}> : () -> tensor<1xi16>\n+%4 = tosa.rescale %arg0, %3, %2, %1, %0 {input_unsigned = false, output_unsigned = true, per_channel = false, rounding_mode = SINGLE_ROUND, scale32 = false} : (tensor<2xi8>, tensor<1xi16>, tensor<1xi8>, tensor<1xi8>, tensor<1xi16>) -> tensor<2xi16>\n return %4 : tensor<2xi16>\n }\n func.func @test_const(%arg0: index) -> tensor<4xi32> {\n@@ -699,21 +646,6 @@\n return %0 : tensor<f32>\n }\n func.func @test_while_loop(%arg0: tensor<10xi32>, %arg1: tensor<i32>) {\n-%0 = \"tosa.const\"() <{values = dense<0> : tensor<i32>}> : () -> tensor<i32>\n-%1:3 = tosa.while_loop (%arg2 = %0, %arg3 = %0, %arg4 = %arg0) : (tensor<i32>, tensor<i32>, tensor<10xi32>) -> (tensor<i32>, tensor<i32>, tensor<10xi32>) {\n-%2 = tosa.greater_equal %arg3, %arg1 : (tensor<i32>, tensor<i32>) -> tensor<i1>\n-%3 = tosa.logical_not %2 : (tensor<i1>) -> tensor<i1>\n-tosa.yield %3 : tensor<i1>\n-} do {\n-^bb0(%arg2: tensor<i32>, %arg3: tensor<i32>, %arg4: tensor<10xi32>):\n-%2 = \"tosa.const\"() <{values = dense<1> : tensor<i32>}> : () -> tensor<i32>\n-%3 = tosa.add %arg3, %2 : (tensor<i32>, tensor<i32>) -> tensor<i32>\n-%4 = tosa.const_shape  {values = dense<1> : tensor<1xindex>} : () -> !tosa.shape<1>\n-%5 = tosa.reshape %2, %4 : (tensor<i32>, !tosa.shape<1>) -> tensor<1xi32>\n-%6 = tosa.add %arg4, %5 : (tensor<10xi32>, tensor<1xi32>) -> tensor<10xi32>\n-%7 = tosa.add %arg2, %2 : (tensor<i32>, tensor<i32>) -> tensor<i32>\n-tosa.yield %7, %3, %6 : tensor<i32>, tensor<i32>, tensor<10xi32>\n-}\n return\n }\n func.func @test_custom(%arg0: tensor<10xi32>) -> tensor<10xi32> {\n@@ -730,21 +662,18 @@\n }\n func.func @test_avg_pool2d_f8E5M2(%arg0: tensor<1x7x7x9xf8E5M2>) -> tensor<1x7x7x9xf8E5M2> {\n %0 = \"tosa.const\"() <{values = dense<0.000000e+00> : tensor<1xf8E5M2>}> : () -> tensor<1xf8E5M2>\n-%1 = \"tosa.const\"() <{values = dense<0.000000e+00> : tensor<1xf8E5M2>}> : () -> tensor<1xf8E5M2>\n-%2 = tosa.avg_pool2d %arg0, %0, %1 {acc_type = f16, kernel = array<i64: 2, 2>, pad = array<i64: 0, 1, 0, 1>, stride = array<i64: 1, 1>} : (tensor<1x7x7x9xf8E5M2>, tensor<1xf8E5M2>, tensor<1xf8E5M2>) -> tensor<1x7x7x9xf8E5M2>\n-return %2 : tensor<1x7x7x9xf8E5M2>\n+%1 = tosa.avg_pool2d %arg0, %0, %0 {acc_type = f16, kernel = array<i64: 2, 2>, pad = array<i64: 0, 1, 0, 1>, stride = array<i64: 1, 1>} : (tensor<1x7x7x9xf8E5M2>, tensor<1xf8E5M2>, tensor<1xf8E5M2>) -> tensor<1x7x7x9xf8E5M2>\n+return %1 : tensor<1x7x7x9xf8E5M2>\n }\n func.func @test_conv2d_f8E5M2(%arg0: tensor<1x4x4x4xf8E5M2>, %arg1: tensor<8x1x1x4xf8E5M2>, %arg2: tensor<8xf16>) -> tensor<1x4x4x8xf16> {\n %0 = \"tosa.const\"() <{values = dense<0.000000e+00> : tensor<1xf8E5M2>}> : () -> tensor<1xf8E5M2>\n-%1 = \"tosa.const\"() <{values = dense<0.000000e+00> : tensor<1xf8E5M2>}> : () -> tensor<1xf8E5M2>\n-%2 = tosa.conv2d %arg0, %arg1, %arg2, %0, %1 {acc_type = f16, dilation = array<i64: 1, 1>, local_bound = true, pad = array<i64: 0, 0, 0, 0>, stride = array<i64: 1, 1>} : (tensor<1x4x4x4xf8E5M2>, tensor<8x1x1x4xf8E5M2>, tensor<8xf16>, tensor<1xf8E5M2>, tensor<1xf8E5M2>) -> tensor<1x4x4x8xf16>\n-return %2 : tensor<1x4x4x8xf16>\n+%1 = tosa.conv2d %arg0, %arg1, %arg2, %0, %0 {acc_type = f16, dilation = array<i64: 1, 1>, local_bound = true, pad = array<i64: 0, 0, 0, 0>, stride = array<i64: 1, 1>} : (tensor<1x4x4x4xf8E5M2>, tensor<8x1x1x4xf8E5M2>, tensor<8xf16>, tensor<1xf8E5M2>, tensor<1xf8E5M2>) -> tensor<1x4x4x8xf16>\n+return %1 : tensor<1x4x4x8xf16>\n }\n func.func @test_conv2d_f8E5M2_acc32(%arg0: tensor<1x4x4x4xf8E5M2>, %arg1: tensor<8x1x1x4xf8E5M2>, %arg2: tensor<8xf32>) -> tensor<1x4x4x8xf32> {\n %0 = \"tosa.const\"() <{values = dense<0.000000e+00> : tensor<1xf8E5M2>}> : () -> tensor<1xf8E5M2>\n-%1 = \"tosa.const\"() <{values = dense<0.000000e+00> : tensor<1xf8E5M2>}> : () -> tensor<1xf8E5M2>\n-%2 = tosa.conv2d %arg0, %arg1, %arg2, %0, %1 {acc_type = f32, dilation = array<i64: 1, 1>, pad = array<i64: 0, 0, 0, 0>, stride = array<i64: 1, 1>} : (tensor<1x4x4x4xf8E5M2>, tensor<8x1x1x4xf8E5M2>, tensor<8xf32>, tensor<1xf8E5M2>, tensor<1xf8E5M2>) -> tensor<1x4x4x8xf32>\n-return %2 : tensor<1x4x4x8xf32>\n+%1 = tosa.conv2d %arg0, %arg1, %arg2, %0, %0 {acc_type = f32, dilation = array<i64: 1, 1>, pad = array<i64: 0, 0, 0, 0>, stride = array<i64: 1, 1>} : (tensor<1x4x4x4xf8E5M2>, tensor<8x1x1x4xf8E5M2>, tensor<8xf32>, tensor<1xf8E5M2>, tensor<1xf8E5M2>) -> tensor<1x4x4x8xf32>\n+return %1 : tensor<1x4x4x8xf32>\n }\n func.func @test_conv3d_f8E5M2(%arg0: tensor<1x4x8x21x17xf8E5M2>, %arg1: tensor<34x1x1x1x17xf8E5M2>, %arg2: tensor<34xf16>, %arg3: tensor<1xf8E5M2>, %arg4: tensor<1xf8E5M2>) -> tensor<1x4x8x21x34xf16> {\n %0 = tosa.conv3d %arg0, %arg1, %arg2, %arg3, %arg4 {acc_type = f16, dilation = array<i64: 1, 1, 1>, pad = array<i64: 0, 0, 0, 0, 0, 0>, stride = array<i64: 1, 1, 1>} : (tensor<1x4x8x21x17xf8E5M2>, tensor<34x1x1x1x17xf8E5M2>, tensor<34xf16>, tensor<1xf8E5M2>, tensor<1xf8E5M2>) -> tensor<1x4x8x21x34xf16>\n@@ -752,9 +681,8 @@\n }\n func.func @test_conv3d_f8E5M2_acc32(%arg0: tensor<1x4x8x21x17xf8E5M2>, %arg1: tensor<34x1x1x1x17xf8E5M2>, %arg2: tensor<34xf32>) -> tensor<1x4x8x21x34xf32> {\n %0 = \"tosa.const\"() <{values = dense<0.000000e+00> : tensor<1xf8E5M2>}> : () -> tensor<1xf8E5M2>\n-%1 = \"tosa.const\"() <{values = dense<0.000000e+00> : tensor<1xf8E5M2>}> : () -> tensor<1xf8E5M2>\n-%2 = tosa.conv3d %arg0, %arg1, %arg2, %0, %1 {acc_type = f32, dilation = array<i64: 1, 1, 1>, pad = array<i64: 0, 0, 0, 0, 0, 0>, stride = array<i64: 1, 1, 1>} : (tensor<1x4x8x21x17xf8E5M2>, tensor<34x1x1x1x17xf8E5M2>, tensor<34xf32>, tensor<1xf8E5M2>, tensor<1xf8E5M2>) -> tensor<1x4x8x21x34xf32>\n-return %2 : tensor<1x4x8x21x34xf32>\n+%1 = tosa.conv3d %arg0, %arg1, %arg2, %0, %0 {acc_type = f32, dilation = array<i64: 1, 1, 1>, pad = array<i64: 0, 0, 0, 0, 0, 0>, stride = array<i64: 1, 1, 1>} : (tensor<1x4x8x21x17xf8E5M2>, tensor<34x1x1x1x17xf8E5M2>, tensor<34xf32>, tensor<1xf8E5M2>, tensor<1xf8E5M2>) -> tensor<1x4x8x21x34xf32>\n+return %1 : tensor<1x4x8x21x34xf32>\n }\n func.func @test_depthwise_conv2d_f8E5M2(%arg0: tensor<1x4x4x4xf8E5M2>, %arg1: tensor<1x1x4x2xf8E5M2>, %arg2: tensor<8xf16>, %arg3: tensor<1xf8E5M2>, %arg4: tensor<1xf8E5M2>) -> tensor<1x4x4x8xf16> {\n %0 = tosa.depthwise_conv2d %arg0, %arg1, %arg2, %arg3, %arg4 {acc_type = f16, dilation = array<i64: 1, 1>, pad = array<i64: 0, 0, 0, 0>, stride = array<i64: 1, 1>} : (tensor<1x4x4x4xf8E5M2>, tensor<1x1x4x2xf8E5M2>, tensor<8xf16>, tensor<1xf8E5M2>, tensor<1xf8E5M2>) -> tensor<1x4x4x8xf16>\n@@ -762,20 +690,18 @@\n }\n func.func @test_depthwise_conv2d_f8E5M2_acc32(%arg0: tensor<1x4x4x4xf8E5M2>, %arg1: tensor<1x1x4x2xf8E5M2>, %arg2: tensor<8xf32>) -> tensor<1x4x4x8xf32> {\n %0 = \"tosa.const\"() <{values = dense<0.000000e+00> : tensor<1xf8E5M2>}> : () -> tensor<1xf8E5M2>\n-%1 = \"tosa.const\"() <{values = dense<0.000000e+00> : tensor<1xf8E5M2>}> : () -> tensor<1xf8E5M2>\n-%2 = tosa.depthwise_conv2d %arg0, %arg1, %arg2, %0, %1 {acc_type = f32, dilation = array<i64: 1, 1>, pad = array<i64: 0, 0, 0, 0>, stride = array<i64: 1, 1>} : (tensor<1x4x4x4xf8E5M2>, tensor<1x1x4x2xf8E5M2>, tensor<8xf32>, tensor<1xf8E5M2>, tensor<1xf8E5M2>) -> tensor<1x4x4x8xf32>\n-return %2 : tensor<1x4x4x8xf32>\n+%1 = tosa.depthwise_conv2d %arg0, %arg1, %arg2, %0, %0 {acc_type = f32, dilation = array<i64: 1, 1>, pad = array<i64: 0, 0, 0, 0>, stride = array<i64: 1, 1>} : (tensor<1x4x4x4xf8E5M2>, tensor<1x1x4x2xf8E5M2>, tensor<8xf32>, tensor<1xf8E5M2>, tensor<1xf8E5M2>) -> tensor<1x4x4x8xf32>\n+return %1 : tensor<1x4x4x8xf32>\n }\n func.func @test_matmul_f8E5M2(%arg0: tensor<1x14x19xf8E5M2>, %arg1: tensor<1x19x28xf8E5M2>) -> tensor<1x14x28xf16> {\n %0 = \"tosa.const\"() <{values = dense<0.000000e+00> : tensor<1xf8E5M2>}> : () -> tensor<1xf8E5M2>\n+%1 = tosa.matmul %arg0, %arg1, %0, %0 : (tensor<1x14x19xf8E5M2>, tensor<1x19x28xf8E5M2>, tensor<1xf8E5M2>, tensor<1xf8E5M2>) -> tensor<1x14x28xf16>\n+return %1 : tensor<1x14x28xf16>\n+}\n+func.func @test_matmul_f8E5M2_f8E4M3(%arg0: tensor<1x14x19xf8E5M2>, %arg1: tensor<1x19x28xf8E4M3FN>) -> tensor<1x14x28xf16> {\n+%0 = \"tosa.const\"() <{values = dense<0.000000e+00> : tensor<1xf8E4M3FN>}> : () -> tensor<1xf8E4M3FN>\n %1 = \"tosa.const\"() <{values = dense<0.000000e+00> : tensor<1xf8E5M2>}> : () -> tensor<1xf8E5M2>\n-%2 = tosa.matmul %arg0, %arg1, %0, %1 : (tensor<1x14x19xf8E5M2>, tensor<1x19x28xf8E5M2>, tensor<1xf8E5M2>, tensor<1xf8E5M2>) -> tensor<1x14x28xf16>\n-return %2 : tensor<1x14x28xf16>\n-}\n-func.func @test_matmul_f8E5M2_f8E4M3(%arg0: tensor<1x14x19xf8E5M2>, %arg1: tensor<1x19x28xf8E4M3FN>) -> tensor<1x14x28xf16> {\n-%0 = \"tosa.const\"() <{values = dense<0.000000e+00> : tensor<1xf8E5M2>}> : () -> tensor<1xf8E5M2>\n-%1 = \"tosa.const\"() <{values = dense<0.000000e+00> : tensor<1xf8E4M3FN>}> : () -> tensor<1xf8E4M3FN>\n-%2 = tosa.matmul %arg0, %arg1, %0, %1 : (tensor<1x14x19xf8E5M2>, tensor<1x19x28xf8E4M3FN>, tensor<1xf8E5M2>, tensor<1xf8E4M3FN>) -> tensor<1x14x28xf16>\n+%2 = tosa.matmul %arg0, %arg1, %1, %0 : (tensor<1x14x19xf8E5M2>, tensor<1x19x28xf8E4M3FN>, tensor<1xf8E5M2>, tensor<1xf8E4M3FN>) -> tensor<1x14x28xf16>\n return %2 : tensor<1x14x28xf16>\n }\n func.func @test_max_pool2d_f8E5M2(%arg0: tensor<1x32x32x8xf8E5M2>) -> tensor<1x32x32x8xf8E5M2> {\n@@ -788,9 +714,8 @@\n }\n func.func @test_transpose_conv2d_f8E5M2_acc32(%arg0: tensor<1x32x32x8xf8E5M2>, %arg1: tensor<16x1x1x8xf8E5M2>, %arg2: tensor<16xf32>) -> tensor<1x32x32x16xf32> {\n %0 = \"tosa.const\"() <{values = dense<0.000000e+00> : tensor<1xf8E5M2>}> : () -> tensor<1xf8E5M2>\n-%1 = \"tosa.const\"() <{values = dense<0.000000e+00> : tensor<1xf8E5M2>}> : () -> tensor<1xf8E5M2>\n-%2 = tosa.transpose_conv2d %arg0, %arg1, %arg2, %0, %1 {acc_type = f32, out_pad = array<i64: 0, 0, 0, 0>, stride = array<i64: 1, 1>} : (tensor<1x32x32x8xf8E5M2>, tensor<16x1x1x8xf8E5M2>, tensor<16xf32>, tensor<1xf8E5M2>, tensor<1xf8E5M2>) -> tensor<1x32x32x16xf32>\n-return %2 : tensor<1x32x32x16xf32>\n+%1 = tosa.transpose_conv2d %arg0, %arg1, %arg2, %0, %0 {acc_type = f32, out_pad = array<i64: 0, 0, 0, 0>, stride = array<i64: 1, 1>} : (tensor<1x32x32x8xf8E5M2>, tensor<16x1x1x8xf8E5M2>, tensor<16xf32>, tensor<1xf8E5M2>, tensor<1xf8E5M2>) -> tensor<1x32x32x16xf32>\n+return %1 : tensor<1x32x32x16xf32>\n }\n func.func @test_const_f8E5M2(%arg0: index) -> tensor<4xf8E5M2> {\n %0 = \"tosa.const\"() <{values = dense<[3.000000e+00, -0.000000e+00, -1.000000e+00, 2.000000e+00]> : tensor<4xf8E5M2>}> : () -> tensor<4xf8E5M2>\n@@ -805,10 +730,7 @@\n return %0 : tensor<26x21x3xf8E5M2>\n }\n func.func @test_pad_f8E5M2(%arg0: tensor<13x21x3xf8E5M2>) -> tensor<13x21x3xf8E5M2> {\n-%0 = tosa.const_shape  {values = dense<0> : tensor<6xindex>} : () -> !tosa.shape<6>\n-%1 = \"tosa.const\"() <{values = dense<-0.000000e+00> : tensor<1xf8E5M2>}> : () -> tensor<1xf8E5M2>\n-%2 = tosa.pad %arg0, %0, %1 : (tensor<13x21x3xf8E5M2>, !tosa.shape<6>, tensor<1xf8E5M2>) -> tensor<13x21x3xf8E5M2>\n-return %2 : tensor<13x21x3xf8E5M2>\n+return %arg0 : tensor<13x21x3xf8E5M2>\n }\n func.func @test_reshape_f8E5M2(%arg0: tensor<13x21x3xf8E5M2>) -> tensor<1x819xf8E5M2> {\n %0 = tosa.const_shape  {values = dense<[1, 819]> : tensor<2xindex>} : () -> !tosa.shape<2>\n@@ -820,9 +742,9 @@\n return %0 : tensor<13x21x3xf8E5M2>\n }\n func.func @test_slice_f8E5M2(%arg0: tensor<13x21x3xf8E5M2>) -> tensor<4x11x1xf8E5M2> {\n-%0 = tosa.const_shape  {values = dense<[4, 11, 1]> : tensor<3xindex>} : () -> !tosa.shape<3>\n-%1 = tosa.const_shape  {values = dense<[6, 8, 0]> : tensor<3xindex>} : () -> !tosa.shape<3>\n-%2 = tosa.slice %arg0, %1, %0 : (tensor<13x21x3xf8E5M2>, !tosa.shape<3>, !tosa.shape<3>) -> tensor<4x11x1xf8E5M2>\n+%0 = tosa.const_shape  {values = dense<[6, 8, 0]> : tensor<3xindex>} : () -> !tosa.shape<3>\n+%1 = tosa.const_shape  {values = dense<[4, 11, 1]> : tensor<3xindex>} : () -> !tosa.shape<3>\n+%2 = tosa.slice %arg0, %0, %1 : (tensor<13x21x3xf8E5M2>, !tosa.shape<3>, !tosa.shape<3>) -> tensor<4x11x1xf8E5M2>\n return %2 : tensor<4x11x1xf8E5M2>\n }\n func.func @test_tile_f8E5M2(%arg0: tensor<13x21x3xf8E5M2>) -> tensor<39x21x6xf8E5M2> {\n@@ -848,15 +770,13 @@\n }\n func.func @test_avg_pool2d_f8E4M3FN(%arg0: tensor<1x7x7x9xf8E4M3FN>) -> tensor<1x7x7x9xf8E4M3FN> {\n %0 = \"tosa.const\"() <{values = dense<0.000000e+00> : tensor<1xf8E4M3FN>}> : () -> tensor<1xf8E4M3FN>\n-%1 = \"tosa.const\"() <{values = dense<0.000000e+00> : tensor<1xf8E4M3FN>}> : () -> tensor<1xf8E4M3FN>\n-%2 = tosa.avg_pool2d %arg0, %0, %1 {acc_type = f16, kernel = array<i64: 2, 2>, pad = array<i64: 0, 1, 0, 1>, stride = array<i64: 1, 1>} : (tensor<1x7x7x9xf8E4M3FN>, tensor<1xf8E4M3FN>, tensor<1xf8E4M3FN>) -> tensor<1x7x7x9xf8E4M3FN>\n-return %2 : tensor<1x7x7x9xf8E4M3FN>\n+%1 = tosa.avg_pool2d %arg0, %0, %0 {acc_type = f16, kernel = array<i64: 2, 2>, pad = array<i64: 0, 1, 0, 1>, stride = array<i64: 1, 1>} : (tensor<1x7x7x9xf8E4M3FN>, tensor<1xf8E4M3FN>, tensor<1xf8E4M3FN>) -> tensor<1x7x7x9xf8E4M3FN>\n+return %1 : tensor<1x7x7x9xf8E4M3FN>\n }\n func.func @test_conv2d_f8E4M3FN(%arg0: tensor<1x4x4x4xf8E4M3FN>, %arg1: tensor<8x1x1x4xf8E4M3FN>, %arg2: tensor<8xf16>) -> tensor<1x4x4x8xf16> {\n %0 = \"tosa.const\"() <{values = dense<0.000000e+00> : tensor<1xf8E4M3FN>}> : () -> tensor<1xf8E4M3FN>\n-%1 = \"tosa.const\"() <{values = dense<0.000000e+00> : tensor<1xf8E4M3FN>}> : () -> tensor<1xf8E4M3FN>\n-%2 = tosa.conv2d %arg0, %arg1, %arg2, %0, %1 {acc_type = f16, dilation = array<i64: 1, 1>, local_bound = true, pad = array<i64: 0, 0, 0, 0>, stride = array<i64: 1, 1>} : (tensor<1x4x4x4xf8E4M3FN>, tensor<8x1x1x4xf8E4M3FN>, tensor<8xf16>, tensor<1xf8E4M3FN>, tensor<1xf8E4M3FN>) -> tensor<1x4x4x8xf16>\n-return %2 : tensor<1x4x4x8xf16>\n+%1 = tosa.conv2d %arg0, %arg1, %arg2, %0, %0 {acc_type = f16, dilation = array<i64: 1, 1>, local_bound = true, pad = array<i64: 0, 0, 0, 0>, stride = array<i64: 1, 1>} : (tensor<1x4x4x4xf8E4M3FN>, tensor<8x1x1x4xf8E4M3FN>, tensor<8xf16>, tensor<1xf8E4M3FN>, tensor<1xf8E4M3FN>) -> tensor<1x4x4x8xf16>\n+return %1 : tensor<1x4x4x8xf16>\n }\n func.func @test_conv3d_f8E4M3FN(%arg0: tensor<1x4x8x21x17xf8E4M3FN>, %arg1: tensor<34x1x1x1x17xf8E4M3FN>, %arg2: tensor<34xf16>, %arg3: tensor<1xf8E4M3FN>, %arg4: tensor<1xf8E4M3FN>) -> tensor<1x4x8x21x34xf16> {\n %0 = tosa.conv3d %arg0, %arg1, %arg2, %arg3, %arg4 {acc_type = f16, dilation = array<i64: 1, 1, 1>, pad = array<i64: 0, 0, 0, 0, 0, 0>, stride = array<i64: 1, 1, 1>} : (tensor<1x4x8x21x17xf8E4M3FN>, tensor<34x1x1x1x17xf8E4M3FN>, tensor<34xf16>, tensor<1xf8E4M3FN>, tensor<1xf8E4M3FN>) -> tensor<1x4x8x21x34xf16>\n@@ -868,9 +788,8 @@\n }\n func.func @test_matmul_f8E4M3FN(%arg0: tensor<1x14x19xf8E4M3FN>, %arg1: tensor<1x19x28xf8E4M3FN>) -> tensor<1x14x28xf16> {\n %0 = \"tosa.const\"() <{values = dense<0.000000e+00> : tensor<1xf8E4M3FN>}> : () -> tensor<1xf8E4M3FN>\n-%1 = \"tosa.const\"() <{values = dense<0.000000e+00> : tensor<1xf8E4M3FN>}> : () -> tensor<1xf8E4M3FN>\n-%2 = tosa.matmul %arg0, %arg1, %0, %1 : (tensor<1x14x19xf8E4M3FN>, tensor<1x19x28xf8E4M3FN>, tensor<1xf8E4M3FN>, tensor<1xf8E4M3FN>) -> tensor<1x14x28xf16>\n-return %2 : tensor<1x14x28xf16>\n+%1 = tosa.matmul %arg0, %arg1, %0, %0 : (tensor<1x14x19xf8E4M3FN>, tensor<1x19x28xf8E4M3FN>, tensor<1xf8E4M3FN>, tensor<1xf8E4M3FN>) -> tensor<1x14x28xf16>\n+return %1 : tensor<1x14x28xf16>\n }\n func.func @test_max_pool2d_f8E4M3FN(%arg0: tensor<1x32x32x8xf8E4M3FN>) -> tensor<1x32x32x8xf8E4M3FN> {\n %0 = tosa.max_pool2d %arg0 {kernel = array<i64: 1, 1>, pad = array<i64: 0, 0, 0, 0>, stride = array<i64: 1, 1>} : (tensor<1x32x32x8xf8E4M3FN>) -> tensor<1x32x32x8xf8E4M3FN>\n@@ -893,10 +812,7 @@\n return %0 : tensor<26x21x3xf8E4M3FN>\n }\n func.func @test_pad_f8E4M3FN(%arg0: tensor<13x21x3xf8E4M3FN>) -> tensor<13x21x3xf8E4M3FN> {\n-%0 = tosa.const_shape  {values = dense<0> : tensor<6xindex>} : () -> !tosa.shape<6>\n-%1 = \"tosa.const\"() <{values = dense<-0.000000e+00> : tensor<1xf8E4M3FN>}> : () -> tensor<1xf8E4M3FN>\n-%2 = tosa.pad %arg0, %0, %1 : (tensor<13x21x3xf8E4M3FN>, !tosa.shape<6>, tensor<1xf8E4M3FN>) -> tensor<13x21x3xf8E4M3FN>\n-return %2 : tensor<13x21x3xf8E4M3FN>\n+return %arg0 : tensor<13x21x3xf8E4M3FN>\n }\n func.func @test_reshape_f8E4M3FN(%arg0: tensor<13x21x3xf8E4M3FN>) -> tensor<1x819xf8E4M3FN> {\n %0 = tosa.const_shape  {values = dense<[1, 819]> : tensor<2xindex>} : () -> !tosa.shape<2>\n@@ -908,9 +824,9 @@\n return %0 : tensor<13x21x3xf8E4M3FN>\n }\n func.func @test_slice_f8E4M3FN(%arg0: tensor<13x21x3xf8E4M3FN>) -> tensor<4x11x1xf8E4M3FN> {\n-%0 = tosa.const_shape  {values = dense<[4, 11, 1]> : tensor<3xindex>} : () -> !tosa.shape<3>\n-%1 = tosa.const_shape  {values = dense<[6, 8, 0]> : tensor<3xindex>} : () -> !tosa.shape<3>\n-%2 = tosa.slice %arg0, %1, %0 : (tensor<13x21x3xf8E4M3FN>, !tosa.shape<3>, !tosa.shape<3>) -> tensor<4x11x1xf8E4M3FN>\n+%0 = tosa.const_shape  {values = dense<[6, 8, 0]> : tensor<3xindex>} : () -> !tosa.shape<3>\n+%1 = tosa.const_shape  {values = dense<[4, 11, 1]> : tensor<3xindex>} : () -> !tosa.shape<3>\n+%2 = tosa.slice %arg0, %0, %1 : (tensor<13x21x3xf8E4M3FN>, !tosa.shape<3>, !tosa.shape<3>) -> tensor<4x11x1xf8E4M3FN>\n return %2 : tensor<4x11x1xf8E4M3FN>\n }\n func.func @test_tile_f8E4M3FN(%arg0: tensor<13x21x3xf8E4M3FN>) -> tensor<39x21x6xf8E4M3FN> {\n@@ -1007,58 +923,40 @@\n return %0 : tensor<2x!tosa.mxint8>\n }\n func.func @test_add_shape() -> !tosa.shape<4> {\n-%0 = tosa.const_shape  {values = dense<[1, 2, 3, 4]> : tensor<4xindex>} : () -> !tosa.shape<4>\n-%1 = tosa.const_shape  {values = dense<[5, 6, 7, 8]> : tensor<4xindex>} : () -> !tosa.shape<4>\n-%2 = tosa.add_shape %0, %1 : (!tosa.shape<4>, !tosa.shape<4>) -> !tosa.shape<4>\n-return %2 : !tosa.shape<4>\n+%0 = tosa.const_shape  {values = dense<[6, 8, 10, 12]> : tensor<4xindex>} : () -> !tosa.shape<4>\n+return %0 : !tosa.shape<4>\n }\n func.func @test_sub_shape() -> !tosa.shape<3> {\n-%0 = tosa.const_shape  {values = dense<[10, 5, 3]> : tensor<3xindex>} : () -> !tosa.shape<3>\n-%1 = tosa.const_shape  {values = dense<[2, 1, 1]> : tensor<3xindex>} : () -> !tosa.shape<3>\n-%2 = tosa.sub_shape %0, %1 : (!tosa.shape<3>, !tosa.shape<3>) -> !tosa.shape<3>\n-return %2 : !tosa.shape<3>\n+%0 = tosa.const_shape  {values = dense<[8, 4, 2]> : tensor<3xindex>} : () -> !tosa.shape<3>\n+return %0 : !tosa.shape<3>\n }\n func.func @test_mul_shape() -> !tosa.shape<4> {\n-%0 = tosa.const_shape  {values = dense<[2, 3, 4, 5]> : tensor<4xindex>} : () -> !tosa.shape<4>\n-%1 = tosa.const_shape  {values = dense<[7, 0, 2, 6]> : tensor<4xindex>} : () -> !tosa.shape<4>\n-%2 = tosa.mul_shape %0, %1 : (!tosa.shape<4>, !tosa.shape<4>) -> !tosa.shape<4>\n-return %2 : !tosa.shape<4>\n+%0 = tosa.const_shape  {values = dense<[14, 0, 8, 30]> : tensor<4xindex>} : () -> !tosa.shape<4>\n+return %0 : !tosa.shape<4>\n }\n func.func @test_mod_shape() -> !tosa.shape<4> {\n-%0 = tosa.const_shape  {values = dense<[9, 12, 10, 5]> : tensor<4xindex>} : () -> !tosa.shape<4>\n-%1 = tosa.const_shape  {values = dense<[2, 5, 3, 4]> : tensor<4xindex>} : () -> !tosa.shape<4>\n-%2 = tosa.mod_shape %0, %1 : (!tosa.shape<4>, !tosa.shape<4>) -> !tosa.shape<4>\n-return %2 : !tosa.shape<4>\n+%0 = tosa.const_shape  {values = dense<[1, 2, 1, 1]> : tensor<4xindex>} : () -> !tosa.shape<4>\n+return %0 : !tosa.shape<4>\n }\n func.func @test_div_ceil_shape() -> !tosa.shape<4> {\n-%0 = tosa.const_shape  {values = dense<[5, 7, 10, 1]> : tensor<4xindex>} : () -> !tosa.shape<4>\n-%1 = tosa.const_shape  {values = dense<[2, 3, 4, 3]> : tensor<4xindex>} : () -> !tosa.shape<4>\n-%2 = tosa.div_ceil_shape %0, %1 : (!tosa.shape<4>, !tosa.shape<4>) -> !tosa.shape<4>\n-return %2 : !tosa.shape<4>\n+%0 = tosa.const_shape  {values = dense<[3, 3, 3, 1]> : tensor<4xindex>} : () -> !tosa.shape<4>\n+return %0 : !tosa.shape<4>\n }\n func.func @test_div_floor_shape() -> !tosa.shape<4> {\n-%0 = tosa.const_shape  {values = dense<[5, 7, 10, 1]> : tensor<4xindex>} : () -> !tosa.shape<4>\n-%1 = tosa.const_shape  {values = dense<[2, 3, 4, 3]> : tensor<4xindex>} : () -> !tosa.shape<4>\n-%2 = tosa.div_floor_shape %0, %1 : (!tosa.shape<4>, !tosa.shape<4>) -> !tosa.shape<4>\n-return %2 : !tosa.shape<4>\n+%0 = tosa.const_shape  {values = dense<[2, 2, 2, 0]> : tensor<4xindex>} : () -> !tosa.shape<4>\n+return %0 : !tosa.shape<4>\n }\n func.func @test_dim(%arg0: tensor<1x2x3x4xi32>) -> !tosa.shape<1> {\n-%0 = tosa.dim %arg0 {axis = 2 : i32} : (tensor<1x2x3x4xi32>) -> !tosa.shape<1>\n+%0 = tosa.const_shape  {values = dense<3> : tensor<1xindex>} : () -> !tosa.shape<1>\n return %0 : !tosa.shape<1>\n }\n func.func @test_concat_shape() -> !tosa.shape<5> {\n-%0 = tosa.const_shape  {values = dense<10> : tensor<1xindex>} : () -> !tosa.shape<1>\n-%1 = tosa.const_shape  {values = dense<[10, 15]> : tensor<2xindex>} : () -> !tosa.shape<2>\n-%2 = tosa.const_shape  {values = dense<[5, 2]> : tensor<2xindex>} : () -> !tosa.shape<2>\n-%3 = tosa.concat_shape %0, %1, %2 : (!tosa.shape<1>, !tosa.shape<2>, !tosa.shape<2>) -> !tosa.shape<5>\n-return %3 : !tosa.shape<5>\n+%0 = tosa.const_shape  {values = dense<[10, 10, 15, 5, 2]> : tensor<5xindex>} : () -> !tosa.shape<5>\n+return %0 : !tosa.shape<5>\n }\n func.func @test_slice_shape() -> !tosa.shape<3> {\n-%0 = tosa.const_shape  {values = dense<[4, 5, 6, 7, 8, 9]> : tensor<6xindex>} : () -> !tosa.shape<6>\n-%1 = \"tosa.const\"() <{values = dense<1> : tensor<1xi32>}> : () -> tensor<1xi32>\n-%2 = \"tosa.const\"() <{values = dense<3> : tensor<1xi32>}> : () -> tensor<1xi32>\n-%3 = tosa.slice_shape %0, %1, %2 : (!tosa.shape<6>, tensor<1xi32>, tensor<1xi32>) -> !tosa.shape<3>\n-return %3 : !tosa.shape<3>\n+%0 = tosa.const_shape  {values = dense<[5, 6, 7]> : tensor<3xindex>} : () -> !tosa.shape<3>\n+return %0 : !tosa.shape<3>\n }\n func.func @test_slice_shape_dynamic(%arg0: tensor<1xi32>, %arg1: tensor<1xi32>) -> !tosa.shape<3> {\n %0 = tosa.const_shape  {values = dense<[4, 5, 6, 7, 8, 9]> : tensor<6xindex>} : () -> !tosa.shape<6>\n@@ -1066,50 +964,41 @@\n return %1 : !tosa.shape<3>\n }\n func.func @test_exp2_shape() -> !tosa.shape<4> {\n-%0 = tosa.const_shape  {values = dense<[5, 7, 10, 1]> : tensor<4xindex>} : () -> !tosa.shape<4>\n-%1 = tosa.exp2_shape %0 : (!tosa.shape<4>) -> !tosa.shape<4>\n-return %1 : !tosa.shape<4>\n+%0 = tosa.const_shape  {values = dense<[32, 128, 1024, 2]> : tensor<4xindex>} : () -> !tosa.shape<4>\n+return %0 : !tosa.shape<4>\n }\n func.func @test_log2_ceil_shape() -> !tosa.shape<4> {\n-%0 = tosa.const_shape  {values = dense<[5, 7, 10, 1]> : tensor<4xindex>} : () -> !tosa.shape<4>\n-%1 = tosa.log2_ceil_shape %0 : (!tosa.shape<4>) -> !tosa.shape<4>\n-return %1 : !tosa.shape<4>\n+%0 = tosa.const_shape  {values = dense<[3, 3, 4, 0]> : tensor<4xindex>} : () -> !tosa.shape<4>\n+return %0 : !tosa.shape<4>\n }\n func.func @test_log2_floor_shape() -> !tosa.shape<4> {\n-%0 = tosa.const_shape  {values = dense<[5, 7, 10, 1]> : tensor<4xindex>} : () -> !tosa.shape<4>\n-%1 = tosa.log2_floor_shape %0 : (!tosa.shape<4>) -> !tosa.shape<4>\n-return %1 : !tosa.shape<4>\n+%0 = tosa.const_shape  {values = dense<[2, 2, 3, 0]> : tensor<4xindex>} : () -> !tosa.shape<4>\n+return %0 : !tosa.shape<4>\n }\n func.func @test_max_shape() -> !tosa.shape<4> {\n-%0 = tosa.const_shape  {values = dense<[5, 7, 10, 1]> : tensor<4xindex>} : () -> !tosa.shape<4>\n-%1 = tosa.const_shape  {values = dense<[2, 3, 4, 3]> : tensor<4xindex>} : () -> !tosa.shape<4>\n-%2 = tosa.max_shape %0, %1 : (!tosa.shape<4>, !tosa.shape<4>) -> !tosa.shape<4>\n-return %2 : !tosa.shape<4>\n+%0 = tosa.const_shape  {values = dense<[5, 7, 10, 3]> : tensor<4xindex>} : () -> !tosa.shape<4>\n+return %0 : !tosa.shape<4>\n }\n func.func @test_min_shape() -> !tosa.shape<4> {\n-%0 = tosa.const_shape  {values = dense<[5, 7, 10, 1]> : tensor<4xindex>} : () -> !tosa.shape<4>\n-%1 = tosa.const_shape  {values = dense<[2, 3, 4, 3]> : tensor<4xindex>} : () -> !tosa.shape<4>\n-%2 = tosa.min_shape %0, %1 : (!tosa.shape<4>, !tosa.shape<4>) -> !tosa.shape<4>\n-return %2 : !tosa.shape<4>\n+%0 = tosa.const_shape  {values = dense<[2, 3, 4, 1]> : tensor<4xindex>} : () -> !tosa.shape<4>\n+return %0 : !tosa.shape<4>\n }\n func.func @test_conv2d_block_scaled_static(%arg0: tensor<1x4x4x64xf4E2M1FN>, %arg1: tensor<1x4x4x2xf8E8M0FNU>, %arg2: tensor<8x1x1x64xf4E2M1FN>, %arg3: tensor<8x1x1x2xf8E8M0FNU>, %arg4: tensor<1xf32>) -> tensor<*xf32> {\n-%0 = tosa.const_shape  {values = dense<0> : tensor<4xindex>} : () -> !tosa.shape<4>\n-%1 = tosa.const_shape  {values = dense<1> : tensor<2xindex>} : () -> !tosa.shape<2>\n-%2 = tosa.const_shape  {values = dense<1> : tensor<2xindex>} : () -> !tosa.shape<2>\n-%3 = tosa.conv2d_block_scaled %arg0, %arg1, %arg2, %arg3, %arg4, %0, %1, %2 {block_size = BLOCK_SIZE_32} : (tensor<1x4x4x64xf4E2M1FN>, tensor<1x4x4x2xf8E8M0FNU>, tensor<8x1x1x64xf4E2M1FN>, tensor<8x1x1x2xf8E8M0FNU>, tensor<1xf32>, !tosa.shape<4>, !tosa.shape<2>, !tosa.shape<2>) -> tensor<*xf32>\n-return %3 : tensor<*xf32>\n+%0 = tosa.const_shape  {values = dense<1> : tensor<2xindex>} : () -> !tosa.shape<2>\n+%1 = tosa.const_shape  {values = dense<0> : tensor<4xindex>} : () -> !tosa.shape<4>\n+%2 = tosa.conv2d_block_scaled %arg0, %arg1, %arg2, %arg3, %arg4, %1, %0, %0 {block_size = BLOCK_SIZE_32} : (tensor<1x4x4x64xf4E2M1FN>, tensor<1x4x4x2xf8E8M0FNU>, tensor<8x1x1x64xf4E2M1FN>, tensor<8x1x1x2xf8E8M0FNU>, tensor<1xf32>, !tosa.shape<4>, !tosa.shape<2>, !tosa.shape<2>) -> tensor<*xf32>\n+return %2 : tensor<*xf32>\n }\n func.func @test_conv2d_block_scaled_dynamic(%arg0: tensor<*xf4E2M1FN>, %arg1: tensor<*xf8E8M0FNU>, %arg2: tensor<*xf4E2M1FN>, %arg3: tensor<*xf8E8M0FNU>, %arg4: tensor<*xf32>) -> tensor<*xf32> {\n-%0 = tosa.const_shape  {values = dense<0> : tensor<4xindex>} : () -> !tosa.shape<4>\n-%1 = tosa.const_shape  {values = dense<1> : tensor<2xindex>} : () -> !tosa.shape<2>\n-%2 = tosa.const_shape  {values = dense<1> : tensor<2xindex>} : () -> !tosa.shape<2>\n-%3 = tosa.conv2d_block_scaled %arg0, %arg1, %arg2, %arg3, %arg4, %0, %1, %2 {block_size = BLOCK_SIZE_32} : (tensor<*xf4E2M1FN>, tensor<*xf8E8M0FNU>, tensor<*xf4E2M1FN>, tensor<*xf8E8M0FNU>, tensor<*xf32>, !tosa.shape<4>, !tosa.shape<2>, !tosa.shape<2>) -> tensor<*xf32>\n-return %3 : tensor<*xf32>\n+%0 = tosa.const_shape  {values = dense<1> : tensor<2xindex>} : () -> !tosa.shape<2>\n+%1 = tosa.const_shape  {values = dense<0> : tensor<4xindex>} : () -> !tosa.shape<4>\n+%2 = tosa.conv2d_block_scaled %arg0, %arg1, %arg2, %arg3, %arg4, %1, %0, %0 {block_size = BLOCK_SIZE_32} : (tensor<*xf4E2M1FN>, tensor<*xf8E8M0FNU>, tensor<*xf4E2M1FN>, tensor<*xf8E8M0FNU>, tensor<*xf32>, !tosa.shape<4>, !tosa.shape<2>, !tosa.shape<2>) -> tensor<*xf32>\n+return %2 : tensor<*xf32>\n }\n func.func @test_assert_equal_shape() {\n-%0 = tosa.const_shape  {values = dense<[10, 15]> : tensor<2xindex>} : () -> !tosa.shape<2>\n-%1 = tosa.const_shape  {values = dense<[5, 2]> : tensor<2xindex>} : () -> !tosa.shape<2>\n-tosa.assert_equal_shape %0, %1 {allow_broadcast = true} : (!tosa.shape<2>, !tosa.shape<2>) -> ()\n+%0 = tosa.const_shape  {values = dense<[5, 2]> : tensor<2xindex>} : () -> !tosa.shape<2>\n+%1 = tosa.const_shape  {values = dense<[10, 15]> : tensor<2xindex>} : () -> !tosa.shape<2>\n+tosa.assert_equal_shape %1, %0 {allow_broadcast = true} : (!tosa.shape<2>, !tosa.shape<2>) -> ()\n return\n }\n }"
      },
      {
        "seed": "seeds\\real_official_main23\\dialect_vector_vector_transfer_full_partial_split_mlir.mlir",
        "summary": "Successful pipelines produced different IR text. This is an analysis signal, not a security issue by itself.",
        "details": "Structured IR summary\n- parse_verify: operations=57, functions=9, dialects=arith:10, async:2, func:11, scf:1, transform:25, vector:8\n- canonicalize_cse_sccp: operations=54, functions=9, dialects=arith:7, async:2, func:11, scf:1, transform:25, vector:8\n- type-count changes: index:20->17\n\nText diff\n--- parse_verify\n+++ canonicalize_cse_sccp\n@@ -1,18 +1,15 @@\n module {\n func.func @split_vector_transfer_read_2d(%arg0: memref<?x8xf32>, %arg1: index, %arg2: index) -> vector<4x8xf32> {\n-%c0 = arith.constant 0 : index\n %cst = arith.constant 0.000000e+00 : f32\n %0 = vector.transfer_read %arg0[%arg1, %arg2], %cst : memref<?x8xf32>, vector<4x8xf32>\n return %0 : vector<4x8xf32>\n }\n func.func @split_vector_transfer_read_strided_2d(%arg0: memref<7x8xf32, strided<[?, 1], offset: ?>>, %arg1: index, %arg2: index) -> vector<4x8xf32> {\n-%c0 = arith.constant 0 : index\n %cst = arith.constant 0.000000e+00 : f32\n %0 = vector.transfer_read %arg0[%arg1, %arg2], %cst : memref<7x8xf32, strided<[?, 1], offset: ?>>, vector<4x8xf32>\n return %0 : vector<4x8xf32>\n }\n func.func @split_vector_transfer_read_mem_space(%arg0: memref<?x8xf32, 3>, %arg1: index, %arg2: index) -> vector<4x8xf32> {\n-%c0 = arith.constant 0 : index\n %cst = arith.constant 0.000000e+00 : f32\n %0 = vector.transfer_read %arg0[%arg1, %arg2], %cst : memref<?x8xf32, 3>, vector<4x8xf32>\n return %0 : vector<4x8xf32>\n@@ -67,8 +64,8 @@\n }\n func.func private @fake_side_effecting_fun(vector<2x2xf32>)\n func.func @transfer_read_within_async_execute(%arg0: memref<?x?xf32>) -> !async.token {\n+%cst = arith.constant 0.000000e+00 : f32\n %c0 = arith.constant 0 : index\n-%cst = arith.constant 0.000000e+00 : f32\n %token = async.execute {\n %0 = vector.transfer_read %arg0[%c0, %c0], %cst : memref<?x?xf32>, vector<2x2xf32>\n func.call @fake_side_effecting_fun(%0) : (vector<2x2xf32>) -> ()\n@@ -77,8 +74,8 @@\n return %token : !async.token\n }\n func.func @transfer_read_within_scf_for(%arg0: memref<?x?xf32>, %arg1: index, %arg2: index, %arg3: index) {\n+%cst = arith.constant 0.000000e+00 : f32\n %c0 = arith.constant 0 : index\n-%cst = arith.constant 0.000000e+00 : f32\n scf.for %arg4 = %arg1 to %arg2 step %arg3 {\n %0 = vector.transfer_read %arg0[%c0, %c0], %cst : memref<?x?xf32>, vector<2x2xf32>\n func.call @fake_side_effecting_fun(%0) : (vector<2x2xf32>) -> ()"
      }
    ],
    "output_delta_count": 15
  }
}