{
  "seeds": [
    "seeds\\issue_repros\\llvm_113021_linalg_negative_indexing_tile.mlir",
    "seeds\\issue_repros\\llvm_119868_linalg_fusion_multiuse_assert.mlir",
    "seeds\\issue_repros\\llvm_168179_custom_stride_read_crash.mlir",
    "seeds\\issue_repros\\llvm_168695_vector_scatter_tensor_canonicalize.mlir",
    "seeds\\issue_repros\\llvm_60210_transform_tile_reduction_assert.mlir",
    "seeds\\issue_repros\\llvm_60569_unregistered_dependent_dialect.mlir",
    "seeds\\issue_repros\\llvm_61085_tosa_linalg_affine_assert.mlir",
    "seeds\\issue_repros\\llvm_75811_scf_parallel_to_gpu_destroyed_use.mlir",
    "seeds\\issue_repros\\llvm_82382_linalg_parallel_loops_to_gpu_crash.mlir"
  ],
  "pipelines": [
    "parse_verify",
    "canonicalize_cse",
    "convert_parallel_loops_to_gpu",
    "linalg_parallel_to_gpu_issue_82382",
    "test_linalg_multiuse_fusion_issue_119868",
    "test_rewrite_dynamic_op_issue_60569",
    "tosa_linalg_affine_issue_61085",
    "transform_tile_reduction_issue_60210",
    "transform_linalg_tile_issue_113021",
    "vector_scatter_canonicalize_issue_168695"
  ],
  "runs": [
    {
      "seed": "seeds\\issue_repros\\llvm_113021_linalg_negative_indexing_tile.mlir",
      "pipeline": "parse_verify",
      "command": "mock-mlir-opt seeds\\issue_repros\\llvm_113021_linalg_negative_indexing_tile.mlir  -o -",
      "return_code": 0,
      "timed_out": false,
      "elapsed_ms": 0,
      "stdout": "// Source: https://github.com/llvm/llvm-project/issues/113021\n// Expected trigger: linalg tiling assertion when an indexing map contains a negative multiplicative coefficient.\n\n#map = affine_map<(d0) -> (d0)>\n#map1 = affine_map<(d0) -> (-d0 + 7)>\n\nfunc.func @test(%arg0: tensor<8xi8>, %arg1: tensor<8xi8>) -> tensor<8xi8> {\n  %0 = linalg.generic {\n    indexing_maps = [#map1, #map],\n    iterator_types = [\"parallel\"]}\n  ins(%arg0 : tensor<8xi8>)\n  outs(%arg1 : tensor<8xi8>) {\n  ^bb0(%in: i8, %out: i8):\n    linalg.yield %in : i8\n  } -> tensor<8xi8>\n  return %0 : tensor<8xi8>\n}\n\nmodule attributes {transform.with_named_sequence} {\n  transform.named_sequence @__transform_main(%arg1: !transform.any_op {transform.readonly}) {\n    %0 = transform.structured.match ops{[\"linalg.generic\"]} in %arg1 : (!transform.any_op) -> !transform.any_op\n    %1:2 = transform.structured.tile_using_for\n      %0 tile_sizes [2] : (!transform.any_op) -> (!transform.any_op, !transform.any_op)\n    transform.yield\n  }\n}\n",
      "stderr": "",
      "stdout_path": "outputs\\issues_mock\\artifacts\\llvm_113021_linalg_negative_indexing_tile__parse_verify.stdout.mlir",
      "stderr_path": "outputs\\issues_mock\\artifacts\\llvm_113021_linalg_negative_indexing_tile__parse_verify.stderr.txt",
      "category": "success"
    },
    {
      "seed": "seeds\\issue_repros\\llvm_113021_linalg_negative_indexing_tile.mlir",
      "pipeline": "canonicalize_cse",
      "command": "mock-mlir-opt seeds\\issue_repros\\llvm_113021_linalg_negative_indexing_tile.mlir --canonicalize --cse -o -",
      "return_code": 0,
      "timed_out": false,
      "elapsed_ms": 0,
      "stdout": "// Source: https://github.com/llvm/llvm-project/issues/113021\n// Expected trigger: linalg tiling assertion when an indexing map contains a negative multiplicative coefficient.\n\n#map = affine_map<(d0) -> (d0)>\n#map1 = affine_map<(d0) -> (-d0 + 7)>\n\nfunc.func @test(%arg0: tensor<8xi8>, %arg1: tensor<8xi8>) -> tensor<8xi8> {\n  %0 = linalg.generic {\n    indexing_maps = [#map1, #map],\n    iterator_types = [\"parallel\"]}\n  ins(%arg0 : tensor<8xi8>)\n  outs(%arg1 : tensor<8xi8>) {\n  ^bb0(%in: i8, %out: i8):\n    linalg.yield %in : i8\n  } -> tensor<8xi8>\n  return %0 : tensor<8xi8>\n}\n\nmodule attributes {transform.with_named_sequence} {\n  transform.named_sequence @__transform_main(%arg1: !transform.any_op {transform.readonly}) {\n    %0 = transform.structured.match ops{[\"linalg.generic\"]} in %arg1 : (!transform.any_op) -> !transform.any_op\n    %1:2 = transform.structured.tile_using_for\n      %0 tile_sizes [2] : (!transform.any_op) -> (!transform.any_op, !transform.any_op)\n    transform.yield\n  }\n}\n",
      "stderr": "",
      "stdout_path": "outputs\\issues_mock\\artifacts\\llvm_113021_linalg_negative_indexing_tile__canonicalize_cse.stdout.mlir",
      "stderr_path": "outputs\\issues_mock\\artifacts\\llvm_113021_linalg_negative_indexing_tile__canonicalize_cse.stderr.txt",
      "category": "success"
    },
    {
      "seed": "seeds\\issue_repros\\llvm_113021_linalg_negative_indexing_tile.mlir",
      "pipeline": "convert_parallel_loops_to_gpu",
      "command": "mock-mlir-opt seeds\\issue_repros\\llvm_113021_linalg_negative_indexing_tile.mlir --convert-parallel-loops-to-gpu -o -",
      "return_code": 0,
      "timed_out": false,
      "elapsed_ms": 0,
      "stdout": "// Source: https://github.com/llvm/llvm-project/issues/113021\n// Expected trigger: linalg tiling assertion when an indexing map contains a negative multiplicative coefficient.\n\n#map = affine_map<(d0) -> (d0)>\n#map1 = affine_map<(d0) -> (-d0 + 7)>\n\nfunc.func @test(%arg0: tensor<8xi8>, %arg1: tensor<8xi8>) -> tensor<8xi8> {\n  %0 = linalg.generic {\n    indexing_maps = [#map1, #map],\n    iterator_types = [\"parallel\"]}\n  ins(%arg0 : tensor<8xi8>)\n  outs(%arg1 : tensor<8xi8>) {\n  ^bb0(%in: i8, %out: i8):\n    linalg.yield %in : i8\n  } -> tensor<8xi8>\n  return %0 : tensor<8xi8>\n}\n\nmodule attributes {transform.with_named_sequence} {\n  transform.named_sequence @__transform_main(%arg1: !transform.any_op {transform.readonly}) {\n    %0 = transform.structured.match ops{[\"linalg.generic\"]} in %arg1 : (!transform.any_op) -> !transform.any_op\n    %1:2 = transform.structured.tile_using_for\n      %0 tile_sizes [2] : (!transform.any_op) -> (!transform.any_op, !transform.any_op)\n    transform.yield\n  }\n}\n",
      "stderr": "",
      "stdout_path": "outputs\\issues_mock\\artifacts\\llvm_113021_linalg_negative_indexing_tile__convert_parallel_loops_to_gpu.stdout.mlir",
      "stderr_path": "outputs\\issues_mock\\artifacts\\llvm_113021_linalg_negative_indexing_tile__convert_parallel_loops_to_gpu.stderr.txt",
      "category": "success"
    },
    {
      "seed": "seeds\\issue_repros\\llvm_113021_linalg_negative_indexing_tile.mlir",
      "pipeline": "linalg_parallel_to_gpu_issue_82382",
      "command": "mock-mlir-opt seeds\\issue_repros\\llvm_113021_linalg_negative_indexing_tile.mlir --convert-linalg-to-affine-loops --affine-loop-tile=tile-sizes=4,28,28,16,7,7,3 --affine-loop-unroll=unroll-factor=4 --canonicalize --affine-parallelize --lower-affine --canonicalize --gpu-map-parallel-loops --convert-parallel-loops-to-gpu -o -",
      "return_code": 0,
      "timed_out": false,
      "elapsed_ms": 0,
      "stdout": "// Source: https://github.com/llvm/llvm-project/issues/113021\n// Expected trigger: linalg tiling assertion when an indexing map contains a negative multiplicative coefficient.\n\n#map = affine_map<(d0) -> (d0)>\n#map1 = affine_map<(d0) -> (-d0 + 7)>\n\nfunc.func @test(%arg0: tensor<8xi8>, %arg1: tensor<8xi8>) -> tensor<8xi8> {\n  %0 = linalg.generic {\n    indexing_maps = [#map1, #map],\n    iterator_types = [\"parallel\"]}\n  ins(%arg0 : tensor<8xi8>)\n  outs(%arg1 : tensor<8xi8>) {\n  ^bb0(%in: i8, %out: i8):\n    linalg.yield %in : i8\n  } -> tensor<8xi8>\n  return %0 : tensor<8xi8>\n}\n\nmodule attributes {transform.with_named_sequence} {\n  transform.named_sequence @__transform_main(%arg1: !transform.any_op {transform.readonly}) {\n    %0 = transform.structured.match ops{[\"linalg.generic\"]} in %arg1 : (!transform.any_op) -> !transform.any_op\n    %1:2 = transform.structured.tile_using_for\n      %0 tile_sizes [2] : (!transform.any_op) -> (!transform.any_op, !transform.any_op)\n    transform.yield\n  }\n}\n",
      "stderr": "",
      "stdout_path": "outputs\\issues_mock\\artifacts\\llvm_113021_linalg_negative_indexing_tile__linalg_parallel_to_gpu_issue_82382.stdout.mlir",
      "stderr_path": "outputs\\issues_mock\\artifacts\\llvm_113021_linalg_negative_indexing_tile__linalg_parallel_to_gpu_issue_82382.stderr.txt",
      "category": "success"
    },
    {
      "seed": "seeds\\issue_repros\\llvm_113021_linalg_negative_indexing_tile.mlir",
      "pipeline": "test_linalg_multiuse_fusion_issue_119868",
      "command": "mock-mlir-opt seeds\\issue_repros\\llvm_113021_linalg_negative_indexing_tile.mlir --test-linalg-elementwise-fusion-patterns=fuse-multiuse-producer -o -",
      "return_code": 0,
      "timed_out": false,
      "elapsed_ms": 0,
      "stdout": "// Source: https://github.com/llvm/llvm-project/issues/113021\n// Expected trigger: linalg tiling assertion when an indexing map contains a negative multiplicative coefficient.\n\n#map = affine_map<(d0) -> (d0)>\n#map1 = affine_map<(d0) -> (-d0 + 7)>\n\nfunc.func @test(%arg0: tensor<8xi8>, %arg1: tensor<8xi8>) -> tensor<8xi8> {\n  %0 = linalg.generic {\n    indexing_maps = [#map1, #map],\n    iterator_types = [\"parallel\"]}\n  ins(%arg0 : tensor<8xi8>)\n  outs(%arg1 : tensor<8xi8>) {\n  ^bb0(%in: i8, %out: i8):\n    linalg.yield %in : i8\n  } -> tensor<8xi8>\n  return %0 : tensor<8xi8>\n}\n\nmodule attributes {transform.with_named_sequence} {\n  transform.named_sequence @__transform_main(%arg1: !transform.any_op {transform.readonly}) {\n    %0 = transform.structured.match ops{[\"linalg.generic\"]} in %arg1 : (!transform.any_op) -> !transform.any_op\n    %1:2 = transform.structured.tile_using_for\n      %0 tile_sizes [2] : (!transform.any_op) -> (!transform.any_op, !transform.any_op)\n    transform.yield\n  }\n}\n",
      "stderr": "",
      "stdout_path": "outputs\\issues_mock\\artifacts\\llvm_113021_linalg_negative_indexing_tile__test_linalg_multiuse_fusion_issue_119868.stdout.mlir",
      "stderr_path": "outputs\\issues_mock\\artifacts\\llvm_113021_linalg_negative_indexing_tile__test_linalg_multiuse_fusion_issue_119868.stderr.txt",
      "category": "success"
    },
    {
      "seed": "seeds\\issue_repros\\llvm_113021_linalg_negative_indexing_tile.mlir",
      "pipeline": "test_rewrite_dynamic_op_issue_60569",
      "command": "mock-mlir-opt seeds\\issue_repros\\llvm_113021_linalg_negative_indexing_tile.mlir --allow-unregistered-dialect --test-rewrite-dynamic-op -o -",
      "return_code": 0,
      "timed_out": false,
      "elapsed_ms": 0,
      "stdout": "// Source: https://github.com/llvm/llvm-project/issues/113021\n// Expected trigger: linalg tiling assertion when an indexing map contains a negative multiplicative coefficient.\n\n#map = affine_map<(d0) -> (d0)>\n#map1 = affine_map<(d0) -> (-d0 + 7)>\n\nfunc.func @test(%arg0: tensor<8xi8>, %arg1: tensor<8xi8>) -> tensor<8xi8> {\n  %0 = linalg.generic {\n    indexing_maps = [#map1, #map],\n    iterator_types = [\"parallel\"]}\n  ins(%arg0 : tensor<8xi8>)\n  outs(%arg1 : tensor<8xi8>) {\n  ^bb0(%in: i8, %out: i8):\n    linalg.yield %in : i8\n  } -> tensor<8xi8>\n  return %0 : tensor<8xi8>\n}\n\nmodule attributes {transform.with_named_sequence} {\n  transform.named_sequence @__transform_main(%arg1: !transform.any_op {transform.readonly}) {\n    %0 = transform.structured.match ops{[\"linalg.generic\"]} in %arg1 : (!transform.any_op) -> !transform.any_op\n    %1:2 = transform.structured.tile_using_for\n      %0 tile_sizes [2] : (!transform.any_op) -> (!transform.any_op, !transform.any_op)\n    transform.yield\n  }\n}\n",
      "stderr": "",
      "stdout_path": "outputs\\issues_mock\\artifacts\\llvm_113021_linalg_negative_indexing_tile__test_rewrite_dynamic_op_issue_60569.stdout.mlir",
      "stderr_path": "outputs\\issues_mock\\artifacts\\llvm_113021_linalg_negative_indexing_tile__test_rewrite_dynamic_op_issue_60569.stderr.txt",
      "category": "success"
    },
    {
      "seed": "seeds\\issue_repros\\llvm_113021_linalg_negative_indexing_tile.mlir",
      "pipeline": "tosa_linalg_affine_issue_61085",
      "command": "mock-mlir-opt seeds\\issue_repros\\llvm_113021_linalg_negative_indexing_tile.mlir --pass-pipeline=func.func(tosa-to-arith) --linalg-bufferize --pass-pipeline=func.func(tosa-to-linalg) --convert-linalg-to-affine-loops -o -",
      "return_code": 0,
      "timed_out": false,
      "elapsed_ms": 0,
      "stdout": "// Source: https://github.com/llvm/llvm-project/issues/113021\n// Expected trigger: linalg tiling assertion when an indexing map contains a negative multiplicative coefficient.\n\n#map = affine_map<(d0) -> (d0)>\n#map1 = affine_map<(d0) -> (-d0 + 7)>\n\nfunc.func @test(%arg0: tensor<8xi8>, %arg1: tensor<8xi8>) -> tensor<8xi8> {\n  %0 = linalg.generic {\n    indexing_maps = [#map1, #map],\n    iterator_types = [\"parallel\"]}\n  ins(%arg0 : tensor<8xi8>)\n  outs(%arg1 : tensor<8xi8>) {\n  ^bb0(%in: i8, %out: i8):\n    linalg.yield %in : i8\n  } -> tensor<8xi8>\n  return %0 : tensor<8xi8>\n}\n\nmodule attributes {transform.with_named_sequence} {\n  transform.named_sequence @__transform_main(%arg1: !transform.any_op {transform.readonly}) {\n    %0 = transform.structured.match ops{[\"linalg.generic\"]} in %arg1 : (!transform.any_op) -> !transform.any_op\n    %1:2 = transform.structured.tile_using_for\n      %0 tile_sizes [2] : (!transform.any_op) -> (!transform.any_op, !transform.any_op)\n    transform.yield\n  }\n}\n",
      "stderr": "",
      "stdout_path": "outputs\\issues_mock\\artifacts\\llvm_113021_linalg_negative_indexing_tile__tosa_linalg_affine_issue_61085.stdout.mlir",
      "stderr_path": "outputs\\issues_mock\\artifacts\\llvm_113021_linalg_negative_indexing_tile__tosa_linalg_affine_issue_61085.stderr.txt",
      "category": "success"
    },
    {
      "seed": "seeds\\issue_repros\\llvm_113021_linalg_negative_indexing_tile.mlir",
      "pipeline": "transform_tile_reduction_issue_60210",
      "command": "mock-mlir-opt seeds\\issue_repros\\llvm_113021_linalg_negative_indexing_tile.mlir --test-transform-dialect-interpreter -o -",
      "return_code": 0,
      "timed_out": false,
      "elapsed_ms": 0,
      "stdout": "// Source: https://github.com/llvm/llvm-project/issues/113021\n// Expected trigger: linalg tiling assertion when an indexing map contains a negative multiplicative coefficient.\n\n#map = affine_map<(d0) -> (d0)>\n#map1 = affine_map<(d0) -> (-d0 + 7)>\n\nfunc.func @test(%arg0: tensor<8xi8>, %arg1: tensor<8xi8>) -> tensor<8xi8> {\n  %0 = linalg.generic {\n    indexing_maps = [#map1, #map],\n    iterator_types = [\"parallel\"]}\n  ins(%arg0 : tensor<8xi8>)\n  outs(%arg1 : tensor<8xi8>) {\n  ^bb0(%in: i8, %out: i8):\n    linalg.yield %in : i8\n  } -> tensor<8xi8>\n  return %0 : tensor<8xi8>\n}\n\nmodule attributes {transform.with_named_sequence} {\n  transform.named_sequence @__transform_main(%arg1: !transform.any_op {transform.readonly}) {\n    %0 = transform.structured.match ops{[\"linalg.generic\"]} in %arg1 : (!transform.any_op) -> !transform.any_op\n    %1:2 = transform.structured.tile_using_for\n      %0 tile_sizes [2] : (!transform.any_op) -> (!transform.any_op, !transform.any_op)\n    transform.yield\n  }\n}\n",
      "stderr": "",
      "stdout_path": "outputs\\issues_mock\\artifacts\\llvm_113021_linalg_negative_indexing_tile__transform_tile_reduction_issue_60210.stdout.mlir",
      "stderr_path": "outputs\\issues_mock\\artifacts\\llvm_113021_linalg_negative_indexing_tile__transform_tile_reduction_issue_60210.stderr.txt",
      "category": "success"
    },
    {
      "seed": "seeds\\issue_repros\\llvm_113021_linalg_negative_indexing_tile.mlir",
      "pipeline": "transform_linalg_tile_issue_113021",
      "command": "mock-mlir-opt seeds\\issue_repros\\llvm_113021_linalg_negative_indexing_tile.mlir --test-transform-dialect-interpreter -o -",
      "return_code": 0,
      "timed_out": false,
      "elapsed_ms": 0,
      "stdout": "// Source: https://github.com/llvm/llvm-project/issues/113021\n// Expected trigger: linalg tiling assertion when an indexing map contains a negative multiplicative coefficient.\n\n#map = affine_map<(d0) -> (d0)>\n#map1 = affine_map<(d0) -> (-d0 + 7)>\n\nfunc.func @test(%arg0: tensor<8xi8>, %arg1: tensor<8xi8>) -> tensor<8xi8> {\n  %0 = linalg.generic {\n    indexing_maps = [#map1, #map],\n    iterator_types = [\"parallel\"]}\n  ins(%arg0 : tensor<8xi8>)\n  outs(%arg1 : tensor<8xi8>) {\n  ^bb0(%in: i8, %out: i8):\n    linalg.yield %in : i8\n  } -> tensor<8xi8>\n  return %0 : tensor<8xi8>\n}\n\nmodule attributes {transform.with_named_sequence} {\n  transform.named_sequence @__transform_main(%arg1: !transform.any_op {transform.readonly}) {\n    %0 = transform.structured.match ops{[\"linalg.generic\"]} in %arg1 : (!transform.any_op) -> !transform.any_op\n    %1:2 = transform.structured.tile_using_for\n      %0 tile_sizes [2] : (!transform.any_op) -> (!transform.any_op, !transform.any_op)\n    transform.yield\n  }\n}\n",
      "stderr": "",
      "stdout_path": "outputs\\issues_mock\\artifacts\\llvm_113021_linalg_negative_indexing_tile__transform_linalg_tile_issue_113021.stdout.mlir",
      "stderr_path": "outputs\\issues_mock\\artifacts\\llvm_113021_linalg_negative_indexing_tile__transform_linalg_tile_issue_113021.stderr.txt",
      "category": "success"
    },
    {
      "seed": "seeds\\issue_repros\\llvm_113021_linalg_negative_indexing_tile.mlir",
      "pipeline": "vector_scatter_canonicalize_issue_168695",
      "command": "mock-mlir-opt seeds\\issue_repros\\llvm_113021_linalg_negative_indexing_tile.mlir --pass-pipeline=builtin.module(func.func(canonicalize)) -o -",
      "return_code": 0,
      "timed_out": false,
      "elapsed_ms": 0,
      "stdout": "// Source: https://github.com/llvm/llvm-project/issues/113021\n// Expected trigger: linalg tiling assertion when an indexing map contains a negative multiplicative coefficient.\n\n#map = affine_map<(d0) -> (d0)>\n#map1 = affine_map<(d0) -> (-d0 + 7)>\n\nfunc.func @test(%arg0: tensor<8xi8>, %arg1: tensor<8xi8>) -> tensor<8xi8> {\n  %0 = linalg.generic {\n    indexing_maps = [#map1, #map],\n    iterator_types = [\"parallel\"]}\n  ins(%arg0 : tensor<8xi8>)\n  outs(%arg1 : tensor<8xi8>) {\n  ^bb0(%in: i8, %out: i8):\n    linalg.yield %in : i8\n  } -> tensor<8xi8>\n  return %0 : tensor<8xi8>\n}\n\nmodule attributes {transform.with_named_sequence} {\n  transform.named_sequence @__transform_main(%arg1: !transform.any_op {transform.readonly}) {\n    %0 = transform.structured.match ops{[\"linalg.generic\"]} in %arg1 : (!transform.any_op) -> !transform.any_op\n    %1:2 = transform.structured.tile_using_for\n      %0 tile_sizes [2] : (!transform.any_op) -> (!transform.any_op, !transform.any_op)\n    transform.yield\n  }\n}\n",
      "stderr": "",
      "stdout_path": "outputs\\issues_mock\\artifacts\\llvm_113021_linalg_negative_indexing_tile__vector_scatter_canonicalize_issue_168695.stdout.mlir",
      "stderr_path": "outputs\\issues_mock\\artifacts\\llvm_113021_linalg_negative_indexing_tile__vector_scatter_canonicalize_issue_168695.stderr.txt",
      "category": "success"
    },
    {
      "seed": "seeds\\issue_repros\\llvm_119868_linalg_fusion_multiuse_assert.mlir",
      "pipeline": "parse_verify",
      "command": "mock-mlir-opt seeds\\issue_repros\\llvm_119868_linalg_fusion_multiuse_assert.mlir  -o -",
      "return_code": 0,
      "timed_out": false,
      "elapsed_ms": 0,
      "stdout": "// Source: https://github.com/llvm/llvm-project/issues/119868\n// Command from issue:\n// mlir-opt test.mlir -test-linalg-elementwise-fusion-patterns=fuse-multiuse-producer\n#map = affine_map<(d0) -> (d0)>\nmodule {\n  func.func private @printMemrefI32(tensor<*xi32>)\n  func.func @main() {\n    %0 = \"tosa.const\"() <{value = dense<70> : tensor<84xi64>}> : () -> tensor<84xi64>\n    %1 = \"tosa.const\"() <{value = dense<0> : tensor<1xi32>}> : () -> tensor<1xi32>\n    %2 = \"tosa.const\"() <{value = dense<70> : tensor<84xi64>}> : () -> tensor<84xi64>\n    %3 = \"tosa.const\"() <{value = dense<140> : tensor<84xi64>}> : () -> tensor<84xi64>\n    %4 = tensor.empty() : tensor<84xi1>\n    %5 = linalg.generic {indexing_maps = [#map, #map, #map], iterator_types = [\"parallel\"]} ins(%3, %2 : tensor<84xi64>, tensor<84xi64>) outs(%4 : tensor<84xi1>) {\n    ^bb0(%in: i64, %in_0: i64, %out: i1):\n      %12 = arith.cmpi sge, %in, %in_0 : i64\n      linalg.yield %12 : i1\n    } -> tensor<84xi1>\n    %6 = tensor.empty() : tensor<84xi1>\n    %7 = linalg.generic {indexing_maps = [#map, #map], iterator_types = [\"parallel\"]} ins(%5 : tensor<84xi1>) outs(%6 : tensor<84xi1>) {\n    ^bb0(%in: i1, %out: i1):\n      %false = arith.constant false\n      %12 = arith.subi %false, %in : i1\n      linalg.yield %12 : i1\n    } -> tensor<84xi1>\n    %8 = tensor.empty() : tensor<84xi32>\n    %9 = linalg.generic {indexing_maps = [#map, #map], iterator_types = [\"parallel\"]} ins(%5 : tensor<84xi1>) outs(%8 : tensor<84xi32>) {\n    ^bb0(%in: i1, %out: i32):\n      %12 = arith.extui %in : i1 to i32\n      linalg.yield %12 : i32\n    } -> tensor<84xi32>\n    %10 = tensor.empty() : tensor<84xi32>\n    %11 = linalg.generic {indexing_maps = [#map, #map, #map], iterator_types = [\"parallel\"]} ins(%9, %9 : tensor<84xi32>, tensor<84xi32>) outs(%10 : tensor<84xi32>) {\n    ^bb0(%in: i32, %in_0: i32, %out: i32):\n      %12 = arith.shrsi %in, %in_0 : i32\n      linalg.yield %12 : i32\n    } -> tensor<84xi32>\n    %cast = tensor.cast %11 : tensor<84xi32> to tensor<*xi32>\n    call @printMemrefI32(%cast) : (tensor<*xi32>) -> ()\n    return\n  }\n}\n",
      "stderr": "",
      "stdout_path": "outputs\\issues_mock\\artifacts\\llvm_119868_linalg_fusion_multiuse_assert__parse_verify.stdout.mlir",
      "stderr_path": "outputs\\issues_mock\\artifacts\\llvm_119868_linalg_fusion_multiuse_assert__parse_verify.stderr.txt",
      "category": "success"
    },
    {
      "seed": "seeds\\issue_repros\\llvm_119868_linalg_fusion_multiuse_assert.mlir",
      "pipeline": "canonicalize_cse",
      "command": "mock-mlir-opt seeds\\issue_repros\\llvm_119868_linalg_fusion_multiuse_assert.mlir --canonicalize --cse -o -",
      "return_code": 0,
      "timed_out": false,
      "elapsed_ms": 0,
      "stdout": "// Source: https://github.com/llvm/llvm-project/issues/119868\n// Command from issue:\n// mlir-opt test.mlir -test-linalg-elementwise-fusion-patterns=fuse-multiuse-producer\n#map = affine_map<(d0) -> (d0)>\nmodule {\n  func.func private @printMemrefI32(tensor<*xi32>)\n  func.func @main() {\n    %0 = \"tosa.const\"() <{value = dense<70> : tensor<84xi64>}> : () -> tensor<84xi64>\n    %1 = \"tosa.const\"() <{value = dense<0> : tensor<1xi32>}> : () -> tensor<1xi32>\n    %2 = \"tosa.const\"() <{value = dense<70> : tensor<84xi64>}> : () -> tensor<84xi64>\n    %3 = \"tosa.const\"() <{value = dense<140> : tensor<84xi64>}> : () -> tensor<84xi64>\n    %4 = tensor.empty() : tensor<84xi1>\n    %5 = linalg.generic {indexing_maps = [#map, #map, #map], iterator_types = [\"parallel\"]} ins(%3, %2 : tensor<84xi64>, tensor<84xi64>) outs(%4 : tensor<84xi1>) {\n    ^bb0(%in: i64, %in_0: i64, %out: i1):\n      %12 = arith.cmpi sge, %in, %in_0 : i64\n      linalg.yield %12 : i1\n    } -> tensor<84xi1>\n    %6 = tensor.empty() : tensor<84xi1>\n    %7 = linalg.generic {indexing_maps = [#map, #map], iterator_types = [\"parallel\"]} ins(%5 : tensor<84xi1>) outs(%6 : tensor<84xi1>) {\n    ^bb0(%in: i1, %out: i1):\n      %false = arith.constant false\n      %12 = arith.subi %false, %in : i1\n      linalg.yield %12 : i1\n    } -> tensor<84xi1>\n    %8 = tensor.empty() : tensor<84xi32>\n    %9 = linalg.generic {indexing_maps = [#map, #map], iterator_types = [\"parallel\"]} ins(%5 : tensor<84xi1>) outs(%8 : tensor<84xi32>) {\n    ^bb0(%in: i1, %out: i32):\n      %12 = arith.extui %in : i1 to i32\n      linalg.yield %12 : i32\n    } -> tensor<84xi32>\n    %10 = tensor.empty() : tensor<84xi32>\n    %11 = linalg.generic {indexing_maps = [#map, #map, #map], iterator_types = [\"parallel\"]} ins(%9, %9 : tensor<84xi32>, tensor<84xi32>) outs(%10 : tensor<84xi32>) {\n    ^bb0(%in: i32, %in_0: i32, %out: i32):\n      %12 = arith.shrsi %in, %in_0 : i32\n      linalg.yield %12 : i32\n    } -> tensor<84xi32>\n    %cast = tensor.cast %11 : tensor<84xi32> to tensor<*xi32>\n    call @printMemrefI32(%cast) : (tensor<*xi32>) -> ()\n    return\n  }\n}\n",
      "stderr": "",
      "stdout_path": "outputs\\issues_mock\\artifacts\\llvm_119868_linalg_fusion_multiuse_assert__canonicalize_cse.stdout.mlir",
      "stderr_path": "outputs\\issues_mock\\artifacts\\llvm_119868_linalg_fusion_multiuse_assert__canonicalize_cse.stderr.txt",
      "category": "success"
    },
    {
      "seed": "seeds\\issue_repros\\llvm_119868_linalg_fusion_multiuse_assert.mlir",
      "pipeline": "convert_parallel_loops_to_gpu",
      "command": "mock-mlir-opt seeds\\issue_repros\\llvm_119868_linalg_fusion_multiuse_assert.mlir --convert-parallel-loops-to-gpu -o -",
      "return_code": 0,
      "timed_out": false,
      "elapsed_ms": 0,
      "stdout": "// Source: https://github.com/llvm/llvm-project/issues/119868\n// Command from issue:\n// mlir-opt test.mlir -test-linalg-elementwise-fusion-patterns=fuse-multiuse-producer\n#map = affine_map<(d0) -> (d0)>\nmodule {\n  func.func private @printMemrefI32(tensor<*xi32>)\n  func.func @main() {\n    %0 = \"tosa.const\"() <{value = dense<70> : tensor<84xi64>}> : () -> tensor<84xi64>\n    %1 = \"tosa.const\"() <{value = dense<0> : tensor<1xi32>}> : () -> tensor<1xi32>\n    %2 = \"tosa.const\"() <{value = dense<70> : tensor<84xi64>}> : () -> tensor<84xi64>\n    %3 = \"tosa.const\"() <{value = dense<140> : tensor<84xi64>}> : () -> tensor<84xi64>\n    %4 = tensor.empty() : tensor<84xi1>\n    %5 = linalg.generic {indexing_maps = [#map, #map, #map], iterator_types = [\"parallel\"]} ins(%3, %2 : tensor<84xi64>, tensor<84xi64>) outs(%4 : tensor<84xi1>) {\n    ^bb0(%in: i64, %in_0: i64, %out: i1):\n      %12 = arith.cmpi sge, %in, %in_0 : i64\n      linalg.yield %12 : i1\n    } -> tensor<84xi1>\n    %6 = tensor.empty() : tensor<84xi1>\n    %7 = linalg.generic {indexing_maps = [#map, #map], iterator_types = [\"parallel\"]} ins(%5 : tensor<84xi1>) outs(%6 : tensor<84xi1>) {\n    ^bb0(%in: i1, %out: i1):\n      %false = arith.constant false\n      %12 = arith.subi %false, %in : i1\n      linalg.yield %12 : i1\n    } -> tensor<84xi1>\n    %8 = tensor.empty() : tensor<84xi32>\n    %9 = linalg.generic {indexing_maps = [#map, #map], iterator_types = [\"parallel\"]} ins(%5 : tensor<84xi1>) outs(%8 : tensor<84xi32>) {\n    ^bb0(%in: i1, %out: i32):\n      %12 = arith.extui %in : i1 to i32\n      linalg.yield %12 : i32\n    } -> tensor<84xi32>\n    %10 = tensor.empty() : tensor<84xi32>\n    %11 = linalg.generic {indexing_maps = [#map, #map, #map], iterator_types = [\"parallel\"]} ins(%9, %9 : tensor<84xi32>, tensor<84xi32>) outs(%10 : tensor<84xi32>) {\n    ^bb0(%in: i32, %in_0: i32, %out: i32):\n      %12 = arith.shrsi %in, %in_0 : i32\n      linalg.yield %12 : i32\n    } -> tensor<84xi32>\n    %cast = tensor.cast %11 : tensor<84xi32> to tensor<*xi32>\n    call @printMemrefI32(%cast) : (tensor<*xi32>) -> ()\n    return\n  }\n}\n",
      "stderr": "",
      "stdout_path": "outputs\\issues_mock\\artifacts\\llvm_119868_linalg_fusion_multiuse_assert__convert_parallel_loops_to_gpu.stdout.mlir",
      "stderr_path": "outputs\\issues_mock\\artifacts\\llvm_119868_linalg_fusion_multiuse_assert__convert_parallel_loops_to_gpu.stderr.txt",
      "category": "success"
    },
    {
      "seed": "seeds\\issue_repros\\llvm_119868_linalg_fusion_multiuse_assert.mlir",
      "pipeline": "linalg_parallel_to_gpu_issue_82382",
      "command": "mock-mlir-opt seeds\\issue_repros\\llvm_119868_linalg_fusion_multiuse_assert.mlir --convert-linalg-to-affine-loops --affine-loop-tile=tile-sizes=4,28,28,16,7,7,3 --affine-loop-unroll=unroll-factor=4 --canonicalize --affine-parallelize --lower-affine --canonicalize --gpu-map-parallel-loops --convert-parallel-loops-to-gpu -o -",
      "return_code": 0,
      "timed_out": false,
      "elapsed_ms": 0,
      "stdout": "// Source: https://github.com/llvm/llvm-project/issues/119868\n// Command from issue:\n// mlir-opt test.mlir -test-linalg-elementwise-fusion-patterns=fuse-multiuse-producer\n#map = affine_map<(d0) -> (d0)>\nmodule {\n  func.func private @printMemrefI32(tensor<*xi32>)\n  func.func @main() {\n    %0 = \"tosa.const\"() <{value = dense<70> : tensor<84xi64>}> : () -> tensor<84xi64>\n    %1 = \"tosa.const\"() <{value = dense<0> : tensor<1xi32>}> : () -> tensor<1xi32>\n    %2 = \"tosa.const\"() <{value = dense<70> : tensor<84xi64>}> : () -> tensor<84xi64>\n    %3 = \"tosa.const\"() <{value = dense<140> : tensor<84xi64>}> : () -> tensor<84xi64>\n    %4 = tensor.empty() : tensor<84xi1>\n    %5 = linalg.generic {indexing_maps = [#map, #map, #map], iterator_types = [\"parallel\"]} ins(%3, %2 : tensor<84xi64>, tensor<84xi64>) outs(%4 : tensor<84xi1>) {\n    ^bb0(%in: i64, %in_0: i64, %out: i1):\n      %12 = arith.cmpi sge, %in, %in_0 : i64\n      linalg.yield %12 : i1\n    } -> tensor<84xi1>\n    %6 = tensor.empty() : tensor<84xi1>\n    %7 = linalg.generic {indexing_maps = [#map, #map], iterator_types = [\"parallel\"]} ins(%5 : tensor<84xi1>) outs(%6 : tensor<84xi1>) {\n    ^bb0(%in: i1, %out: i1):\n      %false = arith.constant false\n      %12 = arith.subi %false, %in : i1\n      linalg.yield %12 : i1\n    } -> tensor<84xi1>\n    %8 = tensor.empty() : tensor<84xi32>\n    %9 = linalg.generic {indexing_maps = [#map, #map], iterator_types = [\"parallel\"]} ins(%5 : tensor<84xi1>) outs(%8 : tensor<84xi32>) {\n    ^bb0(%in: i1, %out: i32):\n      %12 = arith.extui %in : i1 to i32\n      linalg.yield %12 : i32\n    } -> tensor<84xi32>\n    %10 = tensor.empty() : tensor<84xi32>\n    %11 = linalg.generic {indexing_maps = [#map, #map, #map], iterator_types = [\"parallel\"]} ins(%9, %9 : tensor<84xi32>, tensor<84xi32>) outs(%10 : tensor<84xi32>) {\n    ^bb0(%in: i32, %in_0: i32, %out: i32):\n      %12 = arith.shrsi %in, %in_0 : i32\n      linalg.yield %12 : i32\n    } -> tensor<84xi32>\n    %cast = tensor.cast %11 : tensor<84xi32> to tensor<*xi32>\n    call @printMemrefI32(%cast) : (tensor<*xi32>) -> ()\n    return\n  }\n}\n",
      "stderr": "",
      "stdout_path": "outputs\\issues_mock\\artifacts\\llvm_119868_linalg_fusion_multiuse_assert__linalg_parallel_to_gpu_issue_82382.stdout.mlir",
      "stderr_path": "outputs\\issues_mock\\artifacts\\llvm_119868_linalg_fusion_multiuse_assert__linalg_parallel_to_gpu_issue_82382.stderr.txt",
      "category": "success"
    },
    {
      "seed": "seeds\\issue_repros\\llvm_119868_linalg_fusion_multiuse_assert.mlir",
      "pipeline": "test_linalg_multiuse_fusion_issue_119868",
      "command": "mock-mlir-opt seeds\\issue_repros\\llvm_119868_linalg_fusion_multiuse_assert.mlir --test-linalg-elementwise-fusion-patterns=fuse-multiuse-producer -o -",
      "return_code": 0,
      "timed_out": false,
      "elapsed_ms": 0,
      "stdout": "// Source: https://github.com/llvm/llvm-project/issues/119868\n// Command from issue:\n// mlir-opt test.mlir -test-linalg-elementwise-fusion-patterns=fuse-multiuse-producer\n#map = affine_map<(d0) -> (d0)>\nmodule {\n  func.func private @printMemrefI32(tensor<*xi32>)\n  func.func @main() {\n    %0 = \"tosa.const\"() <{value = dense<70> : tensor<84xi64>}> : () -> tensor<84xi64>\n    %1 = \"tosa.const\"() <{value = dense<0> : tensor<1xi32>}> : () -> tensor<1xi32>\n    %2 = \"tosa.const\"() <{value = dense<70> : tensor<84xi64>}> : () -> tensor<84xi64>\n    %3 = \"tosa.const\"() <{value = dense<140> : tensor<84xi64>}> : () -> tensor<84xi64>\n    %4 = tensor.empty() : tensor<84xi1>\n    %5 = linalg.generic {indexing_maps = [#map, #map, #map], iterator_types = [\"parallel\"]} ins(%3, %2 : tensor<84xi64>, tensor<84xi64>) outs(%4 : tensor<84xi1>) {\n    ^bb0(%in: i64, %in_0: i64, %out: i1):\n      %12 = arith.cmpi sge, %in, %in_0 : i64\n      linalg.yield %12 : i1\n    } -> tensor<84xi1>\n    %6 = tensor.empty() : tensor<84xi1>\n    %7 = linalg.generic {indexing_maps = [#map, #map], iterator_types = [\"parallel\"]} ins(%5 : tensor<84xi1>) outs(%6 : tensor<84xi1>) {\n    ^bb0(%in: i1, %out: i1):\n      %false = arith.constant false\n      %12 = arith.subi %false, %in : i1\n      linalg.yield %12 : i1\n    } -> tensor<84xi1>\n    %8 = tensor.empty() : tensor<84xi32>\n    %9 = linalg.generic {indexing_maps = [#map, #map], iterator_types = [\"parallel\"]} ins(%5 : tensor<84xi1>) outs(%8 : tensor<84xi32>) {\n    ^bb0(%in: i1, %out: i32):\n      %12 = arith.extui %in : i1 to i32\n      linalg.yield %12 : i32\n    } -> tensor<84xi32>\n    %10 = tensor.empty() : tensor<84xi32>\n    %11 = linalg.generic {indexing_maps = [#map, #map, #map], iterator_types = [\"parallel\"]} ins(%9, %9 : tensor<84xi32>, tensor<84xi32>) outs(%10 : tensor<84xi32>) {\n    ^bb0(%in: i32, %in_0: i32, %out: i32):\n      %12 = arith.shrsi %in, %in_0 : i32\n      linalg.yield %12 : i32\n    } -> tensor<84xi32>\n    %cast = tensor.cast %11 : tensor<84xi32> to tensor<*xi32>\n    call @printMemrefI32(%cast) : (tensor<*xi32>) -> ()\n    return\n  }\n}\n",
      "stderr": "",
      "stdout_path": "outputs\\issues_mock\\artifacts\\llvm_119868_linalg_fusion_multiuse_assert__test_linalg_multiuse_fusion_issue_119868.stdout.mlir",
      "stderr_path": "outputs\\issues_mock\\artifacts\\llvm_119868_linalg_fusion_multiuse_assert__test_linalg_multiuse_fusion_issue_119868.stderr.txt",
      "category": "success"
    },
    {
      "seed": "seeds\\issue_repros\\llvm_119868_linalg_fusion_multiuse_assert.mlir",
      "pipeline": "test_rewrite_dynamic_op_issue_60569",
      "command": "mock-mlir-opt seeds\\issue_repros\\llvm_119868_linalg_fusion_multiuse_assert.mlir --allow-unregistered-dialect --test-rewrite-dynamic-op -o -",
      "return_code": 0,
      "timed_out": false,
      "elapsed_ms": 0,
      "stdout": "// Source: https://github.com/llvm/llvm-project/issues/119868\n// Command from issue:\n// mlir-opt test.mlir -test-linalg-elementwise-fusion-patterns=fuse-multiuse-producer\n#map = affine_map<(d0) -> (d0)>\nmodule {\n  func.func private @printMemrefI32(tensor<*xi32>)\n  func.func @main() {\n    %0 = \"tosa.const\"() <{value = dense<70> : tensor<84xi64>}> : () -> tensor<84xi64>\n    %1 = \"tosa.const\"() <{value = dense<0> : tensor<1xi32>}> : () -> tensor<1xi32>\n    %2 = \"tosa.const\"() <{value = dense<70> : tensor<84xi64>}> : () -> tensor<84xi64>\n    %3 = \"tosa.const\"() <{value = dense<140> : tensor<84xi64>}> : () -> tensor<84xi64>\n    %4 = tensor.empty() : tensor<84xi1>\n    %5 = linalg.generic {indexing_maps = [#map, #map, #map], iterator_types = [\"parallel\"]} ins(%3, %2 : tensor<84xi64>, tensor<84xi64>) outs(%4 : tensor<84xi1>) {\n    ^bb0(%in: i64, %in_0: i64, %out: i1):\n      %12 = arith.cmpi sge, %in, %in_0 : i64\n      linalg.yield %12 : i1\n    } -> tensor<84xi1>\n    %6 = tensor.empty() : tensor<84xi1>\n    %7 = linalg.generic {indexing_maps = [#map, #map], iterator_types = [\"parallel\"]} ins(%5 : tensor<84xi1>) outs(%6 : tensor<84xi1>) {\n    ^bb0(%in: i1, %out: i1):\n      %false = arith.constant false\n      %12 = arith.subi %false, %in : i1\n      linalg.yield %12 : i1\n    } -> tensor<84xi1>\n    %8 = tensor.empty() : tensor<84xi32>\n    %9 = linalg.generic {indexing_maps = [#map, #map], iterator_types = [\"parallel\"]} ins(%5 : tensor<84xi1>) outs(%8 : tensor<84xi32>) {\n    ^bb0(%in: i1, %out: i32):\n      %12 = arith.extui %in : i1 to i32\n      linalg.yield %12 : i32\n    } -> tensor<84xi32>\n    %10 = tensor.empty() : tensor<84xi32>\n    %11 = linalg.generic {indexing_maps = [#map, #map, #map], iterator_types = [\"parallel\"]} ins(%9, %9 : tensor<84xi32>, tensor<84xi32>) outs(%10 : tensor<84xi32>) {\n    ^bb0(%in: i32, %in_0: i32, %out: i32):\n      %12 = arith.shrsi %in, %in_0 : i32\n      linalg.yield %12 : i32\n    } -> tensor<84xi32>\n    %cast = tensor.cast %11 : tensor<84xi32> to tensor<*xi32>\n    call @printMemrefI32(%cast) : (tensor<*xi32>) -> ()\n    return\n  }\n}\n",
      "stderr": "",
      "stdout_path": "outputs\\issues_mock\\artifacts\\llvm_119868_linalg_fusion_multiuse_assert__test_rewrite_dynamic_op_issue_60569.stdout.mlir",
      "stderr_path": "outputs\\issues_mock\\artifacts\\llvm_119868_linalg_fusion_multiuse_assert__test_rewrite_dynamic_op_issue_60569.stderr.txt",
      "category": "success"
    },
    {
      "seed": "seeds\\issue_repros\\llvm_119868_linalg_fusion_multiuse_assert.mlir",
      "pipeline": "tosa_linalg_affine_issue_61085",
      "command": "mock-mlir-opt seeds\\issue_repros\\llvm_119868_linalg_fusion_multiuse_assert.mlir --pass-pipeline=func.func(tosa-to-arith) --linalg-bufferize --pass-pipeline=func.func(tosa-to-linalg) --convert-linalg-to-affine-loops -o -",
      "return_code": 0,
      "timed_out": false,
      "elapsed_ms": 0,
      "stdout": "// Source: https://github.com/llvm/llvm-project/issues/119868\n// Command from issue:\n// mlir-opt test.mlir -test-linalg-elementwise-fusion-patterns=fuse-multiuse-producer\n#map = affine_map<(d0) -> (d0)>\nmodule {\n  func.func private @printMemrefI32(tensor<*xi32>)\n  func.func @main() {\n    %0 = \"tosa.const\"() <{value = dense<70> : tensor<84xi64>}> : () -> tensor<84xi64>\n    %1 = \"tosa.const\"() <{value = dense<0> : tensor<1xi32>}> : () -> tensor<1xi32>\n    %2 = \"tosa.const\"() <{value = dense<70> : tensor<84xi64>}> : () -> tensor<84xi64>\n    %3 = \"tosa.const\"() <{value = dense<140> : tensor<84xi64>}> : () -> tensor<84xi64>\n    %4 = tensor.empty() : tensor<84xi1>\n    %5 = linalg.generic {indexing_maps = [#map, #map, #map], iterator_types = [\"parallel\"]} ins(%3, %2 : tensor<84xi64>, tensor<84xi64>) outs(%4 : tensor<84xi1>) {\n    ^bb0(%in: i64, %in_0: i64, %out: i1):\n      %12 = arith.cmpi sge, %in, %in_0 : i64\n      linalg.yield %12 : i1\n    } -> tensor<84xi1>\n    %6 = tensor.empty() : tensor<84xi1>\n    %7 = linalg.generic {indexing_maps = [#map, #map], iterator_types = [\"parallel\"]} ins(%5 : tensor<84xi1>) outs(%6 : tensor<84xi1>) {\n    ^bb0(%in: i1, %out: i1):\n      %false = arith.constant false\n      %12 = arith.subi %false, %in : i1\n      linalg.yield %12 : i1\n    } -> tensor<84xi1>\n    %8 = tensor.empty() : tensor<84xi32>\n    %9 = linalg.generic {indexing_maps = [#map, #map], iterator_types = [\"parallel\"]} ins(%5 : tensor<84xi1>) outs(%8 : tensor<84xi32>) {\n    ^bb0(%in: i1, %out: i32):\n      %12 = arith.extui %in : i1 to i32\n      linalg.yield %12 : i32\n    } -> tensor<84xi32>\n    %10 = tensor.empty() : tensor<84xi32>\n    %11 = linalg.generic {indexing_maps = [#map, #map, #map], iterator_types = [\"parallel\"]} ins(%9, %9 : tensor<84xi32>, tensor<84xi32>) outs(%10 : tensor<84xi32>) {\n    ^bb0(%in: i32, %in_0: i32, %out: i32):\n      %12 = arith.shrsi %in, %in_0 : i32\n      linalg.yield %12 : i32\n    } -> tensor<84xi32>\n    %cast = tensor.cast %11 : tensor<84xi32> to tensor<*xi32>\n    call @printMemrefI32(%cast) : (tensor<*xi32>) -> ()\n    return\n  }\n}\n",
      "stderr": "",
      "stdout_path": "outputs\\issues_mock\\artifacts\\llvm_119868_linalg_fusion_multiuse_assert__tosa_linalg_affine_issue_61085.stdout.mlir",
      "stderr_path": "outputs\\issues_mock\\artifacts\\llvm_119868_linalg_fusion_multiuse_assert__tosa_linalg_affine_issue_61085.stderr.txt",
      "category": "success"
    },
    {
      "seed": "seeds\\issue_repros\\llvm_119868_linalg_fusion_multiuse_assert.mlir",
      "pipeline": "transform_tile_reduction_issue_60210",
      "command": "mock-mlir-opt seeds\\issue_repros\\llvm_119868_linalg_fusion_multiuse_assert.mlir --test-transform-dialect-interpreter -o -",
      "return_code": 0,
      "timed_out": false,
      "elapsed_ms": 0,
      "stdout": "// Source: https://github.com/llvm/llvm-project/issues/119868\n// Command from issue:\n// mlir-opt test.mlir -test-linalg-elementwise-fusion-patterns=fuse-multiuse-producer\n#map = affine_map<(d0) -> (d0)>\nmodule {\n  func.func private @printMemrefI32(tensor<*xi32>)\n  func.func @main() {\n    %0 = \"tosa.const\"() <{value = dense<70> : tensor<84xi64>}> : () -> tensor<84xi64>\n    %1 = \"tosa.const\"() <{value = dense<0> : tensor<1xi32>}> : () -> tensor<1xi32>\n    %2 = \"tosa.const\"() <{value = dense<70> : tensor<84xi64>}> : () -> tensor<84xi64>\n    %3 = \"tosa.const\"() <{value = dense<140> : tensor<84xi64>}> : () -> tensor<84xi64>\n    %4 = tensor.empty() : tensor<84xi1>\n    %5 = linalg.generic {indexing_maps = [#map, #map, #map], iterator_types = [\"parallel\"]} ins(%3, %2 : tensor<84xi64>, tensor<84xi64>) outs(%4 : tensor<84xi1>) {\n    ^bb0(%in: i64, %in_0: i64, %out: i1):\n      %12 = arith.cmpi sge, %in, %in_0 : i64\n      linalg.yield %12 : i1\n    } -> tensor<84xi1>\n    %6 = tensor.empty() : tensor<84xi1>\n    %7 = linalg.generic {indexing_maps = [#map, #map], iterator_types = [\"parallel\"]} ins(%5 : tensor<84xi1>) outs(%6 : tensor<84xi1>) {\n    ^bb0(%in: i1, %out: i1):\n      %false = arith.constant false\n      %12 = arith.subi %false, %in : i1\n      linalg.yield %12 : i1\n    } -> tensor<84xi1>\n    %8 = tensor.empty() : tensor<84xi32>\n    %9 = linalg.generic {indexing_maps = [#map, #map], iterator_types = [\"parallel\"]} ins(%5 : tensor<84xi1>) outs(%8 : tensor<84xi32>) {\n    ^bb0(%in: i1, %out: i32):\n      %12 = arith.extui %in : i1 to i32\n      linalg.yield %12 : i32\n    } -> tensor<84xi32>\n    %10 = tensor.empty() : tensor<84xi32>\n    %11 = linalg.generic {indexing_maps = [#map, #map, #map], iterator_types = [\"parallel\"]} ins(%9, %9 : tensor<84xi32>, tensor<84xi32>) outs(%10 : tensor<84xi32>) {\n    ^bb0(%in: i32, %in_0: i32, %out: i32):\n      %12 = arith.shrsi %in, %in_0 : i32\n      linalg.yield %12 : i32\n    } -> tensor<84xi32>\n    %cast = tensor.cast %11 : tensor<84xi32> to tensor<*xi32>\n    call @printMemrefI32(%cast) : (tensor<*xi32>) -> ()\n    return\n  }\n}\n",
      "stderr": "",
      "stdout_path": "outputs\\issues_mock\\artifacts\\llvm_119868_linalg_fusion_multiuse_assert__transform_tile_reduction_issue_60210.stdout.mlir",
      "stderr_path": "outputs\\issues_mock\\artifacts\\llvm_119868_linalg_fusion_multiuse_assert__transform_tile_reduction_issue_60210.stderr.txt",
      "category": "success"
    },
    {
      "seed": "seeds\\issue_repros\\llvm_119868_linalg_fusion_multiuse_assert.mlir",
      "pipeline": "transform_linalg_tile_issue_113021",
      "command": "mock-mlir-opt seeds\\issue_repros\\llvm_119868_linalg_fusion_multiuse_assert.mlir --test-transform-dialect-interpreter -o -",
      "return_code": 0,
      "timed_out": false,
      "elapsed_ms": 0,
      "stdout": "// Source: https://github.com/llvm/llvm-project/issues/119868\n// Command from issue:\n// mlir-opt test.mlir -test-linalg-elementwise-fusion-patterns=fuse-multiuse-producer\n#map = affine_map<(d0) -> (d0)>\nmodule {\n  func.func private @printMemrefI32(tensor<*xi32>)\n  func.func @main() {\n    %0 = \"tosa.const\"() <{value = dense<70> : tensor<84xi64>}> : () -> tensor<84xi64>\n    %1 = \"tosa.const\"() <{value = dense<0> : tensor<1xi32>}> : () -> tensor<1xi32>\n    %2 = \"tosa.const\"() <{value = dense<70> : tensor<84xi64>}> : () -> tensor<84xi64>\n    %3 = \"tosa.const\"() <{value = dense<140> : tensor<84xi64>}> : () -> tensor<84xi64>\n    %4 = tensor.empty() : tensor<84xi1>\n    %5 = linalg.generic {indexing_maps = [#map, #map, #map], iterator_types = [\"parallel\"]} ins(%3, %2 : tensor<84xi64>, tensor<84xi64>) outs(%4 : tensor<84xi1>) {\n    ^bb0(%in: i64, %in_0: i64, %out: i1):\n      %12 = arith.cmpi sge, %in, %in_0 : i64\n      linalg.yield %12 : i1\n    } -> tensor<84xi1>\n    %6 = tensor.empty() : tensor<84xi1>\n    %7 = linalg.generic {indexing_maps = [#map, #map], iterator_types = [\"parallel\"]} ins(%5 : tensor<84xi1>) outs(%6 : tensor<84xi1>) {\n    ^bb0(%in: i1, %out: i1):\n      %false = arith.constant false\n      %12 = arith.subi %false, %in : i1\n      linalg.yield %12 : i1\n    } -> tensor<84xi1>\n    %8 = tensor.empty() : tensor<84xi32>\n    %9 = linalg.generic {indexing_maps = [#map, #map], iterator_types = [\"parallel\"]} ins(%5 : tensor<84xi1>) outs(%8 : tensor<84xi32>) {\n    ^bb0(%in: i1, %out: i32):\n      %12 = arith.extui %in : i1 to i32\n      linalg.yield %12 : i32\n    } -> tensor<84xi32>\n    %10 = tensor.empty() : tensor<84xi32>\n    %11 = linalg.generic {indexing_maps = [#map, #map, #map], iterator_types = [\"parallel\"]} ins(%9, %9 : tensor<84xi32>, tensor<84xi32>) outs(%10 : tensor<84xi32>) {\n    ^bb0(%in: i32, %in_0: i32, %out: i32):\n      %12 = arith.shrsi %in, %in_0 : i32\n      linalg.yield %12 : i32\n    } -> tensor<84xi32>\n    %cast = tensor.cast %11 : tensor<84xi32> to tensor<*xi32>\n    call @printMemrefI32(%cast) : (tensor<*xi32>) -> ()\n    return\n  }\n}\n",
      "stderr": "",
      "stdout_path": "outputs\\issues_mock\\artifacts\\llvm_119868_linalg_fusion_multiuse_assert__transform_linalg_tile_issue_113021.stdout.mlir",
      "stderr_path": "outputs\\issues_mock\\artifacts\\llvm_119868_linalg_fusion_multiuse_assert__transform_linalg_tile_issue_113021.stderr.txt",
      "category": "success"
    },
    {
      "seed": "seeds\\issue_repros\\llvm_119868_linalg_fusion_multiuse_assert.mlir",
      "pipeline": "vector_scatter_canonicalize_issue_168695",
      "command": "mock-mlir-opt seeds\\issue_repros\\llvm_119868_linalg_fusion_multiuse_assert.mlir --pass-pipeline=builtin.module(func.func(canonicalize)) -o -",
      "return_code": 0,
      "timed_out": false,
      "elapsed_ms": 0,
      "stdout": "// Source: https://github.com/llvm/llvm-project/issues/119868\n// Command from issue:\n// mlir-opt test.mlir -test-linalg-elementwise-fusion-patterns=fuse-multiuse-producer\n#map = affine_map<(d0) -> (d0)>\nmodule {\n  func.func private @printMemrefI32(tensor<*xi32>)\n  func.func @main() {\n    %0 = \"tosa.const\"() <{value = dense<70> : tensor<84xi64>}> : () -> tensor<84xi64>\n    %1 = \"tosa.const\"() <{value = dense<0> : tensor<1xi32>}> : () -> tensor<1xi32>\n    %2 = \"tosa.const\"() <{value = dense<70> : tensor<84xi64>}> : () -> tensor<84xi64>\n    %3 = \"tosa.const\"() <{value = dense<140> : tensor<84xi64>}> : () -> tensor<84xi64>\n    %4 = tensor.empty() : tensor<84xi1>\n    %5 = linalg.generic {indexing_maps = [#map, #map, #map], iterator_types = [\"parallel\"]} ins(%3, %2 : tensor<84xi64>, tensor<84xi64>) outs(%4 : tensor<84xi1>) {\n    ^bb0(%in: i64, %in_0: i64, %out: i1):\n      %12 = arith.cmpi sge, %in, %in_0 : i64\n      linalg.yield %12 : i1\n    } -> tensor<84xi1>\n    %6 = tensor.empty() : tensor<84xi1>\n    %7 = linalg.generic {indexing_maps = [#map, #map], iterator_types = [\"parallel\"]} ins(%5 : tensor<84xi1>) outs(%6 : tensor<84xi1>) {\n    ^bb0(%in: i1, %out: i1):\n      %false = arith.constant false\n      %12 = arith.subi %false, %in : i1\n      linalg.yield %12 : i1\n    } -> tensor<84xi1>\n    %8 = tensor.empty() : tensor<84xi32>\n    %9 = linalg.generic {indexing_maps = [#map, #map], iterator_types = [\"parallel\"]} ins(%5 : tensor<84xi1>) outs(%8 : tensor<84xi32>) {\n    ^bb0(%in: i1, %out: i32):\n      %12 = arith.extui %in : i1 to i32\n      linalg.yield %12 : i32\n    } -> tensor<84xi32>\n    %10 = tensor.empty() : tensor<84xi32>\n    %11 = linalg.generic {indexing_maps = [#map, #map, #map], iterator_types = [\"parallel\"]} ins(%9, %9 : tensor<84xi32>, tensor<84xi32>) outs(%10 : tensor<84xi32>) {\n    ^bb0(%in: i32, %in_0: i32, %out: i32):\n      %12 = arith.shrsi %in, %in_0 : i32\n      linalg.yield %12 : i32\n    } -> tensor<84xi32>\n    %cast = tensor.cast %11 : tensor<84xi32> to tensor<*xi32>\n    call @printMemrefI32(%cast) : (tensor<*xi32>) -> ()\n    return\n  }\n}\n",
      "stderr": "",
      "stdout_path": "outputs\\issues_mock\\artifacts\\llvm_119868_linalg_fusion_multiuse_assert__vector_scatter_canonicalize_issue_168695.stdout.mlir",
      "stderr_path": "outputs\\issues_mock\\artifacts\\llvm_119868_linalg_fusion_multiuse_assert__vector_scatter_canonicalize_issue_168695.stderr.txt",
      "category": "success"
    },
    {
      "seed": "seeds\\issue_repros\\llvm_168179_custom_stride_read_crash.mlir",
      "pipeline": "parse_verify",
      "command": "mock-mlir-opt seeds\\issue_repros\\llvm_168179_custom_stride_read_crash.mlir  -o -",
      "return_code": 0,
      "timed_out": false,
      "elapsed_ms": 0,
      "stdout": "// Source: https://github.com/llvm/llvm-project/issues/168179\n// Command from issue:\n// simple-arith-opt2 test_vector.mlir -pass-pipeline=\"builtin.module(func.func(lower-simple-vector-stride-read,canonicalize,cse))\"\nmodule {\n  func.func @test(%v: vector<8 x f32>) -> vector<4 x f32> {\n    %r = simple_vector.stride_read %v offsets = [0], sizes = [4], strides = [2]\n         : vector<8 x f32> -> vector<4 x f32>\n    return %r : vector<4 x f32>\n  }\n}\n",
      "stderr": "",
      "stdout_path": "outputs\\issues_mock\\artifacts\\llvm_168179_custom_stride_read_crash__parse_verify.stdout.mlir",
      "stderr_path": "outputs\\issues_mock\\artifacts\\llvm_168179_custom_stride_read_crash__parse_verify.stderr.txt",
      "category": "success"
    },
    {
      "seed": "seeds\\issue_repros\\llvm_168179_custom_stride_read_crash.mlir",
      "pipeline": "canonicalize_cse",
      "command": "mock-mlir-opt seeds\\issue_repros\\llvm_168179_custom_stride_read_crash.mlir --canonicalize --cse -o -",
      "return_code": 0,
      "timed_out": false,
      "elapsed_ms": 0,
      "stdout": "// Source: https://github.com/llvm/llvm-project/issues/168179\n// Command from issue:\n// simple-arith-opt2 test_vector.mlir -pass-pipeline=\"builtin.module(func.func(lower-simple-vector-stride-read,canonicalize,cse))\"\nmodule {\n  func.func @test(%v: vector<8 x f32>) -> vector<4 x f32> {\n    %r = simple_vector.stride_read %v offsets = [0], sizes = [4], strides = [2]\n         : vector<8 x f32> -> vector<4 x f32>\n    return %r : vector<4 x f32>\n  }\n}\n",
      "stderr": "",
      "stdout_path": "outputs\\issues_mock\\artifacts\\llvm_168179_custom_stride_read_crash__canonicalize_cse.stdout.mlir",
      "stderr_path": "outputs\\issues_mock\\artifacts\\llvm_168179_custom_stride_read_crash__canonicalize_cse.stderr.txt",
      "category": "success"
    },
    {
      "seed": "seeds\\issue_repros\\llvm_168179_custom_stride_read_crash.mlir",
      "pipeline": "convert_parallel_loops_to_gpu",
      "command": "mock-mlir-opt seeds\\issue_repros\\llvm_168179_custom_stride_read_crash.mlir --convert-parallel-loops-to-gpu -o -",
      "return_code": 0,
      "timed_out": false,
      "elapsed_ms": 0,
      "stdout": "// Source: https://github.com/llvm/llvm-project/issues/168179\n// Command from issue:\n// simple-arith-opt2 test_vector.mlir -pass-pipeline=\"builtin.module(func.func(lower-simple-vector-stride-read,canonicalize,cse))\"\nmodule {\n  func.func @test(%v: vector<8 x f32>) -> vector<4 x f32> {\n    %r = simple_vector.stride_read %v offsets = [0], sizes = [4], strides = [2]\n         : vector<8 x f32> -> vector<4 x f32>\n    return %r : vector<4 x f32>\n  }\n}\n",
      "stderr": "",
      "stdout_path": "outputs\\issues_mock\\artifacts\\llvm_168179_custom_stride_read_crash__convert_parallel_loops_to_gpu.stdout.mlir",
      "stderr_path": "outputs\\issues_mock\\artifacts\\llvm_168179_custom_stride_read_crash__convert_parallel_loops_to_gpu.stderr.txt",
      "category": "success"
    },
    {
      "seed": "seeds\\issue_repros\\llvm_168179_custom_stride_read_crash.mlir",
      "pipeline": "linalg_parallel_to_gpu_issue_82382",
      "command": "mock-mlir-opt seeds\\issue_repros\\llvm_168179_custom_stride_read_crash.mlir --convert-linalg-to-affine-loops --affine-loop-tile=tile-sizes=4,28,28,16,7,7,3 --affine-loop-unroll=unroll-factor=4 --canonicalize --affine-parallelize --lower-affine --canonicalize --gpu-map-parallel-loops --convert-parallel-loops-to-gpu -o -",
      "return_code": 0,
      "timed_out": false,
      "elapsed_ms": 0,
      "stdout": "// Source: https://github.com/llvm/llvm-project/issues/168179\n// Command from issue:\n// simple-arith-opt2 test_vector.mlir -pass-pipeline=\"builtin.module(func.func(lower-simple-vector-stride-read,canonicalize,cse))\"\nmodule {\n  func.func @test(%v: vector<8 x f32>) -> vector<4 x f32> {\n    %r = simple_vector.stride_read %v offsets = [0], sizes = [4], strides = [2]\n         : vector<8 x f32> -> vector<4 x f32>\n    return %r : vector<4 x f32>\n  }\n}\n",
      "stderr": "",
      "stdout_path": "outputs\\issues_mock\\artifacts\\llvm_168179_custom_stride_read_crash__linalg_parallel_to_gpu_issue_82382.stdout.mlir",
      "stderr_path": "outputs\\issues_mock\\artifacts\\llvm_168179_custom_stride_read_crash__linalg_parallel_to_gpu_issue_82382.stderr.txt",
      "category": "success"
    },
    {
      "seed": "seeds\\issue_repros\\llvm_168179_custom_stride_read_crash.mlir",
      "pipeline": "test_linalg_multiuse_fusion_issue_119868",
      "command": "mock-mlir-opt seeds\\issue_repros\\llvm_168179_custom_stride_read_crash.mlir --test-linalg-elementwise-fusion-patterns=fuse-multiuse-producer -o -",
      "return_code": 0,
      "timed_out": false,
      "elapsed_ms": 0,
      "stdout": "// Source: https://github.com/llvm/llvm-project/issues/168179\n// Command from issue:\n// simple-arith-opt2 test_vector.mlir -pass-pipeline=\"builtin.module(func.func(lower-simple-vector-stride-read,canonicalize,cse))\"\nmodule {\n  func.func @test(%v: vector<8 x f32>) -> vector<4 x f32> {\n    %r = simple_vector.stride_read %v offsets = [0], sizes = [4], strides = [2]\n         : vector<8 x f32> -> vector<4 x f32>\n    return %r : vector<4 x f32>\n  }\n}\n",
      "stderr": "",
      "stdout_path": "outputs\\issues_mock\\artifacts\\llvm_168179_custom_stride_read_crash__test_linalg_multiuse_fusion_issue_119868.stdout.mlir",
      "stderr_path": "outputs\\issues_mock\\artifacts\\llvm_168179_custom_stride_read_crash__test_linalg_multiuse_fusion_issue_119868.stderr.txt",
      "category": "success"
    },
    {
      "seed": "seeds\\issue_repros\\llvm_168179_custom_stride_read_crash.mlir",
      "pipeline": "test_rewrite_dynamic_op_issue_60569",
      "command": "mock-mlir-opt seeds\\issue_repros\\llvm_168179_custom_stride_read_crash.mlir --allow-unregistered-dialect --test-rewrite-dynamic-op -o -",
      "return_code": 0,
      "timed_out": false,
      "elapsed_ms": 0,
      "stdout": "// Source: https://github.com/llvm/llvm-project/issues/168179\n// Command from issue:\n// simple-arith-opt2 test_vector.mlir -pass-pipeline=\"builtin.module(func.func(lower-simple-vector-stride-read,canonicalize,cse))\"\nmodule {\n  func.func @test(%v: vector<8 x f32>) -> vector<4 x f32> {\n    %r = simple_vector.stride_read %v offsets = [0], sizes = [4], strides = [2]\n         : vector<8 x f32> -> vector<4 x f32>\n    return %r : vector<4 x f32>\n  }\n}\n",
      "stderr": "",
      "stdout_path": "outputs\\issues_mock\\artifacts\\llvm_168179_custom_stride_read_crash__test_rewrite_dynamic_op_issue_60569.stdout.mlir",
      "stderr_path": "outputs\\issues_mock\\artifacts\\llvm_168179_custom_stride_read_crash__test_rewrite_dynamic_op_issue_60569.stderr.txt",
      "category": "success"
    },
    {
      "seed": "seeds\\issue_repros\\llvm_168179_custom_stride_read_crash.mlir",
      "pipeline": "tosa_linalg_affine_issue_61085",
      "command": "mock-mlir-opt seeds\\issue_repros\\llvm_168179_custom_stride_read_crash.mlir --pass-pipeline=func.func(tosa-to-arith) --linalg-bufferize --pass-pipeline=func.func(tosa-to-linalg) --convert-linalg-to-affine-loops -o -",
      "return_code": 0,
      "timed_out": false,
      "elapsed_ms": 0,
      "stdout": "// Source: https://github.com/llvm/llvm-project/issues/168179\n// Command from issue:\n// simple-arith-opt2 test_vector.mlir -pass-pipeline=\"builtin.module(func.func(lower-simple-vector-stride-read,canonicalize,cse))\"\nmodule {\n  func.func @test(%v: vector<8 x f32>) -> vector<4 x f32> {\n    %r = simple_vector.stride_read %v offsets = [0], sizes = [4], strides = [2]\n         : vector<8 x f32> -> vector<4 x f32>\n    return %r : vector<4 x f32>\n  }\n}\n",
      "stderr": "",
      "stdout_path": "outputs\\issues_mock\\artifacts\\llvm_168179_custom_stride_read_crash__tosa_linalg_affine_issue_61085.stdout.mlir",
      "stderr_path": "outputs\\issues_mock\\artifacts\\llvm_168179_custom_stride_read_crash__tosa_linalg_affine_issue_61085.stderr.txt",
      "category": "success"
    },
    {
      "seed": "seeds\\issue_repros\\llvm_168179_custom_stride_read_crash.mlir",
      "pipeline": "transform_tile_reduction_issue_60210",
      "command": "mock-mlir-opt seeds\\issue_repros\\llvm_168179_custom_stride_read_crash.mlir --test-transform-dialect-interpreter -o -",
      "return_code": 0,
      "timed_out": false,
      "elapsed_ms": 0,
      "stdout": "// Source: https://github.com/llvm/llvm-project/issues/168179\n// Command from issue:\n// simple-arith-opt2 test_vector.mlir -pass-pipeline=\"builtin.module(func.func(lower-simple-vector-stride-read,canonicalize,cse))\"\nmodule {\n  func.func @test(%v: vector<8 x f32>) -> vector<4 x f32> {\n    %r = simple_vector.stride_read %v offsets = [0], sizes = [4], strides = [2]\n         : vector<8 x f32> -> vector<4 x f32>\n    return %r : vector<4 x f32>\n  }\n}\n",
      "stderr": "",
      "stdout_path": "outputs\\issues_mock\\artifacts\\llvm_168179_custom_stride_read_crash__transform_tile_reduction_issue_60210.stdout.mlir",
      "stderr_path": "outputs\\issues_mock\\artifacts\\llvm_168179_custom_stride_read_crash__transform_tile_reduction_issue_60210.stderr.txt",
      "category": "success"
    },
    {
      "seed": "seeds\\issue_repros\\llvm_168179_custom_stride_read_crash.mlir",
      "pipeline": "transform_linalg_tile_issue_113021",
      "command": "mock-mlir-opt seeds\\issue_repros\\llvm_168179_custom_stride_read_crash.mlir --test-transform-dialect-interpreter -o -",
      "return_code": 0,
      "timed_out": false,
      "elapsed_ms": 0,
      "stdout": "// Source: https://github.com/llvm/llvm-project/issues/168179\n// Command from issue:\n// simple-arith-opt2 test_vector.mlir -pass-pipeline=\"builtin.module(func.func(lower-simple-vector-stride-read,canonicalize,cse))\"\nmodule {\n  func.func @test(%v: vector<8 x f32>) -> vector<4 x f32> {\n    %r = simple_vector.stride_read %v offsets = [0], sizes = [4], strides = [2]\n         : vector<8 x f32> -> vector<4 x f32>\n    return %r : vector<4 x f32>\n  }\n}\n",
      "stderr": "",
      "stdout_path": "outputs\\issues_mock\\artifacts\\llvm_168179_custom_stride_read_crash__transform_linalg_tile_issue_113021.stdout.mlir",
      "stderr_path": "outputs\\issues_mock\\artifacts\\llvm_168179_custom_stride_read_crash__transform_linalg_tile_issue_113021.stderr.txt",
      "category": "success"
    },
    {
      "seed": "seeds\\issue_repros\\llvm_168179_custom_stride_read_crash.mlir",
      "pipeline": "vector_scatter_canonicalize_issue_168695",
      "command": "mock-mlir-opt seeds\\issue_repros\\llvm_168179_custom_stride_read_crash.mlir --pass-pipeline=builtin.module(func.func(canonicalize)) -o -",
      "return_code": 0,
      "timed_out": false,
      "elapsed_ms": 0,
      "stdout": "// Source: https://github.com/llvm/llvm-project/issues/168179\n// Command from issue:\n// simple-arith-opt2 test_vector.mlir -pass-pipeline=\"builtin.module(func.func(lower-simple-vector-stride-read,canonicalize,cse))\"\nmodule {\n  func.func @test(%v: vector<8 x f32>) -> vector<4 x f32> {\n    %r = simple_vector.stride_read %v offsets = [0], sizes = [4], strides = [2]\n         : vector<8 x f32> -> vector<4 x f32>\n    return %r : vector<4 x f32>\n  }\n}\n",
      "stderr": "",
      "stdout_path": "outputs\\issues_mock\\artifacts\\llvm_168179_custom_stride_read_crash__vector_scatter_canonicalize_issue_168695.stdout.mlir",
      "stderr_path": "outputs\\issues_mock\\artifacts\\llvm_168179_custom_stride_read_crash__vector_scatter_canonicalize_issue_168695.stderr.txt",
      "category": "success"
    },
    {
      "seed": "seeds\\issue_repros\\llvm_168695_vector_scatter_tensor_canonicalize.mlir",
      "pipeline": "parse_verify",
      "command": "mock-mlir-opt seeds\\issue_repros\\llvm_168695_vector_scatter_tensor_canonicalize.mlir  -o -",
      "return_code": 0,
      "timed_out": false,
      "elapsed_ms": 0,
      "stdout": "// Source: https://github.com/llvm/llvm-project/issues/168695\n// Expected trigger: canonicalizing vector.scatter with tensor output asserted in newer MLIR builds.\n\nfunc.func @scatter_tensor(\n  %base: tensor<16xf32>,\n  %mask: vector<16xi1>,\n  %value: vector<16xf32>\n) -> tensor<16xf32> {\n  %c0 = arith.constant 0 : index\n  %index = vector.step : vector<16xindex>\n  %0 = vector.scatter %base[%c0] [%index], %mask, %value\n      : tensor<16xf32>, vector<16xindex>, vector<16xi1>, vector<16xf32> -> tensor<16xf32>\n  return %0 : tensor<16xf32>\n}\n",
      "stderr": "",
      "stdout_path": "outputs\\issues_mock\\artifacts\\llvm_168695_vector_scatter_tensor_canonicalize__parse_verify.stdout.mlir",
      "stderr_path": "outputs\\issues_mock\\artifacts\\llvm_168695_vector_scatter_tensor_canonicalize__parse_verify.stderr.txt",
      "category": "success"
    },
    {
      "seed": "seeds\\issue_repros\\llvm_168695_vector_scatter_tensor_canonicalize.mlir",
      "pipeline": "canonicalize_cse",
      "command": "mock-mlir-opt seeds\\issue_repros\\llvm_168695_vector_scatter_tensor_canonicalize.mlir --canonicalize --cse -o -",
      "return_code": 0,
      "timed_out": false,
      "elapsed_ms": 0,
      "stdout": "// Source: https://github.com/llvm/llvm-project/issues/168695\n// Expected trigger: canonicalizing vector.scatter with tensor output asserted in newer MLIR builds.\n\nfunc.func @scatter_tensor(\n  %base: tensor<16xf32>,\n  %mask: vector<16xi1>,\n  %value: vector<16xf32>\n) -> tensor<16xf32> {\n  %c0 = arith.constant 0 : index\n  %index = vector.step : vector<16xindex>\n  %0 = vector.scatter %base[%c0] [%index], %mask, %value\n      : tensor<16xf32>, vector<16xindex>, vector<16xi1>, vector<16xf32> -> tensor<16xf32>\n  return %0 : tensor<16xf32>\n}\n",
      "stderr": "",
      "stdout_path": "outputs\\issues_mock\\artifacts\\llvm_168695_vector_scatter_tensor_canonicalize__canonicalize_cse.stdout.mlir",
      "stderr_path": "outputs\\issues_mock\\artifacts\\llvm_168695_vector_scatter_tensor_canonicalize__canonicalize_cse.stderr.txt",
      "category": "success"
    },
    {
      "seed": "seeds\\issue_repros\\llvm_168695_vector_scatter_tensor_canonicalize.mlir",
      "pipeline": "convert_parallel_loops_to_gpu",
      "command": "mock-mlir-opt seeds\\issue_repros\\llvm_168695_vector_scatter_tensor_canonicalize.mlir --convert-parallel-loops-to-gpu -o -",
      "return_code": 0,
      "timed_out": false,
      "elapsed_ms": 0,
      "stdout": "// Source: https://github.com/llvm/llvm-project/issues/168695\n// Expected trigger: canonicalizing vector.scatter with tensor output asserted in newer MLIR builds.\n\nfunc.func @scatter_tensor(\n  %base: tensor<16xf32>,\n  %mask: vector<16xi1>,\n  %value: vector<16xf32>\n) -> tensor<16xf32> {\n  %c0 = arith.constant 0 : index\n  %index = vector.step : vector<16xindex>\n  %0 = vector.scatter %base[%c0] [%index], %mask, %value\n      : tensor<16xf32>, vector<16xindex>, vector<16xi1>, vector<16xf32> -> tensor<16xf32>\n  return %0 : tensor<16xf32>\n}\n",
      "stderr": "",
      "stdout_path": "outputs\\issues_mock\\artifacts\\llvm_168695_vector_scatter_tensor_canonicalize__convert_parallel_loops_to_gpu.stdout.mlir",
      "stderr_path": "outputs\\issues_mock\\artifacts\\llvm_168695_vector_scatter_tensor_canonicalize__convert_parallel_loops_to_gpu.stderr.txt",
      "category": "success"
    },
    {
      "seed": "seeds\\issue_repros\\llvm_168695_vector_scatter_tensor_canonicalize.mlir",
      "pipeline": "linalg_parallel_to_gpu_issue_82382",
      "command": "mock-mlir-opt seeds\\issue_repros\\llvm_168695_vector_scatter_tensor_canonicalize.mlir --convert-linalg-to-affine-loops --affine-loop-tile=tile-sizes=4,28,28,16,7,7,3 --affine-loop-unroll=unroll-factor=4 --canonicalize --affine-parallelize --lower-affine --canonicalize --gpu-map-parallel-loops --convert-parallel-loops-to-gpu -o -",
      "return_code": 0,
      "timed_out": false,
      "elapsed_ms": 0,
      "stdout": "// Source: https://github.com/llvm/llvm-project/issues/168695\n// Expected trigger: canonicalizing vector.scatter with tensor output asserted in newer MLIR builds.\n\nfunc.func @scatter_tensor(\n  %base: tensor<16xf32>,\n  %mask: vector<16xi1>,\n  %value: vector<16xf32>\n) -> tensor<16xf32> {\n  %c0 = arith.constant 0 : index\n  %index = vector.step : vector<16xindex>\n  %0 = vector.scatter %base[%c0] [%index], %mask, %value\n      : tensor<16xf32>, vector<16xindex>, vector<16xi1>, vector<16xf32> -> tensor<16xf32>\n  return %0 : tensor<16xf32>\n}\n",
      "stderr": "",
      "stdout_path": "outputs\\issues_mock\\artifacts\\llvm_168695_vector_scatter_tensor_canonicalize__linalg_parallel_to_gpu_issue_82382.stdout.mlir",
      "stderr_path": "outputs\\issues_mock\\artifacts\\llvm_168695_vector_scatter_tensor_canonicalize__linalg_parallel_to_gpu_issue_82382.stderr.txt",
      "category": "success"
    },
    {
      "seed": "seeds\\issue_repros\\llvm_168695_vector_scatter_tensor_canonicalize.mlir",
      "pipeline": "test_linalg_multiuse_fusion_issue_119868",
      "command": "mock-mlir-opt seeds\\issue_repros\\llvm_168695_vector_scatter_tensor_canonicalize.mlir --test-linalg-elementwise-fusion-patterns=fuse-multiuse-producer -o -",
      "return_code": 0,
      "timed_out": false,
      "elapsed_ms": 0,
      "stdout": "// Source: https://github.com/llvm/llvm-project/issues/168695\n// Expected trigger: canonicalizing vector.scatter with tensor output asserted in newer MLIR builds.\n\nfunc.func @scatter_tensor(\n  %base: tensor<16xf32>,\n  %mask: vector<16xi1>,\n  %value: vector<16xf32>\n) -> tensor<16xf32> {\n  %c0 = arith.constant 0 : index\n  %index = vector.step : vector<16xindex>\n  %0 = vector.scatter %base[%c0] [%index], %mask, %value\n      : tensor<16xf32>, vector<16xindex>, vector<16xi1>, vector<16xf32> -> tensor<16xf32>\n  return %0 : tensor<16xf32>\n}\n",
      "stderr": "",
      "stdout_path": "outputs\\issues_mock\\artifacts\\llvm_168695_vector_scatter_tensor_canonicalize__test_linalg_multiuse_fusion_issue_119868.stdout.mlir",
      "stderr_path": "outputs\\issues_mock\\artifacts\\llvm_168695_vector_scatter_tensor_canonicalize__test_linalg_multiuse_fusion_issue_119868.stderr.txt",
      "category": "success"
    },
    {
      "seed": "seeds\\issue_repros\\llvm_168695_vector_scatter_tensor_canonicalize.mlir",
      "pipeline": "test_rewrite_dynamic_op_issue_60569",
      "command": "mock-mlir-opt seeds\\issue_repros\\llvm_168695_vector_scatter_tensor_canonicalize.mlir --allow-unregistered-dialect --test-rewrite-dynamic-op -o -",
      "return_code": 0,
      "timed_out": false,
      "elapsed_ms": 0,
      "stdout": "// Source: https://github.com/llvm/llvm-project/issues/168695\n// Expected trigger: canonicalizing vector.scatter with tensor output asserted in newer MLIR builds.\n\nfunc.func @scatter_tensor(\n  %base: tensor<16xf32>,\n  %mask: vector<16xi1>,\n  %value: vector<16xf32>\n) -> tensor<16xf32> {\n  %c0 = arith.constant 0 : index\n  %index = vector.step : vector<16xindex>\n  %0 = vector.scatter %base[%c0] [%index], %mask, %value\n      : tensor<16xf32>, vector<16xindex>, vector<16xi1>, vector<16xf32> -> tensor<16xf32>\n  return %0 : tensor<16xf32>\n}\n",
      "stderr": "",
      "stdout_path": "outputs\\issues_mock\\artifacts\\llvm_168695_vector_scatter_tensor_canonicalize__test_rewrite_dynamic_op_issue_60569.stdout.mlir",
      "stderr_path": "outputs\\issues_mock\\artifacts\\llvm_168695_vector_scatter_tensor_canonicalize__test_rewrite_dynamic_op_issue_60569.stderr.txt",
      "category": "success"
    },
    {
      "seed": "seeds\\issue_repros\\llvm_168695_vector_scatter_tensor_canonicalize.mlir",
      "pipeline": "tosa_linalg_affine_issue_61085",
      "command": "mock-mlir-opt seeds\\issue_repros\\llvm_168695_vector_scatter_tensor_canonicalize.mlir --pass-pipeline=func.func(tosa-to-arith) --linalg-bufferize --pass-pipeline=func.func(tosa-to-linalg) --convert-linalg-to-affine-loops -o -",
      "return_code": 0,
      "timed_out": false,
      "elapsed_ms": 0,
      "stdout": "// Source: https://github.com/llvm/llvm-project/issues/168695\n// Expected trigger: canonicalizing vector.scatter with tensor output asserted in newer MLIR builds.\n\nfunc.func @scatter_tensor(\n  %base: tensor<16xf32>,\n  %mask: vector<16xi1>,\n  %value: vector<16xf32>\n) -> tensor<16xf32> {\n  %c0 = arith.constant 0 : index\n  %index = vector.step : vector<16xindex>\n  %0 = vector.scatter %base[%c0] [%index], %mask, %value\n      : tensor<16xf32>, vector<16xindex>, vector<16xi1>, vector<16xf32> -> tensor<16xf32>\n  return %0 : tensor<16xf32>\n}\n",
      "stderr": "",
      "stdout_path": "outputs\\issues_mock\\artifacts\\llvm_168695_vector_scatter_tensor_canonicalize__tosa_linalg_affine_issue_61085.stdout.mlir",
      "stderr_path": "outputs\\issues_mock\\artifacts\\llvm_168695_vector_scatter_tensor_canonicalize__tosa_linalg_affine_issue_61085.stderr.txt",
      "category": "success"
    },
    {
      "seed": "seeds\\issue_repros\\llvm_168695_vector_scatter_tensor_canonicalize.mlir",
      "pipeline": "transform_tile_reduction_issue_60210",
      "command": "mock-mlir-opt seeds\\issue_repros\\llvm_168695_vector_scatter_tensor_canonicalize.mlir --test-transform-dialect-interpreter -o -",
      "return_code": 0,
      "timed_out": false,
      "elapsed_ms": 0,
      "stdout": "// Source: https://github.com/llvm/llvm-project/issues/168695\n// Expected trigger: canonicalizing vector.scatter with tensor output asserted in newer MLIR builds.\n\nfunc.func @scatter_tensor(\n  %base: tensor<16xf32>,\n  %mask: vector<16xi1>,\n  %value: vector<16xf32>\n) -> tensor<16xf32> {\n  %c0 = arith.constant 0 : index\n  %index = vector.step : vector<16xindex>\n  %0 = vector.scatter %base[%c0] [%index], %mask, %value\n      : tensor<16xf32>, vector<16xindex>, vector<16xi1>, vector<16xf32> -> tensor<16xf32>\n  return %0 : tensor<16xf32>\n}\n",
      "stderr": "",
      "stdout_path": "outputs\\issues_mock\\artifacts\\llvm_168695_vector_scatter_tensor_canonicalize__transform_tile_reduction_issue_60210.stdout.mlir",
      "stderr_path": "outputs\\issues_mock\\artifacts\\llvm_168695_vector_scatter_tensor_canonicalize__transform_tile_reduction_issue_60210.stderr.txt",
      "category": "success"
    },
    {
      "seed": "seeds\\issue_repros\\llvm_168695_vector_scatter_tensor_canonicalize.mlir",
      "pipeline": "transform_linalg_tile_issue_113021",
      "command": "mock-mlir-opt seeds\\issue_repros\\llvm_168695_vector_scatter_tensor_canonicalize.mlir --test-transform-dialect-interpreter -o -",
      "return_code": 0,
      "timed_out": false,
      "elapsed_ms": 0,
      "stdout": "// Source: https://github.com/llvm/llvm-project/issues/168695\n// Expected trigger: canonicalizing vector.scatter with tensor output asserted in newer MLIR builds.\n\nfunc.func @scatter_tensor(\n  %base: tensor<16xf32>,\n  %mask: vector<16xi1>,\n  %value: vector<16xf32>\n) -> tensor<16xf32> {\n  %c0 = arith.constant 0 : index\n  %index = vector.step : vector<16xindex>\n  %0 = vector.scatter %base[%c0] [%index], %mask, %value\n      : tensor<16xf32>, vector<16xindex>, vector<16xi1>, vector<16xf32> -> tensor<16xf32>\n  return %0 : tensor<16xf32>\n}\n",
      "stderr": "",
      "stdout_path": "outputs\\issues_mock\\artifacts\\llvm_168695_vector_scatter_tensor_canonicalize__transform_linalg_tile_issue_113021.stdout.mlir",
      "stderr_path": "outputs\\issues_mock\\artifacts\\llvm_168695_vector_scatter_tensor_canonicalize__transform_linalg_tile_issue_113021.stderr.txt",
      "category": "success"
    },
    {
      "seed": "seeds\\issue_repros\\llvm_168695_vector_scatter_tensor_canonicalize.mlir",
      "pipeline": "vector_scatter_canonicalize_issue_168695",
      "command": "mock-mlir-opt seeds\\issue_repros\\llvm_168695_vector_scatter_tensor_canonicalize.mlir --pass-pipeline=builtin.module(func.func(canonicalize)) -o -",
      "return_code": 0,
      "timed_out": false,
      "elapsed_ms": 0,
      "stdout": "// Source: https://github.com/llvm/llvm-project/issues/168695\n// Expected trigger: canonicalizing vector.scatter with tensor output asserted in newer MLIR builds.\n\nfunc.func @scatter_tensor(\n  %base: tensor<16xf32>,\n  %mask: vector<16xi1>,\n  %value: vector<16xf32>\n) -> tensor<16xf32> {\n  %c0 = arith.constant 0 : index\n  %index = vector.step : vector<16xindex>\n  %0 = vector.scatter %base[%c0] [%index], %mask, %value\n      : tensor<16xf32>, vector<16xindex>, vector<16xi1>, vector<16xf32> -> tensor<16xf32>\n  return %0 : tensor<16xf32>\n}\n",
      "stderr": "",
      "stdout_path": "outputs\\issues_mock\\artifacts\\llvm_168695_vector_scatter_tensor_canonicalize__vector_scatter_canonicalize_issue_168695.stdout.mlir",
      "stderr_path": "outputs\\issues_mock\\artifacts\\llvm_168695_vector_scatter_tensor_canonicalize__vector_scatter_canonicalize_issue_168695.stderr.txt",
      "category": "success"
    },
    {
      "seed": "seeds\\issue_repros\\llvm_60210_transform_tile_reduction_assert.mlir",
      "pipeline": "parse_verify",
      "command": "mock-mlir-opt seeds\\issue_repros\\llvm_60210_transform_tile_reduction_assert.mlir  -o -",
      "return_code": 0,
      "timed_out": false,
      "elapsed_ms": 0,
      "stdout": "// Source: https://github.com/llvm/llvm-project/issues/60210\n// Expected trigger: test-transform-dialect-interpreter assertion while tiling a linalg reduction.\n// Reported command: mlir-opt --test-transform-dialect-interpreter temp.mlir\n\n#map = affine_map<(d0, d1) -> (d0, d1)>\n#map1 = affine_map<(d0, d1) -> (d0)>\nmodule {\n  func.func @func(%arg0: tensor<?x?xf32>, %arg1: tensor<?xf32>) -> tensor<?xf32> {\n    %0 = linalg.generic {\n      indexing_maps = [#map, #map1],\n      iterator_types = [\"parallel\", \"reduction\"]\n    } ins(%arg0 : tensor<?x?xf32>) outs(%arg1 : tensor<?xf32>) {\n    ^bb0(%in: f32, %out: f32):\n      %1 = llvm.fmul %in, %in : f32\n      %2 = llvm.fadd %1, %out : f32\n      linalg.yield %2 : f32\n    } -> tensor<?xf32>\n    return %0 : tensor<?xf32>\n  }\n  transform.sequence failures(propagate) {\n  ^bb0(%arg0: !pdl.operation):\n    %0 = transform.structured.match ops{[\"linalg.generic\"]} in %arg0\n    %for_op, %fill_op, %split_linalg_op, %combining_linalg_op =\n      transform.structured.tile_reduction_using_scf %0 by tile_sizes = [0, 5]\n  }\n}\n",
      "stderr": "",
      "stdout_path": "outputs\\issues_mock\\artifacts\\llvm_60210_transform_tile_reduction_assert__parse_verify.stdout.mlir",
      "stderr_path": "outputs\\issues_mock\\artifacts\\llvm_60210_transform_tile_reduction_assert__parse_verify.stderr.txt",
      "category": "success"
    },
    {
      "seed": "seeds\\issue_repros\\llvm_60210_transform_tile_reduction_assert.mlir",
      "pipeline": "canonicalize_cse",
      "command": "mock-mlir-opt seeds\\issue_repros\\llvm_60210_transform_tile_reduction_assert.mlir --canonicalize --cse -o -",
      "return_code": 0,
      "timed_out": false,
      "elapsed_ms": 0,
      "stdout": "// Source: https://github.com/llvm/llvm-project/issues/60210\n// Expected trigger: test-transform-dialect-interpreter assertion while tiling a linalg reduction.\n// Reported command: mlir-opt --test-transform-dialect-interpreter temp.mlir\n\n#map = affine_map<(d0, d1) -> (d0, d1)>\n#map1 = affine_map<(d0, d1) -> (d0)>\nmodule {\n  func.func @func(%arg0: tensor<?x?xf32>, %arg1: tensor<?xf32>) -> tensor<?xf32> {\n    %0 = linalg.generic {\n      indexing_maps = [#map, #map1],\n      iterator_types = [\"parallel\", \"reduction\"]\n    } ins(%arg0 : tensor<?x?xf32>) outs(%arg1 : tensor<?xf32>) {\n    ^bb0(%in: f32, %out: f32):\n      %1 = llvm.fmul %in, %in : f32\n      %2 = llvm.fadd %1, %out : f32\n      linalg.yield %2 : f32\n    } -> tensor<?xf32>\n    return %0 : tensor<?xf32>\n  }\n  transform.sequence failures(propagate) {\n  ^bb0(%arg0: !pdl.operation):\n    %0 = transform.structured.match ops{[\"linalg.generic\"]} in %arg0\n    %for_op, %fill_op, %split_linalg_op, %combining_linalg_op =\n      transform.structured.tile_reduction_using_scf %0 by tile_sizes = [0, 5]\n  }\n}\n",
      "stderr": "",
      "stdout_path": "outputs\\issues_mock\\artifacts\\llvm_60210_transform_tile_reduction_assert__canonicalize_cse.stdout.mlir",
      "stderr_path": "outputs\\issues_mock\\artifacts\\llvm_60210_transform_tile_reduction_assert__canonicalize_cse.stderr.txt",
      "category": "success"
    },
    {
      "seed": "seeds\\issue_repros\\llvm_60210_transform_tile_reduction_assert.mlir",
      "pipeline": "convert_parallel_loops_to_gpu",
      "command": "mock-mlir-opt seeds\\issue_repros\\llvm_60210_transform_tile_reduction_assert.mlir --convert-parallel-loops-to-gpu -o -",
      "return_code": 0,
      "timed_out": false,
      "elapsed_ms": 0,
      "stdout": "// Source: https://github.com/llvm/llvm-project/issues/60210\n// Expected trigger: test-transform-dialect-interpreter assertion while tiling a linalg reduction.\n// Reported command: mlir-opt --test-transform-dialect-interpreter temp.mlir\n\n#map = affine_map<(d0, d1) -> (d0, d1)>\n#map1 = affine_map<(d0, d1) -> (d0)>\nmodule {\n  func.func @func(%arg0: tensor<?x?xf32>, %arg1: tensor<?xf32>) -> tensor<?xf32> {\n    %0 = linalg.generic {\n      indexing_maps = [#map, #map1],\n      iterator_types = [\"parallel\", \"reduction\"]\n    } ins(%arg0 : tensor<?x?xf32>) outs(%arg1 : tensor<?xf32>) {\n    ^bb0(%in: f32, %out: f32):\n      %1 = llvm.fmul %in, %in : f32\n      %2 = llvm.fadd %1, %out : f32\n      linalg.yield %2 : f32\n    } -> tensor<?xf32>\n    return %0 : tensor<?xf32>\n  }\n  transform.sequence failures(propagate) {\n  ^bb0(%arg0: !pdl.operation):\n    %0 = transform.structured.match ops{[\"linalg.generic\"]} in %arg0\n    %for_op, %fill_op, %split_linalg_op, %combining_linalg_op =\n      transform.structured.tile_reduction_using_scf %0 by tile_sizes = [0, 5]\n  }\n}\n",
      "stderr": "",
      "stdout_path": "outputs\\issues_mock\\artifacts\\llvm_60210_transform_tile_reduction_assert__convert_parallel_loops_to_gpu.stdout.mlir",
      "stderr_path": "outputs\\issues_mock\\artifacts\\llvm_60210_transform_tile_reduction_assert__convert_parallel_loops_to_gpu.stderr.txt",
      "category": "success"
    },
    {
      "seed": "seeds\\issue_repros\\llvm_60210_transform_tile_reduction_assert.mlir",
      "pipeline": "linalg_parallel_to_gpu_issue_82382",
      "command": "mock-mlir-opt seeds\\issue_repros\\llvm_60210_transform_tile_reduction_assert.mlir --convert-linalg-to-affine-loops --affine-loop-tile=tile-sizes=4,28,28,16,7,7,3 --affine-loop-unroll=unroll-factor=4 --canonicalize --affine-parallelize --lower-affine --canonicalize --gpu-map-parallel-loops --convert-parallel-loops-to-gpu -o -",
      "return_code": 0,
      "timed_out": false,
      "elapsed_ms": 0,
      "stdout": "// Source: https://github.com/llvm/llvm-project/issues/60210\n// Expected trigger: test-transform-dialect-interpreter assertion while tiling a linalg reduction.\n// Reported command: mlir-opt --test-transform-dialect-interpreter temp.mlir\n\n#map = affine_map<(d0, d1) -> (d0, d1)>\n#map1 = affine_map<(d0, d1) -> (d0)>\nmodule {\n  func.func @func(%arg0: tensor<?x?xf32>, %arg1: tensor<?xf32>) -> tensor<?xf32> {\n    %0 = linalg.generic {\n      indexing_maps = [#map, #map1],\n      iterator_types = [\"parallel\", \"reduction\"]\n    } ins(%arg0 : tensor<?x?xf32>) outs(%arg1 : tensor<?xf32>) {\n    ^bb0(%in: f32, %out: f32):\n      %1 = llvm.fmul %in, %in : f32\n      %2 = llvm.fadd %1, %out : f32\n      linalg.yield %2 : f32\n    } -> tensor<?xf32>\n    return %0 : tensor<?xf32>\n  }\n  transform.sequence failures(propagate) {\n  ^bb0(%arg0: !pdl.operation):\n    %0 = transform.structured.match ops{[\"linalg.generic\"]} in %arg0\n    %for_op, %fill_op, %split_linalg_op, %combining_linalg_op =\n      transform.structured.tile_reduction_using_scf %0 by tile_sizes = [0, 5]\n  }\n}\n",
      "stderr": "",
      "stdout_path": "outputs\\issues_mock\\artifacts\\llvm_60210_transform_tile_reduction_assert__linalg_parallel_to_gpu_issue_82382.stdout.mlir",
      "stderr_path": "outputs\\issues_mock\\artifacts\\llvm_60210_transform_tile_reduction_assert__linalg_parallel_to_gpu_issue_82382.stderr.txt",
      "category": "success"
    },
    {
      "seed": "seeds\\issue_repros\\llvm_60210_transform_tile_reduction_assert.mlir",
      "pipeline": "test_linalg_multiuse_fusion_issue_119868",
      "command": "mock-mlir-opt seeds\\issue_repros\\llvm_60210_transform_tile_reduction_assert.mlir --test-linalg-elementwise-fusion-patterns=fuse-multiuse-producer -o -",
      "return_code": 0,
      "timed_out": false,
      "elapsed_ms": 0,
      "stdout": "// Source: https://github.com/llvm/llvm-project/issues/60210\n// Expected trigger: test-transform-dialect-interpreter assertion while tiling a linalg reduction.\n// Reported command: mlir-opt --test-transform-dialect-interpreter temp.mlir\n\n#map = affine_map<(d0, d1) -> (d0, d1)>\n#map1 = affine_map<(d0, d1) -> (d0)>\nmodule {\n  func.func @func(%arg0: tensor<?x?xf32>, %arg1: tensor<?xf32>) -> tensor<?xf32> {\n    %0 = linalg.generic {\n      indexing_maps = [#map, #map1],\n      iterator_types = [\"parallel\", \"reduction\"]\n    } ins(%arg0 : tensor<?x?xf32>) outs(%arg1 : tensor<?xf32>) {\n    ^bb0(%in: f32, %out: f32):\n      %1 = llvm.fmul %in, %in : f32\n      %2 = llvm.fadd %1, %out : f32\n      linalg.yield %2 : f32\n    } -> tensor<?xf32>\n    return %0 : tensor<?xf32>\n  }\n  transform.sequence failures(propagate) {\n  ^bb0(%arg0: !pdl.operation):\n    %0 = transform.structured.match ops{[\"linalg.generic\"]} in %arg0\n    %for_op, %fill_op, %split_linalg_op, %combining_linalg_op =\n      transform.structured.tile_reduction_using_scf %0 by tile_sizes = [0, 5]\n  }\n}\n",
      "stderr": "",
      "stdout_path": "outputs\\issues_mock\\artifacts\\llvm_60210_transform_tile_reduction_assert__test_linalg_multiuse_fusion_issue_119868.stdout.mlir",
      "stderr_path": "outputs\\issues_mock\\artifacts\\llvm_60210_transform_tile_reduction_assert__test_linalg_multiuse_fusion_issue_119868.stderr.txt",
      "category": "success"
    },
    {
      "seed": "seeds\\issue_repros\\llvm_60210_transform_tile_reduction_assert.mlir",
      "pipeline": "test_rewrite_dynamic_op_issue_60569",
      "command": "mock-mlir-opt seeds\\issue_repros\\llvm_60210_transform_tile_reduction_assert.mlir --allow-unregistered-dialect --test-rewrite-dynamic-op -o -",
      "return_code": 0,
      "timed_out": false,
      "elapsed_ms": 0,
      "stdout": "// Source: https://github.com/llvm/llvm-project/issues/60210\n// Expected trigger: test-transform-dialect-interpreter assertion while tiling a linalg reduction.\n// Reported command: mlir-opt --test-transform-dialect-interpreter temp.mlir\n\n#map = affine_map<(d0, d1) -> (d0, d1)>\n#map1 = affine_map<(d0, d1) -> (d0)>\nmodule {\n  func.func @func(%arg0: tensor<?x?xf32>, %arg1: tensor<?xf32>) -> tensor<?xf32> {\n    %0 = linalg.generic {\n      indexing_maps = [#map, #map1],\n      iterator_types = [\"parallel\", \"reduction\"]\n    } ins(%arg0 : tensor<?x?xf32>) outs(%arg1 : tensor<?xf32>) {\n    ^bb0(%in: f32, %out: f32):\n      %1 = llvm.fmul %in, %in : f32\n      %2 = llvm.fadd %1, %out : f32\n      linalg.yield %2 : f32\n    } -> tensor<?xf32>\n    return %0 : tensor<?xf32>\n  }\n  transform.sequence failures(propagate) {\n  ^bb0(%arg0: !pdl.operation):\n    %0 = transform.structured.match ops{[\"linalg.generic\"]} in %arg0\n    %for_op, %fill_op, %split_linalg_op, %combining_linalg_op =\n      transform.structured.tile_reduction_using_scf %0 by tile_sizes = [0, 5]\n  }\n}\n",
      "stderr": "",
      "stdout_path": "outputs\\issues_mock\\artifacts\\llvm_60210_transform_tile_reduction_assert__test_rewrite_dynamic_op_issue_60569.stdout.mlir",
      "stderr_path": "outputs\\issues_mock\\artifacts\\llvm_60210_transform_tile_reduction_assert__test_rewrite_dynamic_op_issue_60569.stderr.txt",
      "category": "success"
    },
    {
      "seed": "seeds\\issue_repros\\llvm_60210_transform_tile_reduction_assert.mlir",
      "pipeline": "tosa_linalg_affine_issue_61085",
      "command": "mock-mlir-opt seeds\\issue_repros\\llvm_60210_transform_tile_reduction_assert.mlir --pass-pipeline=func.func(tosa-to-arith) --linalg-bufferize --pass-pipeline=func.func(tosa-to-linalg) --convert-linalg-to-affine-loops -o -",
      "return_code": 0,
      "timed_out": false,
      "elapsed_ms": 0,
      "stdout": "// Source: https://github.com/llvm/llvm-project/issues/60210\n// Expected trigger: test-transform-dialect-interpreter assertion while tiling a linalg reduction.\n// Reported command: mlir-opt --test-transform-dialect-interpreter temp.mlir\n\n#map = affine_map<(d0, d1) -> (d0, d1)>\n#map1 = affine_map<(d0, d1) -> (d0)>\nmodule {\n  func.func @func(%arg0: tensor<?x?xf32>, %arg1: tensor<?xf32>) -> tensor<?xf32> {\n    %0 = linalg.generic {\n      indexing_maps = [#map, #map1],\n      iterator_types = [\"parallel\", \"reduction\"]\n    } ins(%arg0 : tensor<?x?xf32>) outs(%arg1 : tensor<?xf32>) {\n    ^bb0(%in: f32, %out: f32):\n      %1 = llvm.fmul %in, %in : f32\n      %2 = llvm.fadd %1, %out : f32\n      linalg.yield %2 : f32\n    } -> tensor<?xf32>\n    return %0 : tensor<?xf32>\n  }\n  transform.sequence failures(propagate) {\n  ^bb0(%arg0: !pdl.operation):\n    %0 = transform.structured.match ops{[\"linalg.generic\"]} in %arg0\n    %for_op, %fill_op, %split_linalg_op, %combining_linalg_op =\n      transform.structured.tile_reduction_using_scf %0 by tile_sizes = [0, 5]\n  }\n}\n",
      "stderr": "",
      "stdout_path": "outputs\\issues_mock\\artifacts\\llvm_60210_transform_tile_reduction_assert__tosa_linalg_affine_issue_61085.stdout.mlir",
      "stderr_path": "outputs\\issues_mock\\artifacts\\llvm_60210_transform_tile_reduction_assert__tosa_linalg_affine_issue_61085.stderr.txt",
      "category": "success"
    },
    {
      "seed": "seeds\\issue_repros\\llvm_60210_transform_tile_reduction_assert.mlir",
      "pipeline": "transform_tile_reduction_issue_60210",
      "command": "mock-mlir-opt seeds\\issue_repros\\llvm_60210_transform_tile_reduction_assert.mlir --test-transform-dialect-interpreter -o -",
      "return_code": 0,
      "timed_out": false,
      "elapsed_ms": 0,
      "stdout": "// Source: https://github.com/llvm/llvm-project/issues/60210\n// Expected trigger: test-transform-dialect-interpreter assertion while tiling a linalg reduction.\n// Reported command: mlir-opt --test-transform-dialect-interpreter temp.mlir\n\n#map = affine_map<(d0, d1) -> (d0, d1)>\n#map1 = affine_map<(d0, d1) -> (d0)>\nmodule {\n  func.func @func(%arg0: tensor<?x?xf32>, %arg1: tensor<?xf32>) -> tensor<?xf32> {\n    %0 = linalg.generic {\n      indexing_maps = [#map, #map1],\n      iterator_types = [\"parallel\", \"reduction\"]\n    } ins(%arg0 : tensor<?x?xf32>) outs(%arg1 : tensor<?xf32>) {\n    ^bb0(%in: f32, %out: f32):\n      %1 = llvm.fmul %in, %in : f32\n      %2 = llvm.fadd %1, %out : f32\n      linalg.yield %2 : f32\n    } -> tensor<?xf32>\n    return %0 : tensor<?xf32>\n  }\n  transform.sequence failures(propagate) {\n  ^bb0(%arg0: !pdl.operation):\n    %0 = transform.structured.match ops{[\"linalg.generic\"]} in %arg0\n    %for_op, %fill_op, %split_linalg_op, %combining_linalg_op =\n      transform.structured.tile_reduction_using_scf %0 by tile_sizes = [0, 5]\n  }\n}\n",
      "stderr": "",
      "stdout_path": "outputs\\issues_mock\\artifacts\\llvm_60210_transform_tile_reduction_assert__transform_tile_reduction_issue_60210.stdout.mlir",
      "stderr_path": "outputs\\issues_mock\\artifacts\\llvm_60210_transform_tile_reduction_assert__transform_tile_reduction_issue_60210.stderr.txt",
      "category": "success"
    },
    {
      "seed": "seeds\\issue_repros\\llvm_60210_transform_tile_reduction_assert.mlir",
      "pipeline": "transform_linalg_tile_issue_113021",
      "command": "mock-mlir-opt seeds\\issue_repros\\llvm_60210_transform_tile_reduction_assert.mlir --test-transform-dialect-interpreter -o -",
      "return_code": 0,
      "timed_out": false,
      "elapsed_ms": 0,
      "stdout": "// Source: https://github.com/llvm/llvm-project/issues/60210\n// Expected trigger: test-transform-dialect-interpreter assertion while tiling a linalg reduction.\n// Reported command: mlir-opt --test-transform-dialect-interpreter temp.mlir\n\n#map = affine_map<(d0, d1) -> (d0, d1)>\n#map1 = affine_map<(d0, d1) -> (d0)>\nmodule {\n  func.func @func(%arg0: tensor<?x?xf32>, %arg1: tensor<?xf32>) -> tensor<?xf32> {\n    %0 = linalg.generic {\n      indexing_maps = [#map, #map1],\n      iterator_types = [\"parallel\", \"reduction\"]\n    } ins(%arg0 : tensor<?x?xf32>) outs(%arg1 : tensor<?xf32>) {\n    ^bb0(%in: f32, %out: f32):\n      %1 = llvm.fmul %in, %in : f32\n      %2 = llvm.fadd %1, %out : f32\n      linalg.yield %2 : f32\n    } -> tensor<?xf32>\n    return %0 : tensor<?xf32>\n  }\n  transform.sequence failures(propagate) {\n  ^bb0(%arg0: !pdl.operation):\n    %0 = transform.structured.match ops{[\"linalg.generic\"]} in %arg0\n    %for_op, %fill_op, %split_linalg_op, %combining_linalg_op =\n      transform.structured.tile_reduction_using_scf %0 by tile_sizes = [0, 5]\n  }\n}\n",
      "stderr": "",
      "stdout_path": "outputs\\issues_mock\\artifacts\\llvm_60210_transform_tile_reduction_assert__transform_linalg_tile_issue_113021.stdout.mlir",
      "stderr_path": "outputs\\issues_mock\\artifacts\\llvm_60210_transform_tile_reduction_assert__transform_linalg_tile_issue_113021.stderr.txt",
      "category": "success"
    },
    {
      "seed": "seeds\\issue_repros\\llvm_60210_transform_tile_reduction_assert.mlir",
      "pipeline": "vector_scatter_canonicalize_issue_168695",
      "command": "mock-mlir-opt seeds\\issue_repros\\llvm_60210_transform_tile_reduction_assert.mlir --pass-pipeline=builtin.module(func.func(canonicalize)) -o -",
      "return_code": 0,
      "timed_out": false,
      "elapsed_ms": 0,
      "stdout": "// Source: https://github.com/llvm/llvm-project/issues/60210\n// Expected trigger: test-transform-dialect-interpreter assertion while tiling a linalg reduction.\n// Reported command: mlir-opt --test-transform-dialect-interpreter temp.mlir\n\n#map = affine_map<(d0, d1) -> (d0, d1)>\n#map1 = affine_map<(d0, d1) -> (d0)>\nmodule {\n  func.func @func(%arg0: tensor<?x?xf32>, %arg1: tensor<?xf32>) -> tensor<?xf32> {\n    %0 = linalg.generic {\n      indexing_maps = [#map, #map1],\n      iterator_types = [\"parallel\", \"reduction\"]\n    } ins(%arg0 : tensor<?x?xf32>) outs(%arg1 : tensor<?xf32>) {\n    ^bb0(%in: f32, %out: f32):\n      %1 = llvm.fmul %in, %in : f32\n      %2 = llvm.fadd %1, %out : f32\n      linalg.yield %2 : f32\n    } -> tensor<?xf32>\n    return %0 : tensor<?xf32>\n  }\n  transform.sequence failures(propagate) {\n  ^bb0(%arg0: !pdl.operation):\n    %0 = transform.structured.match ops{[\"linalg.generic\"]} in %arg0\n    %for_op, %fill_op, %split_linalg_op, %combining_linalg_op =\n      transform.structured.tile_reduction_using_scf %0 by tile_sizes = [0, 5]\n  }\n}\n",
      "stderr": "",
      "stdout_path": "outputs\\issues_mock\\artifacts\\llvm_60210_transform_tile_reduction_assert__vector_scatter_canonicalize_issue_168695.stdout.mlir",
      "stderr_path": "outputs\\issues_mock\\artifacts\\llvm_60210_transform_tile_reduction_assert__vector_scatter_canonicalize_issue_168695.stderr.txt",
      "category": "success"
    },
    {
      "seed": "seeds\\issue_repros\\llvm_60569_unregistered_dependent_dialect.mlir",
      "pipeline": "parse_verify",
      "command": "mock-mlir-opt seeds\\issue_repros\\llvm_60569_unregistered_dependent_dialect.mlir  -o -",
      "return_code": 0,
      "timed_out": false,
      "elapsed_ms": 0,
      "stdout": "// Source: https://github.com/llvm/llvm-project/issues/60569\n// Command from issue:\n// mlir-opt -allow-unregistered-dialect -test-rewrite-dynamic-op test-rewrite-dynamic-op.mlir\nfunc.func @rewrite_dynamic_op(%arg0: i32) {\n  %0:2 = \"test.dynamic_one_operand_two_results\"(%arg0) : (i32) -> (i32, i32)\n  return\n}\n",
      "stderr": "",
      "stdout_path": "outputs\\issues_mock\\artifacts\\llvm_60569_unregistered_dependent_dialect__parse_verify.stdout.mlir",
      "stderr_path": "outputs\\issues_mock\\artifacts\\llvm_60569_unregistered_dependent_dialect__parse_verify.stderr.txt",
      "category": "success"
    },
    {
      "seed": "seeds\\issue_repros\\llvm_60569_unregistered_dependent_dialect.mlir",
      "pipeline": "canonicalize_cse",
      "command": "mock-mlir-opt seeds\\issue_repros\\llvm_60569_unregistered_dependent_dialect.mlir --canonicalize --cse -o -",
      "return_code": 0,
      "timed_out": false,
      "elapsed_ms": 0,
      "stdout": "// Source: https://github.com/llvm/llvm-project/issues/60569\n// Command from issue:\n// mlir-opt -allow-unregistered-dialect -test-rewrite-dynamic-op test-rewrite-dynamic-op.mlir\nfunc.func @rewrite_dynamic_op(%arg0: i32) {\n  %0:2 = \"test.dynamic_one_operand_two_results\"(%arg0) : (i32) -> (i32, i32)\n  return\n}\n",
      "stderr": "",
      "stdout_path": "outputs\\issues_mock\\artifacts\\llvm_60569_unregistered_dependent_dialect__canonicalize_cse.stdout.mlir",
      "stderr_path": "outputs\\issues_mock\\artifacts\\llvm_60569_unregistered_dependent_dialect__canonicalize_cse.stderr.txt",
      "category": "success"
    },
    {
      "seed": "seeds\\issue_repros\\llvm_60569_unregistered_dependent_dialect.mlir",
      "pipeline": "convert_parallel_loops_to_gpu",
      "command": "mock-mlir-opt seeds\\issue_repros\\llvm_60569_unregistered_dependent_dialect.mlir --convert-parallel-loops-to-gpu -o -",
      "return_code": 0,
      "timed_out": false,
      "elapsed_ms": 0,
      "stdout": "// Source: https://github.com/llvm/llvm-project/issues/60569\n// Command from issue:\n// mlir-opt -allow-unregistered-dialect -test-rewrite-dynamic-op test-rewrite-dynamic-op.mlir\nfunc.func @rewrite_dynamic_op(%arg0: i32) {\n  %0:2 = \"test.dynamic_one_operand_two_results\"(%arg0) : (i32) -> (i32, i32)\n  return\n}\n",
      "stderr": "",
      "stdout_path": "outputs\\issues_mock\\artifacts\\llvm_60569_unregistered_dependent_dialect__convert_parallel_loops_to_gpu.stdout.mlir",
      "stderr_path": "outputs\\issues_mock\\artifacts\\llvm_60569_unregistered_dependent_dialect__convert_parallel_loops_to_gpu.stderr.txt",
      "category": "success"
    },
    {
      "seed": "seeds\\issue_repros\\llvm_60569_unregistered_dependent_dialect.mlir",
      "pipeline": "linalg_parallel_to_gpu_issue_82382",
      "command": "mock-mlir-opt seeds\\issue_repros\\llvm_60569_unregistered_dependent_dialect.mlir --convert-linalg-to-affine-loops --affine-loop-tile=tile-sizes=4,28,28,16,7,7,3 --affine-loop-unroll=unroll-factor=4 --canonicalize --affine-parallelize --lower-affine --canonicalize --gpu-map-parallel-loops --convert-parallel-loops-to-gpu -o -",
      "return_code": 0,
      "timed_out": false,
      "elapsed_ms": 0,
      "stdout": "// Source: https://github.com/llvm/llvm-project/issues/60569\n// Command from issue:\n// mlir-opt -allow-unregistered-dialect -test-rewrite-dynamic-op test-rewrite-dynamic-op.mlir\nfunc.func @rewrite_dynamic_op(%arg0: i32) {\n  %0:2 = \"test.dynamic_one_operand_two_results\"(%arg0) : (i32) -> (i32, i32)\n  return\n}\n",
      "stderr": "",
      "stdout_path": "outputs\\issues_mock\\artifacts\\llvm_60569_unregistered_dependent_dialect__linalg_parallel_to_gpu_issue_82382.stdout.mlir",
      "stderr_path": "outputs\\issues_mock\\artifacts\\llvm_60569_unregistered_dependent_dialect__linalg_parallel_to_gpu_issue_82382.stderr.txt",
      "category": "success"
    },
    {
      "seed": "seeds\\issue_repros\\llvm_60569_unregistered_dependent_dialect.mlir",
      "pipeline": "test_linalg_multiuse_fusion_issue_119868",
      "command": "mock-mlir-opt seeds\\issue_repros\\llvm_60569_unregistered_dependent_dialect.mlir --test-linalg-elementwise-fusion-patterns=fuse-multiuse-producer -o -",
      "return_code": 0,
      "timed_out": false,
      "elapsed_ms": 0,
      "stdout": "// Source: https://github.com/llvm/llvm-project/issues/60569\n// Command from issue:\n// mlir-opt -allow-unregistered-dialect -test-rewrite-dynamic-op test-rewrite-dynamic-op.mlir\nfunc.func @rewrite_dynamic_op(%arg0: i32) {\n  %0:2 = \"test.dynamic_one_operand_two_results\"(%arg0) : (i32) -> (i32, i32)\n  return\n}\n",
      "stderr": "",
      "stdout_path": "outputs\\issues_mock\\artifacts\\llvm_60569_unregistered_dependent_dialect__test_linalg_multiuse_fusion_issue_119868.stdout.mlir",
      "stderr_path": "outputs\\issues_mock\\artifacts\\llvm_60569_unregistered_dependent_dialect__test_linalg_multiuse_fusion_issue_119868.stderr.txt",
      "category": "success"
    },
    {
      "seed": "seeds\\issue_repros\\llvm_60569_unregistered_dependent_dialect.mlir",
      "pipeline": "test_rewrite_dynamic_op_issue_60569",
      "command": "mock-mlir-opt seeds\\issue_repros\\llvm_60569_unregistered_dependent_dialect.mlir --allow-unregistered-dialect --test-rewrite-dynamic-op -o -",
      "return_code": 0,
      "timed_out": false,
      "elapsed_ms": 0,
      "stdout": "// Source: https://github.com/llvm/llvm-project/issues/60569\n// Command from issue:\n// mlir-opt -allow-unregistered-dialect -test-rewrite-dynamic-op test-rewrite-dynamic-op.mlir\nfunc.func @rewrite_dynamic_op(%arg0: i32) {\n  %0:2 = \"test.dynamic_one_operand_two_results\"(%arg0) : (i32) -> (i32, i32)\n  return\n}\n",
      "stderr": "",
      "stdout_path": "outputs\\issues_mock\\artifacts\\llvm_60569_unregistered_dependent_dialect__test_rewrite_dynamic_op_issue_60569.stdout.mlir",
      "stderr_path": "outputs\\issues_mock\\artifacts\\llvm_60569_unregistered_dependent_dialect__test_rewrite_dynamic_op_issue_60569.stderr.txt",
      "category": "success"
    },
    {
      "seed": "seeds\\issue_repros\\llvm_60569_unregistered_dependent_dialect.mlir",
      "pipeline": "tosa_linalg_affine_issue_61085",
      "command": "mock-mlir-opt seeds\\issue_repros\\llvm_60569_unregistered_dependent_dialect.mlir --pass-pipeline=func.func(tosa-to-arith) --linalg-bufferize --pass-pipeline=func.func(tosa-to-linalg) --convert-linalg-to-affine-loops -o -",
      "return_code": 0,
      "timed_out": false,
      "elapsed_ms": 0,
      "stdout": "// Source: https://github.com/llvm/llvm-project/issues/60569\n// Command from issue:\n// mlir-opt -allow-unregistered-dialect -test-rewrite-dynamic-op test-rewrite-dynamic-op.mlir\nfunc.func @rewrite_dynamic_op(%arg0: i32) {\n  %0:2 = \"test.dynamic_one_operand_two_results\"(%arg0) : (i32) -> (i32, i32)\n  return\n}\n",
      "stderr": "",
      "stdout_path": "outputs\\issues_mock\\artifacts\\llvm_60569_unregistered_dependent_dialect__tosa_linalg_affine_issue_61085.stdout.mlir",
      "stderr_path": "outputs\\issues_mock\\artifacts\\llvm_60569_unregistered_dependent_dialect__tosa_linalg_affine_issue_61085.stderr.txt",
      "category": "success"
    },
    {
      "seed": "seeds\\issue_repros\\llvm_60569_unregistered_dependent_dialect.mlir",
      "pipeline": "transform_tile_reduction_issue_60210",
      "command": "mock-mlir-opt seeds\\issue_repros\\llvm_60569_unregistered_dependent_dialect.mlir --test-transform-dialect-interpreter -o -",
      "return_code": 0,
      "timed_out": false,
      "elapsed_ms": 0,
      "stdout": "// Source: https://github.com/llvm/llvm-project/issues/60569\n// Command from issue:\n// mlir-opt -allow-unregistered-dialect -test-rewrite-dynamic-op test-rewrite-dynamic-op.mlir\nfunc.func @rewrite_dynamic_op(%arg0: i32) {\n  %0:2 = \"test.dynamic_one_operand_two_results\"(%arg0) : (i32) -> (i32, i32)\n  return\n}\n",
      "stderr": "",
      "stdout_path": "outputs\\issues_mock\\artifacts\\llvm_60569_unregistered_dependent_dialect__transform_tile_reduction_issue_60210.stdout.mlir",
      "stderr_path": "outputs\\issues_mock\\artifacts\\llvm_60569_unregistered_dependent_dialect__transform_tile_reduction_issue_60210.stderr.txt",
      "category": "success"
    },
    {
      "seed": "seeds\\issue_repros\\llvm_60569_unregistered_dependent_dialect.mlir",
      "pipeline": "transform_linalg_tile_issue_113021",
      "command": "mock-mlir-opt seeds\\issue_repros\\llvm_60569_unregistered_dependent_dialect.mlir --test-transform-dialect-interpreter -o -",
      "return_code": 0,
      "timed_out": false,
      "elapsed_ms": 0,
      "stdout": "// Source: https://github.com/llvm/llvm-project/issues/60569\n// Command from issue:\n// mlir-opt -allow-unregistered-dialect -test-rewrite-dynamic-op test-rewrite-dynamic-op.mlir\nfunc.func @rewrite_dynamic_op(%arg0: i32) {\n  %0:2 = \"test.dynamic_one_operand_two_results\"(%arg0) : (i32) -> (i32, i32)\n  return\n}\n",
      "stderr": "",
      "stdout_path": "outputs\\issues_mock\\artifacts\\llvm_60569_unregistered_dependent_dialect__transform_linalg_tile_issue_113021.stdout.mlir",
      "stderr_path": "outputs\\issues_mock\\artifacts\\llvm_60569_unregistered_dependent_dialect__transform_linalg_tile_issue_113021.stderr.txt",
      "category": "success"
    },
    {
      "seed": "seeds\\issue_repros\\llvm_60569_unregistered_dependent_dialect.mlir",
      "pipeline": "vector_scatter_canonicalize_issue_168695",
      "command": "mock-mlir-opt seeds\\issue_repros\\llvm_60569_unregistered_dependent_dialect.mlir --pass-pipeline=builtin.module(func.func(canonicalize)) -o -",
      "return_code": 0,
      "timed_out": false,
      "elapsed_ms": 0,
      "stdout": "// Source: https://github.com/llvm/llvm-project/issues/60569\n// Command from issue:\n// mlir-opt -allow-unregistered-dialect -test-rewrite-dynamic-op test-rewrite-dynamic-op.mlir\nfunc.func @rewrite_dynamic_op(%arg0: i32) {\n  %0:2 = \"test.dynamic_one_operand_two_results\"(%arg0) : (i32) -> (i32, i32)\n  return\n}\n",
      "stderr": "",
      "stdout_path": "outputs\\issues_mock\\artifacts\\llvm_60569_unregistered_dependent_dialect__vector_scatter_canonicalize_issue_168695.stdout.mlir",
      "stderr_path": "outputs\\issues_mock\\artifacts\\llvm_60569_unregistered_dependent_dialect__vector_scatter_canonicalize_issue_168695.stderr.txt",
      "category": "success"
    },
    {
      "seed": "seeds\\issue_repros\\llvm_61085_tosa_linalg_affine_assert.mlir",
      "pipeline": "parse_verify",
      "command": "mock-mlir-opt seeds\\issue_repros\\llvm_61085_tosa_linalg_affine_assert.mlir  -o -",
      "return_code": 0,
      "timed_out": false,
      "elapsed_ms": 0,
      "stdout": "// Source: https://github.com/llvm/llvm-project/issues/61085\n// Expected trigger: convert-linalg-to-affine-loops assertion after TOSA/Linalg conversion.\n// Reported command:\n// mlir-opt test.mlir -pass-pipeline=\"func.func(tosa-to-arith)\" -linalg-bufferize\n//   -pass-pipeline=\"func.func(tosa-to-linalg)\" -convert-linalg-to-affine-loops\n\n#map = affine_map<(d0, d1, d2, d3) -> (d0, d1, d2, d3)>\nmodule {\n  func.func @main(%arg0: tensor<1x1xi8>, %arg1: tensor<1x1xi8>) {\n    %0 = \"tosa.bitwise_and\"(%arg0, %arg1) : (tensor<1x1xi8>, tensor<1x1xi8>) -> tensor<1x1xi8>\n    %1 = \"tosa.reshape\"(%0) {new_shape = [1, 1, 1, 1]} : (tensor<1x1xi8>) -> tensor<1x1x1x1xi8>\n    %c0_i8 = arith.constant 0 : i8\n    %2 = tensor.pad %1 low[0, 1, 1, 0] high[0, 2, 1, 0] {\n    ^bb0(%arg2: index, %arg3: index, %arg4: index, %arg5: index):\n      tensor.yield %c0_i8 : i8\n    } : tensor<1x1x1x1xi8> to tensor<1x4x3x1xi8>\n    %c0_i32 = arith.constant 0 : i32\n    %3 = linalg.init_tensor [1, 4, 1, 1] : tensor<1x4x1x1xi32>\n    %4 = linalg.fill ins(%c0_i32 : i32) outs(%3 : tensor<1x4x1x1xi32>) -> tensor<1x4x1x1xi32>\n    %5 = linalg.init_tensor [1, 2] : tensor<1x2xi32>\n    %6 = linalg.pooling_nhwc_sum\n      {dilations = dense<1> : vector<2xi64>, strides = dense<[1, 2]> : vector<2xi64>}\n      ins(%2, %5 : tensor<1x4x3x1xi8>, tensor<1x2xi32>)\n      outs(%4 : tensor<1x4x1x1xi32>) -> tensor<1x4x1x1xi32>\n    return\n  }\n}\n",
      "stderr": "",
      "stdout_path": "outputs\\issues_mock\\artifacts\\llvm_61085_tosa_linalg_affine_assert__parse_verify.stdout.mlir",
      "stderr_path": "outputs\\issues_mock\\artifacts\\llvm_61085_tosa_linalg_affine_assert__parse_verify.stderr.txt",
      "category": "success"
    },
    {
      "seed": "seeds\\issue_repros\\llvm_61085_tosa_linalg_affine_assert.mlir",
      "pipeline": "canonicalize_cse",
      "command": "mock-mlir-opt seeds\\issue_repros\\llvm_61085_tosa_linalg_affine_assert.mlir --canonicalize --cse -o -",
      "return_code": 0,
      "timed_out": false,
      "elapsed_ms": 0,
      "stdout": "// Source: https://github.com/llvm/llvm-project/issues/61085\n// Expected trigger: convert-linalg-to-affine-loops assertion after TOSA/Linalg conversion.\n// Reported command:\n// mlir-opt test.mlir -pass-pipeline=\"func.func(tosa-to-arith)\" -linalg-bufferize\n//   -pass-pipeline=\"func.func(tosa-to-linalg)\" -convert-linalg-to-affine-loops\n\n#map = affine_map<(d0, d1, d2, d3) -> (d0, d1, d2, d3)>\nmodule {\n  func.func @main(%arg0: tensor<1x1xi8>, %arg1: tensor<1x1xi8>) {\n    %0 = \"tosa.bitwise_and\"(%arg0, %arg1) : (tensor<1x1xi8>, tensor<1x1xi8>) -> tensor<1x1xi8>\n    %1 = \"tosa.reshape\"(%0) {new_shape = [1, 1, 1, 1]} : (tensor<1x1xi8>) -> tensor<1x1x1x1xi8>\n    %c0_i8 = arith.constant 0 : i8\n    %2 = tensor.pad %1 low[0, 1, 1, 0] high[0, 2, 1, 0] {\n    ^bb0(%arg2: index, %arg3: index, %arg4: index, %arg5: index):\n      tensor.yield %c0_i8 : i8\n    } : tensor<1x1x1x1xi8> to tensor<1x4x3x1xi8>\n    %c0_i32 = arith.constant 0 : i32\n    %3 = linalg.init_tensor [1, 4, 1, 1] : tensor<1x4x1x1xi32>\n    %4 = linalg.fill ins(%c0_i32 : i32) outs(%3 : tensor<1x4x1x1xi32>) -> tensor<1x4x1x1xi32>\n    %5 = linalg.init_tensor [1, 2] : tensor<1x2xi32>\n    %6 = linalg.pooling_nhwc_sum\n      {dilations = dense<1> : vector<2xi64>, strides = dense<[1, 2]> : vector<2xi64>}\n      ins(%2, %5 : tensor<1x4x3x1xi8>, tensor<1x2xi32>)\n      outs(%4 : tensor<1x4x1x1xi32>) -> tensor<1x4x1x1xi32>\n    return\n  }\n}\n",
      "stderr": "",
      "stdout_path": "outputs\\issues_mock\\artifacts\\llvm_61085_tosa_linalg_affine_assert__canonicalize_cse.stdout.mlir",
      "stderr_path": "outputs\\issues_mock\\artifacts\\llvm_61085_tosa_linalg_affine_assert__canonicalize_cse.stderr.txt",
      "category": "success"
    },
    {
      "seed": "seeds\\issue_repros\\llvm_61085_tosa_linalg_affine_assert.mlir",
      "pipeline": "convert_parallel_loops_to_gpu",
      "command": "mock-mlir-opt seeds\\issue_repros\\llvm_61085_tosa_linalg_affine_assert.mlir --convert-parallel-loops-to-gpu -o -",
      "return_code": 0,
      "timed_out": false,
      "elapsed_ms": 0,
      "stdout": "// Source: https://github.com/llvm/llvm-project/issues/61085\n// Expected trigger: convert-linalg-to-affine-loops assertion after TOSA/Linalg conversion.\n// Reported command:\n// mlir-opt test.mlir -pass-pipeline=\"func.func(tosa-to-arith)\" -linalg-bufferize\n//   -pass-pipeline=\"func.func(tosa-to-linalg)\" -convert-linalg-to-affine-loops\n\n#map = affine_map<(d0, d1, d2, d3) -> (d0, d1, d2, d3)>\nmodule {\n  func.func @main(%arg0: tensor<1x1xi8>, %arg1: tensor<1x1xi8>) {\n    %0 = \"tosa.bitwise_and\"(%arg0, %arg1) : (tensor<1x1xi8>, tensor<1x1xi8>) -> tensor<1x1xi8>\n    %1 = \"tosa.reshape\"(%0) {new_shape = [1, 1, 1, 1]} : (tensor<1x1xi8>) -> tensor<1x1x1x1xi8>\n    %c0_i8 = arith.constant 0 : i8\n    %2 = tensor.pad %1 low[0, 1, 1, 0] high[0, 2, 1, 0] {\n    ^bb0(%arg2: index, %arg3: index, %arg4: index, %arg5: index):\n      tensor.yield %c0_i8 : i8\n    } : tensor<1x1x1x1xi8> to tensor<1x4x3x1xi8>\n    %c0_i32 = arith.constant 0 : i32\n    %3 = linalg.init_tensor [1, 4, 1, 1] : tensor<1x4x1x1xi32>\n    %4 = linalg.fill ins(%c0_i32 : i32) outs(%3 : tensor<1x4x1x1xi32>) -> tensor<1x4x1x1xi32>\n    %5 = linalg.init_tensor [1, 2] : tensor<1x2xi32>\n    %6 = linalg.pooling_nhwc_sum\n      {dilations = dense<1> : vector<2xi64>, strides = dense<[1, 2]> : vector<2xi64>}\n      ins(%2, %5 : tensor<1x4x3x1xi8>, tensor<1x2xi32>)\n      outs(%4 : tensor<1x4x1x1xi32>) -> tensor<1x4x1x1xi32>\n    return\n  }\n}\n",
      "stderr": "",
      "stdout_path": "outputs\\issues_mock\\artifacts\\llvm_61085_tosa_linalg_affine_assert__convert_parallel_loops_to_gpu.stdout.mlir",
      "stderr_path": "outputs\\issues_mock\\artifacts\\llvm_61085_tosa_linalg_affine_assert__convert_parallel_loops_to_gpu.stderr.txt",
      "category": "success"
    },
    {
      "seed": "seeds\\issue_repros\\llvm_61085_tosa_linalg_affine_assert.mlir",
      "pipeline": "linalg_parallel_to_gpu_issue_82382",
      "command": "mock-mlir-opt seeds\\issue_repros\\llvm_61085_tosa_linalg_affine_assert.mlir --convert-linalg-to-affine-loops --affine-loop-tile=tile-sizes=4,28,28,16,7,7,3 --affine-loop-unroll=unroll-factor=4 --canonicalize --affine-parallelize --lower-affine --canonicalize --gpu-map-parallel-loops --convert-parallel-loops-to-gpu -o -",
      "return_code": 0,
      "timed_out": false,
      "elapsed_ms": 0,
      "stdout": "// Source: https://github.com/llvm/llvm-project/issues/61085\n// Expected trigger: convert-linalg-to-affine-loops assertion after TOSA/Linalg conversion.\n// Reported command:\n// mlir-opt test.mlir -pass-pipeline=\"func.func(tosa-to-arith)\" -linalg-bufferize\n//   -pass-pipeline=\"func.func(tosa-to-linalg)\" -convert-linalg-to-affine-loops\n\n#map = affine_map<(d0, d1, d2, d3) -> (d0, d1, d2, d3)>\nmodule {\n  func.func @main(%arg0: tensor<1x1xi8>, %arg1: tensor<1x1xi8>) {\n    %0 = \"tosa.bitwise_and\"(%arg0, %arg1) : (tensor<1x1xi8>, tensor<1x1xi8>) -> tensor<1x1xi8>\n    %1 = \"tosa.reshape\"(%0) {new_shape = [1, 1, 1, 1]} : (tensor<1x1xi8>) -> tensor<1x1x1x1xi8>\n    %c0_i8 = arith.constant 0 : i8\n    %2 = tensor.pad %1 low[0, 1, 1, 0] high[0, 2, 1, 0] {\n    ^bb0(%arg2: index, %arg3: index, %arg4: index, %arg5: index):\n      tensor.yield %c0_i8 : i8\n    } : tensor<1x1x1x1xi8> to tensor<1x4x3x1xi8>\n    %c0_i32 = arith.constant 0 : i32\n    %3 = linalg.init_tensor [1, 4, 1, 1] : tensor<1x4x1x1xi32>\n    %4 = linalg.fill ins(%c0_i32 : i32) outs(%3 : tensor<1x4x1x1xi32>) -> tensor<1x4x1x1xi32>\n    %5 = linalg.init_tensor [1, 2] : tensor<1x2xi32>\n    %6 = linalg.pooling_nhwc_sum\n      {dilations = dense<1> : vector<2xi64>, strides = dense<[1, 2]> : vector<2xi64>}\n      ins(%2, %5 : tensor<1x4x3x1xi8>, tensor<1x2xi32>)\n      outs(%4 : tensor<1x4x1x1xi32>) -> tensor<1x4x1x1xi32>\n    return\n  }\n}\n",
      "stderr": "",
      "stdout_path": "outputs\\issues_mock\\artifacts\\llvm_61085_tosa_linalg_affine_assert__linalg_parallel_to_gpu_issue_82382.stdout.mlir",
      "stderr_path": "outputs\\issues_mock\\artifacts\\llvm_61085_tosa_linalg_affine_assert__linalg_parallel_to_gpu_issue_82382.stderr.txt",
      "category": "success"
    },
    {
      "seed": "seeds\\issue_repros\\llvm_61085_tosa_linalg_affine_assert.mlir",
      "pipeline": "test_linalg_multiuse_fusion_issue_119868",
      "command": "mock-mlir-opt seeds\\issue_repros\\llvm_61085_tosa_linalg_affine_assert.mlir --test-linalg-elementwise-fusion-patterns=fuse-multiuse-producer -o -",
      "return_code": 0,
      "timed_out": false,
      "elapsed_ms": 0,
      "stdout": "// Source: https://github.com/llvm/llvm-project/issues/61085\n// Expected trigger: convert-linalg-to-affine-loops assertion after TOSA/Linalg conversion.\n// Reported command:\n// mlir-opt test.mlir -pass-pipeline=\"func.func(tosa-to-arith)\" -linalg-bufferize\n//   -pass-pipeline=\"func.func(tosa-to-linalg)\" -convert-linalg-to-affine-loops\n\n#map = affine_map<(d0, d1, d2, d3) -> (d0, d1, d2, d3)>\nmodule {\n  func.func @main(%arg0: tensor<1x1xi8>, %arg1: tensor<1x1xi8>) {\n    %0 = \"tosa.bitwise_and\"(%arg0, %arg1) : (tensor<1x1xi8>, tensor<1x1xi8>) -> tensor<1x1xi8>\n    %1 = \"tosa.reshape\"(%0) {new_shape = [1, 1, 1, 1]} : (tensor<1x1xi8>) -> tensor<1x1x1x1xi8>\n    %c0_i8 = arith.constant 0 : i8\n    %2 = tensor.pad %1 low[0, 1, 1, 0] high[0, 2, 1, 0] {\n    ^bb0(%arg2: index, %arg3: index, %arg4: index, %arg5: index):\n      tensor.yield %c0_i8 : i8\n    } : tensor<1x1x1x1xi8> to tensor<1x4x3x1xi8>\n    %c0_i32 = arith.constant 0 : i32\n    %3 = linalg.init_tensor [1, 4, 1, 1] : tensor<1x4x1x1xi32>\n    %4 = linalg.fill ins(%c0_i32 : i32) outs(%3 : tensor<1x4x1x1xi32>) -> tensor<1x4x1x1xi32>\n    %5 = linalg.init_tensor [1, 2] : tensor<1x2xi32>\n    %6 = linalg.pooling_nhwc_sum\n      {dilations = dense<1> : vector<2xi64>, strides = dense<[1, 2]> : vector<2xi64>}\n      ins(%2, %5 : tensor<1x4x3x1xi8>, tensor<1x2xi32>)\n      outs(%4 : tensor<1x4x1x1xi32>) -> tensor<1x4x1x1xi32>\n    return\n  }\n}\n",
      "stderr": "",
      "stdout_path": "outputs\\issues_mock\\artifacts\\llvm_61085_tosa_linalg_affine_assert__test_linalg_multiuse_fusion_issue_119868.stdout.mlir",
      "stderr_path": "outputs\\issues_mock\\artifacts\\llvm_61085_tosa_linalg_affine_assert__test_linalg_multiuse_fusion_issue_119868.stderr.txt",
      "category": "success"
    },
    {
      "seed": "seeds\\issue_repros\\llvm_61085_tosa_linalg_affine_assert.mlir",
      "pipeline": "test_rewrite_dynamic_op_issue_60569",
      "command": "mock-mlir-opt seeds\\issue_repros\\llvm_61085_tosa_linalg_affine_assert.mlir --allow-unregistered-dialect --test-rewrite-dynamic-op -o -",
      "return_code": 0,
      "timed_out": false,
      "elapsed_ms": 0,
      "stdout": "// Source: https://github.com/llvm/llvm-project/issues/61085\n// Expected trigger: convert-linalg-to-affine-loops assertion after TOSA/Linalg conversion.\n// Reported command:\n// mlir-opt test.mlir -pass-pipeline=\"func.func(tosa-to-arith)\" -linalg-bufferize\n//   -pass-pipeline=\"func.func(tosa-to-linalg)\" -convert-linalg-to-affine-loops\n\n#map = affine_map<(d0, d1, d2, d3) -> (d0, d1, d2, d3)>\nmodule {\n  func.func @main(%arg0: tensor<1x1xi8>, %arg1: tensor<1x1xi8>) {\n    %0 = \"tosa.bitwise_and\"(%arg0, %arg1) : (tensor<1x1xi8>, tensor<1x1xi8>) -> tensor<1x1xi8>\n    %1 = \"tosa.reshape\"(%0) {new_shape = [1, 1, 1, 1]} : (tensor<1x1xi8>) -> tensor<1x1x1x1xi8>\n    %c0_i8 = arith.constant 0 : i8\n    %2 = tensor.pad %1 low[0, 1, 1, 0] high[0, 2, 1, 0] {\n    ^bb0(%arg2: index, %arg3: index, %arg4: index, %arg5: index):\n      tensor.yield %c0_i8 : i8\n    } : tensor<1x1x1x1xi8> to tensor<1x4x3x1xi8>\n    %c0_i32 = arith.constant 0 : i32\n    %3 = linalg.init_tensor [1, 4, 1, 1] : tensor<1x4x1x1xi32>\n    %4 = linalg.fill ins(%c0_i32 : i32) outs(%3 : tensor<1x4x1x1xi32>) -> tensor<1x4x1x1xi32>\n    %5 = linalg.init_tensor [1, 2] : tensor<1x2xi32>\n    %6 = linalg.pooling_nhwc_sum\n      {dilations = dense<1> : vector<2xi64>, strides = dense<[1, 2]> : vector<2xi64>}\n      ins(%2, %5 : tensor<1x4x3x1xi8>, tensor<1x2xi32>)\n      outs(%4 : tensor<1x4x1x1xi32>) -> tensor<1x4x1x1xi32>\n    return\n  }\n}\n",
      "stderr": "",
      "stdout_path": "outputs\\issues_mock\\artifacts\\llvm_61085_tosa_linalg_affine_assert__test_rewrite_dynamic_op_issue_60569.stdout.mlir",
      "stderr_path": "outputs\\issues_mock\\artifacts\\llvm_61085_tosa_linalg_affine_assert__test_rewrite_dynamic_op_issue_60569.stderr.txt",
      "category": "success"
    },
    {
      "seed": "seeds\\issue_repros\\llvm_61085_tosa_linalg_affine_assert.mlir",
      "pipeline": "tosa_linalg_affine_issue_61085",
      "command": "mock-mlir-opt seeds\\issue_repros\\llvm_61085_tosa_linalg_affine_assert.mlir --pass-pipeline=func.func(tosa-to-arith) --linalg-bufferize --pass-pipeline=func.func(tosa-to-linalg) --convert-linalg-to-affine-loops -o -",
      "return_code": 0,
      "timed_out": false,
      "elapsed_ms": 0,
      "stdout": "// Source: https://github.com/llvm/llvm-project/issues/61085\n// Expected trigger: convert-linalg-to-affine-loops assertion after TOSA/Linalg conversion.\n// Reported command:\n// mlir-opt test.mlir -pass-pipeline=\"func.func(tosa-to-arith)\" -linalg-bufferize\n//   -pass-pipeline=\"func.func(tosa-to-linalg)\" -convert-linalg-to-affine-loops\n\n#map = affine_map<(d0, d1, d2, d3) -> (d0, d1, d2, d3)>\nmodule {\n  func.func @main(%arg0: tensor<1x1xi8>, %arg1: tensor<1x1xi8>) {\n    %0 = \"tosa.bitwise_and\"(%arg0, %arg1) : (tensor<1x1xi8>, tensor<1x1xi8>) -> tensor<1x1xi8>\n    %1 = \"tosa.reshape\"(%0) {new_shape = [1, 1, 1, 1]} : (tensor<1x1xi8>) -> tensor<1x1x1x1xi8>\n    %c0_i8 = arith.constant 0 : i8\n    %2 = tensor.pad %1 low[0, 1, 1, 0] high[0, 2, 1, 0] {\n    ^bb0(%arg2: index, %arg3: index, %arg4: index, %arg5: index):\n      tensor.yield %c0_i8 : i8\n    } : tensor<1x1x1x1xi8> to tensor<1x4x3x1xi8>\n    %c0_i32 = arith.constant 0 : i32\n    %3 = linalg.init_tensor [1, 4, 1, 1] : tensor<1x4x1x1xi32>\n    %4 = linalg.fill ins(%c0_i32 : i32) outs(%3 : tensor<1x4x1x1xi32>) -> tensor<1x4x1x1xi32>\n    %5 = linalg.init_tensor [1, 2] : tensor<1x2xi32>\n    %6 = linalg.pooling_nhwc_sum\n      {dilations = dense<1> : vector<2xi64>, strides = dense<[1, 2]> : vector<2xi64>}\n      ins(%2, %5 : tensor<1x4x3x1xi8>, tensor<1x2xi32>)\n      outs(%4 : tensor<1x4x1x1xi32>) -> tensor<1x4x1x1xi32>\n    return\n  }\n}\n",
      "stderr": "",
      "stdout_path": "outputs\\issues_mock\\artifacts\\llvm_61085_tosa_linalg_affine_assert__tosa_linalg_affine_issue_61085.stdout.mlir",
      "stderr_path": "outputs\\issues_mock\\artifacts\\llvm_61085_tosa_linalg_affine_assert__tosa_linalg_affine_issue_61085.stderr.txt",
      "category": "success"
    },
    {
      "seed": "seeds\\issue_repros\\llvm_61085_tosa_linalg_affine_assert.mlir",
      "pipeline": "transform_tile_reduction_issue_60210",
      "command": "mock-mlir-opt seeds\\issue_repros\\llvm_61085_tosa_linalg_affine_assert.mlir --test-transform-dialect-interpreter -o -",
      "return_code": 0,
      "timed_out": false,
      "elapsed_ms": 0,
      "stdout": "// Source: https://github.com/llvm/llvm-project/issues/61085\n// Expected trigger: convert-linalg-to-affine-loops assertion after TOSA/Linalg conversion.\n// Reported command:\n// mlir-opt test.mlir -pass-pipeline=\"func.func(tosa-to-arith)\" -linalg-bufferize\n//   -pass-pipeline=\"func.func(tosa-to-linalg)\" -convert-linalg-to-affine-loops\n\n#map = affine_map<(d0, d1, d2, d3) -> (d0, d1, d2, d3)>\nmodule {\n  func.func @main(%arg0: tensor<1x1xi8>, %arg1: tensor<1x1xi8>) {\n    %0 = \"tosa.bitwise_and\"(%arg0, %arg1) : (tensor<1x1xi8>, tensor<1x1xi8>) -> tensor<1x1xi8>\n    %1 = \"tosa.reshape\"(%0) {new_shape = [1, 1, 1, 1]} : (tensor<1x1xi8>) -> tensor<1x1x1x1xi8>\n    %c0_i8 = arith.constant 0 : i8\n    %2 = tensor.pad %1 low[0, 1, 1, 0] high[0, 2, 1, 0] {\n    ^bb0(%arg2: index, %arg3: index, %arg4: index, %arg5: index):\n      tensor.yield %c0_i8 : i8\n    } : tensor<1x1x1x1xi8> to tensor<1x4x3x1xi8>\n    %c0_i32 = arith.constant 0 : i32\n    %3 = linalg.init_tensor [1, 4, 1, 1] : tensor<1x4x1x1xi32>\n    %4 = linalg.fill ins(%c0_i32 : i32) outs(%3 : tensor<1x4x1x1xi32>) -> tensor<1x4x1x1xi32>\n    %5 = linalg.init_tensor [1, 2] : tensor<1x2xi32>\n    %6 = linalg.pooling_nhwc_sum\n      {dilations = dense<1> : vector<2xi64>, strides = dense<[1, 2]> : vector<2xi64>}\n      ins(%2, %5 : tensor<1x4x3x1xi8>, tensor<1x2xi32>)\n      outs(%4 : tensor<1x4x1x1xi32>) -> tensor<1x4x1x1xi32>\n    return\n  }\n}\n",
      "stderr": "",
      "stdout_path": "outputs\\issues_mock\\artifacts\\llvm_61085_tosa_linalg_affine_assert__transform_tile_reduction_issue_60210.stdout.mlir",
      "stderr_path": "outputs\\issues_mock\\artifacts\\llvm_61085_tosa_linalg_affine_assert__transform_tile_reduction_issue_60210.stderr.txt",
      "category": "success"
    },
    {
      "seed": "seeds\\issue_repros\\llvm_61085_tosa_linalg_affine_assert.mlir",
      "pipeline": "transform_linalg_tile_issue_113021",
      "command": "mock-mlir-opt seeds\\issue_repros\\llvm_61085_tosa_linalg_affine_assert.mlir --test-transform-dialect-interpreter -o -",
      "return_code": 0,
      "timed_out": false,
      "elapsed_ms": 0,
      "stdout": "// Source: https://github.com/llvm/llvm-project/issues/61085\n// Expected trigger: convert-linalg-to-affine-loops assertion after TOSA/Linalg conversion.\n// Reported command:\n// mlir-opt test.mlir -pass-pipeline=\"func.func(tosa-to-arith)\" -linalg-bufferize\n//   -pass-pipeline=\"func.func(tosa-to-linalg)\" -convert-linalg-to-affine-loops\n\n#map = affine_map<(d0, d1, d2, d3) -> (d0, d1, d2, d3)>\nmodule {\n  func.func @main(%arg0: tensor<1x1xi8>, %arg1: tensor<1x1xi8>) {\n    %0 = \"tosa.bitwise_and\"(%arg0, %arg1) : (tensor<1x1xi8>, tensor<1x1xi8>) -> tensor<1x1xi8>\n    %1 = \"tosa.reshape\"(%0) {new_shape = [1, 1, 1, 1]} : (tensor<1x1xi8>) -> tensor<1x1x1x1xi8>\n    %c0_i8 = arith.constant 0 : i8\n    %2 = tensor.pad %1 low[0, 1, 1, 0] high[0, 2, 1, 0] {\n    ^bb0(%arg2: index, %arg3: index, %arg4: index, %arg5: index):\n      tensor.yield %c0_i8 : i8\n    } : tensor<1x1x1x1xi8> to tensor<1x4x3x1xi8>\n    %c0_i32 = arith.constant 0 : i32\n    %3 = linalg.init_tensor [1, 4, 1, 1] : tensor<1x4x1x1xi32>\n    %4 = linalg.fill ins(%c0_i32 : i32) outs(%3 : tensor<1x4x1x1xi32>) -> tensor<1x4x1x1xi32>\n    %5 = linalg.init_tensor [1, 2] : tensor<1x2xi32>\n    %6 = linalg.pooling_nhwc_sum\n      {dilations = dense<1> : vector<2xi64>, strides = dense<[1, 2]> : vector<2xi64>}\n      ins(%2, %5 : tensor<1x4x3x1xi8>, tensor<1x2xi32>)\n      outs(%4 : tensor<1x4x1x1xi32>) -> tensor<1x4x1x1xi32>\n    return\n  }\n}\n",
      "stderr": "",
      "stdout_path": "outputs\\issues_mock\\artifacts\\llvm_61085_tosa_linalg_affine_assert__transform_linalg_tile_issue_113021.stdout.mlir",
      "stderr_path": "outputs\\issues_mock\\artifacts\\llvm_61085_tosa_linalg_affine_assert__transform_linalg_tile_issue_113021.stderr.txt",
      "category": "success"
    },
    {
      "seed": "seeds\\issue_repros\\llvm_61085_tosa_linalg_affine_assert.mlir",
      "pipeline": "vector_scatter_canonicalize_issue_168695",
      "command": "mock-mlir-opt seeds\\issue_repros\\llvm_61085_tosa_linalg_affine_assert.mlir --pass-pipeline=builtin.module(func.func(canonicalize)) -o -",
      "return_code": 0,
      "timed_out": false,
      "elapsed_ms": 0,
      "stdout": "// Source: https://github.com/llvm/llvm-project/issues/61085\n// Expected trigger: convert-linalg-to-affine-loops assertion after TOSA/Linalg conversion.\n// Reported command:\n// mlir-opt test.mlir -pass-pipeline=\"func.func(tosa-to-arith)\" -linalg-bufferize\n//   -pass-pipeline=\"func.func(tosa-to-linalg)\" -convert-linalg-to-affine-loops\n\n#map = affine_map<(d0, d1, d2, d3) -> (d0, d1, d2, d3)>\nmodule {\n  func.func @main(%arg0: tensor<1x1xi8>, %arg1: tensor<1x1xi8>) {\n    %0 = \"tosa.bitwise_and\"(%arg0, %arg1) : (tensor<1x1xi8>, tensor<1x1xi8>) -> tensor<1x1xi8>\n    %1 = \"tosa.reshape\"(%0) {new_shape = [1, 1, 1, 1]} : (tensor<1x1xi8>) -> tensor<1x1x1x1xi8>\n    %c0_i8 = arith.constant 0 : i8\n    %2 = tensor.pad %1 low[0, 1, 1, 0] high[0, 2, 1, 0] {\n    ^bb0(%arg2: index, %arg3: index, %arg4: index, %arg5: index):\n      tensor.yield %c0_i8 : i8\n    } : tensor<1x1x1x1xi8> to tensor<1x4x3x1xi8>\n    %c0_i32 = arith.constant 0 : i32\n    %3 = linalg.init_tensor [1, 4, 1, 1] : tensor<1x4x1x1xi32>\n    %4 = linalg.fill ins(%c0_i32 : i32) outs(%3 : tensor<1x4x1x1xi32>) -> tensor<1x4x1x1xi32>\n    %5 = linalg.init_tensor [1, 2] : tensor<1x2xi32>\n    %6 = linalg.pooling_nhwc_sum\n      {dilations = dense<1> : vector<2xi64>, strides = dense<[1, 2]> : vector<2xi64>}\n      ins(%2, %5 : tensor<1x4x3x1xi8>, tensor<1x2xi32>)\n      outs(%4 : tensor<1x4x1x1xi32>) -> tensor<1x4x1x1xi32>\n    return\n  }\n}\n",
      "stderr": "",
      "stdout_path": "outputs\\issues_mock\\artifacts\\llvm_61085_tosa_linalg_affine_assert__vector_scatter_canonicalize_issue_168695.stdout.mlir",
      "stderr_path": "outputs\\issues_mock\\artifacts\\llvm_61085_tosa_linalg_affine_assert__vector_scatter_canonicalize_issue_168695.stderr.txt",
      "category": "success"
    },
    {
      "seed": "seeds\\issue_repros\\llvm_75811_scf_parallel_to_gpu_destroyed_use.mlir",
      "pipeline": "parse_verify",
      "command": "mock-mlir-opt seeds\\issue_repros\\llvm_75811_scf_parallel_to_gpu_destroyed_use.mlir  -o -",
      "return_code": 0,
      "timed_out": false,
      "elapsed_ms": 0,
      "stdout": "// Source: https://github.com/llvm/llvm-project/issues/75811\n// Command from issue:\n// mlir-opt -convert-parallel-loops-to-gpu tmp3.mlir\nmodule {\n  func.func @main() {\n    %alloc = memref.alloc() : memref<1x1xf64>\n    %alloc_1 = memref.alloc() : memref<1x1xf64>\n    %alloc_2 = memref.alloc() : memref<1x1xf64>\n    %c0_6 = arith.constant 0 : index\n    %c1 = arith.constant 1 : index\n    %c1_7 = arith.constant 1 : index\n    scf.parallel (%arg0) = (%c0_6) to (%c1) step (%c1_7) {\n      %c0_8 = arith.constant 0 : index\n      %c1_9 = arith.constant 1 : index\n      %c1_10 = arith.constant 1 : index\n      scf.parallel (%arg1) = (%c0_8) to (%c1_9) step (%c1_10) {\n        %0 = memref.load %alloc_2[%arg0, %arg1] : memref<1x1xf64>\n        %1 = memref.load %alloc_1[%arg0, %arg1] : memref<1x1xf64>\n        %2 = arith.addf %0, %1 : f64\n        memref.store %2, %alloc[%arg0, %arg1] : memref<1x1xf64>\n        scf.yield\n      } {mapping = [#gpu.loop_dim_map<processor = thread_x, map = (d0) -> (d0), bound = (d0) -> (d0)>]}\n      scf.yield\n    } {mapping = [#gpu.loop_dim_map<processor = block_x, map = (d0) -> (d0), bound = (d0) -> (d0)>]}\n    memref.dealloc %alloc_2 : memref<1x1xf64>\n    memref.dealloc %alloc_1 : memref<1x1xf64>\n    memref.dealloc %alloc : memref<1x1xf64>\n    return\n  }\n}\n",
      "stderr": "",
      "stdout_path": "outputs\\issues_mock\\artifacts\\llvm_75811_scf_parallel_to_gpu_destroyed_use__parse_verify.stdout.mlir",
      "stderr_path": "outputs\\issues_mock\\artifacts\\llvm_75811_scf_parallel_to_gpu_destroyed_use__parse_verify.stderr.txt",
      "category": "success"
    },
    {
      "seed": "seeds\\issue_repros\\llvm_75811_scf_parallel_to_gpu_destroyed_use.mlir",
      "pipeline": "canonicalize_cse",
      "command": "mock-mlir-opt seeds\\issue_repros\\llvm_75811_scf_parallel_to_gpu_destroyed_use.mlir --canonicalize --cse -o -",
      "return_code": 0,
      "timed_out": false,
      "elapsed_ms": 0,
      "stdout": "// Source: https://github.com/llvm/llvm-project/issues/75811\n// Command from issue:\n// mlir-opt -convert-parallel-loops-to-gpu tmp3.mlir\nmodule {\n  func.func @main() {\n    %alloc = memref.alloc() : memref<1x1xf64>\n    %alloc_1 = memref.alloc() : memref<1x1xf64>\n    %alloc_2 = memref.alloc() : memref<1x1xf64>\n    %c0_6 = arith.constant 0 : index\n    %c1 = arith.constant 1 : index\n    %c1_7 = arith.constant 1 : index\n    scf.parallel (%arg0) = (%c0_6) to (%c1) step (%c1_7) {\n      %c0_8 = arith.constant 0 : index\n      %c1_9 = arith.constant 1 : index\n      %c1_10 = arith.constant 1 : index\n      scf.parallel (%arg1) = (%c0_8) to (%c1_9) step (%c1_10) {\n        %0 = memref.load %alloc_2[%arg0, %arg1] : memref<1x1xf64>\n        %1 = memref.load %alloc_1[%arg0, %arg1] : memref<1x1xf64>\n        %2 = arith.addf %0, %1 : f64\n        memref.store %2, %alloc[%arg0, %arg1] : memref<1x1xf64>\n        scf.yield\n      } {mapping = [#gpu.loop_dim_map<processor = thread_x, map = (d0) -> (d0), bound = (d0) -> (d0)>]}\n      scf.yield\n    } {mapping = [#gpu.loop_dim_map<processor = block_x, map = (d0) -> (d0), bound = (d0) -> (d0)>]}\n    memref.dealloc %alloc_2 : memref<1x1xf64>\n    memref.dealloc %alloc_1 : memref<1x1xf64>\n    memref.dealloc %alloc : memref<1x1xf64>\n    return\n  }\n}\n",
      "stderr": "",
      "stdout_path": "outputs\\issues_mock\\artifacts\\llvm_75811_scf_parallel_to_gpu_destroyed_use__canonicalize_cse.stdout.mlir",
      "stderr_path": "outputs\\issues_mock\\artifacts\\llvm_75811_scf_parallel_to_gpu_destroyed_use__canonicalize_cse.stderr.txt",
      "category": "success"
    },
    {
      "seed": "seeds\\issue_repros\\llvm_75811_scf_parallel_to_gpu_destroyed_use.mlir",
      "pipeline": "convert_parallel_loops_to_gpu",
      "command": "mock-mlir-opt seeds\\issue_repros\\llvm_75811_scf_parallel_to_gpu_destroyed_use.mlir --convert-parallel-loops-to-gpu -o -",
      "return_code": 0,
      "timed_out": false,
      "elapsed_ms": 0,
      "stdout": "// Source: https://github.com/llvm/llvm-project/issues/75811\n// Command from issue:\n// mlir-opt -convert-parallel-loops-to-gpu tmp3.mlir\nmodule {\n  func.func @main() {\n    %alloc = memref.alloc() : memref<1x1xf64>\n    %alloc_1 = memref.alloc() : memref<1x1xf64>\n    %alloc_2 = memref.alloc() : memref<1x1xf64>\n    %c0_6 = arith.constant 0 : index\n    %c1 = arith.constant 1 : index\n    %c1_7 = arith.constant 1 : index\n    scf.parallel (%arg0) = (%c0_6) to (%c1) step (%c1_7) {\n      %c0_8 = arith.constant 0 : index\n      %c1_9 = arith.constant 1 : index\n      %c1_10 = arith.constant 1 : index\n      scf.parallel (%arg1) = (%c0_8) to (%c1_9) step (%c1_10) {\n        %0 = memref.load %alloc_2[%arg0, %arg1] : memref<1x1xf64>\n        %1 = memref.load %alloc_1[%arg0, %arg1] : memref<1x1xf64>\n        %2 = arith.addf %0, %1 : f64\n        memref.store %2, %alloc[%arg0, %arg1] : memref<1x1xf64>\n        scf.yield\n      } {mapping = [#gpu.loop_dim_map<processor = thread_x, map = (d0) -> (d0), bound = (d0) -> (d0)>]}\n      scf.yield\n    } {mapping = [#gpu.loop_dim_map<processor = block_x, map = (d0) -> (d0), bound = (d0) -> (d0)>]}\n    memref.dealloc %alloc_2 : memref<1x1xf64>\n    memref.dealloc %alloc_1 : memref<1x1xf64>\n    memref.dealloc %alloc : memref<1x1xf64>\n    return\n  }\n}\n",
      "stderr": "",
      "stdout_path": "outputs\\issues_mock\\artifacts\\llvm_75811_scf_parallel_to_gpu_destroyed_use__convert_parallel_loops_to_gpu.stdout.mlir",
      "stderr_path": "outputs\\issues_mock\\artifacts\\llvm_75811_scf_parallel_to_gpu_destroyed_use__convert_parallel_loops_to_gpu.stderr.txt",
      "category": "success"
    },
    {
      "seed": "seeds\\issue_repros\\llvm_75811_scf_parallel_to_gpu_destroyed_use.mlir",
      "pipeline": "linalg_parallel_to_gpu_issue_82382",
      "command": "mock-mlir-opt seeds\\issue_repros\\llvm_75811_scf_parallel_to_gpu_destroyed_use.mlir --convert-linalg-to-affine-loops --affine-loop-tile=tile-sizes=4,28,28,16,7,7,3 --affine-loop-unroll=unroll-factor=4 --canonicalize --affine-parallelize --lower-affine --canonicalize --gpu-map-parallel-loops --convert-parallel-loops-to-gpu -o -",
      "return_code": 0,
      "timed_out": false,
      "elapsed_ms": 0,
      "stdout": "// Source: https://github.com/llvm/llvm-project/issues/75811\n// Command from issue:\n// mlir-opt -convert-parallel-loops-to-gpu tmp3.mlir\nmodule {\n  func.func @main() {\n    %alloc = memref.alloc() : memref<1x1xf64>\n    %alloc_1 = memref.alloc() : memref<1x1xf64>\n    %alloc_2 = memref.alloc() : memref<1x1xf64>\n    %c0_6 = arith.constant 0 : index\n    %c1 = arith.constant 1 : index\n    %c1_7 = arith.constant 1 : index\n    scf.parallel (%arg0) = (%c0_6) to (%c1) step (%c1_7) {\n      %c0_8 = arith.constant 0 : index\n      %c1_9 = arith.constant 1 : index\n      %c1_10 = arith.constant 1 : index\n      scf.parallel (%arg1) = (%c0_8) to (%c1_9) step (%c1_10) {\n        %0 = memref.load %alloc_2[%arg0, %arg1] : memref<1x1xf64>\n        %1 = memref.load %alloc_1[%arg0, %arg1] : memref<1x1xf64>\n        %2 = arith.addf %0, %1 : f64\n        memref.store %2, %alloc[%arg0, %arg1] : memref<1x1xf64>\n        scf.yield\n      } {mapping = [#gpu.loop_dim_map<processor = thread_x, map = (d0) -> (d0), bound = (d0) -> (d0)>]}\n      scf.yield\n    } {mapping = [#gpu.loop_dim_map<processor = block_x, map = (d0) -> (d0), bound = (d0) -> (d0)>]}\n    memref.dealloc %alloc_2 : memref<1x1xf64>\n    memref.dealloc %alloc_1 : memref<1x1xf64>\n    memref.dealloc %alloc : memref<1x1xf64>\n    return\n  }\n}\n",
      "stderr": "",
      "stdout_path": "outputs\\issues_mock\\artifacts\\llvm_75811_scf_parallel_to_gpu_destroyed_use__linalg_parallel_to_gpu_issue_82382.stdout.mlir",
      "stderr_path": "outputs\\issues_mock\\artifacts\\llvm_75811_scf_parallel_to_gpu_destroyed_use__linalg_parallel_to_gpu_issue_82382.stderr.txt",
      "category": "success"
    },
    {
      "seed": "seeds\\issue_repros\\llvm_75811_scf_parallel_to_gpu_destroyed_use.mlir",
      "pipeline": "test_linalg_multiuse_fusion_issue_119868",
      "command": "mock-mlir-opt seeds\\issue_repros\\llvm_75811_scf_parallel_to_gpu_destroyed_use.mlir --test-linalg-elementwise-fusion-patterns=fuse-multiuse-producer -o -",
      "return_code": 0,
      "timed_out": false,
      "elapsed_ms": 0,
      "stdout": "// Source: https://github.com/llvm/llvm-project/issues/75811\n// Command from issue:\n// mlir-opt -convert-parallel-loops-to-gpu tmp3.mlir\nmodule {\n  func.func @main() {\n    %alloc = memref.alloc() : memref<1x1xf64>\n    %alloc_1 = memref.alloc() : memref<1x1xf64>\n    %alloc_2 = memref.alloc() : memref<1x1xf64>\n    %c0_6 = arith.constant 0 : index\n    %c1 = arith.constant 1 : index\n    %c1_7 = arith.constant 1 : index\n    scf.parallel (%arg0) = (%c0_6) to (%c1) step (%c1_7) {\n      %c0_8 = arith.constant 0 : index\n      %c1_9 = arith.constant 1 : index\n      %c1_10 = arith.constant 1 : index\n      scf.parallel (%arg1) = (%c0_8) to (%c1_9) step (%c1_10) {\n        %0 = memref.load %alloc_2[%arg0, %arg1] : memref<1x1xf64>\n        %1 = memref.load %alloc_1[%arg0, %arg1] : memref<1x1xf64>\n        %2 = arith.addf %0, %1 : f64\n        memref.store %2, %alloc[%arg0, %arg1] : memref<1x1xf64>\n        scf.yield\n      } {mapping = [#gpu.loop_dim_map<processor = thread_x, map = (d0) -> (d0), bound = (d0) -> (d0)>]}\n      scf.yield\n    } {mapping = [#gpu.loop_dim_map<processor = block_x, map = (d0) -> (d0), bound = (d0) -> (d0)>]}\n    memref.dealloc %alloc_2 : memref<1x1xf64>\n    memref.dealloc %alloc_1 : memref<1x1xf64>\n    memref.dealloc %alloc : memref<1x1xf64>\n    return\n  }\n}\n",
      "stderr": "",
      "stdout_path": "outputs\\issues_mock\\artifacts\\llvm_75811_scf_parallel_to_gpu_destroyed_use__test_linalg_multiuse_fusion_issue_119868.stdout.mlir",
      "stderr_path": "outputs\\issues_mock\\artifacts\\llvm_75811_scf_parallel_to_gpu_destroyed_use__test_linalg_multiuse_fusion_issue_119868.stderr.txt",
      "category": "success"
    },
    {
      "seed": "seeds\\issue_repros\\llvm_75811_scf_parallel_to_gpu_destroyed_use.mlir",
      "pipeline": "test_rewrite_dynamic_op_issue_60569",
      "command": "mock-mlir-opt seeds\\issue_repros\\llvm_75811_scf_parallel_to_gpu_destroyed_use.mlir --allow-unregistered-dialect --test-rewrite-dynamic-op -o -",
      "return_code": 0,
      "timed_out": false,
      "elapsed_ms": 0,
      "stdout": "// Source: https://github.com/llvm/llvm-project/issues/75811\n// Command from issue:\n// mlir-opt -convert-parallel-loops-to-gpu tmp3.mlir\nmodule {\n  func.func @main() {\n    %alloc = memref.alloc() : memref<1x1xf64>\n    %alloc_1 = memref.alloc() : memref<1x1xf64>\n    %alloc_2 = memref.alloc() : memref<1x1xf64>\n    %c0_6 = arith.constant 0 : index\n    %c1 = arith.constant 1 : index\n    %c1_7 = arith.constant 1 : index\n    scf.parallel (%arg0) = (%c0_6) to (%c1) step (%c1_7) {\n      %c0_8 = arith.constant 0 : index\n      %c1_9 = arith.constant 1 : index\n      %c1_10 = arith.constant 1 : index\n      scf.parallel (%arg1) = (%c0_8) to (%c1_9) step (%c1_10) {\n        %0 = memref.load %alloc_2[%arg0, %arg1] : memref<1x1xf64>\n        %1 = memref.load %alloc_1[%arg0, %arg1] : memref<1x1xf64>\n        %2 = arith.addf %0, %1 : f64\n        memref.store %2, %alloc[%arg0, %arg1] : memref<1x1xf64>\n        scf.yield\n      } {mapping = [#gpu.loop_dim_map<processor = thread_x, map = (d0) -> (d0), bound = (d0) -> (d0)>]}\n      scf.yield\n    } {mapping = [#gpu.loop_dim_map<processor = block_x, map = (d0) -> (d0), bound = (d0) -> (d0)>]}\n    memref.dealloc %alloc_2 : memref<1x1xf64>\n    memref.dealloc %alloc_1 : memref<1x1xf64>\n    memref.dealloc %alloc : memref<1x1xf64>\n    return\n  }\n}\n",
      "stderr": "",
      "stdout_path": "outputs\\issues_mock\\artifacts\\llvm_75811_scf_parallel_to_gpu_destroyed_use__test_rewrite_dynamic_op_issue_60569.stdout.mlir",
      "stderr_path": "outputs\\issues_mock\\artifacts\\llvm_75811_scf_parallel_to_gpu_destroyed_use__test_rewrite_dynamic_op_issue_60569.stderr.txt",
      "category": "success"
    },
    {
      "seed": "seeds\\issue_repros\\llvm_75811_scf_parallel_to_gpu_destroyed_use.mlir",
      "pipeline": "tosa_linalg_affine_issue_61085",
      "command": "mock-mlir-opt seeds\\issue_repros\\llvm_75811_scf_parallel_to_gpu_destroyed_use.mlir --pass-pipeline=func.func(tosa-to-arith) --linalg-bufferize --pass-pipeline=func.func(tosa-to-linalg) --convert-linalg-to-affine-loops -o -",
      "return_code": 0,
      "timed_out": false,
      "elapsed_ms": 0,
      "stdout": "// Source: https://github.com/llvm/llvm-project/issues/75811\n// Command from issue:\n// mlir-opt -convert-parallel-loops-to-gpu tmp3.mlir\nmodule {\n  func.func @main() {\n    %alloc = memref.alloc() : memref<1x1xf64>\n    %alloc_1 = memref.alloc() : memref<1x1xf64>\n    %alloc_2 = memref.alloc() : memref<1x1xf64>\n    %c0_6 = arith.constant 0 : index\n    %c1 = arith.constant 1 : index\n    %c1_7 = arith.constant 1 : index\n    scf.parallel (%arg0) = (%c0_6) to (%c1) step (%c1_7) {\n      %c0_8 = arith.constant 0 : index\n      %c1_9 = arith.constant 1 : index\n      %c1_10 = arith.constant 1 : index\n      scf.parallel (%arg1) = (%c0_8) to (%c1_9) step (%c1_10) {\n        %0 = memref.load %alloc_2[%arg0, %arg1] : memref<1x1xf64>\n        %1 = memref.load %alloc_1[%arg0, %arg1] : memref<1x1xf64>\n        %2 = arith.addf %0, %1 : f64\n        memref.store %2, %alloc[%arg0, %arg1] : memref<1x1xf64>\n        scf.yield\n      } {mapping = [#gpu.loop_dim_map<processor = thread_x, map = (d0) -> (d0), bound = (d0) -> (d0)>]}\n      scf.yield\n    } {mapping = [#gpu.loop_dim_map<processor = block_x, map = (d0) -> (d0), bound = (d0) -> (d0)>]}\n    memref.dealloc %alloc_2 : memref<1x1xf64>\n    memref.dealloc %alloc_1 : memref<1x1xf64>\n    memref.dealloc %alloc : memref<1x1xf64>\n    return\n  }\n}\n",
      "stderr": "",
      "stdout_path": "outputs\\issues_mock\\artifacts\\llvm_75811_scf_parallel_to_gpu_destroyed_use__tosa_linalg_affine_issue_61085.stdout.mlir",
      "stderr_path": "outputs\\issues_mock\\artifacts\\llvm_75811_scf_parallel_to_gpu_destroyed_use__tosa_linalg_affine_issue_61085.stderr.txt",
      "category": "success"
    },
    {
      "seed": "seeds\\issue_repros\\llvm_75811_scf_parallel_to_gpu_destroyed_use.mlir",
      "pipeline": "transform_tile_reduction_issue_60210",
      "command": "mock-mlir-opt seeds\\issue_repros\\llvm_75811_scf_parallel_to_gpu_destroyed_use.mlir --test-transform-dialect-interpreter -o -",
      "return_code": 0,
      "timed_out": false,
      "elapsed_ms": 0,
      "stdout": "// Source: https://github.com/llvm/llvm-project/issues/75811\n// Command from issue:\n// mlir-opt -convert-parallel-loops-to-gpu tmp3.mlir\nmodule {\n  func.func @main() {\n    %alloc = memref.alloc() : memref<1x1xf64>\n    %alloc_1 = memref.alloc() : memref<1x1xf64>\n    %alloc_2 = memref.alloc() : memref<1x1xf64>\n    %c0_6 = arith.constant 0 : index\n    %c1 = arith.constant 1 : index\n    %c1_7 = arith.constant 1 : index\n    scf.parallel (%arg0) = (%c0_6) to (%c1) step (%c1_7) {\n      %c0_8 = arith.constant 0 : index\n      %c1_9 = arith.constant 1 : index\n      %c1_10 = arith.constant 1 : index\n      scf.parallel (%arg1) = (%c0_8) to (%c1_9) step (%c1_10) {\n        %0 = memref.load %alloc_2[%arg0, %arg1] : memref<1x1xf64>\n        %1 = memref.load %alloc_1[%arg0, %arg1] : memref<1x1xf64>\n        %2 = arith.addf %0, %1 : f64\n        memref.store %2, %alloc[%arg0, %arg1] : memref<1x1xf64>\n        scf.yield\n      } {mapping = [#gpu.loop_dim_map<processor = thread_x, map = (d0) -> (d0), bound = (d0) -> (d0)>]}\n      scf.yield\n    } {mapping = [#gpu.loop_dim_map<processor = block_x, map = (d0) -> (d0), bound = (d0) -> (d0)>]}\n    memref.dealloc %alloc_2 : memref<1x1xf64>\n    memref.dealloc %alloc_1 : memref<1x1xf64>\n    memref.dealloc %alloc : memref<1x1xf64>\n    return\n  }\n}\n",
      "stderr": "",
      "stdout_path": "outputs\\issues_mock\\artifacts\\llvm_75811_scf_parallel_to_gpu_destroyed_use__transform_tile_reduction_issue_60210.stdout.mlir",
      "stderr_path": "outputs\\issues_mock\\artifacts\\llvm_75811_scf_parallel_to_gpu_destroyed_use__transform_tile_reduction_issue_60210.stderr.txt",
      "category": "success"
    },
    {
      "seed": "seeds\\issue_repros\\llvm_75811_scf_parallel_to_gpu_destroyed_use.mlir",
      "pipeline": "transform_linalg_tile_issue_113021",
      "command": "mock-mlir-opt seeds\\issue_repros\\llvm_75811_scf_parallel_to_gpu_destroyed_use.mlir --test-transform-dialect-interpreter -o -",
      "return_code": 0,
      "timed_out": false,
      "elapsed_ms": 0,
      "stdout": "// Source: https://github.com/llvm/llvm-project/issues/75811\n// Command from issue:\n// mlir-opt -convert-parallel-loops-to-gpu tmp3.mlir\nmodule {\n  func.func @main() {\n    %alloc = memref.alloc() : memref<1x1xf64>\n    %alloc_1 = memref.alloc() : memref<1x1xf64>\n    %alloc_2 = memref.alloc() : memref<1x1xf64>\n    %c0_6 = arith.constant 0 : index\n    %c1 = arith.constant 1 : index\n    %c1_7 = arith.constant 1 : index\n    scf.parallel (%arg0) = (%c0_6) to (%c1) step (%c1_7) {\n      %c0_8 = arith.constant 0 : index\n      %c1_9 = arith.constant 1 : index\n      %c1_10 = arith.constant 1 : index\n      scf.parallel (%arg1) = (%c0_8) to (%c1_9) step (%c1_10) {\n        %0 = memref.load %alloc_2[%arg0, %arg1] : memref<1x1xf64>\n        %1 = memref.load %alloc_1[%arg0, %arg1] : memref<1x1xf64>\n        %2 = arith.addf %0, %1 : f64\n        memref.store %2, %alloc[%arg0, %arg1] : memref<1x1xf64>\n        scf.yield\n      } {mapping = [#gpu.loop_dim_map<processor = thread_x, map = (d0) -> (d0), bound = (d0) -> (d0)>]}\n      scf.yield\n    } {mapping = [#gpu.loop_dim_map<processor = block_x, map = (d0) -> (d0), bound = (d0) -> (d0)>]}\n    memref.dealloc %alloc_2 : memref<1x1xf64>\n    memref.dealloc %alloc_1 : memref<1x1xf64>\n    memref.dealloc %alloc : memref<1x1xf64>\n    return\n  }\n}\n",
      "stderr": "",
      "stdout_path": "outputs\\issues_mock\\artifacts\\llvm_75811_scf_parallel_to_gpu_destroyed_use__transform_linalg_tile_issue_113021.stdout.mlir",
      "stderr_path": "outputs\\issues_mock\\artifacts\\llvm_75811_scf_parallel_to_gpu_destroyed_use__transform_linalg_tile_issue_113021.stderr.txt",
      "category": "success"
    },
    {
      "seed": "seeds\\issue_repros\\llvm_75811_scf_parallel_to_gpu_destroyed_use.mlir",
      "pipeline": "vector_scatter_canonicalize_issue_168695",
      "command": "mock-mlir-opt seeds\\issue_repros\\llvm_75811_scf_parallel_to_gpu_destroyed_use.mlir --pass-pipeline=builtin.module(func.func(canonicalize)) -o -",
      "return_code": 0,
      "timed_out": false,
      "elapsed_ms": 0,
      "stdout": "// Source: https://github.com/llvm/llvm-project/issues/75811\n// Command from issue:\n// mlir-opt -convert-parallel-loops-to-gpu tmp3.mlir\nmodule {\n  func.func @main() {\n    %alloc = memref.alloc() : memref<1x1xf64>\n    %alloc_1 = memref.alloc() : memref<1x1xf64>\n    %alloc_2 = memref.alloc() : memref<1x1xf64>\n    %c0_6 = arith.constant 0 : index\n    %c1 = arith.constant 1 : index\n    %c1_7 = arith.constant 1 : index\n    scf.parallel (%arg0) = (%c0_6) to (%c1) step (%c1_7) {\n      %c0_8 = arith.constant 0 : index\n      %c1_9 = arith.constant 1 : index\n      %c1_10 = arith.constant 1 : index\n      scf.parallel (%arg1) = (%c0_8) to (%c1_9) step (%c1_10) {\n        %0 = memref.load %alloc_2[%arg0, %arg1] : memref<1x1xf64>\n        %1 = memref.load %alloc_1[%arg0, %arg1] : memref<1x1xf64>\n        %2 = arith.addf %0, %1 : f64\n        memref.store %2, %alloc[%arg0, %arg1] : memref<1x1xf64>\n        scf.yield\n      } {mapping = [#gpu.loop_dim_map<processor = thread_x, map = (d0) -> (d0), bound = (d0) -> (d0)>]}\n      scf.yield\n    } {mapping = [#gpu.loop_dim_map<processor = block_x, map = (d0) -> (d0), bound = (d0) -> (d0)>]}\n    memref.dealloc %alloc_2 : memref<1x1xf64>\n    memref.dealloc %alloc_1 : memref<1x1xf64>\n    memref.dealloc %alloc : memref<1x1xf64>\n    return\n  }\n}\n",
      "stderr": "",
      "stdout_path": "outputs\\issues_mock\\artifacts\\llvm_75811_scf_parallel_to_gpu_destroyed_use__vector_scatter_canonicalize_issue_168695.stdout.mlir",
      "stderr_path": "outputs\\issues_mock\\artifacts\\llvm_75811_scf_parallel_to_gpu_destroyed_use__vector_scatter_canonicalize_issue_168695.stderr.txt",
      "category": "success"
    },
    {
      "seed": "seeds\\issue_repros\\llvm_82382_linalg_parallel_loops_to_gpu_crash.mlir",
      "pipeline": "parse_verify",
      "command": "mock-mlir-opt seeds\\issue_repros\\llvm_82382_linalg_parallel_loops_to_gpu_crash.mlir  -o -",
      "return_code": 0,
      "timed_out": false,
      "elapsed_ms": 0,
      "stdout": "// Source: https://github.com/llvm/llvm-project/issues/82382\n// Command from issue:\n// mlir-opt --convert-linalg-to-affine-loops --affine-loop-tile=\"tile-sizes=4,28,28,16,7,7,3\" --affine-loop-unroll=\"unroll-factor=4\" --canonicalize --affine-parallelize --lower-affine --canonicalize --gpu-map-parallel-loops --convert-parallel-loops-to-gpu conv2d.mlir\nfunc.func @main() {\n  %in_buf = memref.alloc() : memref<16x230x230x3xf32>\n  %filter_buf = memref.alloc() : memref<64x7x7x3xf32>\n  %out_buf = memref.alloc() : memref<16x112x112x64xf32>\n  linalg.conv_2d_nhwc_fhwc {dilations = dense<1> : tensor<2xi64>, strides = dense<2> : tensor<2xi64>}\n    ins (%in_buf, %filter_buf: memref<16x230x230x3xf32>, memref<64x7x7x3xf32>)\n    outs (%out_buf: memref<16x112x112x64xf32>)\n  return\n}\n",
      "stderr": "",
      "stdout_path": "outputs\\issues_mock\\artifacts\\llvm_82382_linalg_parallel_loops_to_gpu_crash__parse_verify.stdout.mlir",
      "stderr_path": "outputs\\issues_mock\\artifacts\\llvm_82382_linalg_parallel_loops_to_gpu_crash__parse_verify.stderr.txt",
      "category": "success"
    },
    {
      "seed": "seeds\\issue_repros\\llvm_82382_linalg_parallel_loops_to_gpu_crash.mlir",
      "pipeline": "canonicalize_cse",
      "command": "mock-mlir-opt seeds\\issue_repros\\llvm_82382_linalg_parallel_loops_to_gpu_crash.mlir --canonicalize --cse -o -",
      "return_code": 0,
      "timed_out": false,
      "elapsed_ms": 0,
      "stdout": "// Source: https://github.com/llvm/llvm-project/issues/82382\n// Command from issue:\n// mlir-opt --convert-linalg-to-affine-loops --affine-loop-tile=\"tile-sizes=4,28,28,16,7,7,3\" --affine-loop-unroll=\"unroll-factor=4\" --canonicalize --affine-parallelize --lower-affine --canonicalize --gpu-map-parallel-loops --convert-parallel-loops-to-gpu conv2d.mlir\nfunc.func @main() {\n  %in_buf = memref.alloc() : memref<16x230x230x3xf32>\n  %filter_buf = memref.alloc() : memref<64x7x7x3xf32>\n  %out_buf = memref.alloc() : memref<16x112x112x64xf32>\n  linalg.conv_2d_nhwc_fhwc {dilations = dense<1> : tensor<2xi64>, strides = dense<2> : tensor<2xi64>}\n    ins (%in_buf, %filter_buf: memref<16x230x230x3xf32>, memref<64x7x7x3xf32>)\n    outs (%out_buf: memref<16x112x112x64xf32>)\n  return\n}\n",
      "stderr": "",
      "stdout_path": "outputs\\issues_mock\\artifacts\\llvm_82382_linalg_parallel_loops_to_gpu_crash__canonicalize_cse.stdout.mlir",
      "stderr_path": "outputs\\issues_mock\\artifacts\\llvm_82382_linalg_parallel_loops_to_gpu_crash__canonicalize_cse.stderr.txt",
      "category": "success"
    },
    {
      "seed": "seeds\\issue_repros\\llvm_82382_linalg_parallel_loops_to_gpu_crash.mlir",
      "pipeline": "convert_parallel_loops_to_gpu",
      "command": "mock-mlir-opt seeds\\issue_repros\\llvm_82382_linalg_parallel_loops_to_gpu_crash.mlir --convert-parallel-loops-to-gpu -o -",
      "return_code": 0,
      "timed_out": false,
      "elapsed_ms": 0,
      "stdout": "// Source: https://github.com/llvm/llvm-project/issues/82382\n// Command from issue:\n// mlir-opt --convert-linalg-to-affine-loops --affine-loop-tile=\"tile-sizes=4,28,28,16,7,7,3\" --affine-loop-unroll=\"unroll-factor=4\" --canonicalize --affine-parallelize --lower-affine --canonicalize --gpu-map-parallel-loops --convert-parallel-loops-to-gpu conv2d.mlir\nfunc.func @main() {\n  %in_buf = memref.alloc() : memref<16x230x230x3xf32>\n  %filter_buf = memref.alloc() : memref<64x7x7x3xf32>\n  %out_buf = memref.alloc() : memref<16x112x112x64xf32>\n  linalg.conv_2d_nhwc_fhwc {dilations = dense<1> : tensor<2xi64>, strides = dense<2> : tensor<2xi64>}\n    ins (%in_buf, %filter_buf: memref<16x230x230x3xf32>, memref<64x7x7x3xf32>)\n    outs (%out_buf: memref<16x112x112x64xf32>)\n  return\n}\n",
      "stderr": "",
      "stdout_path": "outputs\\issues_mock\\artifacts\\llvm_82382_linalg_parallel_loops_to_gpu_crash__convert_parallel_loops_to_gpu.stdout.mlir",
      "stderr_path": "outputs\\issues_mock\\artifacts\\llvm_82382_linalg_parallel_loops_to_gpu_crash__convert_parallel_loops_to_gpu.stderr.txt",
      "category": "success"
    },
    {
      "seed": "seeds\\issue_repros\\llvm_82382_linalg_parallel_loops_to_gpu_crash.mlir",
      "pipeline": "linalg_parallel_to_gpu_issue_82382",
      "command": "mock-mlir-opt seeds\\issue_repros\\llvm_82382_linalg_parallel_loops_to_gpu_crash.mlir --convert-linalg-to-affine-loops --affine-loop-tile=tile-sizes=4,28,28,16,7,7,3 --affine-loop-unroll=unroll-factor=4 --canonicalize --affine-parallelize --lower-affine --canonicalize --gpu-map-parallel-loops --convert-parallel-loops-to-gpu -o -",
      "return_code": 0,
      "timed_out": false,
      "elapsed_ms": 0,
      "stdout": "// Source: https://github.com/llvm/llvm-project/issues/82382\n// Command from issue:\n// mlir-opt --convert-linalg-to-affine-loops --affine-loop-tile=\"tile-sizes=4,28,28,16,7,7,3\" --affine-loop-unroll=\"unroll-factor=4\" --canonicalize --affine-parallelize --lower-affine --canonicalize --gpu-map-parallel-loops --convert-parallel-loops-to-gpu conv2d.mlir\nfunc.func @main() {\n  %in_buf = memref.alloc() : memref<16x230x230x3xf32>\n  %filter_buf = memref.alloc() : memref<64x7x7x3xf32>\n  %out_buf = memref.alloc() : memref<16x112x112x64xf32>\n  linalg.conv_2d_nhwc_fhwc {dilations = dense<1> : tensor<2xi64>, strides = dense<2> : tensor<2xi64>}\n    ins (%in_buf, %filter_buf: memref<16x230x230x3xf32>, memref<64x7x7x3xf32>)\n    outs (%out_buf: memref<16x112x112x64xf32>)\n  return\n}\n",
      "stderr": "",
      "stdout_path": "outputs\\issues_mock\\artifacts\\llvm_82382_linalg_parallel_loops_to_gpu_crash__linalg_parallel_to_gpu_issue_82382.stdout.mlir",
      "stderr_path": "outputs\\issues_mock\\artifacts\\llvm_82382_linalg_parallel_loops_to_gpu_crash__linalg_parallel_to_gpu_issue_82382.stderr.txt",
      "category": "success"
    },
    {
      "seed": "seeds\\issue_repros\\llvm_82382_linalg_parallel_loops_to_gpu_crash.mlir",
      "pipeline": "test_linalg_multiuse_fusion_issue_119868",
      "command": "mock-mlir-opt seeds\\issue_repros\\llvm_82382_linalg_parallel_loops_to_gpu_crash.mlir --test-linalg-elementwise-fusion-patterns=fuse-multiuse-producer -o -",
      "return_code": 0,
      "timed_out": false,
      "elapsed_ms": 0,
      "stdout": "// Source: https://github.com/llvm/llvm-project/issues/82382\n// Command from issue:\n// mlir-opt --convert-linalg-to-affine-loops --affine-loop-tile=\"tile-sizes=4,28,28,16,7,7,3\" --affine-loop-unroll=\"unroll-factor=4\" --canonicalize --affine-parallelize --lower-affine --canonicalize --gpu-map-parallel-loops --convert-parallel-loops-to-gpu conv2d.mlir\nfunc.func @main() {\n  %in_buf = memref.alloc() : memref<16x230x230x3xf32>\n  %filter_buf = memref.alloc() : memref<64x7x7x3xf32>\n  %out_buf = memref.alloc() : memref<16x112x112x64xf32>\n  linalg.conv_2d_nhwc_fhwc {dilations = dense<1> : tensor<2xi64>, strides = dense<2> : tensor<2xi64>}\n    ins (%in_buf, %filter_buf: memref<16x230x230x3xf32>, memref<64x7x7x3xf32>)\n    outs (%out_buf: memref<16x112x112x64xf32>)\n  return\n}\n",
      "stderr": "",
      "stdout_path": "outputs\\issues_mock\\artifacts\\llvm_82382_linalg_parallel_loops_to_gpu_crash__test_linalg_multiuse_fusion_issue_119868.stdout.mlir",
      "stderr_path": "outputs\\issues_mock\\artifacts\\llvm_82382_linalg_parallel_loops_to_gpu_crash__test_linalg_multiuse_fusion_issue_119868.stderr.txt",
      "category": "success"
    },
    {
      "seed": "seeds\\issue_repros\\llvm_82382_linalg_parallel_loops_to_gpu_crash.mlir",
      "pipeline": "test_rewrite_dynamic_op_issue_60569",
      "command": "mock-mlir-opt seeds\\issue_repros\\llvm_82382_linalg_parallel_loops_to_gpu_crash.mlir --allow-unregistered-dialect --test-rewrite-dynamic-op -o -",
      "return_code": 0,
      "timed_out": false,
      "elapsed_ms": 0,
      "stdout": "// Source: https://github.com/llvm/llvm-project/issues/82382\n// Command from issue:\n// mlir-opt --convert-linalg-to-affine-loops --affine-loop-tile=\"tile-sizes=4,28,28,16,7,7,3\" --affine-loop-unroll=\"unroll-factor=4\" --canonicalize --affine-parallelize --lower-affine --canonicalize --gpu-map-parallel-loops --convert-parallel-loops-to-gpu conv2d.mlir\nfunc.func @main() {\n  %in_buf = memref.alloc() : memref<16x230x230x3xf32>\n  %filter_buf = memref.alloc() : memref<64x7x7x3xf32>\n  %out_buf = memref.alloc() : memref<16x112x112x64xf32>\n  linalg.conv_2d_nhwc_fhwc {dilations = dense<1> : tensor<2xi64>, strides = dense<2> : tensor<2xi64>}\n    ins (%in_buf, %filter_buf: memref<16x230x230x3xf32>, memref<64x7x7x3xf32>)\n    outs (%out_buf: memref<16x112x112x64xf32>)\n  return\n}\n",
      "stderr": "",
      "stdout_path": "outputs\\issues_mock\\artifacts\\llvm_82382_linalg_parallel_loops_to_gpu_crash__test_rewrite_dynamic_op_issue_60569.stdout.mlir",
      "stderr_path": "outputs\\issues_mock\\artifacts\\llvm_82382_linalg_parallel_loops_to_gpu_crash__test_rewrite_dynamic_op_issue_60569.stderr.txt",
      "category": "success"
    },
    {
      "seed": "seeds\\issue_repros\\llvm_82382_linalg_parallel_loops_to_gpu_crash.mlir",
      "pipeline": "tosa_linalg_affine_issue_61085",
      "command": "mock-mlir-opt seeds\\issue_repros\\llvm_82382_linalg_parallel_loops_to_gpu_crash.mlir --pass-pipeline=func.func(tosa-to-arith) --linalg-bufferize --pass-pipeline=func.func(tosa-to-linalg) --convert-linalg-to-affine-loops -o -",
      "return_code": 0,
      "timed_out": false,
      "elapsed_ms": 0,
      "stdout": "// Source: https://github.com/llvm/llvm-project/issues/82382\n// Command from issue:\n// mlir-opt --convert-linalg-to-affine-loops --affine-loop-tile=\"tile-sizes=4,28,28,16,7,7,3\" --affine-loop-unroll=\"unroll-factor=4\" --canonicalize --affine-parallelize --lower-affine --canonicalize --gpu-map-parallel-loops --convert-parallel-loops-to-gpu conv2d.mlir\nfunc.func @main() {\n  %in_buf = memref.alloc() : memref<16x230x230x3xf32>\n  %filter_buf = memref.alloc() : memref<64x7x7x3xf32>\n  %out_buf = memref.alloc() : memref<16x112x112x64xf32>\n  linalg.conv_2d_nhwc_fhwc {dilations = dense<1> : tensor<2xi64>, strides = dense<2> : tensor<2xi64>}\n    ins (%in_buf, %filter_buf: memref<16x230x230x3xf32>, memref<64x7x7x3xf32>)\n    outs (%out_buf: memref<16x112x112x64xf32>)\n  return\n}\n",
      "stderr": "",
      "stdout_path": "outputs\\issues_mock\\artifacts\\llvm_82382_linalg_parallel_loops_to_gpu_crash__tosa_linalg_affine_issue_61085.stdout.mlir",
      "stderr_path": "outputs\\issues_mock\\artifacts\\llvm_82382_linalg_parallel_loops_to_gpu_crash__tosa_linalg_affine_issue_61085.stderr.txt",
      "category": "success"
    },
    {
      "seed": "seeds\\issue_repros\\llvm_82382_linalg_parallel_loops_to_gpu_crash.mlir",
      "pipeline": "transform_tile_reduction_issue_60210",
      "command": "mock-mlir-opt seeds\\issue_repros\\llvm_82382_linalg_parallel_loops_to_gpu_crash.mlir --test-transform-dialect-interpreter -o -",
      "return_code": 0,
      "timed_out": false,
      "elapsed_ms": 0,
      "stdout": "// Source: https://github.com/llvm/llvm-project/issues/82382\n// Command from issue:\n// mlir-opt --convert-linalg-to-affine-loops --affine-loop-tile=\"tile-sizes=4,28,28,16,7,7,3\" --affine-loop-unroll=\"unroll-factor=4\" --canonicalize --affine-parallelize --lower-affine --canonicalize --gpu-map-parallel-loops --convert-parallel-loops-to-gpu conv2d.mlir\nfunc.func @main() {\n  %in_buf = memref.alloc() : memref<16x230x230x3xf32>\n  %filter_buf = memref.alloc() : memref<64x7x7x3xf32>\n  %out_buf = memref.alloc() : memref<16x112x112x64xf32>\n  linalg.conv_2d_nhwc_fhwc {dilations = dense<1> : tensor<2xi64>, strides = dense<2> : tensor<2xi64>}\n    ins (%in_buf, %filter_buf: memref<16x230x230x3xf32>, memref<64x7x7x3xf32>)\n    outs (%out_buf: memref<16x112x112x64xf32>)\n  return\n}\n",
      "stderr": "",
      "stdout_path": "outputs\\issues_mock\\artifacts\\llvm_82382_linalg_parallel_loops_to_gpu_crash__transform_tile_reduction_issue_60210.stdout.mlir",
      "stderr_path": "outputs\\issues_mock\\artifacts\\llvm_82382_linalg_parallel_loops_to_gpu_crash__transform_tile_reduction_issue_60210.stderr.txt",
      "category": "success"
    },
    {
      "seed": "seeds\\issue_repros\\llvm_82382_linalg_parallel_loops_to_gpu_crash.mlir",
      "pipeline": "transform_linalg_tile_issue_113021",
      "command": "mock-mlir-opt seeds\\issue_repros\\llvm_82382_linalg_parallel_loops_to_gpu_crash.mlir --test-transform-dialect-interpreter -o -",
      "return_code": 0,
      "timed_out": false,
      "elapsed_ms": 0,
      "stdout": "// Source: https://github.com/llvm/llvm-project/issues/82382\n// Command from issue:\n// mlir-opt --convert-linalg-to-affine-loops --affine-loop-tile=\"tile-sizes=4,28,28,16,7,7,3\" --affine-loop-unroll=\"unroll-factor=4\" --canonicalize --affine-parallelize --lower-affine --canonicalize --gpu-map-parallel-loops --convert-parallel-loops-to-gpu conv2d.mlir\nfunc.func @main() {\n  %in_buf = memref.alloc() : memref<16x230x230x3xf32>\n  %filter_buf = memref.alloc() : memref<64x7x7x3xf32>\n  %out_buf = memref.alloc() : memref<16x112x112x64xf32>\n  linalg.conv_2d_nhwc_fhwc {dilations = dense<1> : tensor<2xi64>, strides = dense<2> : tensor<2xi64>}\n    ins (%in_buf, %filter_buf: memref<16x230x230x3xf32>, memref<64x7x7x3xf32>)\n    outs (%out_buf: memref<16x112x112x64xf32>)\n  return\n}\n",
      "stderr": "",
      "stdout_path": "outputs\\issues_mock\\artifacts\\llvm_82382_linalg_parallel_loops_to_gpu_crash__transform_linalg_tile_issue_113021.stdout.mlir",
      "stderr_path": "outputs\\issues_mock\\artifacts\\llvm_82382_linalg_parallel_loops_to_gpu_crash__transform_linalg_tile_issue_113021.stderr.txt",
      "category": "success"
    },
    {
      "seed": "seeds\\issue_repros\\llvm_82382_linalg_parallel_loops_to_gpu_crash.mlir",
      "pipeline": "vector_scatter_canonicalize_issue_168695",
      "command": "mock-mlir-opt seeds\\issue_repros\\llvm_82382_linalg_parallel_loops_to_gpu_crash.mlir --pass-pipeline=builtin.module(func.func(canonicalize)) -o -",
      "return_code": 0,
      "timed_out": false,
      "elapsed_ms": 0,
      "stdout": "// Source: https://github.com/llvm/llvm-project/issues/82382\n// Command from issue:\n// mlir-opt --convert-linalg-to-affine-loops --affine-loop-tile=\"tile-sizes=4,28,28,16,7,7,3\" --affine-loop-unroll=\"unroll-factor=4\" --canonicalize --affine-parallelize --lower-affine --canonicalize --gpu-map-parallel-loops --convert-parallel-loops-to-gpu conv2d.mlir\nfunc.func @main() {\n  %in_buf = memref.alloc() : memref<16x230x230x3xf32>\n  %filter_buf = memref.alloc() : memref<64x7x7x3xf32>\n  %out_buf = memref.alloc() : memref<16x112x112x64xf32>\n  linalg.conv_2d_nhwc_fhwc {dilations = dense<1> : tensor<2xi64>, strides = dense<2> : tensor<2xi64>}\n    ins (%in_buf, %filter_buf: memref<16x230x230x3xf32>, memref<64x7x7x3xf32>)\n    outs (%out_buf: memref<16x112x112x64xf32>)\n  return\n}\n",
      "stderr": "",
      "stdout_path": "outputs\\issues_mock\\artifacts\\llvm_82382_linalg_parallel_loops_to_gpu_crash__vector_scatter_canonicalize_issue_168695.stdout.mlir",
      "stderr_path": "outputs\\issues_mock\\artifacts\\llvm_82382_linalg_parallel_loops_to_gpu_crash__vector_scatter_canonicalize_issue_168695.stderr.txt",
      "category": "success"
    }
  ],
  "issues": [],
  "summary": {
    "run_categories": {
      "success": 90
    },
    "issue_severities": {},
    "issue_kinds": {},
    "failure_clusters": [],
    "invariant_findings": [],
    "invariant_kinds": {}
  }
}