{
  "seeds": [
    "seeds\\real_official_main23_functions_focus60\\conversion_memreftollvm_memref_to_llvm_mlir__fn_000.mlir",
    "seeds\\real_official_main23_functions_focus60\\conversion_memreftollvm_memref_to_llvm_mlir__fn_001.mlir",
    "seeds\\real_official_main23_functions_focus60\\conversion_memreftollvm_memref_to_llvm_mlir__fn_002.mlir",
    "seeds\\real_official_main23_functions_focus60\\conversion_memreftollvm_memref_to_llvm_mlir__fn_003.mlir",
    "seeds\\real_official_main23_functions_focus60\\conversion_memreftollvm_memref_to_llvm_mlir__fn_004.mlir",
    "seeds\\real_official_main23_functions_focus60\\conversion_memreftollvm_memref_to_llvm_mlir__fn_005.mlir",
    "seeds\\real_official_main23_functions_focus60\\conversion_memreftollvm_memref_to_llvm_mlir__fn_006.mlir",
    "seeds\\real_official_main23_functions_focus60\\conversion_memreftollvm_memref_to_llvm_mlir__fn_007.mlir",
    "seeds\\real_official_main23_functions_focus60\\conversion_memreftollvm_memref_to_llvm_mlir__fn_008.mlir",
    "seeds\\real_official_main23_functions_focus60\\conversion_memreftollvm_memref_to_llvm_mlir__fn_009.mlir",
    "seeds\\real_official_main23_functions_focus60\\conversion_memreftollvm_memref_to_llvm_mlir__fn_010.mlir",
    "seeds\\real_official_main23_functions_focus60\\conversion_memreftollvm_memref_to_llvm_mlir__fn_011.mlir",
    "seeds\\real_official_main23_functions_focus60\\conversion_memreftollvm_memref_to_llvm_mlir__fn_012.mlir",
    "seeds\\real_official_main23_functions_focus60\\conversion_memreftollvm_memref_to_llvm_mlir__fn_013.mlir",
    "seeds\\real_official_main23_functions_focus60\\conversion_memreftollvm_memref_to_llvm_mlir__fn_014.mlir",
    "seeds\\real_official_main23_functions_focus60\\conversion_memreftollvm_memref_to_llvm_mlir__fn_015.mlir",
    "seeds\\real_official_main23_functions_focus60\\conversion_memreftollvm_memref_to_llvm_mlir__fn_016.mlir",
    "seeds\\real_official_main23_functions_focus60\\conversion_memreftollvm_memref_to_llvm_mlir__fn_017.mlir",
    "seeds\\real_official_main23_functions_focus60\\conversion_memreftollvm_memref_to_llvm_mlir__fn_018.mlir",
    "seeds\\real_official_main23_functions_focus60\\conversion_memreftollvm_memref_to_llvm_mlir__fn_019.mlir",
    "seeds\\real_official_main23_functions_focus60\\conversion_memreftollvm_memref_to_llvm_mlir__fn_020.mlir",
    "seeds\\real_official_main23_functions_focus60\\conversion_memreftollvm_memref_to_llvm_mlir__fn_021.mlir",
    "seeds\\real_official_main23_functions_focus60\\conversion_memreftollvm_memref_to_llvm_mlir__fn_022.mlir",
    "seeds\\real_official_main23_functions_focus60\\conversion_memreftollvm_memref_to_llvm_mlir__fn_023.mlir",
    "seeds\\real_official_main23_functions_focus60\\conversion_memreftollvm_memref_to_llvm_mlir__fn_024.mlir",
    "seeds\\real_official_main23_functions_focus60\\conversion_memreftollvm_memref_to_llvm_mlir__fn_025.mlir",
    "seeds\\real_official_main23_functions_focus60\\conversion_memreftollvm_memref_to_llvm_mlir__fn_026.mlir",
    "seeds\\real_official_main23_functions_focus60\\conversion_memreftollvm_memref_to_llvm_mlir__fn_027.mlir",
    "seeds\\real_official_main23_functions_focus60\\conversion_memreftollvm_memref_to_llvm_mlir__fn_028.mlir",
    "seeds\\real_official_main23_functions_focus60\\conversion_memreftollvm_memref_to_llvm_mlir__fn_029.mlir",
    "seeds\\real_official_main23_functions_focus60\\conversion_memreftollvm_memref_to_llvm_mlir__fn_030.mlir",
    "seeds\\real_official_main23_functions_focus60\\conversion_memreftollvm_memref_to_llvm_mlir__fn_031.mlir",
    "seeds\\real_official_main23_functions_focus60\\conversion_memreftollvm_memref_to_llvm_mlir__fn_032.mlir",
    "seeds\\real_official_main23_functions_focus60\\conversion_memreftollvm_memref_to_llvm_mlir__fn_033.mlir",
    "seeds\\real_official_main23_functions_focus60\\conversion_memreftollvm_memref_to_llvm_mlir__fn_034.mlir",
    "seeds\\real_official_main23_functions_focus60\\conversion_memreftollvm_memref_to_llvm_mlir__fn_035.mlir",
    "seeds\\real_official_main23_functions_focus60\\conversion_memreftollvm_memref_to_llvm_mlir__fn_036.mlir",
    "seeds\\real_official_main23_functions_focus60\\conversion_tosatolinalg_tosa_to_linalg_mlir__fn_000.mlir",
    "seeds\\real_official_main23_functions_focus60\\conversion_tosatolinalg_tosa_to_linalg_mlir__fn_001.mlir",
    "seeds\\real_official_main23_functions_focus60\\conversion_tosatolinalg_tosa_to_linalg_mlir__fn_002.mlir",
    "seeds\\real_official_main23_functions_focus60\\conversion_tosatolinalg_tosa_to_linalg_mlir__fn_003.mlir",
    "seeds\\real_official_main23_functions_focus60\\conversion_tosatolinalg_tosa_to_linalg_mlir__fn_004.mlir",
    "seeds\\real_official_main23_functions_focus60\\conversion_tosatolinalg_tosa_to_linalg_mlir__fn_005.mlir",
    "seeds\\real_official_main23_functions_focus60\\conversion_tosatolinalg_tosa_to_linalg_mlir__fn_006.mlir",
    "seeds\\real_official_main23_functions_focus60\\conversion_tosatolinalg_tosa_to_linalg_mlir__fn_007.mlir",
    "seeds\\real_official_main23_functions_focus60\\conversion_tosatolinalg_tosa_to_linalg_mlir__fn_008.mlir",
    "seeds\\real_official_main23_functions_focus60\\conversion_tosatolinalg_tosa_to_linalg_mlir__fn_009.mlir",
    "seeds\\real_official_main23_functions_focus60\\conversion_tosatolinalg_tosa_to_linalg_mlir__fn_010.mlir",
    "seeds\\real_official_main23_functions_focus60\\conversion_tosatolinalg_tosa_to_linalg_mlir__fn_011.mlir",
    "seeds\\real_official_main23_functions_focus60\\conversion_tosatolinalg_tosa_to_linalg_mlir__fn_012.mlir",
    "seeds\\real_official_main23_functions_focus60\\conversion_tosatolinalg_tosa_to_linalg_mlir__fn_013.mlir",
    "seeds\\real_official_main23_functions_focus60\\conversion_tosatolinalg_tosa_to_linalg_mlir__fn_014.mlir",
    "seeds\\real_official_main23_functions_focus60\\conversion_tosatolinalg_tosa_to_linalg_mlir__fn_015.mlir",
    "seeds\\real_official_main23_functions_focus60\\conversion_tosatolinalg_tosa_to_linalg_mlir__fn_016.mlir",
    "seeds\\real_official_main23_functions_focus60\\conversion_tosatolinalg_tosa_to_linalg_mlir__fn_017.mlir",
    "seeds\\real_official_main23_functions_focus60\\conversion_tosatolinalg_tosa_to_linalg_mlir__fn_018.mlir",
    "seeds\\real_official_main23_functions_focus60\\conversion_tosatolinalg_tosa_to_linalg_mlir__fn_019.mlir",
    "seeds\\real_official_main23_functions_focus60\\conversion_tosatolinalg_tosa_to_linalg_mlir__fn_020.mlir",
    "seeds\\real_official_main23_functions_focus60\\conversion_tosatolinalg_tosa_to_linalg_mlir__fn_021.mlir",
    "seeds\\real_official_main23_functions_focus60\\conversion_tosatolinalg_tosa_to_linalg_mlir__fn_022.mlir"
  ],
  "pipelines": [
    "parse_verify",
    "canonicalize_convergence_probe",
    "memref_alias_metadata",
    "memref_llvm_lowering",
    "vector_reduction_lowering",
    "vector_to_scf_llvm",
    "tensor_linalg_loop_lowering",
    "linalg_parallel_gpu",
    "bufferization_deallocation",
    "shape_reify_resolve",
    "sparse_lowering_probe"
  ],
  "runs": [
    {
      "seed": "seeds\\real_official_main23_functions_focus60\\conversion_memreftollvm_memref_to_llvm_mlir__fn_000.mlir",
      "pipeline": "parse_verify",
      "command": "C:\\Users\\lenovo\\.cache\\codex-runtimes\\codex-primary-runtime\\dependencies\\python\\python.exe scripts\\ssh_mlir_opt.py  -o - < seeds\\real_official_main23_functions_focus60\\conversion_memreftollvm_memref_to_llvm_mlir__fn_000.mlir",
      "return_code": 0,
      "timed_out": false,
      "elapsed_ms": 871,
      "stdout": "module {\n  func.func @view(%arg0: index, %arg1: index, %arg2: index) {\n    %alloc = memref.alloc() : memref<2048xi8>\n    %view = memref.view %alloc[%arg2][%arg0, %arg1] : memref<2048xi8> to memref<?x?xf32>\n    %view_0 = memref.view %alloc[%arg2][%arg1] : memref<2048xi8> to memref<4x?xf32>\n    %view_1 = memref.view %alloc[%arg2][] : memref<2048xi8> to memref<64x4xf32>\n    %alloc_2 = memref.alloc() : memref<2048xi8, 4>\n    %view_3 = memref.view %alloc_2[%arg2][] : memref<2048xi8, 4> to memref<64x4xf32, 4>\n    return\n  }\n}\n\n",
      "stderr": "",
      "stdout_path": "outputs\\aggressive_mlir23_function_focus60\\artifacts\\conversion_memreftollvm_memref_to_llvm_mlir__fn_000__parse_verify.stdout.mlir",
      "stderr_path": "outputs\\aggressive_mlir23_function_focus60\\artifacts\\conversion_memreftollvm_memref_to_llvm_mlir__fn_000__parse_verify.stderr.txt",
      "category": "success"
    },
    {
      "seed": "seeds\\real_official_main23_functions_focus60\\conversion_memreftollvm_memref_to_llvm_mlir__fn_000.mlir",
      "pipeline": "canonicalize_convergence_probe",
      "command": "C:\\Users\\lenovo\\.cache\\codex-runtimes\\codex-primary-runtime\\dependencies\\python\\python.exe scripts\\ssh_mlir_opt.py --canonicalize --cse --sccp --canonicalize -o - < seeds\\real_official_main23_functions_focus60\\conversion_memreftollvm_memref_to_llvm_mlir__fn_000.mlir",
      "return_code": 0,
      "timed_out": false,
      "elapsed_ms": 930,
      "stdout": "module {\n  func.func @view(%arg0: index, %arg1: index, %arg2: index) {\n    return\n  }\n}\n\n",
      "stderr": "",
      "stdout_path": "outputs\\aggressive_mlir23_function_focus60\\artifacts\\conversion_memreftollvm_memref_to_llvm_mlir__fn_000__canonicalize_convergence_probe.stdout.mlir",
      "stderr_path": "outputs\\aggressive_mlir23_function_focus60\\artifacts\\conversion_memreftollvm_memref_to_llvm_mlir__fn_000__canonicalize_convergence_probe.stderr.txt",
      "category": "success"
    },
    {
      "seed": "seeds\\real_official_main23_functions_focus60\\conversion_memreftollvm_memref_to_llvm_mlir__fn_000.mlir",
      "pipeline": "memref_alias_metadata",
      "command": "C:\\Users\\lenovo\\.cache\\codex-runtimes\\codex-primary-runtime\\dependencies\\python\\python.exe scripts\\ssh_mlir_opt.py --fold-memref-alias-ops --expand-strided-metadata --canonicalize --cse -o - < seeds\\real_official_main23_functions_focus60\\conversion_memreftollvm_memref_to_llvm_mlir__fn_000.mlir",
      "return_code": 0,
      "timed_out": false,
      "elapsed_ms": 867,
      "stdout": "module {\n  func.func @view(%arg0: index, %arg1: index, %arg2: index) {\n    return\n  }\n}\n\n",
      "stderr": "",
      "stdout_path": "outputs\\aggressive_mlir23_function_focus60\\artifacts\\conversion_memreftollvm_memref_to_llvm_mlir__fn_000__memref_alias_metadata.stdout.mlir",
      "stderr_path": "outputs\\aggressive_mlir23_function_focus60\\artifacts\\conversion_memreftollvm_memref_to_llvm_mlir__fn_000__memref_alias_metadata.stderr.txt",
      "category": "success"
    },
    {
      "seed": "seeds\\real_official_main23_functions_focus60\\conversion_memreftollvm_memref_to_llvm_mlir__fn_000.mlir",
      "pipeline": "memref_llvm_lowering",
      "command": "C:\\Users\\lenovo\\.cache\\codex-runtimes\\codex-primary-runtime\\dependencies\\python\\python.exe scripts\\ssh_mlir_opt.py --expand-strided-metadata --memref-expand --normalize-memrefs --finalize-memref-to-llvm --canonicalize -o - < seeds\\real_official_main23_functions_focus60\\conversion_memreftollvm_memref_to_llvm_mlir__fn_000.mlir",
      "return_code": 0,
      "timed_out": false,
      "elapsed_ms": 871,
      "stdout": "module {\n  func.func @view(%arg0: index, %arg1: index, %arg2: index) {\n    return\n  }\n}\n\n",
      "stderr": "",
      "stdout_path": "outputs\\aggressive_mlir23_function_focus60\\artifacts\\conversion_memreftollvm_memref_to_llvm_mlir__fn_000__memref_llvm_lowering.stdout.mlir",
      "stderr_path": "outputs\\aggressive_mlir23_function_focus60\\artifacts\\conversion_memreftollvm_memref_to_llvm_mlir__fn_000__memref_llvm_lowering.stderr.txt",
      "category": "success"
    },
    {
      "seed": "seeds\\real_official_main23_functions_focus60\\conversion_memreftollvm_memref_to_llvm_mlir__fn_000.mlir",
      "pipeline": "vector_reduction_lowering",
      "command": "C:\\Users\\lenovo\\.cache\\codex-runtimes\\codex-primary-runtime\\dependencies\\python\\python.exe scripts\\ssh_mlir_opt.py --lower-vector-multi-reduction --lower-vector-mask --canonicalize --cse -o - < seeds\\real_official_main23_functions_focus60\\conversion_memreftollvm_memref_to_llvm_mlir__fn_000.mlir",
      "return_code": 0,
      "timed_out": false,
      "elapsed_ms": 922,
      "stdout": "module {\n  func.func @view(%arg0: index, %arg1: index, %arg2: index) {\n    return\n  }\n}\n\n",
      "stderr": "",
      "stdout_path": "outputs\\aggressive_mlir23_function_focus60\\artifacts\\conversion_memreftollvm_memref_to_llvm_mlir__fn_000__vector_reduction_lowering.stdout.mlir",
      "stderr_path": "outputs\\aggressive_mlir23_function_focus60\\artifacts\\conversion_memreftollvm_memref_to_llvm_mlir__fn_000__vector_reduction_lowering.stderr.txt",
      "category": "success"
    },
    {
      "seed": "seeds\\real_official_main23_functions_focus60\\conversion_memreftollvm_memref_to_llvm_mlir__fn_000.mlir",
      "pipeline": "vector_to_scf_llvm",
      "command": "C:\\Users\\lenovo\\.cache\\codex-runtimes\\codex-primary-runtime\\dependencies\\python\\python.exe scripts\\ssh_mlir_opt.py --convert-vector-to-scf --convert-vector-to-llvm --canonicalize -o - < seeds\\real_official_main23_functions_focus60\\conversion_memreftollvm_memref_to_llvm_mlir__fn_000.mlir",
      "return_code": 0,
      "timed_out": false,
      "elapsed_ms": 772,
      "stdout": "module {\n  func.func @view(%arg0: index, %arg1: index, %arg2: index) {\n    return\n  }\n}\n\n",
      "stderr": "",
      "stdout_path": "outputs\\aggressive_mlir23_function_focus60\\artifacts\\conversion_memreftollvm_memref_to_llvm_mlir__fn_000__vector_to_scf_llvm.stdout.mlir",
      "stderr_path": "outputs\\aggressive_mlir23_function_focus60\\artifacts\\conversion_memreftollvm_memref_to_llvm_mlir__fn_000__vector_to_scf_llvm.stderr.txt",
      "category": "success"
    },
    {
      "seed": "seeds\\real_official_main23_functions_focus60\\conversion_memreftollvm_memref_to_llvm_mlir__fn_000.mlir",
      "pipeline": "tensor_linalg_loop_lowering",
      "command": "C:\\Users\\lenovo\\.cache\\codex-runtimes\\codex-primary-runtime\\dependencies\\python\\python.exe scripts\\ssh_mlir_opt.py --convert-tensor-to-linalg --convert-linalg-to-loops --canonicalize --cse -o - < seeds\\real_official_main23_functions_focus60\\conversion_memreftollvm_memref_to_llvm_mlir__fn_000.mlir",
      "return_code": 0,
      "timed_out": false,
      "elapsed_ms": 933,
      "stdout": "module {\n  func.func @view(%arg0: index, %arg1: index, %arg2: index) {\n    return\n  }\n}\n\n",
      "stderr": "",
      "stdout_path": "outputs\\aggressive_mlir23_function_focus60\\artifacts\\conversion_memreftollvm_memref_to_llvm_mlir__fn_000__tensor_linalg_loop_lowering.stdout.mlir",
      "stderr_path": "outputs\\aggressive_mlir23_function_focus60\\artifacts\\conversion_memreftollvm_memref_to_llvm_mlir__fn_000__tensor_linalg_loop_lowering.stderr.txt",
      "category": "success"
    },
    {
      "seed": "seeds\\real_official_main23_functions_focus60\\conversion_memreftollvm_memref_to_llvm_mlir__fn_000.mlir",
      "pipeline": "linalg_parallel_gpu",
      "command": "C:\\Users\\lenovo\\.cache\\codex-runtimes\\codex-primary-runtime\\dependencies\\python\\python.exe scripts\\ssh_mlir_opt.py --convert-linalg-to-parallel-loops --canonicalize --convert-parallel-loops-to-gpu -o - < seeds\\real_official_main23_functions_focus60\\conversion_memreftollvm_memref_to_llvm_mlir__fn_000.mlir",
      "return_code": 0,
      "timed_out": false,
      "elapsed_ms": 909,
      "stdout": "module {\n  func.func @view(%arg0: index, %arg1: index, %arg2: index) {\n    return\n  }\n}\n\n",
      "stderr": "",
      "stdout_path": "outputs\\aggressive_mlir23_function_focus60\\artifacts\\conversion_memreftollvm_memref_to_llvm_mlir__fn_000__linalg_parallel_gpu.stdout.mlir",
      "stderr_path": "outputs\\aggressive_mlir23_function_focus60\\artifacts\\conversion_memreftollvm_memref_to_llvm_mlir__fn_000__linalg_parallel_gpu.stderr.txt",
      "category": "success"
    },
    {
      "seed": "seeds\\real_official_main23_functions_focus60\\conversion_memreftollvm_memref_to_llvm_mlir__fn_000.mlir",
      "pipeline": "bufferization_deallocation",
      "command": "C:\\Users\\lenovo\\.cache\\codex-runtimes\\codex-primary-runtime\\dependencies\\python\\python.exe scripts\\ssh_mlir_opt.py --one-shot-bufferize --ownership-based-buffer-deallocation --bufferization-lower-deallocations --canonicalize -o - < seeds\\real_official_main23_functions_focus60\\conversion_memreftollvm_memref_to_llvm_mlir__fn_000.mlir",
      "return_code": 0,
      "timed_out": false,
      "elapsed_ms": 922,
      "stdout": "module {\n  func.func @view(%arg0: index, %arg1: index, %arg2: index) {\n    %c1 = arith.constant 1 : index\n    %c0 = arith.constant 0 : index\n    %true = arith.constant true\n    %alloc = memref.alloc() : memref<2048xi8>\n    %alloc_0 = memref.alloc() : memref<2048xi8, 4>\n    %base_buffer, %offset, %sizes, %strides = memref.extract_strided_metadata %alloc : memref<2048xi8> -> memref<i8>, index, index, index\n    %base_buffer_1, %offset_2, %sizes_3, %strides_4 = memref.extract_strided_metadata %alloc_0 : memref<2048xi8, 4> -> memref<i8, 4>, index, index, index\n    %alloc_5 = memref.alloc() : memref<2xindex>\n    %alloc_6 = memref.alloc() : memref<2xi1>\n    %alloc_7 = memref.alloc() : memref<0xindex>\n    %intptr = memref.extract_aligned_pointer_as_index %base_buffer : memref<i8> -> index\n    memref.store %intptr, %alloc_5[%c0] : memref<2xindex>\n    %intptr_8 = memref.extract_aligned_pointer_as_index %base_buffer_1 : memref<i8, 4> -> index\n    memref.store %intptr_8, %alloc_5[%c1] : memref<2xindex>\n    memref.store %true, %alloc_6[%c0] : memref<2xi1>\n    memref.store %true, %alloc_6[%c1] : memref<2xi1>\n    %cast = memref.cast %alloc_5 : memref<2xindex> to memref<?xindex>\n    %cast_9 = memref.cast %alloc_6 : memref<2xi1> to memref<?xi1>\n    %cast_10 = memref.cast %alloc_7 : memref<0xindex> to memref<?xindex>\n    %alloc_11 = memref.alloc() : memref<2xi1>\n    %alloc_12 = memref.alloc() : memref<0xi1>\n    %cast_13 = memref.cast %alloc_11 : memref<2xi1> to memref<?xi1>\n    %cast_14 = memref.cast %alloc_12 : memref<0xi1> to memref<?xi1>\n    call @dealloc_helper(%cast, %cast_10, %cast_9, %cast_13, %cast_14) : (memref<?xindex>, memref<?xindex>, memref<?xi1>, memref<?xi1>, memref<?xi1>) -> ()\n    %0 = memref.load %alloc_11[%c0] : memref<2xi1>\n    scf.if %0 {\n      memref.dealloc %base_buffer : memref<i8>\n    }\n    %1 = memref.load %alloc_11[%c1] : memref<2xi1>\n    scf.if %1 {\n      memref.dealloc %base_buffer_1 : memref<i8, 4>\n    }\n    memref.dealloc %alloc_5 : memref<2xindex>\n    memref.dealloc %alloc_7 : memref<0xindex>\n    memref.dealloc %alloc_6 : memref<2xi1>\n    memref.dealloc %alloc_11 : memref<2xi1>\n    memref.dealloc %alloc_12 : memref<0xi1>\n    return\n  }\n  func.func private @dealloc_helper(%arg0: memref<?xindex>, %arg1: memref<?xindex>, %arg2: memref<?xi1>, %arg3: memref<?xi1>, %arg4: memref<?xi1>) {\n    %c0 = arith.constant 0 : index\n    %c1 = arith.constant 1 : index\n    %true = arith.constant true\n    %false = arith.constant false\n    %dim = memref.dim %arg0, %c0 : memref<?xindex>\n    %dim_0 = memref.dim %arg1, %c0 : memref<?xindex>\n    scf.for %arg5 = %c0 to %dim_0 step %c1 {\n      memref.store %false, %arg4[%arg5] : memref<?xi1>\n    }\n    scf.for %arg5 = %c0 to %dim step %c1 {\n      %0 = memref.load %arg0[%arg5] : memref<?xindex>\n      %1 = memref.load %arg2[%arg5] : memref<?xi1>\n      %2 = scf.for %arg6 = %c0 to %dim_0 step %c1 iter_args(%arg7 = %true) -> (i1) {\n        %5 = memref.load %arg1[%arg6] : memref<?xindex>\n        %6 = arith.cmpi eq, %5, %0 : index\n        scf.if %6 {\n          %9 = memref.load %arg4[%arg6] : memref<?xi1>\n          %10 = arith.ori %9, %1 : i1\n          memref.store %10, %arg4[%arg6] : memref<?xi1>\n        }\n        %7 = arith.cmpi ne, %5, %0 : index\n        %8 = arith.andi %arg7, %7 : i1\n        scf.yield %8 : i1\n      }\n      %3 = scf.for %arg6 = %c0 to %arg5 step %c1 iter_args(%arg7 = %2) -> (i1) {\n        %5 = memref.load %arg0[%arg6] : memref<?xindex>\n        %6 = arith.cmpi ne, %5, %0 : index\n        %7 = arith.andi %arg7, %6 : i1\n        scf.yield %7 : i1\n      }\n      %4 = arith.andi %3, %1 : i1\n      memref.store %4, %arg3[%arg5] : memref<?xi1>\n    }\n    return\n  }\n}\n\n",
      "stderr": "",
      "stdout_path": "outputs\\aggressive_mlir23_function_focus60\\artifacts\\conversion_memreftollvm_memref_to_llvm_mlir__fn_000__bufferization_deallocation.stdout.mlir",
      "stderr_path": "outputs\\aggressive_mlir23_function_focus60\\artifacts\\conversion_memreftollvm_memref_to_llvm_mlir__fn_000__bufferization_deallocation.stderr.txt",
      "category": "success"
    },
    {
      "seed": "seeds\\real_official_main23_functions_focus60\\conversion_memreftollvm_memref_to_llvm_mlir__fn_000.mlir",
      "pipeline": "shape_reify_resolve",
      "command": "C:\\Users\\lenovo\\.cache\\codex-runtimes\\codex-primary-runtime\\dependencies\\python\\python.exe scripts\\ssh_mlir_opt.py --reify-result-shapes --resolve-shaped-type-result-dims --canonicalize --cse -o - < seeds\\real_official_main23_functions_focus60\\conversion_memreftollvm_memref_to_llvm_mlir__fn_000.mlir",
      "return_code": 0,
      "timed_out": false,
      "elapsed_ms": 730,
      "stdout": "module {\n  func.func @view(%arg0: index, %arg1: index, %arg2: index) {\n    return\n  }\n}\n\n",
      "stderr": "",
      "stdout_path": "outputs\\aggressive_mlir23_function_focus60\\artifacts\\conversion_memreftollvm_memref_to_llvm_mlir__fn_000__shape_reify_resolve.stdout.mlir",
      "stderr_path": "outputs\\aggressive_mlir23_function_focus60\\artifacts\\conversion_memreftollvm_memref_to_llvm_mlir__fn_000__shape_reify_resolve.stderr.txt",
      "category": "success"
    },
    {
      "seed": "seeds\\real_official_main23_functions_focus60\\conversion_memreftollvm_memref_to_llvm_mlir__fn_000.mlir",
      "pipeline": "sparse_lowering_probe",
      "command": "C:\\Users\\lenovo\\.cache\\codex-runtimes\\codex-primary-runtime\\dependencies\\python\\python.exe scripts\\ssh_mlir_opt.py --pre-sparsification-rewrite --lower-sparse-ops-to-foreach --lower-sparse-foreach-to-scf --canonicalize -o - < seeds\\real_official_main23_functions_focus60\\conversion_memreftollvm_memref_to_llvm_mlir__fn_000.mlir",
      "return_code": 0,
      "timed_out": false,
      "elapsed_ms": 930,
      "stdout": "module {\n  func.func @view(%arg0: index, %arg1: index, %arg2: index) {\n    return\n  }\n}\n\n",
      "stderr": "",
      "stdout_path": "outputs\\aggressive_mlir23_function_focus60\\artifacts\\conversion_memreftollvm_memref_to_llvm_mlir__fn_000__sparse_lowering_probe.stdout.mlir",
      "stderr_path": "outputs\\aggressive_mlir23_function_focus60\\artifacts\\conversion_memreftollvm_memref_to_llvm_mlir__fn_000__sparse_lowering_probe.stderr.txt",
      "category": "success"
    },
    {
      "seed": "seeds\\real_official_main23_functions_focus60\\conversion_memreftollvm_memref_to_llvm_mlir__fn_001.mlir",
      "pipeline": "parse_verify",
      "command": "C:\\Users\\lenovo\\.cache\\codex-runtimes\\codex-primary-runtime\\dependencies\\python\\python.exe scripts\\ssh_mlir_opt.py  -o - < seeds\\real_official_main23_functions_focus60\\conversion_memreftollvm_memref_to_llvm_mlir__fn_001.mlir",
      "return_code": 0,
      "timed_out": false,
      "elapsed_ms": 867,
      "stdout": "module {\n  func.func @view_empty_memref(%arg0: index, %arg1: memref<0xi8>) {\n    %view = memref.view %arg1[%arg0][] : memref<0xi8> to memref<0x4xf32>\n    return\n  }\n}\n\n",
      "stderr": "",
      "stdout_path": "outputs\\aggressive_mlir23_function_focus60\\artifacts\\conversion_memreftollvm_memref_to_llvm_mlir__fn_001__parse_verify.stdout.mlir",
      "stderr_path": "outputs\\aggressive_mlir23_function_focus60\\artifacts\\conversion_memreftollvm_memref_to_llvm_mlir__fn_001__parse_verify.stderr.txt",
      "category": "success"
    },
    {
      "seed": "seeds\\real_official_main23_functions_focus60\\conversion_memreftollvm_memref_to_llvm_mlir__fn_001.mlir",
      "pipeline": "canonicalize_convergence_probe",
      "command": "C:\\Users\\lenovo\\.cache\\codex-runtimes\\codex-primary-runtime\\dependencies\\python\\python.exe scripts\\ssh_mlir_opt.py --canonicalize --cse --sccp --canonicalize -o - < seeds\\real_official_main23_functions_focus60\\conversion_memreftollvm_memref_to_llvm_mlir__fn_001.mlir",
      "return_code": 0,
      "timed_out": false,
      "elapsed_ms": 771,
      "stdout": "module {\n  func.func @view_empty_memref(%arg0: index, %arg1: memref<0xi8>) {\n    return\n  }\n}\n\n",
      "stderr": "",
      "stdout_path": "outputs\\aggressive_mlir23_function_focus60\\artifacts\\conversion_memreftollvm_memref_to_llvm_mlir__fn_001__canonicalize_convergence_probe.stdout.mlir",
      "stderr_path": "outputs\\aggressive_mlir23_function_focus60\\artifacts\\conversion_memreftollvm_memref_to_llvm_mlir__fn_001__canonicalize_convergence_probe.stderr.txt",
      "category": "success"
    },
    {
      "seed": "seeds\\real_official_main23_functions_focus60\\conversion_memreftollvm_memref_to_llvm_mlir__fn_001.mlir",
      "pipeline": "memref_alias_metadata",
      "command": "C:\\Users\\lenovo\\.cache\\codex-runtimes\\codex-primary-runtime\\dependencies\\python\\python.exe scripts\\ssh_mlir_opt.py --fold-memref-alias-ops --expand-strided-metadata --canonicalize --cse -o - < seeds\\real_official_main23_functions_focus60\\conversion_memreftollvm_memref_to_llvm_mlir__fn_001.mlir",
      "return_code": 0,
      "timed_out": false,
      "elapsed_ms": 901,
      "stdout": "module {\n  func.func @view_empty_memref(%arg0: index, %arg1: memref<0xi8>) {\n    return\n  }\n}\n\n",
      "stderr": "",
      "stdout_path": "outputs\\aggressive_mlir23_function_focus60\\artifacts\\conversion_memreftollvm_memref_to_llvm_mlir__fn_001__memref_alias_metadata.stdout.mlir",
      "stderr_path": "outputs\\aggressive_mlir23_function_focus60\\artifacts\\conversion_memreftollvm_memref_to_llvm_mlir__fn_001__memref_alias_metadata.stderr.txt",
      "category": "success"
    },
    {
      "seed": "seeds\\real_official_main23_functions_focus60\\conversion_memreftollvm_memref_to_llvm_mlir__fn_001.mlir",
      "pipeline": "memref_llvm_lowering",
      "command": "C:\\Users\\lenovo\\.cache\\codex-runtimes\\codex-primary-runtime\\dependencies\\python\\python.exe scripts\\ssh_mlir_opt.py --expand-strided-metadata --memref-expand --normalize-memrefs --finalize-memref-to-llvm --canonicalize -o - < seeds\\real_official_main23_functions_focus60\\conversion_memreftollvm_memref_to_llvm_mlir__fn_001.mlir",
      "return_code": 0,
      "timed_out": false,
      "elapsed_ms": 822,
      "stdout": "module {\n  func.func @view_empty_memref(%arg0: index, %arg1: memref<0xi8>) {\n    return\n  }\n}\n\n",
      "stderr": "",
      "stdout_path": "outputs\\aggressive_mlir23_function_focus60\\artifacts\\conversion_memreftollvm_memref_to_llvm_mlir__fn_001__memref_llvm_lowering.stdout.mlir",
      "stderr_path": "outputs\\aggressive_mlir23_function_focus60\\artifacts\\conversion_memreftollvm_memref_to_llvm_mlir__fn_001__memref_llvm_lowering.stderr.txt",
      "category": "success"
    },
    {
      "seed": "seeds\\real_official_main23_functions_focus60\\conversion_memreftollvm_memref_to_llvm_mlir__fn_001.mlir",
      "pipeline": "vector_reduction_lowering",
      "command": "C:\\Users\\lenovo\\.cache\\codex-runtimes\\codex-primary-runtime\\dependencies\\python\\python.exe scripts\\ssh_mlir_opt.py --lower-vector-multi-reduction --lower-vector-mask --canonicalize --cse -o - < seeds\\real_official_main23_functions_focus60\\conversion_memreftollvm_memref_to_llvm_mlir__fn_001.mlir",
      "return_code": 0,
      "timed_out": false,
      "elapsed_ms": 889,
      "stdout": "module {\n  func.func @view_empty_memref(%arg0: index, %arg1: memref<0xi8>) {\n    return\n  }\n}\n\n",
      "stderr": "",
      "stdout_path": "outputs\\aggressive_mlir23_function_focus60\\artifacts\\conversion_memreftollvm_memref_to_llvm_mlir__fn_001__vector_reduction_lowering.stdout.mlir",
      "stderr_path": "outputs\\aggressive_mlir23_function_focus60\\artifacts\\conversion_memreftollvm_memref_to_llvm_mlir__fn_001__vector_reduction_lowering.stderr.txt",
      "category": "success"
    },
    {
      "seed": "seeds\\real_official_main23_functions_focus60\\conversion_memreftollvm_memref_to_llvm_mlir__fn_001.mlir",
      "pipeline": "vector_to_scf_llvm",
      "command": "C:\\Users\\lenovo\\.cache\\codex-runtimes\\codex-primary-runtime\\dependencies\\python\\python.exe scripts\\ssh_mlir_opt.py --convert-vector-to-scf --convert-vector-to-llvm --canonicalize -o - < seeds\\real_official_main23_functions_focus60\\conversion_memreftollvm_memref_to_llvm_mlir__fn_001.mlir",
      "return_code": 0,
      "timed_out": false,
      "elapsed_ms": 787,
      "stdout": "module {\n  func.func @view_empty_memref(%arg0: index, %arg1: memref<0xi8>) {\n    return\n  }\n}\n\n",
      "stderr": "",
      "stdout_path": "outputs\\aggressive_mlir23_function_focus60\\artifacts\\conversion_memreftollvm_memref_to_llvm_mlir__fn_001__vector_to_scf_llvm.stdout.mlir",
      "stderr_path": "outputs\\aggressive_mlir23_function_focus60\\artifacts\\conversion_memreftollvm_memref_to_llvm_mlir__fn_001__vector_to_scf_llvm.stderr.txt",
      "category": "success"
    },
    {
      "seed": "seeds\\real_official_main23_functions_focus60\\conversion_memreftollvm_memref_to_llvm_mlir__fn_001.mlir",
      "pipeline": "tensor_linalg_loop_lowering",
      "command": "C:\\Users\\lenovo\\.cache\\codex-runtimes\\codex-primary-runtime\\dependencies\\python\\python.exe scripts\\ssh_mlir_opt.py --convert-tensor-to-linalg --convert-linalg-to-loops --canonicalize --cse -o - < seeds\\real_official_main23_functions_focus60\\conversion_memreftollvm_memref_to_llvm_mlir__fn_001.mlir",
      "return_code": 0,
      "timed_out": false,
      "elapsed_ms": 909,
      "stdout": "module {\n  func.func @view_empty_memref(%arg0: index, %arg1: memref<0xi8>) {\n    return\n  }\n}\n\n",
      "stderr": "",
      "stdout_path": "outputs\\aggressive_mlir23_function_focus60\\artifacts\\conversion_memreftollvm_memref_to_llvm_mlir__fn_001__tensor_linalg_loop_lowering.stdout.mlir",
      "stderr_path": "outputs\\aggressive_mlir23_function_focus60\\artifacts\\conversion_memreftollvm_memref_to_llvm_mlir__fn_001__tensor_linalg_loop_lowering.stderr.txt",
      "category": "success"
    },
    {
      "seed": "seeds\\real_official_main23_functions_focus60\\conversion_memreftollvm_memref_to_llvm_mlir__fn_001.mlir",
      "pipeline": "linalg_parallel_gpu",
      "command": "C:\\Users\\lenovo\\.cache\\codex-runtimes\\codex-primary-runtime\\dependencies\\python\\python.exe scripts\\ssh_mlir_opt.py --convert-linalg-to-parallel-loops --canonicalize --convert-parallel-loops-to-gpu -o - < seeds\\real_official_main23_functions_focus60\\conversion_memreftollvm_memref_to_llvm_mlir__fn_001.mlir",
      "return_code": 0,
      "timed_out": false,
      "elapsed_ms": 741,
      "stdout": "module {\n  func.func @view_empty_memref(%arg0: index, %arg1: memref<0xi8>) {\n    return\n  }\n}\n\n",
      "stderr": "",
      "stdout_path": "outputs\\aggressive_mlir23_function_focus60\\artifacts\\conversion_memreftollvm_memref_to_llvm_mlir__fn_001__linalg_parallel_gpu.stdout.mlir",
      "stderr_path": "outputs\\aggressive_mlir23_function_focus60\\artifacts\\conversion_memreftollvm_memref_to_llvm_mlir__fn_001__linalg_parallel_gpu.stderr.txt",
      "category": "success"
    },
    {
      "seed": "seeds\\real_official_main23_functions_focus60\\conversion_memreftollvm_memref_to_llvm_mlir__fn_001.mlir",
      "pipeline": "bufferization_deallocation",
      "command": "C:\\Users\\lenovo\\.cache\\codex-runtimes\\codex-primary-runtime\\dependencies\\python\\python.exe scripts\\ssh_mlir_opt.py --one-shot-bufferize --ownership-based-buffer-deallocation --bufferization-lower-deallocations --canonicalize -o - < seeds\\real_official_main23_functions_focus60\\conversion_memreftollvm_memref_to_llvm_mlir__fn_001.mlir",
      "return_code": 0,
      "timed_out": false,
      "elapsed_ms": 853,
      "stdout": "module {\n  func.func @view_empty_memref(%arg0: index, %arg1: memref<0xi8>) {\n    return\n  }\n}\n\n",
      "stderr": "",
      "stdout_path": "outputs\\aggressive_mlir23_function_focus60\\artifacts\\conversion_memreftollvm_memref_to_llvm_mlir__fn_001__bufferization_deallocation.stdout.mlir",
      "stderr_path": "outputs\\aggressive_mlir23_function_focus60\\artifacts\\conversion_memreftollvm_memref_to_llvm_mlir__fn_001__bufferization_deallocation.stderr.txt",
      "category": "success"
    },
    {
      "seed": "seeds\\real_official_main23_functions_focus60\\conversion_memreftollvm_memref_to_llvm_mlir__fn_001.mlir",
      "pipeline": "shape_reify_resolve",
      "command": "C:\\Users\\lenovo\\.cache\\codex-runtimes\\codex-primary-runtime\\dependencies\\python\\python.exe scripts\\ssh_mlir_opt.py --reify-result-shapes --resolve-shaped-type-result-dims --canonicalize --cse -o - < seeds\\real_official_main23_functions_focus60\\conversion_memreftollvm_memref_to_llvm_mlir__fn_001.mlir",
      "return_code": 0,
      "timed_out": false,
      "elapsed_ms": 899,
      "stdout": "module {\n  func.func @view_empty_memref(%arg0: index, %arg1: memref<0xi8>) {\n    return\n  }\n}\n\n",
      "stderr": "",
      "stdout_path": "outputs\\aggressive_mlir23_function_focus60\\artifacts\\conversion_memreftollvm_memref_to_llvm_mlir__fn_001__shape_reify_resolve.stdout.mlir",
      "stderr_path": "outputs\\aggressive_mlir23_function_focus60\\artifacts\\conversion_memreftollvm_memref_to_llvm_mlir__fn_001__shape_reify_resolve.stderr.txt",
      "category": "success"
    },
    {
      "seed": "seeds\\real_official_main23_functions_focus60\\conversion_memreftollvm_memref_to_llvm_mlir__fn_001.mlir",
      "pipeline": "sparse_lowering_probe",
      "command": "C:\\Users\\lenovo\\.cache\\codex-runtimes\\codex-primary-runtime\\dependencies\\python\\python.exe scripts\\ssh_mlir_opt.py --pre-sparsification-rewrite --lower-sparse-ops-to-foreach --lower-sparse-foreach-to-scf --canonicalize -o - < seeds\\real_official_main23_functions_focus60\\conversion_memreftollvm_memref_to_llvm_mlir__fn_001.mlir",
      "return_code": 0,
      "timed_out": false,
      "elapsed_ms": 839,
      "stdout": "module {\n  func.func @view_empty_memref(%arg0: index, %arg1: memref<0xi8>) {\n    return\n  }\n}\n\n",
      "stderr": "",
      "stdout_path": "outputs\\aggressive_mlir23_function_focus60\\artifacts\\conversion_memreftollvm_memref_to_llvm_mlir__fn_001__sparse_lowering_probe.stdout.mlir",
      "stderr_path": "outputs\\aggressive_mlir23_function_focus60\\artifacts\\conversion_memreftollvm_memref_to_llvm_mlir__fn_001__sparse_lowering_probe.stderr.txt",
      "category": "success"
    },
    {
      "seed": "seeds\\real_official_main23_functions_focus60\\conversion_memreftollvm_memref_to_llvm_mlir__fn_002.mlir",
      "pipeline": "parse_verify",
      "command": "C:\\Users\\lenovo\\.cache\\codex-runtimes\\codex-primary-runtime\\dependencies\\python\\python.exe scripts\\ssh_mlir_opt.py  -o - < seeds\\real_official_main23_functions_focus60\\conversion_memreftollvm_memref_to_llvm_mlir__fn_002.mlir",
      "return_code": 0,
      "timed_out": false,
      "elapsed_ms": 772,
      "stdout": "module {\n  func.func @view_memref_as_rank0(%arg0: index, %arg1: memref<2xi8>) {\n    %view = memref.view %arg1[%arg0][] : memref<2xi8> to memref<bf16>\n    return\n  }\n}\n\n",
      "stderr": "",
      "stdout_path": "outputs\\aggressive_mlir23_function_focus60\\artifacts\\conversion_memreftollvm_memref_to_llvm_mlir__fn_002__parse_verify.stdout.mlir",
      "stderr_path": "outputs\\aggressive_mlir23_function_focus60\\artifacts\\conversion_memreftollvm_memref_to_llvm_mlir__fn_002__parse_verify.stderr.txt",
      "category": "success"
    },
    {
      "seed": "seeds\\real_official_main23_functions_focus60\\conversion_memreftollvm_memref_to_llvm_mlir__fn_002.mlir",
      "pipeline": "canonicalize_convergence_probe",
      "command": "C:\\Users\\lenovo\\.cache\\codex-runtimes\\codex-primary-runtime\\dependencies\\python\\python.exe scripts\\ssh_mlir_opt.py --canonicalize --cse --sccp --canonicalize -o - < seeds\\real_official_main23_functions_focus60\\conversion_memreftollvm_memref_to_llvm_mlir__fn_002.mlir",
      "return_code": 0,
      "timed_out": false,
      "elapsed_ms": 891,
      "stdout": "module {\n  func.func @view_memref_as_rank0(%arg0: index, %arg1: memref<2xi8>) {\n    return\n  }\n}\n\n",
      "stderr": "",
      "stdout_path": "outputs\\aggressive_mlir23_function_focus60\\artifacts\\conversion_memreftollvm_memref_to_llvm_mlir__fn_002__canonicalize_convergence_probe.stdout.mlir",
      "stderr_path": "outputs\\aggressive_mlir23_function_focus60\\artifacts\\conversion_memreftollvm_memref_to_llvm_mlir__fn_002__canonicalize_convergence_probe.stderr.txt",
      "category": "success"
    },
    {
      "seed": "seeds\\real_official_main23_functions_focus60\\conversion_memreftollvm_memref_to_llvm_mlir__fn_002.mlir",
      "pipeline": "memref_alias_metadata",
      "command": "C:\\Users\\lenovo\\.cache\\codex-runtimes\\codex-primary-runtime\\dependencies\\python\\python.exe scripts\\ssh_mlir_opt.py --fold-memref-alias-ops --expand-strided-metadata --canonicalize --cse -o - < seeds\\real_official_main23_functions_focus60\\conversion_memreftollvm_memref_to_llvm_mlir__fn_002.mlir",
      "return_code": 0,
      "timed_out": false,
      "elapsed_ms": 884,
      "stdout": "module {\n  func.func @view_memref_as_rank0(%arg0: index, %arg1: memref<2xi8>) {\n    return\n  }\n}\n\n",
      "stderr": "",
      "stdout_path": "outputs\\aggressive_mlir23_function_focus60\\artifacts\\conversion_memreftollvm_memref_to_llvm_mlir__fn_002__memref_alias_metadata.stdout.mlir",
      "stderr_path": "outputs\\aggressive_mlir23_function_focus60\\artifacts\\conversion_memreftollvm_memref_to_llvm_mlir__fn_002__memref_alias_metadata.stderr.txt",
      "category": "success"
    },
    {
      "seed": "seeds\\real_official_main23_functions_focus60\\conversion_memreftollvm_memref_to_llvm_mlir__fn_002.mlir",
      "pipeline": "memref_llvm_lowering",
      "command": "C:\\Users\\lenovo\\.cache\\codex-runtimes\\codex-primary-runtime\\dependencies\\python\\python.exe scripts\\ssh_mlir_opt.py --expand-strided-metadata --memref-expand --normalize-memrefs --finalize-memref-to-llvm --canonicalize -o - < seeds\\real_official_main23_functions_focus60\\conversion_memreftollvm_memref_to_llvm_mlir__fn_002.mlir",
      "return_code": 0,
      "timed_out": false,
      "elapsed_ms": 901,
      "stdout": "module {\n  func.func @view_memref_as_rank0(%arg0: index, %arg1: memref<2xi8>) {\n    return\n  }\n}\n\n",
      "stderr": "",
      "stdout_path": "outputs\\aggressive_mlir23_function_focus60\\artifacts\\conversion_memreftollvm_memref_to_llvm_mlir__fn_002__memref_llvm_lowering.stdout.mlir",
      "stderr_path": "outputs\\aggressive_mlir23_function_focus60\\artifacts\\conversion_memreftollvm_memref_to_llvm_mlir__fn_002__memref_llvm_lowering.stderr.txt",
      "category": "success"
    },
    {
      "seed": "seeds\\real_official_main23_functions_focus60\\conversion_memreftollvm_memref_to_llvm_mlir__fn_002.mlir",
      "pipeline": "vector_reduction_lowering",
      "command": "C:\\Users\\lenovo\\.cache\\codex-runtimes\\codex-primary-runtime\\dependencies\\python\\python.exe scripts\\ssh_mlir_opt.py --lower-vector-multi-reduction --lower-vector-mask --canonicalize --cse -o - < seeds\\real_official_main23_functions_focus60\\conversion_memreftollvm_memref_to_llvm_mlir__fn_002.mlir",
      "return_code": 0,
      "timed_out": false,
      "elapsed_ms": 895,
      "stdout": "module {\n  func.func @view_memref_as_rank0(%arg0: index, %arg1: memref<2xi8>) {\n    return\n  }\n}\n\n",
      "stderr": "",
      "stdout_path": "outputs\\aggressive_mlir23_function_focus60\\artifacts\\conversion_memreftollvm_memref_to_llvm_mlir__fn_002__vector_reduction_lowering.stdout.mlir",
      "stderr_path": "outputs\\aggressive_mlir23_function_focus60\\artifacts\\conversion_memreftollvm_memref_to_llvm_mlir__fn_002__vector_reduction_lowering.stderr.txt",
      "category": "success"
    },
    {
      "seed": "seeds\\real_official_main23_functions_focus60\\conversion_memreftollvm_memref_to_llvm_mlir__fn_002.mlir",
      "pipeline": "vector_to_scf_llvm",
      "command": "C:\\Users\\lenovo\\.cache\\codex-runtimes\\codex-primary-runtime\\dependencies\\python\\python.exe scripts\\ssh_mlir_opt.py --convert-vector-to-scf --convert-vector-to-llvm --canonicalize -o - < seeds\\real_official_main23_functions_focus60\\conversion_memreftollvm_memref_to_llvm_mlir__fn_002.mlir",
      "return_code": 0,
      "timed_out": false,
      "elapsed_ms": 908,
      "stdout": "module {\n  func.func @view_memref_as_rank0(%arg0: index, %arg1: memref<2xi8>) {\n    return\n  }\n}\n\n",
      "stderr": "",
      "stdout_path": "outputs\\aggressive_mlir23_function_focus60\\artifacts\\conversion_memreftollvm_memref_to_llvm_mlir__fn_002__vector_to_scf_llvm.stdout.mlir",
      "stderr_path": "outputs\\aggressive_mlir23_function_focus60\\artifacts\\conversion_memreftollvm_memref_to_llvm_mlir__fn_002__vector_to_scf_llvm.stderr.txt",
      "category": "success"
    },
    {
      "seed": "seeds\\real_official_main23_functions_focus60\\conversion_memreftollvm_memref_to_llvm_mlir__fn_002.mlir",
      "pipeline": "tensor_linalg_loop_lowering",
      "command": "C:\\Users\\lenovo\\.cache\\codex-runtimes\\codex-primary-runtime\\dependencies\\python\\python.exe scripts\\ssh_mlir_opt.py --convert-tensor-to-linalg --convert-linalg-to-loops --canonicalize --cse -o - < seeds\\real_official_main23_functions_focus60\\conversion_memreftollvm_memref_to_llvm_mlir__fn_002.mlir",
      "return_code": 0,
      "timed_out": false,
      "elapsed_ms": 945,
      "stdout": "module {\n  func.func @view_memref_as_rank0(%arg0: index, %arg1: memref<2xi8>) {\n    return\n  }\n}\n\n",
      "stderr": "",
      "stdout_path": "outputs\\aggressive_mlir23_function_focus60\\artifacts\\conversion_memreftollvm_memref_to_llvm_mlir__fn_002__tensor_linalg_loop_lowering.stdout.mlir",
      "stderr_path": "outputs\\aggressive_mlir23_function_focus60\\artifacts\\conversion_memreftollvm_memref_to_llvm_mlir__fn_002__tensor_linalg_loop_lowering.stderr.txt",
      "category": "success"
    },
    {
      "seed": "seeds\\real_official_main23_functions_focus60\\conversion_memreftollvm_memref_to_llvm_mlir__fn_002.mlir",
      "pipeline": "linalg_parallel_gpu",
      "command": "C:\\Users\\lenovo\\.cache\\codex-runtimes\\codex-primary-runtime\\dependencies\\python\\python.exe scripts\\ssh_mlir_opt.py --convert-linalg-to-parallel-loops --canonicalize --convert-parallel-loops-to-gpu -o - < seeds\\real_official_main23_functions_focus60\\conversion_memreftollvm_memref_to_llvm_mlir__fn_002.mlir",
      "return_code": 0,
      "timed_out": false,
      "elapsed_ms": 1094,
      "stdout": "module {\n  func.func @view_memref_as_rank0(%arg0: index, %arg1: memref<2xi8>) {\n    return\n  }\n}\n\n",
      "stderr": "",
      "stdout_path": "outputs\\aggressive_mlir23_function_focus60\\artifacts\\conversion_memreftollvm_memref_to_llvm_mlir__fn_002__linalg_parallel_gpu.stdout.mlir",
      "stderr_path": "outputs\\aggressive_mlir23_function_focus60\\artifacts\\conversion_memreftollvm_memref_to_llvm_mlir__fn_002__linalg_parallel_gpu.stderr.txt",
      "category": "success"
    },
    {
      "seed": "seeds\\real_official_main23_functions_focus60\\conversion_memreftollvm_memref_to_llvm_mlir__fn_002.mlir",
      "pipeline": "bufferization_deallocation",
      "command": "C:\\Users\\lenovo\\.cache\\codex-runtimes\\codex-primary-runtime\\dependencies\\python\\python.exe scripts\\ssh_mlir_opt.py --one-shot-bufferize --ownership-based-buffer-deallocation --bufferization-lower-deallocations --canonicalize -o - < seeds\\real_official_main23_functions_focus60\\conversion_memreftollvm_memref_to_llvm_mlir__fn_002.mlir",
      "return_code": 0,
      "timed_out": false,
      "elapsed_ms": 863,
      "stdout": "module {\n  func.func @view_memref_as_rank0(%arg0: index, %arg1: memref<2xi8>) {\n    return\n  }\n}\n\n",
      "stderr": "",
      "stdout_path": "outputs\\aggressive_mlir23_function_focus60\\artifacts\\conversion_memreftollvm_memref_to_llvm_mlir__fn_002__bufferization_deallocation.stdout.mlir",
      "stderr_path": "outputs\\aggressive_mlir23_function_focus60\\artifacts\\conversion_memreftollvm_memref_to_llvm_mlir__fn_002__bufferization_deallocation.stderr.txt",
      "category": "success"
    },
    {
      "seed": "seeds\\real_official_main23_functions_focus60\\conversion_memreftollvm_memref_to_llvm_mlir__fn_002.mlir",
      "pipeline": "shape_reify_resolve",
      "command": "C:\\Users\\lenovo\\.cache\\codex-runtimes\\codex-primary-runtime\\dependencies\\python\\python.exe scripts\\ssh_mlir_opt.py --reify-result-shapes --resolve-shaped-type-result-dims --canonicalize --cse -o - < seeds\\real_official_main23_functions_focus60\\conversion_memreftollvm_memref_to_llvm_mlir__fn_002.mlir",
      "return_code": 0,
      "timed_out": false,
      "elapsed_ms": 791,
      "stdout": "module {\n  func.func @view_memref_as_rank0(%arg0: index, %arg1: memref<2xi8>) {\n    return\n  }\n}\n\n",
      "stderr": "",
      "stdout_path": "outputs\\aggressive_mlir23_function_focus60\\artifacts\\conversion_memreftollvm_memref_to_llvm_mlir__fn_002__shape_reify_resolve.stdout.mlir",
      "stderr_path": "outputs\\aggressive_mlir23_function_focus60\\artifacts\\conversion_memreftollvm_memref_to_llvm_mlir__fn_002__shape_reify_resolve.stderr.txt",
      "category": "success"
    },
    {
      "seed": "seeds\\real_official_main23_functions_focus60\\conversion_memreftollvm_memref_to_llvm_mlir__fn_002.mlir",
      "pipeline": "sparse_lowering_probe",
      "command": "C:\\Users\\lenovo\\.cache\\codex-runtimes\\codex-primary-runtime\\dependencies\\python\\python.exe scripts\\ssh_mlir_opt.py --pre-sparsification-rewrite --lower-sparse-ops-to-foreach --lower-sparse-foreach-to-scf --canonicalize -o - < seeds\\real_official_main23_functions_focus60\\conversion_memreftollvm_memref_to_llvm_mlir__fn_002.mlir",
      "return_code": 0,
      "timed_out": false,
      "elapsed_ms": 817,
      "stdout": "module {\n  func.func @view_memref_as_rank0(%arg0: index, %arg1: memref<2xi8>) {\n    return\n  }\n}\n\n",
      "stderr": "",
      "stdout_path": "outputs\\aggressive_mlir23_function_focus60\\artifacts\\conversion_memreftollvm_memref_to_llvm_mlir__fn_002__sparse_lowering_probe.stdout.mlir",
      "stderr_path": "outputs\\aggressive_mlir23_function_focus60\\artifacts\\conversion_memreftollvm_memref_to_llvm_mlir__fn_002__sparse_lowering_probe.stderr.txt",
      "category": "success"
    },
    {
      "seed": "seeds\\real_official_main23_functions_focus60\\conversion_memreftollvm_memref_to_llvm_mlir__fn_003.mlir",
      "pipeline": "parse_verify",
      "command": "C:\\Users\\lenovo\\.cache\\codex-runtimes\\codex-primary-runtime\\dependencies\\python\\python.exe scripts\\ssh_mlir_opt.py  -o - < seeds\\real_official_main23_functions_focus60\\conversion_memreftollvm_memref_to_llvm_mlir__fn_003.mlir",
      "return_code": 0,
      "timed_out": false,
      "elapsed_ms": 849,
      "stdout": "module {\n  func.func @subview(%arg0: memref<64x4xf32, strided<[4, 1]>>, %arg1: index, %arg2: index, %arg3: index) {\n    %subview = memref.subview %arg0[%arg1, %arg2] [%arg1, %arg2] [%arg1, %arg2] : memref<64x4xf32, strided<[4, 1]>> to memref<?x?xf32, strided<[?, ?], offset: ?>>\n    return\n  }\n}\n\n",
      "stderr": "",
      "stdout_path": "outputs\\aggressive_mlir23_function_focus60\\artifacts\\conversion_memreftollvm_memref_to_llvm_mlir__fn_003__parse_verify.stdout.mlir",
      "stderr_path": "outputs\\aggressive_mlir23_function_focus60\\artifacts\\conversion_memreftollvm_memref_to_llvm_mlir__fn_003__parse_verify.stderr.txt",
      "category": "success"
    },
    {
      "seed": "seeds\\real_official_main23_functions_focus60\\conversion_memreftollvm_memref_to_llvm_mlir__fn_003.mlir",
      "pipeline": "canonicalize_convergence_probe",
      "command": "C:\\Users\\lenovo\\.cache\\codex-runtimes\\codex-primary-runtime\\dependencies\\python\\python.exe scripts\\ssh_mlir_opt.py --canonicalize --cse --sccp --canonicalize -o - < seeds\\real_official_main23_functions_focus60\\conversion_memreftollvm_memref_to_llvm_mlir__fn_003.mlir",
      "return_code": 0,
      "timed_out": false,
      "elapsed_ms": 862,
      "stdout": "module {\n  func.func @subview(%arg0: memref<64x4xf32, strided<[4, 1]>>, %arg1: index, %arg2: index, %arg3: index) {\n    return\n  }\n}\n\n",
      "stderr": "",
      "stdout_path": "outputs\\aggressive_mlir23_function_focus60\\artifacts\\conversion_memreftollvm_memref_to_llvm_mlir__fn_003__canonicalize_convergence_probe.stdout.mlir",
      "stderr_path": "outputs\\aggressive_mlir23_function_focus60\\artifacts\\conversion_memreftollvm_memref_to_llvm_mlir__fn_003__canonicalize_convergence_probe.stderr.txt",
      "category": "success"
    },
    {
      "seed": "seeds\\real_official_main23_functions_focus60\\conversion_memreftollvm_memref_to_llvm_mlir__fn_003.mlir",
      "pipeline": "memref_alias_metadata",
      "command": "C:\\Users\\lenovo\\.cache\\codex-runtimes\\codex-primary-runtime\\dependencies\\python\\python.exe scripts\\ssh_mlir_opt.py --fold-memref-alias-ops --expand-strided-metadata --canonicalize --cse -o - < seeds\\real_official_main23_functions_focus60\\conversion_memreftollvm_memref_to_llvm_mlir__fn_003.mlir",
      "return_code": 0,
      "timed_out": false,
      "elapsed_ms": 844,
      "stdout": "module {\n  func.func @subview(%arg0: memref<64x4xf32, strided<[4, 1]>>, %arg1: index, %arg2: index, %arg3: index) {\n    return\n  }\n}\n\n",
      "stderr": "",
      "stdout_path": "outputs\\aggressive_mlir23_function_focus60\\artifacts\\conversion_memreftollvm_memref_to_llvm_mlir__fn_003__memref_alias_metadata.stdout.mlir",
      "stderr_path": "outputs\\aggressive_mlir23_function_focus60\\artifacts\\conversion_memreftollvm_memref_to_llvm_mlir__fn_003__memref_alias_metadata.stderr.txt",
      "category": "success"
    },
    {
      "seed": "seeds\\real_official_main23_functions_focus60\\conversion_memreftollvm_memref_to_llvm_mlir__fn_003.mlir",
      "pipeline": "memref_llvm_lowering",
      "command": "C:\\Users\\lenovo\\.cache\\codex-runtimes\\codex-primary-runtime\\dependencies\\python\\python.exe scripts\\ssh_mlir_opt.py --expand-strided-metadata --memref-expand --normalize-memrefs --finalize-memref-to-llvm --canonicalize -o - < seeds\\real_official_main23_functions_focus60\\conversion_memreftollvm_memref_to_llvm_mlir__fn_003.mlir",
      "return_code": 0,
      "timed_out": false,
      "elapsed_ms": 839,
      "stdout": "module {\n  func.func @subview(%arg0: memref<256xf32>, %arg1: index, %arg2: index, %arg3: index) {\n    return\n  }\n}\n\n",
      "stderr": "",
      "stdout_path": "outputs\\aggressive_mlir23_function_focus60\\artifacts\\conversion_memreftollvm_memref_to_llvm_mlir__fn_003__memref_llvm_lowering.stdout.mlir",
      "stderr_path": "outputs\\aggressive_mlir23_function_focus60\\artifacts\\conversion_memreftollvm_memref_to_llvm_mlir__fn_003__memref_llvm_lowering.stderr.txt",
      "category": "success"
    },
    {
      "seed": "seeds\\real_official_main23_functions_focus60\\conversion_memreftollvm_memref_to_llvm_mlir__fn_003.mlir",
      "pipeline": "vector_reduction_lowering",
      "command": "C:\\Users\\lenovo\\.cache\\codex-runtimes\\codex-primary-runtime\\dependencies\\python\\python.exe scripts\\ssh_mlir_opt.py --lower-vector-multi-reduction --lower-vector-mask --canonicalize --cse -o - < seeds\\real_official_main23_functions_focus60\\conversion_memreftollvm_memref_to_llvm_mlir__fn_003.mlir",
      "return_code": 0,
      "timed_out": false,
      "elapsed_ms": 836,
      "stdout": "module {\n  func.func @subview(%arg0: memref<64x4xf32, strided<[4, 1]>>, %arg1: index, %arg2: index, %arg3: index) {\n    return\n  }\n}\n\n",
      "stderr": "",
      "stdout_path": "outputs\\aggressive_mlir23_function_focus60\\artifacts\\conversion_memreftollvm_memref_to_llvm_mlir__fn_003__vector_reduction_lowering.stdout.mlir",
      "stderr_path": "outputs\\aggressive_mlir23_function_focus60\\artifacts\\conversion_memreftollvm_memref_to_llvm_mlir__fn_003__vector_reduction_lowering.stderr.txt",
      "category": "success"
    },
    {
      "seed": "seeds\\real_official_main23_functions_focus60\\conversion_memreftollvm_memref_to_llvm_mlir__fn_003.mlir",
      "pipeline": "vector_to_scf_llvm",
      "command": "C:\\Users\\lenovo\\.cache\\codex-runtimes\\codex-primary-runtime\\dependencies\\python\\python.exe scripts\\ssh_mlir_opt.py --convert-vector-to-scf --convert-vector-to-llvm --canonicalize -o - < seeds\\real_official_main23_functions_focus60\\conversion_memreftollvm_memref_to_llvm_mlir__fn_003.mlir",
      "return_code": 0,
      "timed_out": false,
      "elapsed_ms": 791,
      "stdout": "module {\n  func.func @subview(%arg0: memref<64x4xf32, strided<[4, 1]>>, %arg1: index, %arg2: index, %arg3: index) {\n    return\n  }\n}\n\n",
      "stderr": "",
      "stdout_path": "outputs\\aggressive_mlir23_function_focus60\\artifacts\\conversion_memreftollvm_memref_to_llvm_mlir__fn_003__vector_to_scf_llvm.stdout.mlir",
      "stderr_path": "outputs\\aggressive_mlir23_function_focus60\\artifacts\\conversion_memreftollvm_memref_to_llvm_mlir__fn_003__vector_to_scf_llvm.stderr.txt",
      "category": "success"
    },
    {
      "seed": "seeds\\real_official_main23_functions_focus60\\conversion_memreftollvm_memref_to_llvm_mlir__fn_003.mlir",
      "pipeline": "tensor_linalg_loop_lowering",
      "command": "C:\\Users\\lenovo\\.cache\\codex-runtimes\\codex-primary-runtime\\dependencies\\python\\python.exe scripts\\ssh_mlir_opt.py --convert-tensor-to-linalg --convert-linalg-to-loops --canonicalize --cse -o - < seeds\\real_official_main23_functions_focus60\\conversion_memreftollvm_memref_to_llvm_mlir__fn_003.mlir",
      "return_code": 0,
      "timed_out": false,
      "elapsed_ms": 887,
      "stdout": "module {\n  func.func @subview(%arg0: memref<64x4xf32, strided<[4, 1]>>, %arg1: index, %arg2: index, %arg3: index) {\n    return\n  }\n}\n\n",
      "stderr": "",
      "stdout_path": "outputs\\aggressive_mlir23_function_focus60\\artifacts\\conversion_memreftollvm_memref_to_llvm_mlir__fn_003__tensor_linalg_loop_lowering.stdout.mlir",
      "stderr_path": "outputs\\aggressive_mlir23_function_focus60\\artifacts\\conversion_memreftollvm_memref_to_llvm_mlir__fn_003__tensor_linalg_loop_lowering.stderr.txt",
      "category": "success"
    },
    {
      "seed": "seeds\\real_official_main23_functions_focus60\\conversion_memreftollvm_memref_to_llvm_mlir__fn_003.mlir",
      "pipeline": "linalg_parallel_gpu",
      "command": "C:\\Users\\lenovo\\.cache\\codex-runtimes\\codex-primary-runtime\\dependencies\\python\\python.exe scripts\\ssh_mlir_opt.py --convert-linalg-to-parallel-loops --canonicalize --convert-parallel-loops-to-gpu -o - < seeds\\real_official_main23_functions_focus60\\conversion_memreftollvm_memref_to_llvm_mlir__fn_003.mlir",
      "return_code": 0,
      "timed_out": false,
      "elapsed_ms": 716,
      "stdout": "module {\n  func.func @subview(%arg0: memref<64x4xf32, strided<[4, 1]>>, %arg1: index, %arg2: index, %arg3: index) {\n    return\n  }\n}\n\n",
      "stderr": "",
      "stdout_path": "outputs\\aggressive_mlir23_function_focus60\\artifacts\\conversion_memreftollvm_memref_to_llvm_mlir__fn_003__linalg_parallel_gpu.stdout.mlir",
      "stderr_path": "outputs\\aggressive_mlir23_function_focus60\\artifacts\\conversion_memreftollvm_memref_to_llvm_mlir__fn_003__linalg_parallel_gpu.stderr.txt",
      "category": "success"
    },
    {
      "seed": "seeds\\real_official_main23_functions_focus60\\conversion_memreftollvm_memref_to_llvm_mlir__fn_003.mlir",
      "pipeline": "bufferization_deallocation",
      "command": "C:\\Users\\lenovo\\.cache\\codex-runtimes\\codex-primary-runtime\\dependencies\\python\\python.exe scripts\\ssh_mlir_opt.py --one-shot-bufferize --ownership-based-buffer-deallocation --bufferization-lower-deallocations --canonicalize -o - < seeds\\real_official_main23_functions_focus60\\conversion_memreftollvm_memref_to_llvm_mlir__fn_003.mlir",
      "return_code": 0,
      "timed_out": false,
      "elapsed_ms": 808,
      "stdout": "module {\n  func.func @subview(%arg0: memref<64x4xf32, strided<[4, 1]>>, %arg1: index, %arg2: index, %arg3: index) {\n    return\n  }\n}\n\n",
      "stderr": "",
      "stdout_path": "outputs\\aggressive_mlir23_function_focus60\\artifacts\\conversion_memreftollvm_memref_to_llvm_mlir__fn_003__bufferization_deallocation.stdout.mlir",
      "stderr_path": "outputs\\aggressive_mlir23_function_focus60\\artifacts\\conversion_memreftollvm_memref_to_llvm_mlir__fn_003__bufferization_deallocation.stderr.txt",
      "category": "success"
    },
    {
      "seed": "seeds\\real_official_main23_functions_focus60\\conversion_memreftollvm_memref_to_llvm_mlir__fn_003.mlir",
      "pipeline": "shape_reify_resolve",
      "command": "C:\\Users\\lenovo\\.cache\\codex-runtimes\\codex-primary-runtime\\dependencies\\python\\python.exe scripts\\ssh_mlir_opt.py --reify-result-shapes --resolve-shaped-type-result-dims --canonicalize --cse -o - < seeds\\real_official_main23_functions_focus60\\conversion_memreftollvm_memref_to_llvm_mlir__fn_003.mlir",
      "return_code": 0,
      "timed_out": false,
      "elapsed_ms": 911,
      "stdout": "module {\n  func.func @subview(%arg0: memref<64x4xf32, strided<[4, 1]>>, %arg1: index, %arg2: index, %arg3: index) {\n    return\n  }\n}\n\n",
      "stderr": "",
      "stdout_path": "outputs\\aggressive_mlir23_function_focus60\\artifacts\\conversion_memreftollvm_memref_to_llvm_mlir__fn_003__shape_reify_resolve.stdout.mlir",
      "stderr_path": "outputs\\aggressive_mlir23_function_focus60\\artifacts\\conversion_memreftollvm_memref_to_llvm_mlir__fn_003__shape_reify_resolve.stderr.txt",
      "category": "success"
    },
    {
      "seed": "seeds\\real_official_main23_functions_focus60\\conversion_memreftollvm_memref_to_llvm_mlir__fn_003.mlir",
      "pipeline": "sparse_lowering_probe",
      "command": "C:\\Users\\lenovo\\.cache\\codex-runtimes\\codex-primary-runtime\\dependencies\\python\\python.exe scripts\\ssh_mlir_opt.py --pre-sparsification-rewrite --lower-sparse-ops-to-foreach --lower-sparse-foreach-to-scf --canonicalize -o - < seeds\\real_official_main23_functions_focus60\\conversion_memreftollvm_memref_to_llvm_mlir__fn_003.mlir",
      "return_code": 0,
      "timed_out": false,
      "elapsed_ms": 895,
      "stdout": "module {\n  func.func @subview(%arg0: memref<64x4xf32, strided<[4, 1]>>, %arg1: index, %arg2: index, %arg3: index) {\n    return\n  }\n}\n\n",
      "stderr": "",
      "stdout_path": "outputs\\aggressive_mlir23_function_focus60\\artifacts\\conversion_memreftollvm_memref_to_llvm_mlir__fn_003__sparse_lowering_probe.stdout.mlir",
      "stderr_path": "outputs\\aggressive_mlir23_function_focus60\\artifacts\\conversion_memreftollvm_memref_to_llvm_mlir__fn_003__sparse_lowering_probe.stderr.txt",
      "category": "success"
    },
    {
      "seed": "seeds\\real_official_main23_functions_focus60\\conversion_memreftollvm_memref_to_llvm_mlir__fn_004.mlir",
      "pipeline": "parse_verify",
      "command": "C:\\Users\\lenovo\\.cache\\codex-runtimes\\codex-primary-runtime\\dependencies\\python\\python.exe scripts\\ssh_mlir_opt.py  -o - < seeds\\real_official_main23_functions_focus60\\conversion_memreftollvm_memref_to_llvm_mlir__fn_004.mlir",
      "return_code": 0,
      "timed_out": false,
      "elapsed_ms": 865,
      "stdout": "module {\n  func.func @assume_alignment(%arg0: memref<4x4xf16>) {\n    %assume_align = memref.assume_alignment %arg0, 16 : memref<4x4xf16>\n    return\n  }\n}\n\n",
      "stderr": "",
      "stdout_path": "outputs\\aggressive_mlir23_function_focus60\\artifacts\\conversion_memreftollvm_memref_to_llvm_mlir__fn_004__parse_verify.stdout.mlir",
      "stderr_path": "outputs\\aggressive_mlir23_function_focus60\\artifacts\\conversion_memreftollvm_memref_to_llvm_mlir__fn_004__parse_verify.stderr.txt",
      "category": "success"
    },
    {
      "seed": "seeds\\real_official_main23_functions_focus60\\conversion_memreftollvm_memref_to_llvm_mlir__fn_004.mlir",
      "pipeline": "canonicalize_convergence_probe",
      "command": "C:\\Users\\lenovo\\.cache\\codex-runtimes\\codex-primary-runtime\\dependencies\\python\\python.exe scripts\\ssh_mlir_opt.py --canonicalize --cse --sccp --canonicalize -o - < seeds\\real_official_main23_functions_focus60\\conversion_memreftollvm_memref_to_llvm_mlir__fn_004.mlir",
      "return_code": 0,
      "timed_out": false,
      "elapsed_ms": 772,
      "stdout": "module {\n  func.func @assume_alignment(%arg0: memref<4x4xf16>) {\n    return\n  }\n}\n\n",
      "stderr": "",
      "stdout_path": "outputs\\aggressive_mlir23_function_focus60\\artifacts\\conversion_memreftollvm_memref_to_llvm_mlir__fn_004__canonicalize_convergence_probe.stdout.mlir",
      "stderr_path": "outputs\\aggressive_mlir23_function_focus60\\artifacts\\conversion_memreftollvm_memref_to_llvm_mlir__fn_004__canonicalize_convergence_probe.stderr.txt",
      "category": "success"
    },
    {
      "seed": "seeds\\real_official_main23_functions_focus60\\conversion_memreftollvm_memref_to_llvm_mlir__fn_004.mlir",
      "pipeline": "memref_alias_metadata",
      "command": "C:\\Users\\lenovo\\.cache\\codex-runtimes\\codex-primary-runtime\\dependencies\\python\\python.exe scripts\\ssh_mlir_opt.py --fold-memref-alias-ops --expand-strided-metadata --canonicalize --cse -o - < seeds\\real_official_main23_functions_focus60\\conversion_memreftollvm_memref_to_llvm_mlir__fn_004.mlir",
      "return_code": 0,
      "timed_out": false,
      "elapsed_ms": 846,
      "stdout": "module {\n  func.func @assume_alignment(%arg0: memref<4x4xf16>) {\n    return\n  }\n}\n\n",
      "stderr": "",
      "stdout_path": "outputs\\aggressive_mlir23_function_focus60\\artifacts\\conversion_memreftollvm_memref_to_llvm_mlir__fn_004__memref_alias_metadata.stdout.mlir",
      "stderr_path": "outputs\\aggressive_mlir23_function_focus60\\artifacts\\conversion_memreftollvm_memref_to_llvm_mlir__fn_004__memref_alias_metadata.stderr.txt",
      "category": "success"
    },
    {
      "seed": "seeds\\real_official_main23_functions_focus60\\conversion_memreftollvm_memref_to_llvm_mlir__fn_004.mlir",
      "pipeline": "memref_llvm_lowering",
      "command": "C:\\Users\\lenovo\\.cache\\codex-runtimes\\codex-primary-runtime\\dependencies\\python\\python.exe scripts\\ssh_mlir_opt.py --expand-strided-metadata --memref-expand --normalize-memrefs --finalize-memref-to-llvm --canonicalize -o - < seeds\\real_official_main23_functions_focus60\\conversion_memreftollvm_memref_to_llvm_mlir__fn_004.mlir",
      "return_code": 0,
      "timed_out": false,
      "elapsed_ms": 910,
      "stdout": "module {\n  func.func @assume_alignment(%arg0: memref<4x4xf16>) {\n    return\n  }\n}\n\n",
      "stderr": "",
      "stdout_path": "outputs\\aggressive_mlir23_function_focus60\\artifacts\\conversion_memreftollvm_memref_to_llvm_mlir__fn_004__memref_llvm_lowering.stdout.mlir",
      "stderr_path": "outputs\\aggressive_mlir23_function_focus60\\artifacts\\conversion_memreftollvm_memref_to_llvm_mlir__fn_004__memref_llvm_lowering.stderr.txt",
      "category": "success"
    },
    {
      "seed": "seeds\\real_official_main23_functions_focus60\\conversion_memreftollvm_memref_to_llvm_mlir__fn_004.mlir",
      "pipeline": "vector_reduction_lowering",
      "command": "C:\\Users\\lenovo\\.cache\\codex-runtimes\\codex-primary-runtime\\dependencies\\python\\python.exe scripts\\ssh_mlir_opt.py --lower-vector-multi-reduction --lower-vector-mask --canonicalize --cse -o - < seeds\\real_official_main23_functions_focus60\\conversion_memreftollvm_memref_to_llvm_mlir__fn_004.mlir",
      "return_code": 0,
      "timed_out": false,
      "elapsed_ms": 891,
      "stdout": "module {\n  func.func @assume_alignment(%arg0: memref<4x4xf16>) {\n    return\n  }\n}\n\n",
      "stderr": "",
      "stdout_path": "outputs\\aggressive_mlir23_function_focus60\\artifacts\\conversion_memreftollvm_memref_to_llvm_mlir__fn_004__vector_reduction_lowering.stdout.mlir",
      "stderr_path": "outputs\\aggressive_mlir23_function_focus60\\artifacts\\conversion_memreftollvm_memref_to_llvm_mlir__fn_004__vector_reduction_lowering.stderr.txt",
      "category": "success"
    },
    {
      "seed": "seeds\\real_official_main23_functions_focus60\\conversion_memreftollvm_memref_to_llvm_mlir__fn_004.mlir",
      "pipeline": "vector_to_scf_llvm",
      "command": "C:\\Users\\lenovo\\.cache\\codex-runtimes\\codex-primary-runtime\\dependencies\\python\\python.exe scripts\\ssh_mlir_opt.py --convert-vector-to-scf --convert-vector-to-llvm --canonicalize -o - < seeds\\real_official_main23_functions_focus60\\conversion_memreftollvm_memref_to_llvm_mlir__fn_004.mlir",
      "return_code": 0,
      "timed_out": false,
      "elapsed_ms": 905,
      "stdout": "module {\n  func.func @assume_alignment(%arg0: memref<4x4xf16>) {\n    return\n  }\n}\n\n",
      "stderr": "",
      "stdout_path": "outputs\\aggressive_mlir23_function_focus60\\artifacts\\conversion_memreftollvm_memref_to_llvm_mlir__fn_004__vector_to_scf_llvm.stdout.mlir",
      "stderr_path": "outputs\\aggressive_mlir23_function_focus60\\artifacts\\conversion_memreftollvm_memref_to_llvm_mlir__fn_004__vector_to_scf_llvm.stderr.txt",
      "category": "success"
    },
    {
      "seed": "seeds\\real_official_main23_functions_focus60\\conversion_memreftollvm_memref_to_llvm_mlir__fn_004.mlir",
      "pipeline": "tensor_linalg_loop_lowering",
      "command": "C:\\Users\\lenovo\\.cache\\codex-runtimes\\codex-primary-runtime\\dependencies\\python\\python.exe scripts\\ssh_mlir_opt.py --convert-tensor-to-linalg --convert-linalg-to-loops --canonicalize --cse -o - < seeds\\real_official_main23_functions_focus60\\conversion_memreftollvm_memref_to_llvm_mlir__fn_004.mlir",
      "return_code": 0,
      "timed_out": false,
      "elapsed_ms": 914,
      "stdout": "module {\n  func.func @assume_alignment(%arg0: memref<4x4xf16>) {\n    return\n  }\n}\n\n",
      "stderr": "",
      "stdout_path": "outputs\\aggressive_mlir23_function_focus60\\artifacts\\conversion_memreftollvm_memref_to_llvm_mlir__fn_004__tensor_linalg_loop_lowering.stdout.mlir",
      "stderr_path": "outputs\\aggressive_mlir23_function_focus60\\artifacts\\conversion_memreftollvm_memref_to_llvm_mlir__fn_004__tensor_linalg_loop_lowering.stderr.txt",
      "category": "success"
    },
    {
      "seed": "seeds\\real_official_main23_functions_focus60\\conversion_memreftollvm_memref_to_llvm_mlir__fn_004.mlir",
      "pipeline": "linalg_parallel_gpu",
      "command": "C:\\Users\\lenovo\\.cache\\codex-runtimes\\codex-primary-runtime\\dependencies\\python\\python.exe scripts\\ssh_mlir_opt.py --convert-linalg-to-parallel-loops --canonicalize --convert-parallel-loops-to-gpu -o - < seeds\\real_official_main23_functions_focus60\\conversion_memreftollvm_memref_to_llvm_mlir__fn_004.mlir",
      "return_code": 0,
      "timed_out": false,
      "elapsed_ms": 921,
      "stdout": "module {\n  func.func @assume_alignment(%arg0: memref<4x4xf16>) {\n    return\n  }\n}\n\n",
      "stderr": "",
      "stdout_path": "outputs\\aggressive_mlir23_function_focus60\\artifacts\\conversion_memreftollvm_memref_to_llvm_mlir__fn_004__linalg_parallel_gpu.stdout.mlir",
      "stderr_path": "outputs\\aggressive_mlir23_function_focus60\\artifacts\\conversion_memreftollvm_memref_to_llvm_mlir__fn_004__linalg_parallel_gpu.stderr.txt",
      "category": "success"
    },
    {
      "seed": "seeds\\real_official_main23_functions_focus60\\conversion_memreftollvm_memref_to_llvm_mlir__fn_004.mlir",
      "pipeline": "bufferization_deallocation",
      "command": "C:\\Users\\lenovo\\.cache\\codex-runtimes\\codex-primary-runtime\\dependencies\\python\\python.exe scripts\\ssh_mlir_opt.py --one-shot-bufferize --ownership-based-buffer-deallocation --bufferization-lower-deallocations --canonicalize -o - < seeds\\real_official_main23_functions_focus60\\conversion_memreftollvm_memref_to_llvm_mlir__fn_004.mlir",
      "return_code": 0,
      "timed_out": false,
      "elapsed_ms": 868,
      "stdout": "module {\n  func.func @assume_alignment(%arg0: memref<4x4xf16>) {\n    return\n  }\n}\n\n",
      "stderr": "",
      "stdout_path": "outputs\\aggressive_mlir23_function_focus60\\artifacts\\conversion_memreftollvm_memref_to_llvm_mlir__fn_004__bufferization_deallocation.stdout.mlir",
      "stderr_path": "outputs\\aggressive_mlir23_function_focus60\\artifacts\\conversion_memreftollvm_memref_to_llvm_mlir__fn_004__bufferization_deallocation.stderr.txt",
      "category": "success"
    },
    {
      "seed": "seeds\\real_official_main23_functions_focus60\\conversion_memreftollvm_memref_to_llvm_mlir__fn_004.mlir",
      "pipeline": "shape_reify_resolve",
      "command": "C:\\Users\\lenovo\\.cache\\codex-runtimes\\codex-primary-runtime\\dependencies\\python\\python.exe scripts\\ssh_mlir_opt.py --reify-result-shapes --resolve-shaped-type-result-dims --canonicalize --cse -o - < seeds\\real_official_main23_functions_focus60\\conversion_memreftollvm_memref_to_llvm_mlir__fn_004.mlir",
      "return_code": 0,
      "timed_out": false,
      "elapsed_ms": 874,
      "stdout": "module {\n  func.func @assume_alignment(%arg0: memref<4x4xf16>) {\n    return\n  }\n}\n\n",
      "stderr": "",
      "stdout_path": "outputs\\aggressive_mlir23_function_focus60\\artifacts\\conversion_memreftollvm_memref_to_llvm_mlir__fn_004__shape_reify_resolve.stdout.mlir",
      "stderr_path": "outputs\\aggressive_mlir23_function_focus60\\artifacts\\conversion_memreftollvm_memref_to_llvm_mlir__fn_004__shape_reify_resolve.stderr.txt",
      "category": "success"
    },
    {
      "seed": "seeds\\real_official_main23_functions_focus60\\conversion_memreftollvm_memref_to_llvm_mlir__fn_004.mlir",
      "pipeline": "sparse_lowering_probe",
      "command": "C:\\Users\\lenovo\\.cache\\codex-runtimes\\codex-primary-runtime\\dependencies\\python\\python.exe scripts\\ssh_mlir_opt.py --pre-sparsification-rewrite --lower-sparse-ops-to-foreach --lower-sparse-foreach-to-scf --canonicalize -o - < seeds\\real_official_main23_functions_focus60\\conversion_memreftollvm_memref_to_llvm_mlir__fn_004.mlir",
      "return_code": 0,
      "timed_out": false,
      "elapsed_ms": 851,
      "stdout": "module {\n  func.func @assume_alignment(%arg0: memref<4x4xf16>) {\n    return\n  }\n}\n\n",
      "stderr": "",
      "stdout_path": "outputs\\aggressive_mlir23_function_focus60\\artifacts\\conversion_memreftollvm_memref_to_llvm_mlir__fn_004__sparse_lowering_probe.stdout.mlir",
      "stderr_path": "outputs\\aggressive_mlir23_function_focus60\\artifacts\\conversion_memreftollvm_memref_to_llvm_mlir__fn_004__sparse_lowering_probe.stderr.txt",
      "category": "success"
    },
    {
      "seed": "seeds\\real_official_main23_functions_focus60\\conversion_memreftollvm_memref_to_llvm_mlir__fn_005.mlir",
      "pipeline": "parse_verify",
      "command": "C:\\Users\\lenovo\\.cache\\codex-runtimes\\codex-primary-runtime\\dependencies\\python\\python.exe scripts\\ssh_mlir_opt.py  -o - < seeds\\real_official_main23_functions_focus60\\conversion_memreftollvm_memref_to_llvm_mlir__fn_005.mlir",
      "return_code": 0,
      "timed_out": false,
      "elapsed_ms": 814,
      "stdout": "module {\n  func.func @distinct_objects(%arg0: memref<?xf16>, %arg1: memref<?xf32>, %arg2: memref<?xf64>) -> (memref<?xf16>, memref<?xf32>, memref<?xf64>) {\n    %0:3 = memref.distinct_objects %arg0, %arg1, %arg2 : memref<?xf16>, memref<?xf32>, memref<?xf64>\n    return %0#0, %0#1, %0#2 : memref<?xf16>, memref<?xf32>, memref<?xf64>\n  }\n}\n\n",
      "stderr": "",
      "stdout_path": "outputs\\aggressive_mlir23_function_focus60\\artifacts\\conversion_memreftollvm_memref_to_llvm_mlir__fn_005__parse_verify.stdout.mlir",
      "stderr_path": "outputs\\aggressive_mlir23_function_focus60\\artifacts\\conversion_memreftollvm_memref_to_llvm_mlir__fn_005__parse_verify.stderr.txt",
      "category": "success"
    },
    {
      "seed": "seeds\\real_official_main23_functions_focus60\\conversion_memreftollvm_memref_to_llvm_mlir__fn_005.mlir",
      "pipeline": "canonicalize_convergence_probe",
      "command": "C:\\Users\\lenovo\\.cache\\codex-runtimes\\codex-primary-runtime\\dependencies\\python\\python.exe scripts\\ssh_mlir_opt.py --canonicalize --cse --sccp --canonicalize -o - < seeds\\real_official_main23_functions_focus60\\conversion_memreftollvm_memref_to_llvm_mlir__fn_005.mlir",
      "return_code": 0,
      "timed_out": false,
      "elapsed_ms": 817,
      "stdout": "module {\n  func.func @distinct_objects(%arg0: memref<?xf16>, %arg1: memref<?xf32>, %arg2: memref<?xf64>) -> (memref<?xf16>, memref<?xf32>, memref<?xf64>) {\n    %0:3 = memref.distinct_objects %arg0, %arg1, %arg2 : memref<?xf16>, memref<?xf32>, memref<?xf64>\n    return %0#0, %0#1, %0#2 : memref<?xf16>, memref<?xf32>, memref<?xf64>\n  }\n}\n\n",
      "stderr": "",
      "stdout_path": "outputs\\aggressive_mlir23_function_focus60\\artifacts\\conversion_memreftollvm_memref_to_llvm_mlir__fn_005__canonicalize_convergence_probe.stdout.mlir",
      "stderr_path": "outputs\\aggressive_mlir23_function_focus60\\artifacts\\conversion_memreftollvm_memref_to_llvm_mlir__fn_005__canonicalize_convergence_probe.stderr.txt",
      "category": "success"
    },
    {
      "seed": "seeds\\real_official_main23_functions_focus60\\conversion_memreftollvm_memref_to_llvm_mlir__fn_005.mlir",
      "pipeline": "memref_alias_metadata",
      "command": "C:\\Users\\lenovo\\.cache\\codex-runtimes\\codex-primary-runtime\\dependencies\\python\\python.exe scripts\\ssh_mlir_opt.py --fold-memref-alias-ops --expand-strided-metadata --canonicalize --cse -o - < seeds\\real_official_main23_functions_focus60\\conversion_memreftollvm_memref_to_llvm_mlir__fn_005.mlir",
      "return_code": 0,
      "timed_out": false,
      "elapsed_ms": 821,
      "stdout": "module {\n  func.func @distinct_objects(%arg0: memref<?xf16>, %arg1: memref<?xf32>, %arg2: memref<?xf64>) -> (memref<?xf16>, memref<?xf32>, memref<?xf64>) {\n    %0:3 = memref.distinct_objects %arg0, %arg1, %arg2 : memref<?xf16>, memref<?xf32>, memref<?xf64>\n    return %0#0, %0#1, %0#2 : memref<?xf16>, memref<?xf32>, memref<?xf64>\n  }\n}\n\n",
      "stderr": "",
      "stdout_path": "outputs\\aggressive_mlir23_function_focus60\\artifacts\\conversion_memreftollvm_memref_to_llvm_mlir__fn_005__memref_alias_metadata.stdout.mlir",
      "stderr_path": "outputs\\aggressive_mlir23_function_focus60\\artifacts\\conversion_memreftollvm_memref_to_llvm_mlir__fn_005__memref_alias_metadata.stderr.txt",
      "category": "success"
    },
    {
      "seed": "seeds\\real_official_main23_functions_focus60\\conversion_memreftollvm_memref_to_llvm_mlir__fn_005.mlir",
      "pipeline": "memref_llvm_lowering",
      "command": "C:\\Users\\lenovo\\.cache\\codex-runtimes\\codex-primary-runtime\\dependencies\\python\\python.exe scripts\\ssh_mlir_opt.py --expand-strided-metadata --memref-expand --normalize-memrefs --finalize-memref-to-llvm --canonicalize -o - < seeds\\real_official_main23_functions_focus60\\conversion_memreftollvm_memref_to_llvm_mlir__fn_005.mlir",
      "return_code": 0,
      "timed_out": false,
      "elapsed_ms": 874,
      "stdout": "module {\n  func.func @distinct_objects(%arg0: memref<?xf16>, %arg1: memref<?xf32>, %arg2: memref<?xf64>) -> (memref<?xf16>, memref<?xf32>, memref<?xf64>) {\n    %0 = llvm.mlir.constant(true) : i1\n    %1 = builtin.unrealized_conversion_cast %arg2 : memref<?xf64> to !llvm.struct<(ptr, ptr, i64, array<1 x i64>, array<1 x i64>)>\n    %2 = builtin.unrealized_conversion_cast %arg1 : memref<?xf32> to !llvm.struct<(ptr, ptr, i64, array<1 x i64>, array<1 x i64>)>\n    %3 = builtin.unrealized_conversion_cast %arg0 : memref<?xf16> to !llvm.struct<(ptr, ptr, i64, array<1 x i64>, array<1 x i64>)>\n    %4 = llvm.extractvalue %3[1] : !llvm.struct<(ptr, ptr, i64, array<1 x i64>, array<1 x i64>)> \n    %5 = llvm.extractvalue %2[1] : !llvm.struct<(ptr, ptr, i64, array<1 x i64>, array<1 x i64>)> \n    %6 = llvm.extractvalue %1[1] : !llvm.struct<(ptr, ptr, i64, array<1 x i64>, array<1 x i64>)> \n    llvm.intr.assume %0 [\"separate_storage\"(%4, %5 : !llvm.ptr, !llvm.ptr)] : i1\n    llvm.intr.assume %0 [\"separate_storage\"(%4, %6 : !llvm.ptr, !llvm.ptr)] : i1\n    llvm.intr.assume %0 [\"separate_storage\"(%5, %6 : !llvm.ptr, !llvm.ptr)] : i1\n    return %arg0, %arg1, %arg2 : memref<?xf16>, memref<?xf32>, memref<?xf64>\n  }\n}\n\n",
      "stderr": "",
      "stdout_path": "outputs\\aggressive_mlir23_function_focus60\\artifacts\\conversion_memreftollvm_memref_to_llvm_mlir__fn_005__memref_llvm_lowering.stdout.mlir",
      "stderr_path": "outputs\\aggressive_mlir23_function_focus60\\artifacts\\conversion_memreftollvm_memref_to_llvm_mlir__fn_005__memref_llvm_lowering.stderr.txt",
      "category": "success"
    },
    {
      "seed": "seeds\\real_official_main23_functions_focus60\\conversion_memreftollvm_memref_to_llvm_mlir__fn_005.mlir",
      "pipeline": "vector_reduction_lowering",
      "command": "C:\\Users\\lenovo\\.cache\\codex-runtimes\\codex-primary-runtime\\dependencies\\python\\python.exe scripts\\ssh_mlir_opt.py --lower-vector-multi-reduction --lower-vector-mask --canonicalize --cse -o - < seeds\\real_official_main23_functions_focus60\\conversion_memreftollvm_memref_to_llvm_mlir__fn_005.mlir",
      "return_code": 0,
      "timed_out": false,
      "elapsed_ms": 867,
      "stdout": "module {\n  func.func @distinct_objects(%arg0: memref<?xf16>, %arg1: memref<?xf32>, %arg2: memref<?xf64>) -> (memref<?xf16>, memref<?xf32>, memref<?xf64>) {\n    %0:3 = memref.distinct_objects %arg0, %arg1, %arg2 : memref<?xf16>, memref<?xf32>, memref<?xf64>\n    return %0#0, %0#1, %0#2 : memref<?xf16>, memref<?xf32>, memref<?xf64>\n  }\n}\n\n",
      "stderr": "",
      "stdout_path": "outputs\\aggressive_mlir23_function_focus60\\artifacts\\conversion_memreftollvm_memref_to_llvm_mlir__fn_005__vector_reduction_lowering.stdout.mlir",
      "stderr_path": "outputs\\aggressive_mlir23_function_focus60\\artifacts\\conversion_memreftollvm_memref_to_llvm_mlir__fn_005__vector_reduction_lowering.stderr.txt",
      "category": "success"
    },
    {
      "seed": "seeds\\real_official_main23_functions_focus60\\conversion_memreftollvm_memref_to_llvm_mlir__fn_005.mlir",
      "pipeline": "vector_to_scf_llvm",
      "command": "C:\\Users\\lenovo\\.cache\\codex-runtimes\\codex-primary-runtime\\dependencies\\python\\python.exe scripts\\ssh_mlir_opt.py --convert-vector-to-scf --convert-vector-to-llvm --canonicalize -o - < seeds\\real_official_main23_functions_focus60\\conversion_memreftollvm_memref_to_llvm_mlir__fn_005.mlir",
      "return_code": 0,
      "timed_out": false,
      "elapsed_ms": 855,
      "stdout": "module {\n  func.func @distinct_objects(%arg0: memref<?xf16>, %arg1: memref<?xf32>, %arg2: memref<?xf64>) -> (memref<?xf16>, memref<?xf32>, memref<?xf64>) {\n    %0:3 = memref.distinct_objects %arg0, %arg1, %arg2 : memref<?xf16>, memref<?xf32>, memref<?xf64>\n    return %0#0, %0#1, %0#2 : memref<?xf16>, memref<?xf32>, memref<?xf64>\n  }\n}\n\n",
      "stderr": "",
      "stdout_path": "outputs\\aggressive_mlir23_function_focus60\\artifacts\\conversion_memreftollvm_memref_to_llvm_mlir__fn_005__vector_to_scf_llvm.stdout.mlir",
      "stderr_path": "outputs\\aggressive_mlir23_function_focus60\\artifacts\\conversion_memreftollvm_memref_to_llvm_mlir__fn_005__vector_to_scf_llvm.stderr.txt",
      "category": "success"
    },
    {
      "seed": "seeds\\real_official_main23_functions_focus60\\conversion_memreftollvm_memref_to_llvm_mlir__fn_005.mlir",
      "pipeline": "tensor_linalg_loop_lowering",
      "command": "C:\\Users\\lenovo\\.cache\\codex-runtimes\\codex-primary-runtime\\dependencies\\python\\python.exe scripts\\ssh_mlir_opt.py --convert-tensor-to-linalg --convert-linalg-to-loops --canonicalize --cse -o - < seeds\\real_official_main23_functions_focus60\\conversion_memreftollvm_memref_to_llvm_mlir__fn_005.mlir",
      "return_code": 0,
      "timed_out": false,
      "elapsed_ms": 908,
      "stdout": "module {\n  func.func @distinct_objects(%arg0: memref<?xf16>, %arg1: memref<?xf32>, %arg2: memref<?xf64>) -> (memref<?xf16>, memref<?xf32>, memref<?xf64>) {\n    %0:3 = memref.distinct_objects %arg0, %arg1, %arg2 : memref<?xf16>, memref<?xf32>, memref<?xf64>\n    return %0#0, %0#1, %0#2 : memref<?xf16>, memref<?xf32>, memref<?xf64>\n  }\n}\n\n",
      "stderr": "",
      "stdout_path": "outputs\\aggressive_mlir23_function_focus60\\artifacts\\conversion_memreftollvm_memref_to_llvm_mlir__fn_005__tensor_linalg_loop_lowering.stdout.mlir",
      "stderr_path": "outputs\\aggressive_mlir23_function_focus60\\artifacts\\conversion_memreftollvm_memref_to_llvm_mlir__fn_005__tensor_linalg_loop_lowering.stderr.txt",
      "category": "success"
    },
    {
      "seed": "seeds\\real_official_main23_functions_focus60\\conversion_memreftollvm_memref_to_llvm_mlir__fn_005.mlir",
      "pipeline": "linalg_parallel_gpu",
      "command": "C:\\Users\\lenovo\\.cache\\codex-runtimes\\codex-primary-runtime\\dependencies\\python\\python.exe scripts\\ssh_mlir_opt.py --convert-linalg-to-parallel-loops --canonicalize --convert-parallel-loops-to-gpu -o - < seeds\\real_official_main23_functions_focus60\\conversion_memreftollvm_memref_to_llvm_mlir__fn_005.mlir",
      "return_code": 0,
      "timed_out": false,
      "elapsed_ms": 919,
      "stdout": "module {\n  func.func @distinct_objects(%arg0: memref<?xf16>, %arg1: memref<?xf32>, %arg2: memref<?xf64>) -> (memref<?xf16>, memref<?xf32>, memref<?xf64>) {\n    %0:3 = memref.distinct_objects %arg0, %arg1, %arg2 : memref<?xf16>, memref<?xf32>, memref<?xf64>\n    return %0#0, %0#1, %0#2 : memref<?xf16>, memref<?xf32>, memref<?xf64>\n  }\n}\n\n",
      "stderr": "",
      "stdout_path": "outputs\\aggressive_mlir23_function_focus60\\artifacts\\conversion_memreftollvm_memref_to_llvm_mlir__fn_005__linalg_parallel_gpu.stdout.mlir",
      "stderr_path": "outputs\\aggressive_mlir23_function_focus60\\artifacts\\conversion_memreftollvm_memref_to_llvm_mlir__fn_005__linalg_parallel_gpu.stderr.txt",
      "category": "success"
    },
    {
      "seed": "seeds\\real_official_main23_functions_focus60\\conversion_memreftollvm_memref_to_llvm_mlir__fn_005.mlir",
      "pipeline": "bufferization_deallocation",
      "command": "C:\\Users\\lenovo\\.cache\\codex-runtimes\\codex-primary-runtime\\dependencies\\python\\python.exe scripts\\ssh_mlir_opt.py --one-shot-bufferize --ownership-based-buffer-deallocation --bufferization-lower-deallocations --canonicalize -o - < seeds\\real_official_main23_functions_focus60\\conversion_memreftollvm_memref_to_llvm_mlir__fn_005.mlir",
      "return_code": 0,
      "timed_out": false,
      "elapsed_ms": 907,
      "stdout": "module {\n  func.func @distinct_objects(%arg0: memref<?xf16>, %arg1: memref<?xf32>, %arg2: memref<?xf64>) -> (memref<?xf16>, memref<?xf32>, memref<?xf64>) {\n    %c5 = arith.constant 5 : index\n    %c4 = arith.constant 4 : index\n    %c3 = arith.constant 3 : index\n    %c2 = arith.constant 2 : index\n    %c1 = arith.constant 1 : index\n    %c0 = arith.constant 0 : index\n    %true = arith.constant true\n    %false = arith.constant false\n    %0:3 = memref.distinct_objects %arg0, %arg1, %arg2 : memref<?xf16>, memref<?xf32>, memref<?xf64>\n    %1 = bufferization.clone %0#0 : memref<?xf16> to memref<?xf16>\n    %2 = bufferization.clone %0#1 : memref<?xf32> to memref<?xf32>\n    %3 = bufferization.clone %0#2 : memref<?xf64> to memref<?xf64>\n    %base_buffer, %offset, %sizes, %strides = memref.extract_strided_metadata %arg0 : memref<?xf16> -> memref<f16>, index, index, index\n    %base_buffer_0, %offset_1, %sizes_2, %strides_3 = memref.extract_strided_metadata %arg1 : memref<?xf32> -> memref<f32>, index, index, index\n    %base_buffer_4, %offset_5, %sizes_6, %strides_7 = memref.extract_strided_metadata %arg2 : memref<?xf64> -> memref<f64>, index, index, index\n    %base_buffer_8, %offset_9, %sizes_10, %strides_11 = memref.extract_strided_metadata %1 : memref<?xf16> -> memref<f16>, index, index, index\n    %base_buffer_12, %offset_13, %sizes_14, %strides_15 = memref.extract_strided_metadata %2 : memref<?xf32> -> memref<f32>, index, index, index\n    %base_buffer_16, %offset_17, %sizes_18, %strides_19 = memref.extract_strided_metadata %3 : memref<?xf64> -> memref<f64>, index, index, index\n    %alloc = memref.alloc() : memref<6xindex>\n    %alloc_20 = memref.alloc() : memref<6xi1>\n    %alloc_21 = memref.alloc() : memref<3xindex>\n    %intptr = memref.extract_aligned_pointer_as_index %base_buffer : memref<f16> -> index\n    memref.store %intptr, %alloc[%c0] : memref<6xindex>\n    %intptr_22 = memref.extract_aligned_pointer_as_index %base_buffer_0 : memref<f32> -> index\n    memref.store %intptr_22, %alloc[%c1] : memref<6xindex>\n    %intptr_23 = memref.extract_aligned_pointer_as_index %base_buffer_4 : memref<f64> -> index\n    memref.store %intptr_23, %alloc[%c2] : memref<6xindex>\n    %intptr_24 = memref.extract_aligned_pointer_as_index %base_buffer_8 : memref<f16> -> index\n    memref.store %intptr_24, %alloc[%c3] : memref<6xindex>\n    %intptr_25 = memref.extract_aligned_pointer_as_index %base_buffer_12 : memref<f32> -> index\n    memref.store %intptr_25, %alloc[%c4] : memref<6xindex>\n    %intptr_26 = memref.extract_aligned_pointer_as_index %base_buffer_16 : memref<f64> -> index\n    memref.store %intptr_26, %alloc[%c5] : memref<6xindex>\n    memref.store %false, %alloc_20[%c0] : memref<6xi1>\n    memref.store %false, %alloc_20[%c1] : memref<6xi1>\n    memref.store %false, %alloc_20[%c2] : memref<6xi1>\n    memref.store %true, %alloc_20[%c3] : memref<6xi1>\n    memref.store %true, %alloc_20[%c4] : memref<6xi1>\n    memref.store %true, %alloc_20[%c5] : memref<6xi1>\n    %intptr_27 = memref.extract_aligned_pointer_as_index %1 : memref<?xf16> -> index\n    memref.store %intptr_27, %alloc_21[%c0] : memref<3xindex>\n    %intptr_28 = memref.extract_aligned_pointer_as_index %2 : memref<?xf32> -> index\n    memref.store %intptr_28, %alloc_21[%c1] : memref<3xindex>\n    %intptr_29 = memref.extract_aligned_pointer_as_index %3 : memref<?xf64> -> index\n    memref.store %intptr_29, %alloc_21[%c2] : memref<3xindex>\n    %cast = memref.cast %alloc : memref<6xindex> to memref<?xindex>\n    %cast_30 = memref.cast %alloc_20 : memref<6xi1> to memref<?xi1>\n    %cast_31 = memref.cast %alloc_21 : memref<3xindex> to memref<?xindex>\n    %alloc_32 = memref.alloc() : memref<6xi1>\n    %alloc_33 = memref.alloc() : memref<3xi1>\n    %cast_34 = memref.cast %alloc_32 : memref<6xi1> to memref<?xi1>\n    %cast_35 = memref.cast %alloc_33 : memref<3xi1> to memref<?xi1>\n    call @dealloc_helper(%cast, %cast_31, %cast_30, %cast_34, %cast_35) : (memref<?xindex>, memref<?xindex>, memref<?xi1>, memref<?xi1>, memref<?xi1>) -> ()\n    %4 = memref.load %alloc_32[%c0] : memref<6xi1>\n    scf.if %4 {\n      memref.dealloc %base_buffer : memref<f16>\n    }\n    %5 = memref.load %alloc_32[%c1] : memref<6xi1>\n    scf.if %5 {\n      memref.dealloc %base_buffer_0 : memref<f32>\n    }\n    %6 = memref.load %alloc_32[%c2] : memref<6xi1>\n    scf.if %6 {\n      memref.dealloc %base_buffer_4 : memref<f64>\n    }\n    %7 = memref.load %alloc_32[%c3] : memref<6xi1>\n    scf.if %7 {\n      memref.dealloc %base_buffer_8 : memref<f16>\n    }\n    %8 = memref.load %alloc_32[%c4] : memref<6xi1>\n    scf.if %8 {\n      memref.dealloc %base_buffer_12 : memref<f32>\n    }\n    %9 = memref.load %alloc_32[%c5] : memref<6xi1>\n    scf.if %9 {\n      memref.dealloc %base_buffer_16 : memref<f64>\n    }\n    memref.dealloc %alloc : memref<6xindex>\n    memref.dealloc %alloc_21 : memref<3xindex>\n    memref.dealloc %alloc_20 : memref<6xi1>\n    memref.dealloc %alloc_32 : memref<6xi1>\n    memref.dealloc %alloc_33 : memref<3xi1>\n    return %1, %2, %3 : memref<?xf16>, memref<?xf32>, memref<?xf64>\n  }\n  func.func private @dealloc_helper(%arg0: memref<?xindex>, %arg1: memref<?xindex>, %arg2: memref<?xi1>, %arg3: memref<?xi1>, %arg4: memref<?xi1>) {\n    %c0 = arith.constant 0 : index\n    %c1 = arith.constant 1 : index\n    %true = arith.constant true\n    %false = arith.constant false\n    %dim = memref.dim %arg0, %c0 : memref<?xindex>\n    %dim_0 = memref.dim %arg1, %c0 : memref<?xindex>\n    scf.for %arg5 = %c0 to %dim_0 step %c1 {\n      memref.store %false, %arg4[%arg5] : memref<?xi1>\n    }\n    scf.for %arg5 = %c0 to %dim step %c1 {\n      %0 = memref.load %arg0[%arg5] : memref<?xindex>\n      %1 = memref.load %arg2[%arg5] : memref<?xi1>\n      %2 = scf.for %arg6 = %c0 to %dim_0 step %c1 iter_args(%arg7 = %true) -> (i1) {\n        %5 = memref.load %arg1[%arg6] : memref<?xindex>\n        %6 = arith.cmpi eq, %5, %0 : index\n        scf.if %6 {\n          %9 = memref.load %arg4[%arg6] : memref<?xi1>\n          %10 = arith.ori %9, %1 : i1\n          memref.store %10, %arg4[%arg6] : memref<?xi1>\n        }\n        %7 = arith.cmpi ne, %5, %0 : index\n        %8 = arith.andi %arg7, %7 : i1\n        scf.yield %8 : i1\n      }\n      %3 = scf.for %arg6 = %c0 to %arg5 step %c1 iter_args(%arg7 = %2) -> (i1) {\n        %5 = memref.load %arg0[%arg6] : memref<?xindex>\n        %6 = arith.cmpi ne, %5, %0 : index\n        %7 = arith.andi %arg7, %6 : i1\n        scf.yield %7 : i1\n      }\n      %4 = arith.andi %3, %1 : i1\n      memref.store %4, %arg3[%arg5] : memref<?xi1>\n    }\n    return\n  }\n}\n\n",
      "stderr": "",
      "stdout_path": "outputs\\aggressive_mlir23_function_focus60\\artifacts\\conversion_memreftollvm_memref_to_llvm_mlir__fn_005__bufferization_deallocation.stdout.mlir",
      "stderr_path": "outputs\\aggressive_mlir23_function_focus60\\artifacts\\conversion_memreftollvm_memref_to_llvm_mlir__fn_005__bufferization_deallocation.stderr.txt",
      "category": "success"
    },
    {
      "seed": "seeds\\real_official_main23_functions_focus60\\conversion_memreftollvm_memref_to_llvm_mlir__fn_005.mlir",
      "pipeline": "shape_reify_resolve",
      "command": "C:\\Users\\lenovo\\.cache\\codex-runtimes\\codex-primary-runtime\\dependencies\\python\\python.exe scripts\\ssh_mlir_opt.py --reify-result-shapes --resolve-shaped-type-result-dims --canonicalize --cse -o - < seeds\\real_official_main23_functions_focus60\\conversion_memreftollvm_memref_to_llvm_mlir__fn_005.mlir",
      "return_code": 0,
      "timed_out": false,
      "elapsed_ms": 876,
      "stdout": "module {\n  func.func @distinct_objects(%arg0: memref<?xf16>, %arg1: memref<?xf32>, %arg2: memref<?xf64>) -> (memref<?xf16>, memref<?xf32>, memref<?xf64>) {\n    %0:3 = memref.distinct_objects %arg0, %arg1, %arg2 : memref<?xf16>, memref<?xf32>, memref<?xf64>\n    return %0#0, %0#1, %0#2 : memref<?xf16>, memref<?xf32>, memref<?xf64>\n  }\n}\n\n",
      "stderr": "",
      "stdout_path": "outputs\\aggressive_mlir23_function_focus60\\artifacts\\conversion_memreftollvm_memref_to_llvm_mlir__fn_005__shape_reify_resolve.stdout.mlir",
      "stderr_path": "outputs\\aggressive_mlir23_function_focus60\\artifacts\\conversion_memreftollvm_memref_to_llvm_mlir__fn_005__shape_reify_resolve.stderr.txt",
      "category": "success"
    },
    {
      "seed": "seeds\\real_official_main23_functions_focus60\\conversion_memreftollvm_memref_to_llvm_mlir__fn_005.mlir",
      "pipeline": "sparse_lowering_probe",
      "command": "C:\\Users\\lenovo\\.cache\\codex-runtimes\\codex-primary-runtime\\dependencies\\python\\python.exe scripts\\ssh_mlir_opt.py --pre-sparsification-rewrite --lower-sparse-ops-to-foreach --lower-sparse-foreach-to-scf --canonicalize -o - < seeds\\real_official_main23_functions_focus60\\conversion_memreftollvm_memref_to_llvm_mlir__fn_005.mlir",
      "return_code": 0,
      "timed_out": false,
      "elapsed_ms": 902,
      "stdout": "module {\n  func.func @distinct_objects(%arg0: memref<?xf16>, %arg1: memref<?xf32>, %arg2: memref<?xf64>) -> (memref<?xf16>, memref<?xf32>, memref<?xf64>) {\n    %0:3 = memref.distinct_objects %arg0, %arg1, %arg2 : memref<?xf16>, memref<?xf32>, memref<?xf64>\n    return %0#0, %0#1, %0#2 : memref<?xf16>, memref<?xf32>, memref<?xf64>\n  }\n}\n\n",
      "stderr": "",
      "stdout_path": "outputs\\aggressive_mlir23_function_focus60\\artifacts\\conversion_memreftollvm_memref_to_llvm_mlir__fn_005__sparse_lowering_probe.stdout.mlir",
      "stderr_path": "outputs\\aggressive_mlir23_function_focus60\\artifacts\\conversion_memreftollvm_memref_to_llvm_mlir__fn_005__sparse_lowering_probe.stderr.txt",
      "category": "success"
    },
    {
      "seed": "seeds\\real_official_main23_functions_focus60\\conversion_memreftollvm_memref_to_llvm_mlir__fn_006.mlir",
      "pipeline": "parse_verify",
      "command": "C:\\Users\\lenovo\\.cache\\codex-runtimes\\codex-primary-runtime\\dependencies\\python\\python.exe scripts\\ssh_mlir_opt.py  -o - < seeds\\real_official_main23_functions_focus60\\conversion_memreftollvm_memref_to_llvm_mlir__fn_006.mlir",
      "return_code": 0,
      "timed_out": false,
      "elapsed_ms": 871,
      "stdout": "module {\n  func.func @distinct_objects_noop(%arg0: memref<?xf16>) -> memref<?xf16> {\n    %0 = memref.distinct_objects %arg0 : memref<?xf16>\n    return %0 : memref<?xf16>\n  }\n}\n\n",
      "stderr": "",
      "stdout_path": "outputs\\aggressive_mlir23_function_focus60\\artifacts\\conversion_memreftollvm_memref_to_llvm_mlir__fn_006__parse_verify.stdout.mlir",
      "stderr_path": "outputs\\aggressive_mlir23_function_focus60\\artifacts\\conversion_memreftollvm_memref_to_llvm_mlir__fn_006__parse_verify.stderr.txt",
      "category": "success"
    },
    {
      "seed": "seeds\\real_official_main23_functions_focus60\\conversion_memreftollvm_memref_to_llvm_mlir__fn_006.mlir",
      "pipeline": "canonicalize_convergence_probe",
      "command": "C:\\Users\\lenovo\\.cache\\codex-runtimes\\codex-primary-runtime\\dependencies\\python\\python.exe scripts\\ssh_mlir_opt.py --canonicalize --cse --sccp --canonicalize -o - < seeds\\real_official_main23_functions_focus60\\conversion_memreftollvm_memref_to_llvm_mlir__fn_006.mlir",
      "return_code": 0,
      "timed_out": false,
      "elapsed_ms": 868,
      "stdout": "module {\n  func.func @distinct_objects_noop(%arg0: memref<?xf16>) -> memref<?xf16> {\n    %0 = memref.distinct_objects %arg0 : memref<?xf16>\n    return %0 : memref<?xf16>\n  }\n}\n\n",
      "stderr": "",
      "stdout_path": "outputs\\aggressive_mlir23_function_focus60\\artifacts\\conversion_memreftollvm_memref_to_llvm_mlir__fn_006__canonicalize_convergence_probe.stdout.mlir",
      "stderr_path": "outputs\\aggressive_mlir23_function_focus60\\artifacts\\conversion_memreftollvm_memref_to_llvm_mlir__fn_006__canonicalize_convergence_probe.stderr.txt",
      "category": "success"
    },
    {
      "seed": "seeds\\real_official_main23_functions_focus60\\conversion_memreftollvm_memref_to_llvm_mlir__fn_006.mlir",
      "pipeline": "memref_alias_metadata",
      "command": "C:\\Users\\lenovo\\.cache\\codex-runtimes\\codex-primary-runtime\\dependencies\\python\\python.exe scripts\\ssh_mlir_opt.py --fold-memref-alias-ops --expand-strided-metadata --canonicalize --cse -o - < seeds\\real_official_main23_functions_focus60\\conversion_memreftollvm_memref_to_llvm_mlir__fn_006.mlir",
      "return_code": 0,
      "timed_out": false,
      "elapsed_ms": 818,
      "stdout": "module {\n  func.func @distinct_objects_noop(%arg0: memref<?xf16>) -> memref<?xf16> {\n    %0 = memref.distinct_objects %arg0 : memref<?xf16>\n    return %0 : memref<?xf16>\n  }\n}\n\n",
      "stderr": "",
      "stdout_path": "outputs\\aggressive_mlir23_function_focus60\\artifacts\\conversion_memreftollvm_memref_to_llvm_mlir__fn_006__memref_alias_metadata.stdout.mlir",
      "stderr_path": "outputs\\aggressive_mlir23_function_focus60\\artifacts\\conversion_memreftollvm_memref_to_llvm_mlir__fn_006__memref_alias_metadata.stderr.txt",
      "category": "success"
    },
    {
      "seed": "seeds\\real_official_main23_functions_focus60\\conversion_memreftollvm_memref_to_llvm_mlir__fn_006.mlir",
      "pipeline": "memref_llvm_lowering",
      "command": "C:\\Users\\lenovo\\.cache\\codex-runtimes\\codex-primary-runtime\\dependencies\\python\\python.exe scripts\\ssh_mlir_opt.py --expand-strided-metadata --memref-expand --normalize-memrefs --finalize-memref-to-llvm --canonicalize -o - < seeds\\real_official_main23_functions_focus60\\conversion_memreftollvm_memref_to_llvm_mlir__fn_006.mlir",
      "return_code": 0,
      "timed_out": false,
      "elapsed_ms": 896,
      "stdout": "module {\n  func.func @distinct_objects_noop(%arg0: memref<?xf16>) -> memref<?xf16> {\n    return %arg0 : memref<?xf16>\n  }\n}\n\n",
      "stderr": "",
      "stdout_path": "outputs\\aggressive_mlir23_function_focus60\\artifacts\\conversion_memreftollvm_memref_to_llvm_mlir__fn_006__memref_llvm_lowering.stdout.mlir",
      "stderr_path": "outputs\\aggressive_mlir23_function_focus60\\artifacts\\conversion_memreftollvm_memref_to_llvm_mlir__fn_006__memref_llvm_lowering.stderr.txt",
      "category": "success"
    },
    {
      "seed": "seeds\\real_official_main23_functions_focus60\\conversion_memreftollvm_memref_to_llvm_mlir__fn_006.mlir",
      "pipeline": "vector_reduction_lowering",
      "command": "C:\\Users\\lenovo\\.cache\\codex-runtimes\\codex-primary-runtime\\dependencies\\python\\python.exe scripts\\ssh_mlir_opt.py --lower-vector-multi-reduction --lower-vector-mask --canonicalize --cse -o - < seeds\\real_official_main23_functions_focus60\\conversion_memreftollvm_memref_to_llvm_mlir__fn_006.mlir",
      "return_code": 0,
      "timed_out": false,
      "elapsed_ms": 746,
      "stdout": "module {\n  func.func @distinct_objects_noop(%arg0: memref<?xf16>) -> memref<?xf16> {\n    %0 = memref.distinct_objects %arg0 : memref<?xf16>\n    return %0 : memref<?xf16>\n  }\n}\n\n",
      "stderr": "",
      "stdout_path": "outputs\\aggressive_mlir23_function_focus60\\artifacts\\conversion_memreftollvm_memref_to_llvm_mlir__fn_006__vector_reduction_lowering.stdout.mlir",
      "stderr_path": "outputs\\aggressive_mlir23_function_focus60\\artifacts\\conversion_memreftollvm_memref_to_llvm_mlir__fn_006__vector_reduction_lowering.stderr.txt",
      "category": "success"
    },
    {
      "seed": "seeds\\real_official_main23_functions_focus60\\conversion_memreftollvm_memref_to_llvm_mlir__fn_006.mlir",
      "pipeline": "vector_to_scf_llvm",
      "command": "C:\\Users\\lenovo\\.cache\\codex-runtimes\\codex-primary-runtime\\dependencies\\python\\python.exe scripts\\ssh_mlir_opt.py --convert-vector-to-scf --convert-vector-to-llvm --canonicalize -o - < seeds\\real_official_main23_functions_focus60\\conversion_memreftollvm_memref_to_llvm_mlir__fn_006.mlir",
      "return_code": 0,
      "timed_out": false,
      "elapsed_ms": 804,
      "stdout": "module {\n  func.func @distinct_objects_noop(%arg0: memref<?xf16>) -> memref<?xf16> {\n    %0 = memref.distinct_objects %arg0 : memref<?xf16>\n    return %0 : memref<?xf16>\n  }\n}\n\n",
      "stderr": "",
      "stdout_path": "outputs\\aggressive_mlir23_function_focus60\\artifacts\\conversion_memreftollvm_memref_to_llvm_mlir__fn_006__vector_to_scf_llvm.stdout.mlir",
      "stderr_path": "outputs\\aggressive_mlir23_function_focus60\\artifacts\\conversion_memreftollvm_memref_to_llvm_mlir__fn_006__vector_to_scf_llvm.stderr.txt",
      "category": "success"
    },
    {
      "seed": "seeds\\real_official_main23_functions_focus60\\conversion_memreftollvm_memref_to_llvm_mlir__fn_006.mlir",
      "pipeline": "tensor_linalg_loop_lowering",
      "command": "C:\\Users\\lenovo\\.cache\\codex-runtimes\\codex-primary-runtime\\dependencies\\python\\python.exe scripts\\ssh_mlir_opt.py --convert-tensor-to-linalg --convert-linalg-to-loops --canonicalize --cse -o - < seeds\\real_official_main23_functions_focus60\\conversion_memreftollvm_memref_to_llvm_mlir__fn_006.mlir",
      "return_code": 0,
      "timed_out": false,
      "elapsed_ms": 871,
      "stdout": "module {\n  func.func @distinct_objects_noop(%arg0: memref<?xf16>) -> memref<?xf16> {\n    %0 = memref.distinct_objects %arg0 : memref<?xf16>\n    return %0 : memref<?xf16>\n  }\n}\n\n",
      "stderr": "",
      "stdout_path": "outputs\\aggressive_mlir23_function_focus60\\artifacts\\conversion_memreftollvm_memref_to_llvm_mlir__fn_006__tensor_linalg_loop_lowering.stdout.mlir",
      "stderr_path": "outputs\\aggressive_mlir23_function_focus60\\artifacts\\conversion_memreftollvm_memref_to_llvm_mlir__fn_006__tensor_linalg_loop_lowering.stderr.txt",
      "category": "success"
    },
    {
      "seed": "seeds\\real_official_main23_functions_focus60\\conversion_memreftollvm_memref_to_llvm_mlir__fn_006.mlir",
      "pipeline": "linalg_parallel_gpu",
      "command": "C:\\Users\\lenovo\\.cache\\codex-runtimes\\codex-primary-runtime\\dependencies\\python\\python.exe scripts\\ssh_mlir_opt.py --convert-linalg-to-parallel-loops --canonicalize --convert-parallel-loops-to-gpu -o - < seeds\\real_official_main23_functions_focus60\\conversion_memreftollvm_memref_to_llvm_mlir__fn_006.mlir",
      "return_code": 0,
      "timed_out": false,
      "elapsed_ms": 879,
      "stdout": "module {\n  func.func @distinct_objects_noop(%arg0: memref<?xf16>) -> memref<?xf16> {\n    %0 = memref.distinct_objects %arg0 : memref<?xf16>\n    return %0 : memref<?xf16>\n  }\n}\n\n",
      "stderr": "",
      "stdout_path": "outputs\\aggressive_mlir23_function_focus60\\artifacts\\conversion_memreftollvm_memref_to_llvm_mlir__fn_006__linalg_parallel_gpu.stdout.mlir",
      "stderr_path": "outputs\\aggressive_mlir23_function_focus60\\artifacts\\conversion_memreftollvm_memref_to_llvm_mlir__fn_006__linalg_parallel_gpu.stderr.txt",
      "category": "success"
    },
    {
      "seed": "seeds\\real_official_main23_functions_focus60\\conversion_memreftollvm_memref_to_llvm_mlir__fn_006.mlir",
      "pipeline": "bufferization_deallocation",
      "command": "C:\\Users\\lenovo\\.cache\\codex-runtimes\\codex-primary-runtime\\dependencies\\python\\python.exe scripts\\ssh_mlir_opt.py --one-shot-bufferize --ownership-based-buffer-deallocation --bufferization-lower-deallocations --canonicalize -o - < seeds\\real_official_main23_functions_focus60\\conversion_memreftollvm_memref_to_llvm_mlir__fn_006.mlir",
      "return_code": 0,
      "timed_out": false,
      "elapsed_ms": 822,
      "stdout": "module {\n  func.func @distinct_objects_noop(%arg0: memref<?xf16>) -> memref<?xf16> {\n    %c1 = arith.constant 1 : index\n    %c0 = arith.constant 0 : index\n    %true = arith.constant true\n    %false = arith.constant false\n    %0 = memref.distinct_objects %arg0 : memref<?xf16>\n    %1 = bufferization.clone %0 : memref<?xf16> to memref<?xf16>\n    %base_buffer, %offset, %sizes, %strides = memref.extract_strided_metadata %arg0 : memref<?xf16> -> memref<f16>, index, index, index\n    %base_buffer_0, %offset_1, %sizes_2, %strides_3 = memref.extract_strided_metadata %1 : memref<?xf16> -> memref<f16>, index, index, index\n    %alloc = memref.alloc() : memref<2xindex>\n    %alloc_4 = memref.alloc() : memref<2xi1>\n    %alloc_5 = memref.alloc() : memref<1xindex>\n    %intptr = memref.extract_aligned_pointer_as_index %base_buffer : memref<f16> -> index\n    memref.store %intptr, %alloc[%c0] : memref<2xindex>\n    %intptr_6 = memref.extract_aligned_pointer_as_index %base_buffer_0 : memref<f16> -> index\n    memref.store %intptr_6, %alloc[%c1] : memref<2xindex>\n    memref.store %false, %alloc_4[%c0] : memref<2xi1>\n    memref.store %true, %alloc_4[%c1] : memref<2xi1>\n    %intptr_7 = memref.extract_aligned_pointer_as_index %1 : memref<?xf16> -> index\n    memref.store %intptr_7, %alloc_5[%c0] : memref<1xindex>\n    %cast = memref.cast %alloc : memref<2xindex> to memref<?xindex>\n    %cast_8 = memref.cast %alloc_4 : memref<2xi1> to memref<?xi1>\n    %cast_9 = memref.cast %alloc_5 : memref<1xindex> to memref<?xindex>\n    %alloc_10 = memref.alloc() : memref<2xi1>\n    %alloc_11 = memref.alloc() : memref<1xi1>\n    %cast_12 = memref.cast %alloc_10 : memref<2xi1> to memref<?xi1>\n    %cast_13 = memref.cast %alloc_11 : memref<1xi1> to memref<?xi1>\n    call @dealloc_helper(%cast, %cast_9, %cast_8, %cast_12, %cast_13) : (memref<?xindex>, memref<?xindex>, memref<?xi1>, memref<?xi1>, memref<?xi1>) -> ()\n    %2 = memref.load %alloc_10[%c0] : memref<2xi1>\n    scf.if %2 {\n      memref.dealloc %base_buffer : memref<f16>\n    }\n    %3 = memref.load %alloc_10[%c1] : memref<2xi1>\n    scf.if %3 {\n      memref.dealloc %base_buffer_0 : memref<f16>\n    }\n    memref.dealloc %alloc : memref<2xindex>\n    memref.dealloc %alloc_5 : memref<1xindex>\n    memref.dealloc %alloc_4 : memref<2xi1>\n    memref.dealloc %alloc_10 : memref<2xi1>\n    memref.dealloc %alloc_11 : memref<1xi1>\n    return %1 : memref<?xf16>\n  }\n  func.func private @dealloc_helper(%arg0: memref<?xindex>, %arg1: memref<?xindex>, %arg2: memref<?xi1>, %arg3: memref<?xi1>, %arg4: memref<?xi1>) {\n    %c0 = arith.constant 0 : index\n    %c1 = arith.constant 1 : index\n    %true = arith.constant true\n    %false = arith.constant false\n    %dim = memref.dim %arg0, %c0 : memref<?xindex>\n    %dim_0 = memref.dim %arg1, %c0 : memref<?xindex>\n    scf.for %arg5 = %c0 to %dim_0 step %c1 {\n      memref.store %false, %arg4[%arg5] : memref<?xi1>\n    }\n    scf.for %arg5 = %c0 to %dim step %c1 {\n      %0 = memref.load %arg0[%arg5] : memref<?xindex>\n      %1 = memref.load %arg2[%arg5] : memref<?xi1>\n      %2 = scf.for %arg6 = %c0 to %dim_0 step %c1 iter_args(%arg7 = %true) -> (i1) {\n        %5 = memref.load %arg1[%arg6] : memref<?xindex>\n        %6 = arith.cmpi eq, %5, %0 : index\n        scf.if %6 {\n          %9 = memref.load %arg4[%arg6] : memref<?xi1>\n          %10 = arith.ori %9, %1 : i1\n          memref.store %10, %arg4[%arg6] : memref<?xi1>\n        }\n        %7 = arith.cmpi ne, %5, %0 : index\n        %8 = arith.andi %arg7, %7 : i1\n        scf.yield %8 : i1\n      }\n      %3 = scf.for %arg6 = %c0 to %arg5 step %c1 iter_args(%arg7 = %2) -> (i1) {\n        %5 = memref.load %arg0[%arg6] : memref<?xindex>\n        %6 = arith.cmpi ne, %5, %0 : index\n        %7 = arith.andi %arg7, %6 : i1\n        scf.yield %7 : i1\n      }\n      %4 = arith.andi %3, %1 : i1\n      memref.store %4, %arg3[%arg5] : memref<?xi1>\n    }\n    return\n  }\n}\n\n",
      "stderr": "",
      "stdout_path": "outputs\\aggressive_mlir23_function_focus60\\artifacts\\conversion_memreftollvm_memref_to_llvm_mlir__fn_006__bufferization_deallocation.stdout.mlir",
      "stderr_path": "outputs\\aggressive_mlir23_function_focus60\\artifacts\\conversion_memreftollvm_memref_to_llvm_mlir__fn_006__bufferization_deallocation.stderr.txt",
      "category": "success"
    },
    {
      "seed": "seeds\\real_official_main23_functions_focus60\\conversion_memreftollvm_memref_to_llvm_mlir__fn_006.mlir",
      "pipeline": "shape_reify_resolve",
      "command": "C:\\Users\\lenovo\\.cache\\codex-runtimes\\codex-primary-runtime\\dependencies\\python\\python.exe scripts\\ssh_mlir_opt.py --reify-result-shapes --resolve-shaped-type-result-dims --canonicalize --cse -o - < seeds\\real_official_main23_functions_focus60\\conversion_memreftollvm_memref_to_llvm_mlir__fn_006.mlir",
      "return_code": 0,
      "timed_out": false,
      "elapsed_ms": 702,
      "stdout": "module {\n  func.func @distinct_objects_noop(%arg0: memref<?xf16>) -> memref<?xf16> {\n    %0 = memref.distinct_objects %arg0 : memref<?xf16>\n    return %0 : memref<?xf16>\n  }\n}\n\n",
      "stderr": "",
      "stdout_path": "outputs\\aggressive_mlir23_function_focus60\\artifacts\\conversion_memreftollvm_memref_to_llvm_mlir__fn_006__shape_reify_resolve.stdout.mlir",
      "stderr_path": "outputs\\aggressive_mlir23_function_focus60\\artifacts\\conversion_memreftollvm_memref_to_llvm_mlir__fn_006__shape_reify_resolve.stderr.txt",
      "category": "success"
    },
    {
      "seed": "seeds\\real_official_main23_functions_focus60\\conversion_memreftollvm_memref_to_llvm_mlir__fn_006.mlir",
      "pipeline": "sparse_lowering_probe",
      "command": "C:\\Users\\lenovo\\.cache\\codex-runtimes\\codex-primary-runtime\\dependencies\\python\\python.exe scripts\\ssh_mlir_opt.py --pre-sparsification-rewrite --lower-sparse-ops-to-foreach --lower-sparse-foreach-to-scf --canonicalize -o - < seeds\\real_official_main23_functions_focus60\\conversion_memreftollvm_memref_to_llvm_mlir__fn_006.mlir",
      "return_code": 0,
      "timed_out": false,
      "elapsed_ms": 874,
      "stdout": "module {\n  func.func @distinct_objects_noop(%arg0: memref<?xf16>) -> memref<?xf16> {\n    %0 = memref.distinct_objects %arg0 : memref<?xf16>\n    return %0 : memref<?xf16>\n  }\n}\n\n",
      "stderr": "",
      "stdout_path": "outputs\\aggressive_mlir23_function_focus60\\artifacts\\conversion_memreftollvm_memref_to_llvm_mlir__fn_006__sparse_lowering_probe.stdout.mlir",
      "stderr_path": "outputs\\aggressive_mlir23_function_focus60\\artifacts\\conversion_memreftollvm_memref_to_llvm_mlir__fn_006__sparse_lowering_probe.stderr.txt",
      "category": "success"
    },
    {
      "seed": "seeds\\real_official_main23_functions_focus60\\conversion_memreftollvm_memref_to_llvm_mlir__fn_007.mlir",
      "pipeline": "parse_verify",
      "command": "C:\\Users\\lenovo\\.cache\\codex-runtimes\\codex-primary-runtime\\dependencies\\python\\python.exe scripts\\ssh_mlir_opt.py  -o - < seeds\\real_official_main23_functions_focus60\\conversion_memreftollvm_memref_to_llvm_mlir__fn_007.mlir",
      "return_code": 0,
      "timed_out": false,
      "elapsed_ms": 855,
      "stdout": "module {\n  func.func @assume_alignment_w_offset(%arg0: memref<4x4xf16, strided<[?, ?], offset: ?>>) {\n    %assume_align = memref.assume_alignment %arg0, 16 : memref<4x4xf16, strided<[?, ?], offset: ?>>\n    return\n  }\n}\n\n",
      "stderr": "",
      "stdout_path": "outputs\\aggressive_mlir23_function_focus60\\artifacts\\conversion_memreftollvm_memref_to_llvm_mlir__fn_007__parse_verify.stdout.mlir",
      "stderr_path": "outputs\\aggressive_mlir23_function_focus60\\artifacts\\conversion_memreftollvm_memref_to_llvm_mlir__fn_007__parse_verify.stderr.txt",
      "category": "success"
    },
    {
      "seed": "seeds\\real_official_main23_functions_focus60\\conversion_memreftollvm_memref_to_llvm_mlir__fn_007.mlir",
      "pipeline": "canonicalize_convergence_probe",
      "command": "C:\\Users\\lenovo\\.cache\\codex-runtimes\\codex-primary-runtime\\dependencies\\python\\python.exe scripts\\ssh_mlir_opt.py --canonicalize --cse --sccp --canonicalize -o - < seeds\\real_official_main23_functions_focus60\\conversion_memreftollvm_memref_to_llvm_mlir__fn_007.mlir",
      "return_code": 0,
      "timed_out": false,
      "elapsed_ms": 806,
      "stdout": "module {\n  func.func @assume_alignment_w_offset(%arg0: memref<4x4xf16, strided<[?, ?], offset: ?>>) {\n    return\n  }\n}\n\n",
      "stderr": "",
      "stdout_path": "outputs\\aggressive_mlir23_function_focus60\\artifacts\\conversion_memreftollvm_memref_to_llvm_mlir__fn_007__canonicalize_convergence_probe.stdout.mlir",
      "stderr_path": "outputs\\aggressive_mlir23_function_focus60\\artifacts\\conversion_memreftollvm_memref_to_llvm_mlir__fn_007__canonicalize_convergence_probe.stderr.txt",
      "category": "success"
    },
    {
      "seed": "seeds\\real_official_main23_functions_focus60\\conversion_memreftollvm_memref_to_llvm_mlir__fn_007.mlir",
      "pipeline": "memref_alias_metadata",
      "command": "C:\\Users\\lenovo\\.cache\\codex-runtimes\\codex-primary-runtime\\dependencies\\python\\python.exe scripts\\ssh_mlir_opt.py --fold-memref-alias-ops --expand-strided-metadata --canonicalize --cse -o - < seeds\\real_official_main23_functions_focus60\\conversion_memreftollvm_memref_to_llvm_mlir__fn_007.mlir",
      "return_code": 0,
      "timed_out": false,
      "elapsed_ms": 850,
      "stdout": "module {\n  func.func @assume_alignment_w_offset(%arg0: memref<4x4xf16, strided<[?, ?], offset: ?>>) {\n    return\n  }\n}\n\n",
      "stderr": "",
      "stdout_path": "outputs\\aggressive_mlir23_function_focus60\\artifacts\\conversion_memreftollvm_memref_to_llvm_mlir__fn_007__memref_alias_metadata.stdout.mlir",
      "stderr_path": "outputs\\aggressive_mlir23_function_focus60\\artifacts\\conversion_memreftollvm_memref_to_llvm_mlir__fn_007__memref_alias_metadata.stderr.txt",
      "category": "success"
    },
    {
      "seed": "seeds\\real_official_main23_functions_focus60\\conversion_memreftollvm_memref_to_llvm_mlir__fn_007.mlir",
      "pipeline": "memref_llvm_lowering",
      "command": "C:\\Users\\lenovo\\.cache\\codex-runtimes\\codex-primary-runtime\\dependencies\\python\\python.exe scripts\\ssh_mlir_opt.py --expand-strided-metadata --memref-expand --normalize-memrefs --finalize-memref-to-llvm --canonicalize -o - < seeds\\real_official_main23_functions_focus60\\conversion_memreftollvm_memref_to_llvm_mlir__fn_007.mlir",
      "return_code": 0,
      "timed_out": false,
      "elapsed_ms": 874,
      "stdout": "module {\n  func.func @assume_alignment_w_offset(%arg0: memref<4x4xf16, strided<[?, ?], offset: ?>>) {\n    return\n  }\n}\n\n",
      "stderr": "",
      "stdout_path": "outputs\\aggressive_mlir23_function_focus60\\artifacts\\conversion_memreftollvm_memref_to_llvm_mlir__fn_007__memref_llvm_lowering.stdout.mlir",
      "stderr_path": "outputs\\aggressive_mlir23_function_focus60\\artifacts\\conversion_memreftollvm_memref_to_llvm_mlir__fn_007__memref_llvm_lowering.stderr.txt",
      "category": "success"
    },
    {
      "seed": "seeds\\real_official_main23_functions_focus60\\conversion_memreftollvm_memref_to_llvm_mlir__fn_007.mlir",
      "pipeline": "vector_reduction_lowering",
      "command": "C:\\Users\\lenovo\\.cache\\codex-runtimes\\codex-primary-runtime\\dependencies\\python\\python.exe scripts\\ssh_mlir_opt.py --lower-vector-multi-reduction --lower-vector-mask --canonicalize --cse -o - < seeds\\real_official_main23_functions_focus60\\conversion_memreftollvm_memref_to_llvm_mlir__fn_007.mlir",
      "return_code": 0,
      "timed_out": false,
      "elapsed_ms": 854,
      "stdout": "module {\n  func.func @assume_alignment_w_offset(%arg0: memref<4x4xf16, strided<[?, ?], offset: ?>>) {\n    return\n  }\n}\n\n",
      "stderr": "",
      "stdout_path": "outputs\\aggressive_mlir23_function_focus60\\artifacts\\conversion_memreftollvm_memref_to_llvm_mlir__fn_007__vector_reduction_lowering.stdout.mlir",
      "stderr_path": "outputs\\aggressive_mlir23_function_focus60\\artifacts\\conversion_memreftollvm_memref_to_llvm_mlir__fn_007__vector_reduction_lowering.stderr.txt",
      "category": "success"
    },
    {
      "seed": "seeds\\real_official_main23_functions_focus60\\conversion_memreftollvm_memref_to_llvm_mlir__fn_007.mlir",
      "pipeline": "vector_to_scf_llvm",
      "command": "C:\\Users\\lenovo\\.cache\\codex-runtimes\\codex-primary-runtime\\dependencies\\python\\python.exe scripts\\ssh_mlir_opt.py --convert-vector-to-scf --convert-vector-to-llvm --canonicalize -o - < seeds\\real_official_main23_functions_focus60\\conversion_memreftollvm_memref_to_llvm_mlir__fn_007.mlir",
      "return_code": 0,
      "timed_out": false,
      "elapsed_ms": 841,
      "stdout": "module {\n  func.func @assume_alignment_w_offset(%arg0: memref<4x4xf16, strided<[?, ?], offset: ?>>) {\n    return\n  }\n}\n\n",
      "stderr": "",
      "stdout_path": "outputs\\aggressive_mlir23_function_focus60\\artifacts\\conversion_memreftollvm_memref_to_llvm_mlir__fn_007__vector_to_scf_llvm.stdout.mlir",
      "stderr_path": "outputs\\aggressive_mlir23_function_focus60\\artifacts\\conversion_memreftollvm_memref_to_llvm_mlir__fn_007__vector_to_scf_llvm.stderr.txt",
      "category": "success"
    },
    {
      "seed": "seeds\\real_official_main23_functions_focus60\\conversion_memreftollvm_memref_to_llvm_mlir__fn_007.mlir",
      "pipeline": "tensor_linalg_loop_lowering",
      "command": "C:\\Users\\lenovo\\.cache\\codex-runtimes\\codex-primary-runtime\\dependencies\\python\\python.exe scripts\\ssh_mlir_opt.py --convert-tensor-to-linalg --convert-linalg-to-loops --canonicalize --cse -o - < seeds\\real_official_main23_functions_focus60\\conversion_memreftollvm_memref_to_llvm_mlir__fn_007.mlir",
      "return_code": 0,
      "timed_out": false,
      "elapsed_ms": 878,
      "stdout": "module {\n  func.func @assume_alignment_w_offset(%arg0: memref<4x4xf16, strided<[?, ?], offset: ?>>) {\n    return\n  }\n}\n\n",
      "stderr": "",
      "stdout_path": "outputs\\aggressive_mlir23_function_focus60\\artifacts\\conversion_memreftollvm_memref_to_llvm_mlir__fn_007__tensor_linalg_loop_lowering.stdout.mlir",
      "stderr_path": "outputs\\aggressive_mlir23_function_focus60\\artifacts\\conversion_memreftollvm_memref_to_llvm_mlir__fn_007__tensor_linalg_loop_lowering.stderr.txt",
      "category": "success"
    },
    {
      "seed": "seeds\\real_official_main23_functions_focus60\\conversion_memreftollvm_memref_to_llvm_mlir__fn_007.mlir",
      "pipeline": "linalg_parallel_gpu",
      "command": "C:\\Users\\lenovo\\.cache\\codex-runtimes\\codex-primary-runtime\\dependencies\\python\\python.exe scripts\\ssh_mlir_opt.py --convert-linalg-to-parallel-loops --canonicalize --convert-parallel-loops-to-gpu -o - < seeds\\real_official_main23_functions_focus60\\conversion_memreftollvm_memref_to_llvm_mlir__fn_007.mlir",
      "return_code": 0,
      "timed_out": false,
      "elapsed_ms": 837,
      "stdout": "module {\n  func.func @assume_alignment_w_offset(%arg0: memref<4x4xf16, strided<[?, ?], offset: ?>>) {\n    return\n  }\n}\n\n",
      "stderr": "",
      "stdout_path": "outputs\\aggressive_mlir23_function_focus60\\artifacts\\conversion_memreftollvm_memref_to_llvm_mlir__fn_007__linalg_parallel_gpu.stdout.mlir",
      "stderr_path": "outputs\\aggressive_mlir23_function_focus60\\artifacts\\conversion_memreftollvm_memref_to_llvm_mlir__fn_007__linalg_parallel_gpu.stderr.txt",
      "category": "success"
    },
    {
      "seed": "seeds\\real_official_main23_functions_focus60\\conversion_memreftollvm_memref_to_llvm_mlir__fn_007.mlir",
      "pipeline": "bufferization_deallocation",
      "command": "C:\\Users\\lenovo\\.cache\\codex-runtimes\\codex-primary-runtime\\dependencies\\python\\python.exe scripts\\ssh_mlir_opt.py --one-shot-bufferize --ownership-based-buffer-deallocation --bufferization-lower-deallocations --canonicalize -o - < seeds\\real_official_main23_functions_focus60\\conversion_memreftollvm_memref_to_llvm_mlir__fn_007.mlir",
      "return_code": 0,
      "timed_out": false,
      "elapsed_ms": 891,
      "stdout": "module {\n  func.func @assume_alignment_w_offset(%arg0: memref<4x4xf16, strided<[?, ?], offset: ?>>) {\n    return\n  }\n}\n\n",
      "stderr": "",
      "stdout_path": "outputs\\aggressive_mlir23_function_focus60\\artifacts\\conversion_memreftollvm_memref_to_llvm_mlir__fn_007__bufferization_deallocation.stdout.mlir",
      "stderr_path": "outputs\\aggressive_mlir23_function_focus60\\artifacts\\conversion_memreftollvm_memref_to_llvm_mlir__fn_007__bufferization_deallocation.stderr.txt",
      "category": "success"
    },
    {
      "seed": "seeds\\real_official_main23_functions_focus60\\conversion_memreftollvm_memref_to_llvm_mlir__fn_007.mlir",
      "pipeline": "shape_reify_resolve",
      "command": "C:\\Users\\lenovo\\.cache\\codex-runtimes\\codex-primary-runtime\\dependencies\\python\\python.exe scripts\\ssh_mlir_opt.py --reify-result-shapes --resolve-shaped-type-result-dims --canonicalize --cse -o - < seeds\\real_official_main23_functions_focus60\\conversion_memreftollvm_memref_to_llvm_mlir__fn_007.mlir",
      "return_code": 0,
      "timed_out": false,
      "elapsed_ms": 867,
      "stdout": "module {\n  func.func @assume_alignment_w_offset(%arg0: memref<4x4xf16, strided<[?, ?], offset: ?>>) {\n    return\n  }\n}\n\n",
      "stderr": "",
      "stdout_path": "outputs\\aggressive_mlir23_function_focus60\\artifacts\\conversion_memreftollvm_memref_to_llvm_mlir__fn_007__shape_reify_resolve.stdout.mlir",
      "stderr_path": "outputs\\aggressive_mlir23_function_focus60\\artifacts\\conversion_memreftollvm_memref_to_llvm_mlir__fn_007__shape_reify_resolve.stderr.txt",
      "category": "success"
    },
    {
      "seed": "seeds\\real_official_main23_functions_focus60\\conversion_memreftollvm_memref_to_llvm_mlir__fn_007.mlir",
      "pipeline": "sparse_lowering_probe",
      "command": "C:\\Users\\lenovo\\.cache\\codex-runtimes\\codex-primary-runtime\\dependencies\\python\\python.exe scripts\\ssh_mlir_opt.py --pre-sparsification-rewrite --lower-sparse-ops-to-foreach --lower-sparse-foreach-to-scf --canonicalize -o - < seeds\\real_official_main23_functions_focus60\\conversion_memreftollvm_memref_to_llvm_mlir__fn_007.mlir",
      "return_code": 0,
      "timed_out": false,
      "elapsed_ms": 901,
      "stdout": "module {\n  func.func @assume_alignment_w_offset(%arg0: memref<4x4xf16, strided<[?, ?], offset: ?>>) {\n    return\n  }\n}\n\n",
      "stderr": "",
      "stdout_path": "outputs\\aggressive_mlir23_function_focus60\\artifacts\\conversion_memreftollvm_memref_to_llvm_mlir__fn_007__sparse_lowering_probe.stdout.mlir",
      "stderr_path": "outputs\\aggressive_mlir23_function_focus60\\artifacts\\conversion_memreftollvm_memref_to_llvm_mlir__fn_007__sparse_lowering_probe.stderr.txt",
      "category": "success"
    },
    {
      "seed": "seeds\\real_official_main23_functions_focus60\\conversion_memreftollvm_memref_to_llvm_mlir__fn_008.mlir",
      "pipeline": "parse_verify",
      "command": "C:\\Users\\lenovo\\.cache\\codex-runtimes\\codex-primary-runtime\\dependencies\\python\\python.exe scripts\\ssh_mlir_opt.py  -o - < seeds\\real_official_main23_functions_focus60\\conversion_memreftollvm_memref_to_llvm_mlir__fn_008.mlir",
      "return_code": 0,
      "timed_out": false,
      "elapsed_ms": 914,
      "stdout": "module {\n  func.func @dim_of_unranked(%arg0: memref<*xi32>) -> index {\n    %c0 = arith.constant 0 : index\n    %dim = memref.dim %arg0, %c0 : memref<*xi32>\n    return %dim : index\n  }\n}\n\n",
      "stderr": "",
      "stdout_path": "outputs\\aggressive_mlir23_function_focus60\\artifacts\\conversion_memreftollvm_memref_to_llvm_mlir__fn_008__parse_verify.stdout.mlir",
      "stderr_path": "outputs\\aggressive_mlir23_function_focus60\\artifacts\\conversion_memreftollvm_memref_to_llvm_mlir__fn_008__parse_verify.stderr.txt",
      "category": "success"
    },
    {
      "seed": "seeds\\real_official_main23_functions_focus60\\conversion_memreftollvm_memref_to_llvm_mlir__fn_008.mlir",
      "pipeline": "canonicalize_convergence_probe",
      "command": "C:\\Users\\lenovo\\.cache\\codex-runtimes\\codex-primary-runtime\\dependencies\\python\\python.exe scripts\\ssh_mlir_opt.py --canonicalize --cse --sccp --canonicalize -o - < seeds\\real_official_main23_functions_focus60\\conversion_memreftollvm_memref_to_llvm_mlir__fn_008.mlir",
      "return_code": 0,
      "timed_out": false,
      "elapsed_ms": 925,
      "stdout": "module {\n  func.func @dim_of_unranked(%arg0: memref<*xi32>) -> index {\n    %c0 = arith.constant 0 : index\n    %dim = memref.dim %arg0, %c0 : memref<*xi32>\n    return %dim : index\n  }\n}\n\n",
      "stderr": "",
      "stdout_path": "outputs\\aggressive_mlir23_function_focus60\\artifacts\\conversion_memreftollvm_memref_to_llvm_mlir__fn_008__canonicalize_convergence_probe.stdout.mlir",
      "stderr_path": "outputs\\aggressive_mlir23_function_focus60\\artifacts\\conversion_memreftollvm_memref_to_llvm_mlir__fn_008__canonicalize_convergence_probe.stderr.txt",
      "category": "success"
    },
    {
      "seed": "seeds\\real_official_main23_functions_focus60\\conversion_memreftollvm_memref_to_llvm_mlir__fn_008.mlir",
      "pipeline": "memref_alias_metadata",
      "command": "C:\\Users\\lenovo\\.cache\\codex-runtimes\\codex-primary-runtime\\dependencies\\python\\python.exe scripts\\ssh_mlir_opt.py --fold-memref-alias-ops --expand-strided-metadata --canonicalize --cse -o - < seeds\\real_official_main23_functions_focus60\\conversion_memreftollvm_memref_to_llvm_mlir__fn_008.mlir",
      "return_code": 0,
      "timed_out": false,
      "elapsed_ms": 839,
      "stdout": "module {\n  func.func @dim_of_unranked(%arg0: memref<*xi32>) -> index {\n    %c0 = arith.constant 0 : index\n    %dim = memref.dim %arg0, %c0 : memref<*xi32>\n    return %dim : index\n  }\n}\n\n",
      "stderr": "",
      "stdout_path": "outputs\\aggressive_mlir23_function_focus60\\artifacts\\conversion_memreftollvm_memref_to_llvm_mlir__fn_008__memref_alias_metadata.stdout.mlir",
      "stderr_path": "outputs\\aggressive_mlir23_function_focus60\\artifacts\\conversion_memreftollvm_memref_to_llvm_mlir__fn_008__memref_alias_metadata.stderr.txt",
      "category": "success"
    },
    {
      "seed": "seeds\\real_official_main23_functions_focus60\\conversion_memreftollvm_memref_to_llvm_mlir__fn_008.mlir",
      "pipeline": "memref_llvm_lowering",
      "command": "C:\\Users\\lenovo\\.cache\\codex-runtimes\\codex-primary-runtime\\dependencies\\python\\python.exe scripts\\ssh_mlir_opt.py --expand-strided-metadata --memref-expand --normalize-memrefs --finalize-memref-to-llvm --canonicalize -o - < seeds\\real_official_main23_functions_focus60\\conversion_memreftollvm_memref_to_llvm_mlir__fn_008.mlir",
      "return_code": 0,
      "timed_out": false,
      "elapsed_ms": 847,
      "stdout": "module {\n  func.func @dim_of_unranked(%arg0: memref<*xi32>) -> index {\n    %0 = llvm.mlir.constant(1 : index) : i64\n    %c0 = arith.constant 0 : index\n    %1 = builtin.unrealized_conversion_cast %arg0 : memref<*xi32> to !llvm.struct<(i64, ptr)>\n    %2 = builtin.unrealized_conversion_cast %c0 : index to i64\n    %3 = llvm.extractvalue %1[1] : !llvm.struct<(i64, ptr)> \n    %4 = llvm.getelementptr %3[0, 2] : (!llvm.ptr) -> !llvm.ptr, !llvm.struct<(ptr, ptr, i64)>\n    %5 = llvm.add %2, %0 : i64\n    %6 = llvm.getelementptr %4[%5] : (!llvm.ptr, i64) -> !llvm.ptr, i64\n    %7 = llvm.load %6 : !llvm.ptr -> i64\n    %8 = builtin.unrealized_conversion_cast %7 : i64 to index\n    return %8 : index\n  }\n}\n\n",
      "stderr": "",
      "stdout_path": "outputs\\aggressive_mlir23_function_focus60\\artifacts\\conversion_memreftollvm_memref_to_llvm_mlir__fn_008__memref_llvm_lowering.stdout.mlir",
      "stderr_path": "outputs\\aggressive_mlir23_function_focus60\\artifacts\\conversion_memreftollvm_memref_to_llvm_mlir__fn_008__memref_llvm_lowering.stderr.txt",
      "category": "success"
    },
    {
      "seed": "seeds\\real_official_main23_functions_focus60\\conversion_memreftollvm_memref_to_llvm_mlir__fn_008.mlir",
      "pipeline": "vector_reduction_lowering",
      "command": "C:\\Users\\lenovo\\.cache\\codex-runtimes\\codex-primary-runtime\\dependencies\\python\\python.exe scripts\\ssh_mlir_opt.py --lower-vector-multi-reduction --lower-vector-mask --canonicalize --cse -o - < seeds\\real_official_main23_functions_focus60\\conversion_memreftollvm_memref_to_llvm_mlir__fn_008.mlir",
      "return_code": 0,
      "timed_out": false,
      "elapsed_ms": 909,
      "stdout": "module {\n  func.func @dim_of_unranked(%arg0: memref<*xi32>) -> index {\n    %c0 = arith.constant 0 : index\n    %dim = memref.dim %arg0, %c0 : memref<*xi32>\n    return %dim : index\n  }\n}\n\n",
      "stderr": "",
      "stdout_path": "outputs\\aggressive_mlir23_function_focus60\\artifacts\\conversion_memreftollvm_memref_to_llvm_mlir__fn_008__vector_reduction_lowering.stdout.mlir",
      "stderr_path": "outputs\\aggressive_mlir23_function_focus60\\artifacts\\conversion_memreftollvm_memref_to_llvm_mlir__fn_008__vector_reduction_lowering.stderr.txt",
      "category": "success"
    },
    {
      "seed": "seeds\\real_official_main23_functions_focus60\\conversion_memreftollvm_memref_to_llvm_mlir__fn_008.mlir",
      "pipeline": "vector_to_scf_llvm",
      "command": "C:\\Users\\lenovo\\.cache\\codex-runtimes\\codex-primary-runtime\\dependencies\\python\\python.exe scripts\\ssh_mlir_opt.py --convert-vector-to-scf --convert-vector-to-llvm --canonicalize -o - < seeds\\real_official_main23_functions_focus60\\conversion_memreftollvm_memref_to_llvm_mlir__fn_008.mlir",
      "return_code": 0,
      "timed_out": false,
      "elapsed_ms": 867,
      "stdout": "module {\n  func.func @dim_of_unranked(%arg0: memref<*xi32>) -> index {\n    %c0 = arith.constant 0 : index\n    %dim = memref.dim %arg0, %c0 : memref<*xi32>\n    return %dim : index\n  }\n}\n\n",
      "stderr": "",
      "stdout_path": "outputs\\aggressive_mlir23_function_focus60\\artifacts\\conversion_memreftollvm_memref_to_llvm_mlir__fn_008__vector_to_scf_llvm.stdout.mlir",
      "stderr_path": "outputs\\aggressive_mlir23_function_focus60\\artifacts\\conversion_memreftollvm_memref_to_llvm_mlir__fn_008__vector_to_scf_llvm.stderr.txt",
      "category": "success"
    },
    {
      "seed": "seeds\\real_official_main23_functions_focus60\\conversion_memreftollvm_memref_to_llvm_mlir__fn_008.mlir",
      "pipeline": "tensor_linalg_loop_lowering",
      "command": "C:\\Users\\lenovo\\.cache\\codex-runtimes\\codex-primary-runtime\\dependencies\\python\\python.exe scripts\\ssh_mlir_opt.py --convert-tensor-to-linalg --convert-linalg-to-loops --canonicalize --cse -o - < seeds\\real_official_main23_functions_focus60\\conversion_memreftollvm_memref_to_llvm_mlir__fn_008.mlir",
      "return_code": 0,
      "timed_out": false,
      "elapsed_ms": 907,
      "stdout": "module {\n  func.func @dim_of_unranked(%arg0: memref<*xi32>) -> index {\n    %c0 = arith.constant 0 : index\n    %dim = memref.dim %arg0, %c0 : memref<*xi32>\n    return %dim : index\n  }\n}\n\n",
      "stderr": "",
      "stdout_path": "outputs\\aggressive_mlir23_function_focus60\\artifacts\\conversion_memreftollvm_memref_to_llvm_mlir__fn_008__tensor_linalg_loop_lowering.stdout.mlir",
      "stderr_path": "outputs\\aggressive_mlir23_function_focus60\\artifacts\\conversion_memreftollvm_memref_to_llvm_mlir__fn_008__tensor_linalg_loop_lowering.stderr.txt",
      "category": "success"
    },
    {
      "seed": "seeds\\real_official_main23_functions_focus60\\conversion_memreftollvm_memref_to_llvm_mlir__fn_008.mlir",
      "pipeline": "linalg_parallel_gpu",
      "command": "C:\\Users\\lenovo\\.cache\\codex-runtimes\\codex-primary-runtime\\dependencies\\python\\python.exe scripts\\ssh_mlir_opt.py --convert-linalg-to-parallel-loops --canonicalize --convert-parallel-loops-to-gpu -o - < seeds\\real_official_main23_functions_focus60\\conversion_memreftollvm_memref_to_llvm_mlir__fn_008.mlir",
      "return_code": 0,
      "timed_out": false,
      "elapsed_ms": 659,
      "stdout": "module {\n  func.func @dim_of_unranked(%arg0: memref<*xi32>) -> index {\n    %c0 = arith.constant 0 : index\n    %dim = memref.dim %arg0, %c0 : memref<*xi32>\n    return %dim : index\n  }\n}\n\n",
      "stderr": "",
      "stdout_path": "outputs\\aggressive_mlir23_function_focus60\\artifacts\\conversion_memreftollvm_memref_to_llvm_mlir__fn_008__linalg_parallel_gpu.stdout.mlir",
      "stderr_path": "outputs\\aggressive_mlir23_function_focus60\\artifacts\\conversion_memreftollvm_memref_to_llvm_mlir__fn_008__linalg_parallel_gpu.stderr.txt",
      "category": "success"
    },
    {
      "seed": "seeds\\real_official_main23_functions_focus60\\conversion_memreftollvm_memref_to_llvm_mlir__fn_008.mlir",
      "pipeline": "bufferization_deallocation",
      "command": "C:\\Users\\lenovo\\.cache\\codex-runtimes\\codex-primary-runtime\\dependencies\\python\\python.exe scripts\\ssh_mlir_opt.py --one-shot-bufferize --ownership-based-buffer-deallocation --bufferization-lower-deallocations --canonicalize -o - < seeds\\real_official_main23_functions_focus60\\conversion_memreftollvm_memref_to_llvm_mlir__fn_008.mlir",
      "return_code": 0,
      "timed_out": false,
      "elapsed_ms": 844,
      "stdout": "module {\n  func.func @dim_of_unranked(%arg0: memref<*xi32>) -> index {\n    %c0 = arith.constant 0 : index\n    %dim = memref.dim %arg0, %c0 : memref<*xi32>\n    return %dim : index\n  }\n}\n\n",
      "stderr": "",
      "stdout_path": "outputs\\aggressive_mlir23_function_focus60\\artifacts\\conversion_memreftollvm_memref_to_llvm_mlir__fn_008__bufferization_deallocation.stdout.mlir",
      "stderr_path": "outputs\\aggressive_mlir23_function_focus60\\artifacts\\conversion_memreftollvm_memref_to_llvm_mlir__fn_008__bufferization_deallocation.stderr.txt",
      "category": "success"
    },
    {
      "seed": "seeds\\real_official_main23_functions_focus60\\conversion_memreftollvm_memref_to_llvm_mlir__fn_008.mlir",
      "pipeline": "shape_reify_resolve",
      "command": "C:\\Users\\lenovo\\.cache\\codex-runtimes\\codex-primary-runtime\\dependencies\\python\\python.exe scripts\\ssh_mlir_opt.py --reify-result-shapes --resolve-shaped-type-result-dims --canonicalize --cse -o - < seeds\\real_official_main23_functions_focus60\\conversion_memreftollvm_memref_to_llvm_mlir__fn_008.mlir",
      "return_code": 0,
      "timed_out": false,
      "elapsed_ms": 857,
      "stdout": "module {\n  func.func @dim_of_unranked(%arg0: memref<*xi32>) -> index {\n    %c0 = arith.constant 0 : index\n    %dim = memref.dim %arg0, %c0 : memref<*xi32>\n    return %dim : index\n  }\n}\n\n",
      "stderr": "",
      "stdout_path": "outputs\\aggressive_mlir23_function_focus60\\artifacts\\conversion_memreftollvm_memref_to_llvm_mlir__fn_008__shape_reify_resolve.stdout.mlir",
      "stderr_path": "outputs\\aggressive_mlir23_function_focus60\\artifacts\\conversion_memreftollvm_memref_to_llvm_mlir__fn_008__shape_reify_resolve.stderr.txt",
      "category": "success"
    },
    {
      "seed": "seeds\\real_official_main23_functions_focus60\\conversion_memreftollvm_memref_to_llvm_mlir__fn_008.mlir",
      "pipeline": "sparse_lowering_probe",
      "command": "C:\\Users\\lenovo\\.cache\\codex-runtimes\\codex-primary-runtime\\dependencies\\python\\python.exe scripts\\ssh_mlir_opt.py --pre-sparsification-rewrite --lower-sparse-ops-to-foreach --lower-sparse-foreach-to-scf --canonicalize -o - < seeds\\real_official_main23_functions_focus60\\conversion_memreftollvm_memref_to_llvm_mlir__fn_008.mlir",
      "return_code": 0,
      "timed_out": false,
      "elapsed_ms": 669,
      "stdout": "module {\n  func.func @dim_of_unranked(%arg0: memref<*xi32>) -> index {\n    %c0 = arith.constant 0 : index\n    %dim = memref.dim %arg0, %c0 : memref<*xi32>\n    return %dim : index\n  }\n}\n\n",
      "stderr": "",
      "stdout_path": "outputs\\aggressive_mlir23_function_focus60\\artifacts\\conversion_memreftollvm_memref_to_llvm_mlir__fn_008__sparse_lowering_probe.stdout.mlir",
      "stderr_path": "outputs\\aggressive_mlir23_function_focus60\\artifacts\\conversion_memreftollvm_memref_to_llvm_mlir__fn_008__sparse_lowering_probe.stderr.txt",
      "category": "success"
    },
    {
      "seed": "seeds\\real_official_main23_functions_focus60\\conversion_memreftollvm_memref_to_llvm_mlir__fn_009.mlir",
      "pipeline": "parse_verify",
      "command": "C:\\Users\\lenovo\\.cache\\codex-runtimes\\codex-primary-runtime\\dependencies\\python\\python.exe scripts\\ssh_mlir_opt.py  -o - < seeds\\real_official_main23_functions_focus60\\conversion_memreftollvm_memref_to_llvm_mlir__fn_009.mlir",
      "return_code": 0,
      "timed_out": false,
      "elapsed_ms": 789,
      "stdout": "module {\n  func.func @address_space(%arg0: memref<32xf32, 7>) {\n    %alloc = memref.alloc() : memref<32xf32, 5>\n    %c7 = arith.constant 7 : index\n    %0 = memref.load %alloc[%c7] : memref<32xf32, 5>\n    return\n  }\n}\n\n",
      "stderr": "",
      "stdout_path": "outputs\\aggressive_mlir23_function_focus60\\artifacts\\conversion_memreftollvm_memref_to_llvm_mlir__fn_009__parse_verify.stdout.mlir",
      "stderr_path": "outputs\\aggressive_mlir23_function_focus60\\artifacts\\conversion_memreftollvm_memref_to_llvm_mlir__fn_009__parse_verify.stderr.txt",
      "category": "success"
    },
    {
      "seed": "seeds\\real_official_main23_functions_focus60\\conversion_memreftollvm_memref_to_llvm_mlir__fn_009.mlir",
      "pipeline": "canonicalize_convergence_probe",
      "command": "C:\\Users\\lenovo\\.cache\\codex-runtimes\\codex-primary-runtime\\dependencies\\python\\python.exe scripts\\ssh_mlir_opt.py --canonicalize --cse --sccp --canonicalize -o - < seeds\\real_official_main23_functions_focus60\\conversion_memreftollvm_memref_to_llvm_mlir__fn_009.mlir",
      "return_code": 0,
      "timed_out": false,
      "elapsed_ms": 879,
      "stdout": "module {\n  func.func @address_space(%arg0: memref<32xf32, 7>) {\n    return\n  }\n}\n\n",
      "stderr": "",
      "stdout_path": "outputs\\aggressive_mlir23_function_focus60\\artifacts\\conversion_memreftollvm_memref_to_llvm_mlir__fn_009__canonicalize_convergence_probe.stdout.mlir",
      "stderr_path": "outputs\\aggressive_mlir23_function_focus60\\artifacts\\conversion_memreftollvm_memref_to_llvm_mlir__fn_009__canonicalize_convergence_probe.stderr.txt",
      "category": "success"
    },
    {
      "seed": "seeds\\real_official_main23_functions_focus60\\conversion_memreftollvm_memref_to_llvm_mlir__fn_009.mlir",
      "pipeline": "memref_alias_metadata",
      "command": "C:\\Users\\lenovo\\.cache\\codex-runtimes\\codex-primary-runtime\\dependencies\\python\\python.exe scripts\\ssh_mlir_opt.py --fold-memref-alias-ops --expand-strided-metadata --canonicalize --cse -o - < seeds\\real_official_main23_functions_focus60\\conversion_memreftollvm_memref_to_llvm_mlir__fn_009.mlir",
      "return_code": 0,
      "timed_out": false,
      "elapsed_ms": 794,
      "stdout": "module {\n  func.func @address_space(%arg0: memref<32xf32, 7>) {\n    return\n  }\n}\n\n",
      "stderr": "",
      "stdout_path": "outputs\\aggressive_mlir23_function_focus60\\artifacts\\conversion_memreftollvm_memref_to_llvm_mlir__fn_009__memref_alias_metadata.stdout.mlir",
      "stderr_path": "outputs\\aggressive_mlir23_function_focus60\\artifacts\\conversion_memreftollvm_memref_to_llvm_mlir__fn_009__memref_alias_metadata.stderr.txt",
      "category": "success"
    },
    {
      "seed": "seeds\\real_official_main23_functions_focus60\\conversion_memreftollvm_memref_to_llvm_mlir__fn_009.mlir",
      "pipeline": "memref_llvm_lowering",
      "command": "C:\\Users\\lenovo\\.cache\\codex-runtimes\\codex-primary-runtime\\dependencies\\python\\python.exe scripts\\ssh_mlir_opt.py --expand-strided-metadata --memref-expand --normalize-memrefs --finalize-memref-to-llvm --canonicalize -o - < seeds\\real_official_main23_functions_focus60\\conversion_memreftollvm_memref_to_llvm_mlir__fn_009.mlir",
      "return_code": 0,
      "timed_out": false,
      "elapsed_ms": 887,
      "stdout": "module {\n  func.func @address_space(%arg0: memref<32xf32, 7>) {\n    return\n  }\n}\n\n",
      "stderr": "",
      "stdout_path": "outputs\\aggressive_mlir23_function_focus60\\artifacts\\conversion_memreftollvm_memref_to_llvm_mlir__fn_009__memref_llvm_lowering.stdout.mlir",
      "stderr_path": "outputs\\aggressive_mlir23_function_focus60\\artifacts\\conversion_memreftollvm_memref_to_llvm_mlir__fn_009__memref_llvm_lowering.stderr.txt",
      "category": "success"
    },
    {
      "seed": "seeds\\real_official_main23_functions_focus60\\conversion_memreftollvm_memref_to_llvm_mlir__fn_009.mlir",
      "pipeline": "vector_reduction_lowering",
      "command": "C:\\Users\\lenovo\\.cache\\codex-runtimes\\codex-primary-runtime\\dependencies\\python\\python.exe scripts\\ssh_mlir_opt.py --lower-vector-multi-reduction --lower-vector-mask --canonicalize --cse -o - < seeds\\real_official_main23_functions_focus60\\conversion_memreftollvm_memref_to_llvm_mlir__fn_009.mlir",
      "return_code": 0,
      "timed_out": false,
      "elapsed_ms": 860,
      "stdout": "module {\n  func.func @address_space(%arg0: memref<32xf32, 7>) {\n    return\n  }\n}\n\n",
      "stderr": "",
      "stdout_path": "outputs\\aggressive_mlir23_function_focus60\\artifacts\\conversion_memreftollvm_memref_to_llvm_mlir__fn_009__vector_reduction_lowering.stdout.mlir",
      "stderr_path": "outputs\\aggressive_mlir23_function_focus60\\artifacts\\conversion_memreftollvm_memref_to_llvm_mlir__fn_009__vector_reduction_lowering.stderr.txt",
      "category": "success"
    },
    {
      "seed": "seeds\\real_official_main23_functions_focus60\\conversion_memreftollvm_memref_to_llvm_mlir__fn_009.mlir",
      "pipeline": "vector_to_scf_llvm",
      "command": "C:\\Users\\lenovo\\.cache\\codex-runtimes\\codex-primary-runtime\\dependencies\\python\\python.exe scripts\\ssh_mlir_opt.py --convert-vector-to-scf --convert-vector-to-llvm --canonicalize -o - < seeds\\real_official_main23_functions_focus60\\conversion_memreftollvm_memref_to_llvm_mlir__fn_009.mlir",
      "return_code": 0,
      "timed_out": false,
      "elapsed_ms": 628,
      "stdout": "module {\n  func.func @address_space(%arg0: memref<32xf32, 7>) {\n    return\n  }\n}\n\n",
      "stderr": "",
      "stdout_path": "outputs\\aggressive_mlir23_function_focus60\\artifacts\\conversion_memreftollvm_memref_to_llvm_mlir__fn_009__vector_to_scf_llvm.stdout.mlir",
      "stderr_path": "outputs\\aggressive_mlir23_function_focus60\\artifacts\\conversion_memreftollvm_memref_to_llvm_mlir__fn_009__vector_to_scf_llvm.stderr.txt",
      "category": "success"
    },
    {
      "seed": "seeds\\real_official_main23_functions_focus60\\conversion_memreftollvm_memref_to_llvm_mlir__fn_009.mlir",
      "pipeline": "tensor_linalg_loop_lowering",
      "command": "C:\\Users\\lenovo\\.cache\\codex-runtimes\\codex-primary-runtime\\dependencies\\python\\python.exe scripts\\ssh_mlir_opt.py --convert-tensor-to-linalg --convert-linalg-to-loops --canonicalize --cse -o - < seeds\\real_official_main23_functions_focus60\\conversion_memreftollvm_memref_to_llvm_mlir__fn_009.mlir",
      "return_code": 0,
      "timed_out": false,
      "elapsed_ms": 816,
      "stdout": "module {\n  func.func @address_space(%arg0: memref<32xf32, 7>) {\n    return\n  }\n}\n\n",
      "stderr": "",
      "stdout_path": "outputs\\aggressive_mlir23_function_focus60\\artifacts\\conversion_memreftollvm_memref_to_llvm_mlir__fn_009__tensor_linalg_loop_lowering.stdout.mlir",
      "stderr_path": "outputs\\aggressive_mlir23_function_focus60\\artifacts\\conversion_memreftollvm_memref_to_llvm_mlir__fn_009__tensor_linalg_loop_lowering.stderr.txt",
      "category": "success"
    },
    {
      "seed": "seeds\\real_official_main23_functions_focus60\\conversion_memreftollvm_memref_to_llvm_mlir__fn_009.mlir",
      "pipeline": "linalg_parallel_gpu",
      "command": "C:\\Users\\lenovo\\.cache\\codex-runtimes\\codex-primary-runtime\\dependencies\\python\\python.exe scripts\\ssh_mlir_opt.py --convert-linalg-to-parallel-loops --canonicalize --convert-parallel-loops-to-gpu -o - < seeds\\real_official_main23_functions_focus60\\conversion_memreftollvm_memref_to_llvm_mlir__fn_009.mlir",
      "return_code": 0,
      "timed_out": false,
      "elapsed_ms": 812,
      "stdout": "module {\n  func.func @address_space(%arg0: memref<32xf32, 7>) {\n    return\n  }\n}\n\n",
      "stderr": "",
      "stdout_path": "outputs\\aggressive_mlir23_function_focus60\\artifacts\\conversion_memreftollvm_memref_to_llvm_mlir__fn_009__linalg_parallel_gpu.stdout.mlir",
      "stderr_path": "outputs\\aggressive_mlir23_function_focus60\\artifacts\\conversion_memreftollvm_memref_to_llvm_mlir__fn_009__linalg_parallel_gpu.stderr.txt",
      "category": "success"
    },
    {
      "seed": "seeds\\real_official_main23_functions_focus60\\conversion_memreftollvm_memref_to_llvm_mlir__fn_009.mlir",
      "pipeline": "bufferization_deallocation",
      "command": "C:\\Users\\lenovo\\.cache\\codex-runtimes\\codex-primary-runtime\\dependencies\\python\\python.exe scripts\\ssh_mlir_opt.py --one-shot-bufferize --ownership-based-buffer-deallocation --bufferization-lower-deallocations --canonicalize -o - < seeds\\real_official_main23_functions_focus60\\conversion_memreftollvm_memref_to_llvm_mlir__fn_009.mlir",
      "return_code": 0,
      "timed_out": false,
      "elapsed_ms": 915,
      "stdout": "module {\n  func.func @address_space(%arg0: memref<32xf32, 7>) {\n    %c1 = arith.constant 1 : index\n    %c0 = arith.constant 0 : index\n    %true = arith.constant true\n    %false = arith.constant false\n    %alloc = memref.alloc() : memref<32xf32, 5>\n    %base_buffer, %offset, %sizes, %strides = memref.extract_strided_metadata %arg0 : memref<32xf32, 7> -> memref<f32, 7>, index, index, index\n    %base_buffer_0, %offset_1, %sizes_2, %strides_3 = memref.extract_strided_metadata %alloc : memref<32xf32, 5> -> memref<f32, 5>, index, index, index\n    %alloc_4 = memref.alloc() : memref<2xindex>\n    %alloc_5 = memref.alloc() : memref<2xi1>\n    %alloc_6 = memref.alloc() : memref<0xindex>\n    %intptr = memref.extract_aligned_pointer_as_index %base_buffer : memref<f32, 7> -> index\n    memref.store %intptr, %alloc_4[%c0] : memref<2xindex>\n    %intptr_7 = memref.extract_aligned_pointer_as_index %base_buffer_0 : memref<f32, 5> -> index\n    memref.store %intptr_7, %alloc_4[%c1] : memref<2xindex>\n    memref.store %false, %alloc_5[%c0] : memref<2xi1>\n    memref.store %true, %alloc_5[%c1] : memref<2xi1>\n    %cast = memref.cast %alloc_4 : memref<2xindex> to memref<?xindex>\n    %cast_8 = memref.cast %alloc_5 : memref<2xi1> to memref<?xi1>\n    %cast_9 = memref.cast %alloc_6 : memref<0xindex> to memref<?xindex>\n    %alloc_10 = memref.alloc() : memref<2xi1>\n    %alloc_11 = memref.alloc() : memref<0xi1>\n    %cast_12 = memref.cast %alloc_10 : memref<2xi1> to memref<?xi1>\n    %cast_13 = memref.cast %alloc_11 : memref<0xi1> to memref<?xi1>\n    call @dealloc_helper(%cast, %cast_9, %cast_8, %cast_12, %cast_13) : (memref<?xindex>, memref<?xindex>, memref<?xi1>, memref<?xi1>, memref<?xi1>) -> ()\n    %0 = memref.load %alloc_10[%c0] : memref<2xi1>\n    scf.if %0 {\n      memref.dealloc %base_buffer : memref<f32, 7>\n    }\n    %1 = memref.load %alloc_10[%c1] : memref<2xi1>\n    scf.if %1 {\n      memref.dealloc %base_buffer_0 : memref<f32, 5>\n    }\n    memref.dealloc %alloc_4 : memref<2xindex>\n    memref.dealloc %alloc_6 : memref<0xindex>\n    memref.dealloc %alloc_5 : memref<2xi1>\n    memref.dealloc %alloc_10 : memref<2xi1>\n    memref.dealloc %alloc_11 : memref<0xi1>\n    return\n  }\n  func.func private @dealloc_helper(%arg0: memref<?xindex>, %arg1: memref<?xindex>, %arg2: memref<?xi1>, %arg3: memref<?xi1>, %arg4: memref<?xi1>) {\n    %c0 = arith.constant 0 : index\n    %c1 = arith.constant 1 : index\n    %true = arith.constant true\n    %false = arith.constant false\n    %dim = memref.dim %arg0, %c0 : memref<?xindex>\n    %dim_0 = memref.dim %arg1, %c0 : memref<?xindex>\n    scf.for %arg5 = %c0 to %dim_0 step %c1 {\n      memref.store %false, %arg4[%arg5] : memref<?xi1>\n    }\n    scf.for %arg5 = %c0 to %dim step %c1 {\n      %0 = memref.load %arg0[%arg5] : memref<?xindex>\n      %1 = memref.load %arg2[%arg5] : memref<?xi1>\n      %2 = scf.for %arg6 = %c0 to %dim_0 step %c1 iter_args(%arg7 = %true) -> (i1) {\n        %5 = memref.load %arg1[%arg6] : memref<?xindex>\n        %6 = arith.cmpi eq, %5, %0 : index\n        scf.if %6 {\n          %9 = memref.load %arg4[%arg6] : memref<?xi1>\n          %10 = arith.ori %9, %1 : i1\n          memref.store %10, %arg4[%arg6] : memref<?xi1>\n        }\n        %7 = arith.cmpi ne, %5, %0 : index\n        %8 = arith.andi %arg7, %7 : i1\n        scf.yield %8 : i1\n      }\n      %3 = scf.for %arg6 = %c0 to %arg5 step %c1 iter_args(%arg7 = %2) -> (i1) {\n        %5 = memref.load %arg0[%arg6] : memref<?xindex>\n        %6 = arith.cmpi ne, %5, %0 : index\n        %7 = arith.andi %arg7, %6 : i1\n        scf.yield %7 : i1\n      }\n      %4 = arith.andi %3, %1 : i1\n      memref.store %4, %arg3[%arg5] : memref<?xi1>\n    }\n    return\n  }\n}\n\n",
      "stderr": "",
      "stdout_path": "outputs\\aggressive_mlir23_function_focus60\\artifacts\\conversion_memreftollvm_memref_to_llvm_mlir__fn_009__bufferization_deallocation.stdout.mlir",
      "stderr_path": "outputs\\aggressive_mlir23_function_focus60\\artifacts\\conversion_memreftollvm_memref_to_llvm_mlir__fn_009__bufferization_deallocation.stderr.txt",
      "category": "success"
    },
    {
      "seed": "seeds\\real_official_main23_functions_focus60\\conversion_memreftollvm_memref_to_llvm_mlir__fn_009.mlir",
      "pipeline": "shape_reify_resolve",
      "command": "C:\\Users\\lenovo\\.cache\\codex-runtimes\\codex-primary-runtime\\dependencies\\python\\python.exe scripts\\ssh_mlir_opt.py --reify-result-shapes --resolve-shaped-type-result-dims --canonicalize --cse -o - < seeds\\real_official_main23_functions_focus60\\conversion_memreftollvm_memref_to_llvm_mlir__fn_009.mlir",
      "return_code": 0,
      "timed_out": false,
      "elapsed_ms": 816,
      "stdout": "module {\n  func.func @address_space(%arg0: memref<32xf32, 7>) {\n    return\n  }\n}\n\n",
      "stderr": "",
      "stdout_path": "outputs\\aggressive_mlir23_function_focus60\\artifacts\\conversion_memreftollvm_memref_to_llvm_mlir__fn_009__shape_reify_resolve.stdout.mlir",
      "stderr_path": "outputs\\aggressive_mlir23_function_focus60\\artifacts\\conversion_memreftollvm_memref_to_llvm_mlir__fn_009__shape_reify_resolve.stderr.txt",
      "category": "success"
    },
    {
…
        "details": "Structured IR summary\n- parse_verify: operations=2, functions=1, dialects=func:1, memref:1\n- memref_llvm_lowering: operations=11, functions=1, dialects=builtin:3, func:1, llvm:7\n- type-count changes: i1:0->4, i64:0->18, memref:13->12\n\nText diff\n--- parse_verify\n+++ memref_llvm_lowering\n@@ -1,6 +1,15 @@\n module {\n func.func @distinct_objects(%arg0: memref<?xf16>, %arg1: memref<?xf32>, %arg2: memref<?xf64>) -> (memref<?xf16>, memref<?xf32>, memref<?xf64>) {\n-%0:3 = memref.distinct_objects %arg0, %arg1, %arg2 : memref<?xf16>, memref<?xf32>, memref<?xf64>\n-return %0#0, %0#1, %0#2 : memref<?xf16>, memref<?xf32>, memref<?xf64>\n+%0 = llvm.mlir.constant(true) : i1\n+%1 = builtin.unrealized_conversion_cast %arg2 : memref<?xf64> to !llvm.struct<(ptr, ptr, i64, array<1 x i64>, array<1 x i64>)>\n+%2 = builtin.unrealized_conversion_cast %arg1 : memref<?xf32> to !llvm.struct<(ptr, ptr, i64, array<1 x i64>, array<1 x i64>)>\n+%3 = builtin.unrealized_conversion_cast %arg0 : memref<?xf16> to !llvm.struct<(ptr, ptr, i64, array<1 x i64>, array<1 x i64>)>\n+%4 = llvm.extractvalue %3[1] : !llvm.struct<(ptr, ptr, i64, array<1 x i64>, array<1 x i64>)>\n+%5 = llvm.extractvalue %2[1] : !llvm.struct<(ptr, ptr, i64, array<1 x i64>, array<1 x i64>)>\n+%6 = llvm.extractvalue %1[1] : !llvm.struct<(ptr, ptr, i64, array<1 x i64>, array<1 x i64>)>\n+llvm.intr.assume %0 [\"separate_storage\"(%4, %5 : !llvm.ptr, !llvm.ptr)] : i1\n+llvm.intr.assume %0 [\"separate_storage\"(%4, %6 : !llvm.ptr, !llvm.ptr)] : i1\n+llvm.intr.assume %0 [\"separate_storage\"(%5, %6 : !llvm.ptr, !llvm.ptr)] : i1\n+return %arg0, %arg1, %arg2 : memref<?xf16>, memref<?xf32>, memref<?xf64>\n }\n }"
      },
      {
        "seed": "seeds\\real_official_main23_functions_focus60\\conversion_memreftollvm_memref_to_llvm_mlir__fn_006.mlir",
        "summary": "Successful pipelines produced different IR text. This is an analysis signal, not a security issue by itself.",
        "details": "Structured IR summary\n- parse_verify: operations=2, functions=1, dialects=func:1, memref:1\n- memref_llvm_lowering: operations=1, functions=1, dialects=func:1\n- type-count changes: memref:5->3\n\nText diff\n--- parse_verify\n+++ memref_llvm_lowering\n@@ -1,6 +1,5 @@\n module {\n func.func @distinct_objects_noop(%arg0: memref<?xf16>) -> memref<?xf16> {\n-%0 = memref.distinct_objects %arg0 : memref<?xf16>\n-return %0 : memref<?xf16>\n+return %arg0 : memref<?xf16>\n }\n }"
      },
      {
        "seed": "seeds\\real_official_main23_functions_focus60\\conversion_memreftollvm_memref_to_llvm_mlir__fn_007.mlir",
        "summary": "Successful pipelines produced different IR text. This is an analysis signal, not a security issue by itself.",
        "details": "Structured IR summary\n- parse_verify: operations=2, functions=1, dialects=func:1, memref:1\n- canonicalize_convergence_probe: operations=1, functions=1, dialects=func:1\n- type-count changes: memref:3->1\n\nText diff\n--- parse_verify\n+++ canonicalize_convergence_probe\n@@ -1,6 +1,5 @@\n module {\n func.func @assume_alignment_w_offset(%arg0: memref<4x4xf16, strided<[?, ?], offset: ?>>) {\n-%assume_align = memref.assume_alignment %arg0, 16 : memref<4x4xf16, strided<[?, ?], offset: ?>>\n return\n }\n }"
      },
      {
        "seed": "seeds\\real_official_main23_functions_focus60\\conversion_memreftollvm_memref_to_llvm_mlir__fn_008.mlir",
        "summary": "Successful pipelines produced different IR text. This is an analysis signal, not a security issue by itself.",
        "details": "Structured IR summary\n- parse_verify: operations=3, functions=1, dialects=arith:1, func:1, memref:1\n- memref_llvm_lowering: operations=11, functions=1, dialects=arith:1, builtin:3, func:1, llvm:6\n- type-count changes: i64:0->10, index:3->6, memref:3->2\n\nText diff\n--- parse_verify\n+++ memref_llvm_lowering\n@@ -1,7 +1,15 @@\n module {\n func.func @dim_of_unranked(%arg0: memref<*xi32>) -> index {\n+%0 = llvm.mlir.constant(1 : index) : i64\n %c0 = arith.constant 0 : index\n-%dim = memref.dim %arg0, %c0 : memref<*xi32>\n-return %dim : index\n+%1 = builtin.unrealized_conversion_cast %arg0 : memref<*xi32> to !llvm.struct<(i64, ptr)>\n+%2 = builtin.unrealized_conversion_cast %c0 : index to i64\n+%3 = llvm.extractvalue %1[1] : !llvm.struct<(i64, ptr)>\n+%4 = llvm.getelementptr %3[0, 2] : (!llvm.ptr) -> !llvm.ptr, !llvm.struct<(ptr, ptr, i64)>\n+%5 = llvm.add %2, %0 : i64\n+%6 = llvm.getelementptr %4[%5] : (!llvm.ptr, i64) -> !llvm.ptr, i64\n+%7 = llvm.load %6 : !llvm.ptr -> i64\n+%8 = builtin.unrealized_conversion_cast %7 : i64 to index\n+return %8 : index\n }\n }"
      },
      {
        "seed": "seeds\\real_official_main23_functions_focus60\\conversion_memreftollvm_memref_to_llvm_mlir__fn_009.mlir",
        "summary": "Successful pipelines produced different IR text. This is an analysis signal, not a security issue by itself.",
        "details": "Structured IR summary\n- parse_verify: operations=4, functions=1, dialects=arith:1, func:1, memref:2\n- canonicalize_convergence_probe: operations=1, functions=1, dialects=func:1\n- type-count changes: index:1->0, memref:5->1\n\nText diff\n--- parse_verify\n+++ canonicalize_convergence_probe\n@@ -1,8 +1,5 @@\n module {\n func.func @address_space(%arg0: memref<32xf32, 7>) {\n-%alloc = memref.alloc() : memref<32xf32, 5>\n-%c7 = arith.constant 7 : index\n-%0 = memref.load %alloc[%c7] : memref<32xf32, 5>\n return\n }\n }"
      },
      {
        "seed": "seeds\\real_official_main23_functions_focus60\\conversion_memreftollvm_memref_to_llvm_mlir__fn_010.mlir",
        "summary": "Successful pipelines produced different IR text. This is an analysis signal, not a security issue by itself.",
        "details": "Structured IR summary\n- parse_verify: operations=2, functions=1, dialects=func:1, memref:1\n- canonicalize_convergence_probe: operations=1, functions=1, dialects=func:1\n- type-count changes: memref:4->1\n\nText diff\n--- parse_verify\n+++ canonicalize_convergence_probe\n@@ -1,6 +1,5 @@\n module {\n func.func @transpose(%arg0: memref<?x?x?xf32, strided<[?, ?, 1], offset: ?>>) {\n-%transpose = memref.transpose %arg0 (d0, d1, d2) -> (d2, d0, d1) : memref<?x?x?xf32, strided<[?, ?, 1], offset: ?>> to memref<?x?x?xf32, strided<[1, ?, ?], offset: ?>>\n return\n }\n }"
      },
      {
        "seed": "seeds\\real_official_main23_functions_focus60\\conversion_memreftollvm_memref_to_llvm_mlir__fn_014.mlir",
        "summary": "Successful pipelines produced different IR text. This is an analysis signal, not a security issue by itself.",
        "details": "Structured IR summary\n- parse_verify: operations=2, functions=1, dialects=func:1, memref:1\n- memref_alias_metadata: operations=2, functions=1, dialects=func:1, memref:1\n\nText diff\n--- parse_verify\n+++ memref_alias_metadata\n@@ -1,6 +1,6 @@\n module {\n func.func @expand_shape_static(%arg0: memref<3x4x5xf32>) -> memref<1x3x4x1x5xf32> {\n-%expand_shape = memref.expand_shape %arg0 [[0, 1], [2], [3, 4]] output_shape [1, 3, 4, 1, 5] : memref<3x4x5xf32> into memref<1x3x4x1x5xf32>\n-return %expand_shape : memref<1x3x4x1x5xf32>\n+%reinterpret_cast = memref.reinterpret_cast %arg0 to offset: [0], sizes: [1, 3, 4, 1, 5], strides: [60, 20, 5, 5, 1] : memref<3x4x5xf32> to memref<1x3x4x1x5xf32>\n+return %reinterpret_cast : memref<1x3x4x1x5xf32>\n }\n }"
      },
      {
        "seed": "seeds\\real_official_main23_functions_focus60\\conversion_memreftollvm_memref_to_llvm_mlir__fn_015.mlir",
        "summary": "Successful pipelines produced different IR text. This is an analysis signal, not a security issue by itself.",
        "details": "Structured IR summary\n- parse_verify: operations=2, functions=1, dialects=func:1, memref:1\n- memref_alias_metadata: operations=2, functions=1, dialects=func:1, memref:1\n\nText diff\n--- parse_verify\n+++ memref_alias_metadata\n@@ -1,6 +1,6 @@\n module {\n func.func @collapse_shape_static(%arg0: memref<1x3x4x1x5xf32>) -> memref<3x4x5xf32> {\n-%collapse_shape = memref.collapse_shape %arg0 [[0, 1], [2], [3, 4]] : memref<1x3x4x1x5xf32> into memref<3x4x5xf32>\n-return %collapse_shape : memref<3x4x5xf32>\n+%reinterpret_cast = memref.reinterpret_cast %arg0 to offset: [0], sizes: [3, 4, 5], strides: [20, 5, 1] : memref<1x3x4x1x5xf32> to memref<3x4x5xf32>\n+return %reinterpret_cast : memref<3x4x5xf32>\n }\n }"
      },
      {
        "seed": "seeds\\real_official_main23_functions_focus60\\conversion_memreftollvm_memref_to_llvm_mlir__fn_016.mlir",
        "summary": "Successful pipelines produced different IR text. This is an analysis signal, not a security issue by itself.",
        "details": "Structured IR summary\n- parse_verify: operations=2, functions=1, dialects=func:1, memref:1\n- canonicalize_convergence_probe: operations=1, functions=1, dialects=func:1\n- type-count changes: memref:3->1\n\nText diff\n--- parse_verify\n+++ canonicalize_convergence_probe\n@@ -1,6 +1,5 @@\n module {\n func.func @rank_of_unranked(%arg0: memref<*xi32>) {\n-%0 = memref.rank %arg0 : memref<*xi32>\n return\n }\n }"
      },
      {
        "seed": "seeds\\real_official_main23_functions_focus60\\conversion_memreftollvm_memref_to_llvm_mlir__fn_017.mlir",
        "summary": "Successful pipelines produced different IR text. This is an analysis signal, not a security issue by itself.",
        "details": "Structured IR summary\n- parse_verify: operations=2, functions=1, dialects=func:1, memref:1\n- canonicalize_convergence_probe: operations=1, functions=1, dialects=func:1\n- type-count changes: memref:3->1\n\nText diff\n--- parse_verify\n+++ canonicalize_convergence_probe\n@@ -1,6 +1,5 @@\n module {\n func.func @rank_of_ranked(%arg0: memref<?xi32>) {\n-%0 = memref.rank %arg0 : memref<?xi32>\n return\n }\n }"
      },
      {
        "seed": "seeds\\real_official_main23_functions_focus60\\conversion_memreftollvm_memref_to_llvm_mlir__fn_018.mlir",
        "summary": "Successful pipelines produced different IR text. This is an analysis signal, not a security issue by itself.",
        "details": "Structured IR summary\n- parse_verify: operations=15, functions=1, dialects=func:1, memref:14\n- memref_llvm_lowering: operations=46, functions=1, dialects=builtin:3, func:1, llvm:42\n- type-count changes: i64:0->63, index:1->2, memref:30->4\n\nText diff\n--- parse_verify\n+++ memref_llvm_lowering\n@@ -1,19 +1,50 @@\n module {\n func.func @atomic_rmw(%arg0: memref<10xi32>, %arg1: i32, %arg2: memref<10xf32>, %arg3: f32, %arg4: index) {\n-%0 = memref.atomic_rmw assign %arg3, %arg2[%arg4] : (f32, memref<10xf32>) -> f32\n-%1 = memref.atomic_rmw addi %arg1, %arg0[%arg4] : (i32, memref<10xi32>) -> i32\n-%2 = memref.atomic_rmw maxs %arg1, %arg0[%arg4] : (i32, memref<10xi32>) -> i32\n-%3 = memref.atomic_rmw mins %arg1, %arg0[%arg4] : (i32, memref<10xi32>) -> i32\n-%4 = memref.atomic_rmw maxu %arg1, %arg0[%arg4] : (i32, memref<10xi32>) -> i32\n-%5 = memref.atomic_rmw minu %arg1, %arg0[%arg4] : (i32, memref<10xi32>) -> i32\n-%6 = memref.atomic_rmw addf %arg3, %arg2[%arg4] : (f32, memref<10xf32>) -> f32\n-%7 = memref.atomic_rmw maximumf %arg3, %arg2[%arg4] : (f32, memref<10xf32>) -> f32\n-%8 = memref.atomic_rmw maxnumf %arg3, %arg2[%arg4] : (f32, memref<10xf32>) -> f32\n-%9 = memref.atomic_rmw minimumf %arg3, %arg2[%arg4] : (f32, memref<10xf32>) -> f32\n-%10 = memref.atomic_rmw minnumf %arg3, %arg2[%arg4] : (f32, memref<10xf32>) -> f32\n-%11 = memref.atomic_rmw ori %arg1, %arg0[%arg4] : (i32, memref<10xi32>) -> i32\n-%12 = memref.atomic_rmw andi %arg1, %arg0[%arg4] : (i32, memref<10xi32>) -> i32\n-%13 = memref.atomic_rmw xori %arg1, %arg0[%arg4] : (i32, memref<10xi32>) -> i32\n+%0 = builtin.unrealized_conversion_cast %arg0 : memref<10xi32> to !llvm.struct<(ptr, ptr, i64, array<1 x i64>, array<1 x i64>)>\n+%1 = builtin.unrealized_conversion_cast %arg4 : index to i64\n+%2 = builtin.unrealized_conversion_cast %arg2 : memref<10xf32> to !llvm.struct<(ptr, ptr, i64, array<1 x i64>, array<1 x i64>)>\n+%3 = llvm.extractvalue %2[1] : !llvm.struct<(ptr, ptr, i64, array<1 x i64>, array<1 x i64>)>\n+%4 = llvm.getelementptr %3[%1] : (!llvm.ptr, i64) -> !llvm.ptr, f32\n+%5 = llvm.atomicrmw xchg %4, %arg3 acq_rel : !llvm.ptr, f32\n+%6 = llvm.extractvalue %0[1] : !llvm.struct<(ptr, ptr, i64, array<1 x i64>, array<1 x i64>)>\n+%7 = llvm.getelementptr %6[%1] : (!llvm.ptr, i64) -> !llvm.ptr, i32\n+%8 = llvm.atomicrmw add %7, %arg1 acq_rel : !llvm.ptr, i32\n+%9 = llvm.extractvalue %0[1] : !llvm.struct<(ptr, ptr, i64, array<1 x i64>, array<1 x i64>)>\n+%10 = llvm.getelementptr %9[%1] : (!llvm.ptr, i64) -> !llvm.ptr, i32\n+%11 = llvm.atomicrmw max %10, %arg1 acq_rel : !llvm.ptr, i32\n+%12 = llvm.extractvalue %0[1] : !llvm.struct<(ptr, ptr, i64, array<1 x i64>, array<1 x i64>)>\n+%13 = llvm.getelementptr %12[%1] : (!llvm.ptr, i64) -> !llvm.ptr, i32\n+%14 = llvm.atomicrmw min %13, %arg1 acq_rel : !llvm.ptr, i32\n+%15 = llvm.extractvalue %0[1] : !llvm.struct<(ptr, ptr, i64, array<1 x i64>, array<1 x i64>)>\n+%16 = llvm.getelementptr %15[%1] : (!llvm.ptr, i64) -> !llvm.ptr, i32\n+%17 = llvm.atomicrmw umax %16, %arg1 acq_rel : !llvm.ptr, i32\n+%18 = llvm.extractvalue %0[1] : !llvm.struct<(ptr, ptr, i64, array<1 x i64>, array<1 x i64>)>\n+%19 = llvm.getelementptr %18[%1] : (!llvm.ptr, i64) -> !llvm.ptr, i32\n+%20 = llvm.atomicrmw umin %19, %arg1 acq_rel : !llvm.ptr, i32\n+%21 = llvm.extractvalue %2[1] : !llvm.struct<(ptr, ptr, i64, array<1 x i64>, array<1 x i64>)>\n+%22 = llvm.getelementptr %21[%1] : (!llvm.ptr, i64) -> !llvm.ptr, f32\n+%23 = llvm.atomicrmw fadd %22, %arg3 acq_rel : !llvm.ptr, f32\n+%24 = llvm.extractvalue %2[1] : !llvm.struct<(ptr, ptr, i64, array<1 x i64>, array<1 x i64>)>\n+%25 = llvm.getelementptr %24[%1] : (!llvm.ptr, i64) -> !llvm.ptr, f32\n+%26 = llvm.atomicrmw fmaximum %25, %arg3 acq_rel : !llvm.ptr, f32\n+%27 = llvm.extractvalue %2[1] : !llvm.struct<(ptr, ptr, i64, array<1 x i64>, array<1 x i64>)>\n+%28 = llvm.getelementptr %27[%1] : (!llvm.ptr, i64) -> !llvm.ptr, f32\n+%29 = llvm.atomicrmw fmax %28, %arg3 acq_rel : !llvm.ptr, f32\n+%30 = llvm.extractvalue %2[1] : !llvm.struct<(ptr, ptr, i64, array<1 x i64>, array<1 x i64>)>\n+%31 = llvm.getelementptr %30[%1] : (!llvm.ptr, i64) -> !llvm.ptr, f32\n+%32 = llvm.atomicrmw fminimum %31, %arg3 acq_rel : !llvm.ptr, f32\n+%33 = llvm.extractvalue %2[1] : !llvm.struct<(ptr, ptr, i64, array<1 x i64>, array<1 x i64>)>\n+%34 = llvm.getelementptr %33[%1] : (!llvm.ptr, i64) -> !llvm.ptr, f32\n+%35 = llvm.atomicrmw fmin %34, %arg3 acq_rel : !llvm.ptr, f32\n+%36 = llvm.extractvalue %0[1] : !llvm.struct<(ptr, ptr, i64, array<1 x i64>, array<1 x i64>)>\n+%37 = llvm.getelementptr %36[%1] : (!llvm.ptr, i64) -> !llvm.ptr, i32\n+%38 = llvm.atomicrmw _or %37, %arg1 acq_rel : !llvm.ptr, i32\n+%39 = llvm.extractvalue %0[1] : !llvm.struct<(ptr, ptr, i64, array<1 x i64>, array<1 x i64>)>\n+%40 = llvm.getelementptr %39[%1] : (!llvm.ptr, i64) -> !llvm.ptr, i32\n+%41 = llvm.atomicrmw _and %40, %arg1 acq_rel : !llvm.ptr, i32\n+%42 = llvm.extractvalue %0[1] : !llvm.struct<(ptr, ptr, i64, array<1 x i64>, array<1 x i64>)>\n+%43 = llvm.getelementptr %42[%1] : (!llvm.ptr, i64) -> !llvm.ptr, i32\n+%44 = llvm.atomicrmw _xor %43, %arg1 acq_rel : !llvm.ptr, i32\n return\n }\n }"
      },
      {
        "seed": "seeds\\real_official_main23_functions_focus60\\conversion_memreftollvm_memref_to_llvm_mlir__fn_019.mlir",
        "summary": "Successful pipelines produced different IR text. This is an analysis signal, not a security issue by itself.",
        "details": "Structured IR summary\n- parse_verify: operations=2, functions=1, dialects=func:1, memref:1\n- memref_llvm_lowering: operations=7, functions=1, dialects=builtin:2, func:1, llvm:4\n- type-count changes: i32:3->4, i64:0->8, index:1->2, memref:3->2\n\nText diff\n--- parse_verify\n+++ memref_llvm_lowering\n@@ -1,6 +1,11 @@\n module {\n func.func @atomic_rmw_with_offset(%arg0: memref<10xi32, strided<[1], offset: 5>>, %arg1: i32, %arg2: index) {\n-%0 = memref.atomic_rmw andi %arg1, %arg0[%arg2] : (i32, memref<10xi32, strided<[1], offset: 5>>) -> i32\n+%0 = builtin.unrealized_conversion_cast %arg2 : index to i64\n+%1 = builtin.unrealized_conversion_cast %arg0 : memref<10xi32, strided<[1], offset: 5>> to !llvm.struct<(ptr, ptr, i64, array<1 x i64>, array<1 x i64>)>\n+%2 = llvm.extractvalue %1[1] : !llvm.struct<(ptr, ptr, i64, array<1 x i64>, array<1 x i64>)>\n+%3 = llvm.getelementptr %2[5] : (!llvm.ptr) -> !llvm.ptr, i32\n+%4 = llvm.getelementptr %3[%0] : (!llvm.ptr, i64) -> !llvm.ptr, i32\n+%5 = llvm.atomicrmw _and %4, %arg1 acq_rel : !llvm.ptr, i32\n return\n }\n }"
      },
      {
        "seed": "seeds\\real_official_main23_functions_focus60\\conversion_memreftollvm_memref_to_llvm_mlir__fn_020.mlir",
        "summary": "Successful pipelines produced different IR text. This is an analysis signal, not a security issue by itself.",
        "details": "Structured IR summary\n- parse_verify: operations=4, functions=0, dialects=llvm:2, memref:2\n- memref_llvm_lowering: operations=12, functions=0, dialects=builtin:2, llvm:10\n- type-count changes: i1:0->2, i32:2->8, i64:0->8, index:1->2, memref:4->2\n\nText diff\n--- parse_verify\n+++ memref_llvm_lowering\n@@ -1,11 +1,19 @@\n module {\n llvm.func @generic_atomic_rmw() {\n %0 = \"test.foo\"() : () -> memref<10xi32>\n-%1 = \"test.foo\"() : () -> index\n-%2 = memref.generic_atomic_rmw %0[%1] : memref<10xi32> {\n-^bb0(%arg0: i32):\n-memref.atomic_yield %arg0 : i32\n-}\n+%1 = builtin.unrealized_conversion_cast %0 : memref<10xi32> to !llvm.struct<(ptr, ptr, i64, array<1 x i64>, array<1 x i64>)>\n+%2 = \"test.foo\"() : () -> index\n+%3 = builtin.unrealized_conversion_cast %2 : index to i64\n+%4 = llvm.extractvalue %1[1] : !llvm.struct<(ptr, ptr, i64, array<1 x i64>, array<1 x i64>)>\n+%5 = llvm.getelementptr %4[%3] : (!llvm.ptr, i64) -> !llvm.ptr, i32\n+%6 = llvm.load %5 : !llvm.ptr -> i32\n+llvm.br ^bb1(%6 : i32)\n+^bb1(%7: i32):  // 2 preds: ^bb0, ^bb1\n+%8 = llvm.cmpxchg %5, %7, %7 acq_rel monotonic : !llvm.ptr, i32\n+%9 = llvm.extractvalue %8[0] : !llvm.struct<(i32, i1)>\n+%10 = llvm.extractvalue %8[1] : !llvm.struct<(i32, i1)>\n+llvm.cond_br %10, ^bb2, ^bb1(%9 : i32)\n+^bb2:  // pred: ^bb1\n llvm.return\n }\n }"
      },
      {
        "seed": "seeds\\real_official_main23_functions_focus60\\conversion_memreftollvm_memref_to_llvm_mlir__fn_021.mlir",
        "summary": "Successful pipelines produced different IR text. This is an analysis signal, not a security issue by itself.",
        "details": "Structured IR summary\n- parse_verify: operations=4, functions=0, dialects=llvm:2, memref:2\n- memref_llvm_lowering: operations=13, functions=0, dialects=builtin:2, llvm:11\n- type-count changes: f16:2->3, i1:0->2, i16:0->7, i64:0->8, index:1->2, memref:4->2\n\nText diff\n--- parse_verify\n+++ memref_llvm_lowering\n@@ -1,11 +1,20 @@\n module {\n llvm.func @generic_atomic_rmw_f16() {\n %0 = \"test.foo\"() : () -> memref<10xf16>\n-%1 = \"test.foo\"() : () -> index\n-%2 = memref.generic_atomic_rmw %0[%1] : memref<10xf16> {\n-^bb0(%arg0: f16):\n-memref.atomic_yield %arg0 : f16\n-}\n+%1 = builtin.unrealized_conversion_cast %0 : memref<10xf16> to !llvm.struct<(ptr, ptr, i64, array<1 x i64>, array<1 x i64>)>\n+%2 = \"test.foo\"() : () -> index\n+%3 = builtin.unrealized_conversion_cast %2 : index to i64\n+%4 = llvm.extractvalue %1[1] : !llvm.struct<(ptr, ptr, i64, array<1 x i64>, array<1 x i64>)>\n+%5 = llvm.getelementptr %4[%3] : (!llvm.ptr, i64) -> !llvm.ptr, f16\n+%6 = llvm.load %5 : !llvm.ptr -> f16\n+%7 = llvm.bitcast %6 : f16 to i16\n+llvm.br ^bb1(%7 : i16)\n+^bb1(%8: i16):  // 2 preds: ^bb0, ^bb1\n+%9 = llvm.cmpxchg %5, %8, %8 acq_rel monotonic : !llvm.ptr, i16\n+%10 = llvm.extractvalue %9[0] : !llvm.struct<(i16, i1)>\n+%11 = llvm.extractvalue %9[1] : !llvm.struct<(i16, i1)>\n+llvm.cond_br %11, ^bb2, ^bb1(%10 : i16)\n+^bb2:  // pred: ^bb1\n llvm.return\n }\n }"
      },
      {
        "seed": "seeds\\real_official_main23_functions_focus60\\conversion_memreftollvm_memref_to_llvm_mlir__fn_022.mlir",
        "summary": "Successful pipelines produced different IR text. This is an analysis signal, not a security issue by itself.",
        "details": "Structured IR summary\n- parse_verify: operations=7, functions=0, dialects=arith:1, llvm:2, memref:4\n- canonicalize_convergence_probe: operations=6, functions=0, dialects=arith:1, llvm:2, memref:3\n- type-count changes: memref:6->5\n\nText diff\n--- parse_verify\n+++ canonicalize_convergence_probe\n@@ -2,12 +2,10 @@\n llvm.func @generic_atomic_rmw_in_alloca_scope() {\n %c1 = arith.constant 1 : index\n %alloc = memref.alloc() : memref<2x3xi32>\n-memref.alloca_scope  {\n %0 = memref.generic_atomic_rmw %alloc[%c1, %c1] : memref<2x3xi32> {\n ^bb0(%arg0: i32):\n memref.atomic_yield %arg0 : i32\n }\n-}\n llvm.return\n }\n }"
      },
      {
        "seed": "seeds\\real_official_main23_functions_focus60\\conversion_memreftollvm_memref_to_llvm_mlir__fn_023.mlir",
        "summary": "Successful pipelines produced different IR text. This is an analysis signal, not a security issue by itself.",
        "details": "Structured IR summary\n- parse_verify: operations=6, functions=1, dialects=func:1, memref:5\n- canonicalize_convergence_probe: operations=4, functions=1, dialects=func:1, memref:3\n- type-count changes: memref:13->7\n\nText diff\n--- parse_verify\n+++ canonicalize_convergence_probe\n@@ -1,10 +1,8 @@\n module {\n func.func @memref_copy_ranked() {\n %alloc = memref.alloc() : memref<2xf32>\n-%cast = memref.cast %alloc : memref<2xf32> to memref<?xf32>\n %alloc_0 = memref.alloc() : memref<2xf32>\n-%cast_1 = memref.cast %alloc_0 : memref<2xf32> to memref<?xf32>\n-memref.copy %cast, %cast_1 : memref<?xf32> to memref<?xf32>\n+memref.copy %alloc, %alloc_0 : memref<2xf32> to memref<2xf32>\n return\n }\n }"
      },
      {
        "seed": "seeds\\real_official_main23_functions_focus60\\conversion_memreftollvm_memref_to_llvm_mlir__fn_024.mlir",
        "summary": "Successful pipelines produced different IR text. This is an analysis signal, not a security issue by itself.",
        "details": "Structured IR summary\n- parse_verify: operations=4, functions=1, dialects=func:1, memref:3\n- memref_alias_metadata: operations=5, functions=1, dialects=affine:1, func:1, memref:3\n\nText diff\n--- parse_verify\n+++ memref_alias_metadata\n@@ -1,8 +1,10 @@\n+#map = affine_map<()[s0] -> (s0 * 4)>\n module {\n func.func @memref_copy_contiguous(%arg0: memref<16x4xi32>, %arg1: index) {\n %alloc = memref.alloc() : memref<1x2xi32>\n-%subview = memref.subview %arg0[%arg1, 0] [1, 2] [1, 1] : memref<16x4xi32> to memref<1x2xi32, strided<[4, 1], offset: ?>>\n-memref.copy %subview, %alloc : memref<1x2xi32, strided<[4, 1], offset: ?>> to memref<1x2xi32>\n+%0 = affine.apply #map()[%arg1]\n+%reinterpret_cast = memref.reinterpret_cast %arg0 to offset: [%0], sizes: [1, 2], strides: [4, 1] : memref<16x4xi32> to memref<1x2xi32, strided<[4, 1], offset: ?>>\n+memref.copy %reinterpret_cast, %alloc : memref<1x2xi32, strided<[4, 1], offset: ?>> to memref<1x2xi32>\n return\n }\n }"
      },
      {
        "seed": "seeds\\real_official_main23_functions_focus60\\conversion_memreftollvm_memref_to_llvm_mlir__fn_025.mlir",
        "summary": "Successful pipelines produced different IR text. This is an analysis signal, not a security issue by itself.",
        "details": "Structured IR summary\n- parse_verify: operations=5, functions=1, dialects=func:1, memref:4\n- memref_alias_metadata: operations=4, functions=1, dialects=func:1, memref:3\n- type-count changes: memref:12->9\n\nText diff\n--- parse_verify\n+++ memref_alias_metadata\n@@ -1,9 +1,8 @@\n module {\n func.func @memref_copy_0d_offset(%arg0: memref<2xi32>) {\n %alloc = memref.alloc() : memref<i32>\n-%subview = memref.subview %arg0[1] [1] [1] : memref<2xi32> to memref<1xi32, strided<[1], offset: 1>>\n-%collapse_shape = memref.collapse_shape %subview [] : memref<1xi32, strided<[1], offset: 1>> into memref<i32, strided<[], offset: 1>>\n-memref.copy %collapse_shape, %alloc : memref<i32, strided<[], offset: 1>> to memref<i32>\n+%reinterpret_cast = memref.reinterpret_cast %arg0 to offset: [1], sizes: [], strides: [] : memref<2xi32> to memref<i32, strided<[], offset: 1>>\n+memref.copy %reinterpret_cast, %alloc : memref<i32, strided<[], offset: 1>> to memref<i32>\n return\n }\n }"
      },
      {
        "seed": "seeds\\real_official_main23_functions_focus60\\conversion_memreftollvm_memref_to_llvm_mlir__fn_026.mlir",
        "summary": "Successful pipelines produced different IR text. This is an analysis signal, not a security issue by itself.",
        "details": "Structured IR summary\n- parse_verify: operations=4, functions=1, dialects=func:1, memref:3\n- memref_alias_metadata: operations=5, functions=1, dialects=affine:1, func:1, memref:3\n\nText diff\n--- parse_verify\n+++ memref_alias_metadata\n@@ -1,8 +1,10 @@\n+#map = affine_map<()[s0] -> (s0 * 2)>\n module {\n func.func @memref_copy_noncontiguous(%arg0: memref<16x2xi32>, %arg1: index) {\n %alloc = memref.alloc() : memref<2x1xi32>\n-%subview = memref.subview %arg0[%arg1, 0] [2, 1] [1, 1] : memref<16x2xi32> to memref<2x1xi32, strided<[2, 1], offset: ?>>\n-memref.copy %subview, %alloc : memref<2x1xi32, strided<[2, 1], offset: ?>> to memref<2x1xi32>\n+%0 = affine.apply #map()[%arg1]\n+%reinterpret_cast = memref.reinterpret_cast %arg0 to offset: [%0], sizes: [2, 1], strides: [2, 1] : memref<16x2xi32> to memref<2x1xi32, strided<[2, 1], offset: ?>>\n+memref.copy %reinterpret_cast, %alloc : memref<2x1xi32, strided<[2, 1], offset: ?>> to memref<2x1xi32>\n return\n }\n }"
      },
      {
        "seed": "seeds\\real_official_main23_functions_focus60\\conversion_memreftollvm_memref_to_llvm_mlir__fn_027.mlir",
        "summary": "Successful pipelines produced different IR text. This is an analysis signal, not a security issue by itself.",
        "details": "Structured IR summary\n- parse_verify: operations=6, functions=1, dialects=func:1, memref:5\n- memref_llvm_lowering: operations=42, functions=1, dialects=func:1, llvm:41\n- type-count changes: i1:0->3, i64:0->69, index:0->3, memref:13->0\n\nText diff\n--- parse_verify\n+++ memref_llvm_lowering\n@@ -1,10 +1,46 @@\n module {\n+llvm.func @memrefCopy(i64, !llvm.ptr, !llvm.ptr)\n+llvm.func @malloc(i64) -> !llvm.ptr\n func.func @memref_copy_unranked() {\n-%alloc = memref.alloc() : memref<2xi1>\n-%cast = memref.cast %alloc : memref<2xi1> to memref<*xi1>\n-%alloc_0 = memref.alloc() : memref<2xi1>\n-%cast_1 = memref.cast %alloc_0 : memref<2xi1> to memref<*xi1>\n-memref.copy %cast, %cast_1 : memref<*xi1> to memref<*xi1>\n+%0 = llvm.mlir.poison : !llvm.struct<(i64, ptr)>\n+%1 = llvm.mlir.constant(0 : index) : i64\n+%2 = llvm.mlir.poison : !llvm.struct<(ptr, ptr, i64, array<1 x i64>, array<1 x i64>)>\n+%3 = llvm.mlir.constant(2 : index) : i64\n+%4 = llvm.mlir.constant(1 : index) : i64\n+%5 = llvm.mlir.zero : !llvm.ptr\n+%6 = llvm.getelementptr %5[2] : (!llvm.ptr) -> !llvm.ptr, i1\n+%7 = llvm.ptrtoint %6 : !llvm.ptr to i64\n+%8 = llvm.call @malloc(%7) : (i64) -> !llvm.ptr\n+%9 = llvm.insertvalue %8, %2[0] : !llvm.struct<(ptr, ptr, i64, array<1 x i64>, array<1 x i64>)>\n+%10 = llvm.insertvalue %8, %9[1] : !llvm.struct<(ptr, ptr, i64, array<1 x i64>, array<1 x i64>)>\n+%11 = llvm.insertvalue %1, %10[2] : !llvm.struct<(ptr, ptr, i64, array<1 x i64>, array<1 x i64>)>\n+%12 = llvm.insertvalue %3, %11[3, 0] : !llvm.struct<(ptr, ptr, i64, array<1 x i64>, array<1 x i64>)>\n+%13 = llvm.insertvalue %4, %12[4, 0] : !llvm.struct<(ptr, ptr, i64, array<1 x i64>, array<1 x i64>)>\n+%14 = llvm.alloca %4 x !llvm.struct<(ptr, ptr, i64, array<1 x i64>, array<1 x i64>)> : (i64) -> !llvm.ptr\n+llvm.store %13, %14 : !llvm.struct<(ptr, ptr, i64, array<1 x i64>, array<1 x i64>)>, !llvm.ptr\n+%15 = llvm.insertvalue %4, %0[0] : !llvm.struct<(i64, ptr)>\n+%16 = llvm.insertvalue %14, %15[1] : !llvm.struct<(i64, ptr)>\n+%17 = llvm.getelementptr %5[2] : (!llvm.ptr) -> !llvm.ptr, i1\n+%18 = llvm.ptrtoint %17 : !llvm.ptr to i64\n+%19 = llvm.call @malloc(%18) : (i64) -> !llvm.ptr\n+%20 = llvm.insertvalue %19, %2[0] : !llvm.struct<(ptr, ptr, i64, array<1 x i64>, array<1 x i64>)>\n+%21 = llvm.insertvalue %19, %20[1] : !llvm.struct<(ptr, ptr, i64, array<1 x i64>, array<1 x i64>)>\n+%22 = llvm.insertvalue %1, %21[2] : !llvm.struct<(ptr, ptr, i64, array<1 x i64>, array<1 x i64>)>\n+%23 = llvm.insertvalue %3, %22[3, 0] : !llvm.struct<(ptr, ptr, i64, array<1 x i64>, array<1 x i64>)>\n+%24 = llvm.insertvalue %4, %23[4, 0] : !llvm.struct<(ptr, ptr, i64, array<1 x i64>, array<1 x i64>)>\n+%25 = llvm.alloca %4 x !llvm.struct<(ptr, ptr, i64, array<1 x i64>, array<1 x i64>)> : (i64) -> !llvm.ptr\n+llvm.store %24, %25 : !llvm.struct<(ptr, ptr, i64, array<1 x i64>, array<1 x i64>)>, !llvm.ptr\n+%26 = llvm.insertvalue %4, %0[0] : !llvm.struct<(i64, ptr)>\n+%27 = llvm.insertvalue %25, %26[1] : !llvm.struct<(i64, ptr)>\n+%28 = llvm.intr.stacksave : !llvm.ptr\n+%29 = llvm.alloca %4 x !llvm.struct<(i64, ptr)> : (i64) -> !llvm.ptr\n+llvm.store %16, %29 : !llvm.struct<(i64, ptr)>, !llvm.ptr\n+%30 = llvm.alloca %4 x !llvm.struct<(i64, ptr)> : (i64) -> !llvm.ptr\n+llvm.store %27, %30 : !llvm.struct<(i64, ptr)>, !llvm.ptr\n+%31 = llvm.getelementptr %5[1] : (!llvm.ptr) -> !llvm.ptr, i1\n+%32 = llvm.ptrtoint %31 : !llvm.ptr to i64\n+llvm.call @memrefCopy(%32, %29, %30) : (i64, !llvm.ptr, !llvm.ptr) -> ()\n+llvm.intr.stackrestore %28 : !llvm.ptr\n return\n }\n }"
      },
      {
        "seed": "seeds\\real_official_main23_functions_focus60\\conversion_memreftollvm_memref_to_llvm_mlir__fn_028.mlir",
        "summary": "Successful pipelines produced different IR text. This is an analysis signal, not a security issue by itself.",
        "details": "Structured IR summary\n- parse_verify: operations=2, functions=1, dialects=func:1, memref:1\n- memref_llvm_lowering: operations=5, functions=1, dialects=builtin:2, func:1, llvm:2\n- type-count changes: i64:0->8, memref:3->2\n\nText diff\n--- parse_verify\n+++ memref_llvm_lowering\n@@ -1,6 +1,9 @@\n module {\n func.func @extract_aligned_pointer_as_index(%arg0: memref<?xf32>) -> index {\n-%intptr = memref.extract_aligned_pointer_as_index %arg0 : memref<?xf32> -> index\n-return %intptr : index\n+%0 = builtin.unrealized_conversion_cast %arg0 : memref<?xf32> to !llvm.struct<(ptr, ptr, i64, array<1 x i64>, array<1 x i64>)>\n+%1 = llvm.extractvalue %0[1] : !llvm.struct<(ptr, ptr, i64, array<1 x i64>, array<1 x i64>)>\n+%2 = llvm.ptrtoint %1 : !llvm.ptr to i64\n+%3 = builtin.unrealized_conversion_cast %2 : i64 to index\n+return %3 : index\n }\n }"
      },
      {
        "seed": "seeds\\real_official_main23_functions_focus60\\conversion_memreftollvm_memref_to_llvm_mlir__fn_029.mlir",
        "summary": "Successful pipelines produced different IR text. This is an analysis signal, not a security issue by itself.",
        "details": "Structured IR summary\n- parse_verify: operations=2, functions=1, dialects=func:1, memref:1\n- memref_llvm_lowering: operations=7, functions=1, dialects=builtin:2, func:1, llvm:4\n- type-count changes: i64:0->4, memref:3->2\n\nText diff\n--- parse_verify\n+++ memref_llvm_lowering\n@@ -1,6 +1,11 @@\n module {\n func.func @extract_aligned_pointer_as_index_unranked(%arg0: memref<*xf32>) -> index {\n-%intptr = memref.extract_aligned_pointer_as_index %arg0 : memref<*xf32> -> index\n-return %intptr : index\n+%0 = builtin.unrealized_conversion_cast %arg0 : memref<*xf32> to !llvm.struct<(i64, ptr)>\n+%1 = llvm.extractvalue %0[1] : !llvm.struct<(i64, ptr)>\n+%2 = llvm.getelementptr %1[1] : (!llvm.ptr) -> !llvm.ptr, !llvm.ptr\n+%3 = llvm.load %2 : !llvm.ptr -> !llvm.ptr\n+%4 = llvm.ptrtoint %3 : !llvm.ptr to i64\n+%5 = builtin.unrealized_conversion_cast %4 : i64 to index\n+return %5 : index\n }\n }"
      },
      {
        "seed": "seeds\\real_official_main23_functions_focus60\\conversion_memreftollvm_memref_to_llvm_mlir__fn_030.mlir",
        "summary": "Successful pipelines produced different IR text. This is an analysis signal, not a security issue by itself.",
        "details": "Structured IR summary\n- parse_verify: operations=2, functions=1, dialects=func:1, memref:1\n- canonicalize_convergence_probe: operations=1, functions=1, dialects=func:1\n- type-count changes: f32:1->0, index:5->0, memref:4->1\n\nText diff\n--- parse_verify\n+++ canonicalize_convergence_probe\n@@ -1,6 +1,5 @@\n module {\n func.func @extract_strided_metadata(%arg0: memref<?x?xf32, strided<[?, ?], offset: ?>>) {\n-%base_buffer, %offset, %sizes:2, %strides:2 = memref.extract_strided_metadata %arg0 : memref<?x?xf32, strided<[?, ?], offset: ?>> -> memref<f32>, index, index, index, index, index\n return\n }\n }"
      },
      {
        "seed": "seeds\\real_official_main23_functions_focus60\\conversion_memreftollvm_memref_to_llvm_mlir__fn_031.mlir",
        "summary": "Successful pipelines produced different IR text. This is an analysis signal, not a security issue by itself.",
        "details": "Structured IR summary\n- parse_verify: operations=3, functions=1, dialects=arith:1, func:1, memref:1\n- canonicalize_convergence_probe: operations=1, functions=1, dialects=func:1\n- type-count changes: index:1->0, memref:3->1\n\nText diff\n--- parse_verify\n+++ canonicalize_convergence_probe\n@@ -1,7 +1,5 @@\n module {\n func.func @load_non_temporal(%arg0: memref<32xf32>) {\n-%c7 = arith.constant 7 : index\n-%0 = memref.load %arg0[%c7] {nontemporal = true} : memref<32xf32>\n return\n }\n }"
      },
      {
        "seed": "seeds\\real_official_main23_functions_focus60\\conversion_memreftollvm_memref_to_llvm_mlir__fn_032.mlir",
        "summary": "Successful pipelines produced different IR text. This is an analysis signal, not a security issue by itself.",
        "details": "Structured IR summary\n- parse_verify: operations=2, functions=1, dialects=func:1, memref:1\n- canonicalize_convergence_probe: operations=1, functions=1, dialects=func:1\n- type-count changes: i64:1->0, memref:3->1\n\nText diff\n--- parse_verify\n+++ canonicalize_convergence_probe\n@@ -1,6 +1,5 @@\n module {\n func.func @load_with_alignment(%arg0: memref<32xf32>, %arg1: index) {\n-%0 = memref.load %arg0[%arg1] {alignment = 32 : i64} : memref<32xf32>\n return\n }\n }"
      },
      {
        "seed": "seeds\\real_official_main23_functions_focus60\\conversion_memreftollvm_memref_to_llvm_mlir__fn_033.mlir",
        "summary": "Successful pipelines produced different IR text. This is an analysis signal, not a security issue by itself.",
        "details": "Structured IR summary\n- parse_verify: operations=4, functions=1, dialects=arith:1, func:1, memref:2\n- memref_llvm_lowering: operations=11, functions=1, dialects=arith:1, builtin:3, func:1, llvm:6\n- type-count changes: f32:0->4, i64:0->15, index:1->2, memref:6->4\n\nText diff\n--- parse_verify\n+++ memref_llvm_lowering\n@@ -1,8 +1,15 @@\n module {\n func.func @store_non_temporal(%arg0: memref<32xf32>, %arg1: memref<32xf32>) {\n %c7 = arith.constant 7 : index\n-%0 = memref.load %arg0[%c7] {nontemporal = true} : memref<32xf32>\n-memref.store %0, %arg1[%c7] {nontemporal = true} : memref<32xf32>\n+%0 = builtin.unrealized_conversion_cast %arg1 : memref<32xf32> to !llvm.struct<(ptr, ptr, i64, array<1 x i64>, array<1 x i64>)>\n+%1 = builtin.unrealized_conversion_cast %arg0 : memref<32xf32> to !llvm.struct<(ptr, ptr, i64, array<1 x i64>, array<1 x i64>)>\n+%2 = builtin.unrealized_conversion_cast %c7 : index to i64\n+%3 = llvm.extractvalue %1[1] : !llvm.struct<(ptr, ptr, i64, array<1 x i64>, array<1 x i64>)>\n+%4 = llvm.getelementptr inbounds|nuw %3[%2] : (!llvm.ptr, i64) -> !llvm.ptr, f32\n+%5 = llvm.load %4 {nontemporal} : !llvm.ptr -> f32\n+%6 = llvm.extractvalue %0[1] : !llvm.struct<(ptr, ptr, i64, array<1 x i64>, array<1 x i64>)>\n+%7 = llvm.getelementptr inbounds|nuw %6[%2] : (!llvm.ptr, i64) -> !llvm.ptr, f32\n+llvm.store %5, %7 {nontemporal} : f32, !llvm.ptr\n return\n }\n }"
      },
      {
        "seed": "seeds\\real_official_main23_functions_focus60\\conversion_memreftollvm_memref_to_llvm_mlir__fn_034.mlir",
        "summary": "Successful pipelines produced different IR text. This is an analysis signal, not a security issue by itself.",
        "details": "Structured IR summary\n- parse_verify: operations=2, functions=1, dialects=func:1, memref:1\n- memref_llvm_lowering: operations=6, functions=1, dialects=builtin:2, func:1, llvm:3\n- type-count changes: f32:1->3, i64:1->9, index:1->2, memref:3->2\n\nText diff\n--- parse_verify\n+++ memref_llvm_lowering\n@@ -1,6 +1,10 @@\n module {\n func.func @store_with_alignment(%arg0: memref<32xf32>, %arg1: f32, %arg2: index) {\n-memref.store %arg1, %arg0[%arg2] {alignment = 32 : i64} : memref<32xf32>\n+%0 = builtin.unrealized_conversion_cast %arg2 : index to i64\n+%1 = builtin.unrealized_conversion_cast %arg0 : memref<32xf32> to !llvm.struct<(ptr, ptr, i64, array<1 x i64>, array<1 x i64>)>\n+%2 = llvm.extractvalue %1[1] : !llvm.struct<(ptr, ptr, i64, array<1 x i64>, array<1 x i64>)>\n+%3 = llvm.getelementptr inbounds|nuw %2[%0] : (!llvm.ptr, i64) -> !llvm.ptr, f32\n+llvm.store %arg1, %3 {alignment = 32 : i64} : f32, !llvm.ptr\n return\n }\n }"
      },
      {
        "seed": "seeds\\real_official_main23_functions_focus60\\conversion_memreftollvm_memref_to_llvm_mlir__fn_035.mlir",
        "summary": "Successful pipelines produced different IR text. This is an analysis signal, not a security issue by itself.",
        "details": "Structured IR summary\n- parse_verify: operations=2, functions=1, dialects=func:1, memref:1\n- canonicalize_convergence_probe: operations=1, functions=1, dialects=func:1\n- type-count changes: memref:2->0\n\nText diff\n--- parse_verify\n+++ canonicalize_convergence_probe\n@@ -1,6 +1,5 @@\n module {\n func.func @alloca_unconvertable_memory_space() {\n-%alloca = memref.alloca() : memref<1x32x33xi32, #spirv.storage_class<StorageBuffer>>\n return\n }\n }"
      },
      {
        "seed": "seeds\\real_official_main23_functions_focus60\\conversion_memreftollvm_memref_to_llvm_mlir__fn_036.mlir",
        "summary": "Successful pipelines produced different IR text. This is an analysis signal, not a security issue by itself.",
        "details": "Structured IR summary\n- parse_verify: operations=2, functions=1, dialects=func:1, memref:1\n- canonicalize_convergence_probe: operations=1, functions=1, dialects=func:1\n- type-count changes: memref:2->0\n\nText diff\n--- parse_verify\n+++ canonicalize_convergence_probe\n@@ -1,6 +1,5 @@\n module {\n func.func @alloca_huge(%arg0: index) {\n-%alloca = memref.alloca() : memref<9223372036854775807x3xi32>\n return\n }\n }"
      },
      {
        "seed": "seeds\\real_official_main23_functions_focus60\\conversion_tosatolinalg_tosa_to_linalg_mlir__fn_014.mlir",
        "summary": "Successful pipelines produced different IR text. This is an analysis signal, not a security issue by itself.",
        "details": "Structured IR summary\n- parse_verify: operations=28, functions=1, dialects=func:1, tosa:27\n- canonicalize_convergence_probe: operations=1, functions=1, dialects=func:1\n- type-count changes: f32:2->0, tensor:75->1\n\nText diff\n--- parse_verify\n+++ canonicalize_convergence_probe\n@@ -1,35 +1,5 @@\n module {\n func.func @test_simple_f32(%arg0: tensor<1xf32>) {\n-%0 = tosa.tanh %arg0 : (tensor<1xf32>) -> tensor<1xf32>\n-%1 = tosa.abs %arg0 : (tensor<1xf32>) -> tensor<1xf32>\n-%2 = tosa.add %0, %0 : (tensor<1xf32>, tensor<1xf32>) -> tensor<1xf32>\n-%3 = tosa.sub %0, %1 : (tensor<1xf32>, tensor<1xf32>) -> tensor<1xf32>\n-%4 = \"tosa.const\"() <{values = dense<0> : tensor<1xi8>}> : () -> tensor<1xi8>\n-%5 = tosa.mul %0, %1, %4 : (tensor<1xf32>, tensor<1xf32>, tensor<1xi8>) -> tensor<1xf32>\n-%6 = \"tosa.const\"() <{values = dense<0.000000e+00> : tensor<1xf32>}> : () -> tensor<1xf32>\n-%7 = \"tosa.const\"() <{values = dense<0.000000e+00> : tensor<1xf32>}> : () -> tensor<1xf32>\n-%8 = tosa.negate %0, %6, %7 : (tensor<1xf32>, tensor<1xf32>, tensor<1xf32>) -> tensor<1xf32>\n-%9 = tosa.pow %1, %2 : (tensor<1xf32>, tensor<1xf32>) -> tensor<1xf32>\n-%10 = tosa.rsqrt %1 : (tensor<1xf32>) -> tensor<1xf32>\n-%11 = tosa.log %arg0 : (tensor<1xf32>) -> tensor<1xf32>\n-%12 = tosa.exp %arg0 : (tensor<1xf32>) -> tensor<1xf32>\n-%13 = tosa.greater %0, %1 : (tensor<1xf32>, tensor<1xf32>) -> tensor<1xi1>\n-%14 = tosa.greater_equal %0, %1 : (tensor<1xf32>, tensor<1xf32>) -> tensor<1xi1>\n-%15 = tosa.equal %0, %1 : (tensor<1xf32>, tensor<1xf32>) -> tensor<1xi1>\n-%16 = tosa.select %13, %0, %1 : (tensor<1xi1>, tensor<1xf32>, tensor<1xf32>) -> tensor<1xf32>\n-%17 = tosa.maximum %0, %1 : (tensor<1xf32>, tensor<1xf32>) -> tensor<1xf32>\n-%18 = tosa.minimum %0, %1 : (tensor<1xf32>, tensor<1xf32>) -> tensor<1xf32>\n-%19 = tosa.ceil %0 : (tensor<1xf32>) -> tensor<1xf32>\n-%20 = tosa.floor %0 : (tensor<1xf32>) -> tensor<1xf32>\n-%21 = tosa.clamp %0 {max_val = 5.000000e+00 : f32, min_val = 1.000000e+00 : f32} : (tensor<1xf32>) -> tensor<1xf32>\n-%22 = tosa.sigmoid %0 : (tensor<1xf32>) -> tensor<1xf32>\n-%23 = tosa.cast %0 : (tensor<1xf32>) -> tensor<1xi32>\n-%24 = tosa.cast %0 : (tensor<1xf32>) -> tensor<1xi1>\n-%25 = tosa.cast %0 : (tensor<1xf32>) -> tensor<1xf16>\n-%26 = tosa.reciprocal %0 : (tensor<1xf32>) -> tensor<1xf32>\n-%27 = tosa.erf %0 : (tensor<1xf32>) -> tensor<1xf32>\n-%28 = tosa.sin %arg0 : (tensor<1xf32>) -> tensor<1xf32>\n-%29 = tosa.cos %arg0 : (tensor<1xf32>) -> tensor<1xf32>\n return\n }\n }"
      },
      {
        "seed": "seeds\\real_official_main23_functions_focus60\\conversion_tosatolinalg_tosa_to_linalg_mlir__fn_015.mlir",
        "summary": "Successful pipelines produced different IR text. This is an analysis signal, not a security issue by itself.",
        "details": "Structured IR summary\n- parse_verify: operations=4, functions=1, dialects=func:1, tosa:3\n- canonicalize_convergence_probe: operations=1, functions=1, dialects=func:1\n- type-count changes: tensor:7->1\n\nText diff\n--- parse_verify\n+++ canonicalize_convergence_probe\n@@ -1,8 +1,5 @@\n module {\n func.func @test_simple_f16(%arg0: tensor<1xf16>) {\n-%0 = tosa.cast %arg0 : (tensor<1xf16>) -> tensor<1xf32>\n-%1 = tosa.cast %arg0 : (tensor<1xf16>) -> tensor<1xi8>\n-%2 = tosa.cast %arg0 : (tensor<1xf16>) -> tensor<1xi32>\n return\n }\n }"
      },
      {
        "seed": "seeds\\real_official_main23_functions_focus60\\conversion_tosatolinalg_tosa_to_linalg_mlir__fn_016.mlir",
        "summary": "Successful pipelines produced different IR text. This is an analysis signal, not a security issue by itself.",
        "details": "Structured IR summary\n- parse_verify: operations=2, functions=1, dialects=func:1, tosa:1\n- canonicalize_convergence_probe: operations=1, functions=1, dialects=func:1\n- type-count changes: tensor:7->1\n\nText diff\n--- parse_verify\n+++ canonicalize_convergence_probe\n@@ -1,7 +1,5 @@\n module {\n func.func @test_simple_i16(%arg0: tensor<1xi16>) {\n-%0 = \"tosa.const\"() <{values = dense<0> : tensor<1xi8>}> : () -> tensor<1xi8>\n-%1 = tosa.mul %arg0, %arg0, %0 : (tensor<1xi16>, tensor<1xi16>, tensor<1xi8>) -> tensor<1xi32>\n return\n }\n }"
      },
      {
        "seed": "seeds\\real_official_main23_functions_focus60\\conversion_tosatolinalg_tosa_to_linalg_mlir__fn_017.mlir",
        "summary": "Successful pipelines produced different IR text. This is an analysis signal, not a security issue by itself.",
        "details": "Structured IR summary\n- parse_verify: operations=2, functions=1, dialects=func:1, tosa:1\n- canonicalize_convergence_probe: operations=1, functions=1, dialects=func:1\n- type-count changes: tensor:3->1\n\nText diff\n--- parse_verify\n+++ canonicalize_convergence_probe\n@@ -1,6 +1,5 @@\n module {\n func.func @test_simple_ui8(%arg0: tensor<1xui8>) {\n-%0 = tosa.cast %arg0 : (tensor<1xui8>) -> tensor<1xf32>\n return\n }\n }"
      },
      {
        "seed": "seeds\\real_official_main23_functions_focus60\\conversion_tosatolinalg_tosa_to_linalg_mlir__fn_018.mlir",
        "summary": "Successful pipelines produced different IR text. This is an analysis signal, not a security issue by itself.",
        "details": "Structured IR summary\n- parse_verify: operations=27, functions=1, dialects=func:1, tosa:26\n- canonicalize_convergence_probe: operations=1, functions=1, dialects=func:1\n- type-count changes: i32:2->0, tensor:85->3\n\nText diff\n--- parse_verify\n+++ canonicalize_convergence_probe\n@@ -1,35 +1,5 @@\n module {\n func.func @test_simple_i32(%arg0: tensor<1xi32>, %arg1: tensor<1xui32>, %arg2: tensor<1xui64>) {\n-%0 = tosa.add %arg0, %arg0 : (tensor<1xi32>, tensor<1xi32>) -> tensor<1xi32>\n-%1 = tosa.sub %arg0, %arg0 : (tensor<1xi32>, tensor<1xi32>) -> tensor<1xi32>\n-%2 = \"tosa.const\"() <{values = dense<0> : tensor<1xi8>}> : () -> tensor<1xi8>\n-%3 = tosa.mul %arg0, %arg0, %2 : (tensor<1xi32>, tensor<1xi32>, tensor<1xi8>) -> tensor<1xi32>\n-%4 = \"tosa.const\"() <{values = dense<2> : tensor<1xi8>}> : () -> tensor<1xi8>\n-%5 = tosa.mul %arg0, %arg0, %4 : (tensor<1xi32>, tensor<1xi32>, tensor<1xi8>) -> tensor<1xi32>\n-%6 = tosa.intdiv %arg0, %arg0 : (tensor<1xi32>, tensor<1xi32>) -> tensor<1xi32>\n-%7 = \"tosa.const\"() <{values = dense<0> : tensor<1xi32>}> : () -> tensor<1xi32>\n-%8 = \"tosa.const\"() <{values = dense<0> : tensor<1xi32>}> : () -> tensor<1xi32>\n-%9 = tosa.negate %arg0, %7, %8 : (tensor<1xi32>, tensor<1xi32>, tensor<1xi32>) -> tensor<1xi32>\n-%10 = tosa.bitwise_and %arg0, %arg0 : (tensor<1xi32>, tensor<1xi32>) -> tensor<1xi32>\n-%11 = tosa.bitwise_or %arg0, %arg0 : (tensor<1xi32>, tensor<1xi32>) -> tensor<1xi32>\n-%12 = tosa.bitwise_xor %arg0, %arg0 : (tensor<1xi32>, tensor<1xi32>) -> tensor<1xi32>\n-%13 = tosa.logical_left_shift %arg0, %arg0 : (tensor<1xi32>, tensor<1xi32>) -> tensor<1xi32>\n-%14 = tosa.logical_right_shift %arg0, %arg0 : (tensor<1xi32>, tensor<1xi32>) -> tensor<1xi32>\n-%15 = tosa.arithmetic_right_shift %arg0, %arg0 {round = false} : (tensor<1xi32>, tensor<1xi32>) -> tensor<1xi32>\n-%16 = tosa.arithmetic_right_shift %arg0, %arg0 {round = true} : (tensor<1xi32>, tensor<1xi32>) -> tensor<1xi32>\n-%17 = tosa.clz %arg0 : (tensor<1xi32>) -> tensor<1xi32>\n-%18 = tosa.greater %0, %1 : (tensor<1xi32>, tensor<1xi32>) -> tensor<1xi1>\n-%19 = tosa.greater_equal %0, %1 : (tensor<1xi32>, tensor<1xi32>) -> tensor<1xi1>\n-%20 = tosa.select %18, %0, %1 : (tensor<1xi1>, tensor<1xi32>, tensor<1xi32>) -> tensor<1xi32>\n-%21 = tosa.maximum %0, %1 : (tensor<1xi32>, tensor<1xi32>) -> tensor<1xi32>\n-%22 = tosa.minimum %0, %1 : (tensor<1xi32>, tensor<1xi32>) -> tensor<1xi32>\n-%23 = tosa.clamp %0 {max_val = 5 : i32, min_val = 1 : i32} : (tensor<1xi32>) -> tensor<1xi32>\n-%24 = tosa.clamp %arg1 {max_val = 32 : ui32, min_val = 4 : ui32} : (tensor<1xui32>) -> tensor<1xui32>\n-%25 = tosa.cast %0 : (tensor<1xi32>) -> tensor<1xi16>\n-%26 = tosa.cast %0 : (tensor<1xi32>) -> tensor<1xi64>\n-%27 = tosa.cast %0 : (tensor<1xi32>) -> tensor<1xi1>\n-%28 = tosa.cast %0 : (tensor<1xi32>) -> tensor<1xf32>\n-%29 = tosa.abs %arg0 : (tensor<1xi32>) -> tensor<1xi32>\n return\n }\n }"
      },
      {
        "seed": "seeds\\real_official_main23_functions_focus60\\conversion_tosatolinalg_tosa_to_linalg_mlir__fn_019.mlir",
        "summary": "Successful pipelines produced different IR text. This is an analysis signal, not a security issue by itself.",
        "details": "Structured IR summary\n- parse_verify: operations=2, functions=1, dialects=func:1, tosa:1\n- canonicalize_convergence_probe: operations=1, functions=1, dialects=func:1\n- type-count changes: tensor:3->1\n\nText diff\n--- parse_verify\n+++ canonicalize_convergence_probe\n@@ -1,6 +1,5 @@\n module {\n func.func @test_simple_ui8(%arg0: tensor<1xi8>) {\n-%0 = tosa.cast %arg0 : (tensor<1xi8>) -> tensor<1xf32>\n return\n }\n }"
      },
      {
        "seed": "seeds\\real_official_main23_functions_focus60\\conversion_tosatolinalg_tosa_to_linalg_mlir__fn_020.mlir",
        "summary": "Successful pipelines produced different IR text. This is an analysis signal, not a security issue by itself.",
        "details": "Structured IR summary\n- parse_verify: operations=2, functions=1, dialects=func:1, tosa:1\n- canonicalize_convergence_probe: operations=1, functions=1, dialects=func:1\n- type-count changes: i8:2->0, tensor:3->1\n\nText diff\n--- parse_verify\n+++ canonicalize_convergence_probe\n@@ -1,6 +1,5 @@\n module {\n func.func @test_i8(%arg0: tensor<1xi8>) {\n-%0 = tosa.clamp %arg0 {max_val = 126 : i8, min_val = -127 : i8} : (tensor<1xi8>) -> tensor<1xi8>\n return\n }\n }"
      },
      {
        "seed": "seeds\\real_official_main23_functions_focus60\\conversion_tosatolinalg_tosa_to_linalg_mlir__fn_021.mlir",
        "summary": "Successful pipelines produced different IR text. This is an analysis signal, not a security issue by itself.",
        "details": "Structured IR summary\n- parse_verify: operations=2, functions=1, dialects=func:1, tosa:1\n- canonicalize_convergence_probe: operations=1, functions=1, dialects=func:1\n- type-count changes: i64:2->0, tensor:3->1\n\nText diff\n--- parse_verify\n+++ canonicalize_convergence_probe\n@@ -1,6 +1,5 @@\n module {\n func.func @test_i64(%arg0: tensor<1xi64>) {\n-%0 = tosa.clamp %arg0 {max_val = 9223372036854775807 : i64, min_val = -9223372036854775808 : i64} : (tensor<1xi64>) -> tensor<1xi64>\n return\n }\n }"
      },
      {
        "seed": "seeds\\real_official_main23_functions_focus60\\conversion_tosatolinalg_tosa_to_linalg_mlir__fn_022.mlir",
        "summary": "Successful pipelines produced different IR text. This is an analysis signal, not a security issue by itself.",
        "details": "Structured IR summary\n- parse_verify: operations=2, functions=1, dialects=func:1, tosa:1\n- canonicalize_convergence_probe: operations=1, functions=1, dialects=func:1\n- type-count changes: f16:2->0, tensor:3->1\n\nText diff\n--- parse_verify\n+++ canonicalize_convergence_probe\n@@ -1,6 +1,5 @@\n module {\n func.func @test_clamp_f16(%arg0: tensor<1xf16>) {\n-%0 = tosa.clamp %arg0 {max_val = 6.000000e+00 : f16, min_val = 0.000000e+00 : f16} : (tensor<1xf16>) -> tensor<1xf16>\n return\n }\n }"
      }
    ],
    "output_delta_count": 43
  }
}