{
  "seeds": [
    "outputs\\real_msys2_focus_seeds\\outputs_minimized_mlir22_memref_canonicalize_current.chunk.min.mlir",
    "outputs\\real_msys2_focus_seeds\\outputs_minimized_shape_fold_div_canonicalize.min.mlir",
    "outputs\\real_msys2_focus_seeds\\seeds_current_mlir23_llvm_197158_mem2reg_dbg_declare_use_after_erase.mlir",
    "outputs\\real_msys2_focus_seeds\\seeds_issue_repros_llvm_113021_linalg_negative_indexing_tile.mlir",
    "outputs\\real_msys2_focus_seeds\\seeds_issue_repros_llvm_168695_vector_scatter_tensor_canonicalize.mlir",
    "outputs\\real_msys2_focus_seeds\\seeds_issue_repros_llvm_61085_tosa_linalg_affine_assert.mlir",
    "outputs\\real_msys2_focus_seeds\\seeds_issue_repros_llvm_75811_scf_parallel_to_gpu_destroyed_use.mlir",
    "outputs\\real_msys2_focus_seeds\\seeds_issue_repros_llvm_82382_linalg_parallel_loops_to_gpu_crash.mlir",
    "outputs\\real_msys2_focus_seeds\\seeds_original_candidates_orig_001_inliner_nested_region_returned_func.mlir",
    "outputs\\real_msys2_focus_seeds\\seeds_real_official_affine_canonicalize.mlir",
    "outputs\\real_msys2_focus_seeds\\seeds_real_official_arith_int_range_opts_crash.mlir",
    "outputs\\real_msys2_focus_seeds\\seeds_real_official_bufferization_one_shot_bufferize.mlir",
    "outputs\\real_msys2_focus_seeds\\seeds_real_official_conversion_scf_to_gpu_parallel_loop.mlir",
    "outputs\\real_msys2_focus_seeds\\seeds_real_official_conversion_vector_to_llvm.mlir",
    "outputs\\real_msys2_focus_seeds\\seeds_real_official_gpu_canonicalize.mlir",
    "outputs\\real_msys2_focus_seeds\\seeds_real_official_linalg_canonicalize.mlir",
    "outputs\\real_msys2_focus_seeds\\seeds_real_official_memref_canonicalize_extra.mlir",
    "outputs\\real_msys2_focus_seeds\\seeds_real_official_scf_canonicalize.mlir",
    "outputs\\real_msys2_focus_seeds\\seeds_real_official_shape_fold_div.mlir",
    "outputs\\real_msys2_focus_seeds\\seeds_real_official_vector_constant_fold.mlir"
  ],
  "pipelines": [
    "parse_verify",
    "canonicalize_cse_sccp",
    "symbol_dce_inliner_canonicalize",
    "affine_lowering_stress",
    "scf_to_cf_stress",
    "vector_lowering_stress",
    "bufferization_probe",
    "linalg_affine_probe",
    "gpu_parallel_probe"
  ],
  "runs": [
    {
      "seed": "seeds\\outputs_minimized_mlir22_memref_canonicalize_current.chunk.min.mlir",
      "pipeline": "parse_verify",
      "command": "%MLIRSHIELD_MLIR_OPT% outputs\\real_msys2_focus_seeds\\outputs_minimized_mlir22_memref_canonicalize_current.chunk.min.mlir  -o -",
      "return_code": 0,
      "timed_out": false,
      "elapsed_ms": 56,
      "stdout": "module {\n  func.func @no_crash_dim_of_ambiguous_subview(%arg0: memref<?x?x?xf32, strided<[?, ?, ?], offset: ?>>, %arg1: index) -> index {\n    %c1 = arith.constant 1 : index\n    %subview = memref.subview %arg0[0, 0, 0] [1, %arg1, 1] [1, 1, 1] : memref<?x?x?xf32, strided<[?, ?, ?], offset: ?>> to memref<1x?xf32, strided<[?, ?], offset: ?>>\n    %dim = memref.dim %subview, %c1 : memref<1x?xf32, strided<[?, ?], offset: ?>>\n    return %dim : index\n  }\n}\n\n",
      "stderr": "",
      "stdout_path": "outputs\\real_msys2_focus\\artifacts\\outputs_minimized_mlir22_memref_canonicalize_current_chunk_min__parse_verify.stdout.mlir",
      "stderr_path": "outputs\\real_msys2_focus\\artifacts\\outputs_minimized_mlir22_memref_canonicalize_current_chunk_min__parse_verify.stderr.txt",
      "category": "success"
    },
    {
      "seed": "seeds\\outputs_minimized_mlir22_memref_canonicalize_current.chunk.min.mlir",
      "pipeline": "canonicalize_cse_sccp",
      "command": "%MLIRSHIELD_MLIR_OPT% outputs\\real_msys2_focus_seeds\\outputs_minimized_mlir22_memref_canonicalize_current.chunk.min.mlir --canonicalize --cse --sccp --canonicalize -o -",
      "return_code": 3221225477,
      "timed_out": false,
      "elapsed_ms": 100,
      "stdout": "",
      "stderr": "PLEASE submit a bug report to https://github.com/llvm/llvm-project/issues/ and include the crash backtrace and instructions to reproduce the bug.\nStack dump:\n0.\tProgram arguments: E:\\\\KiriTong\\\\msys64\\\\mingw64\\\\bin\\\\mlir-opt.exe outputs\\\\real_msys2_focus_seeds\\\\outputs_minimized_mlir22_memref_canonicalize_current.chunk.min.mlir --canonicalize --cse --sccp --canonicalize -o -\nException Code: 0xC0000005\n0x00007FF7B61E2BFA, %MLIRSHIELD_MLIR_OPT%(0x00007FF7B4F70000) + 0x1272BFA byte(s)\n0x00007FF7B8585FE8, %MLIRSHIELD_MLIR_OPT%(0x00007FF7B4F70000) + 0x3615FE8 byte(s)\n0x00007FF7B85861E2, %MLIRSHIELD_MLIR_OPT%(0x00007FF7B4F70000) + 0x36161E2 byte(s)\n0x00007FF7B8F0F6D7, %MLIRSHIELD_MLIR_OPT%(0x00007FF7B4F70000) + 0x3F9F6D7 byte(s)\n0x00007FF7B8F0D32F, %MLIRSHIELD_MLIR_OPT%(0x00007FF7B4F70000) + 0x3F9D32F byte(s)\n0x00007FF7B786BD42, %MLIRSHIELD_MLIR_OPT%(0x00007FF7B4F70000) + 0x28FBD42 byte(s)\n0x00007FF7B504C434, %MLIRSHIELD_MLIR_OPT%(0x00007FF7B4F70000) + 0xDC434 byte(s)\n0x00007FF7B50501B9, %MLIRSHIELD_MLIR_OPT%(0x00007FF7B4F70000) + 0xE01B9 byte(s)\n0x00007FF7B4F7FAFC, %MLIRSHIELD_MLIR_OPT%(0x00007FF7B4F70000) + 0xFAFC byte(s)\n0x00007FF7B4F7ECEC, %MLIRSHIELD_MLIR_OPT%(0x00007FF7B4F70000) + 0xECEC byte(s)\n0x00007FF7B504705A, %MLIRSHIELD_MLIR_OPT%(0x00007FF7B4F70000) + 0xD705A byte(s)\n0x00007FF7B4F732C0, %MLIRSHIELD_MLIR_OPT%(0x00007FF7B4F70000) + 0x32C0 byte(s)\n0x00007FF7B4F73634, %MLIRSHIELD_MLIR_OPT%(0x00007FF7B4F70000) + 0x3634 byte(s)\n0x00007FF7B4F73904, %MLIRSHIELD_MLIR_OPT%(0x00007FF7B4F70000) + 0x3904 byte(s)\n0x00007FF7B4F71565, %MLIRSHIELD_MLIR_OPT%(0x00007FF7B4F70000) + 0x1565 byte(s)\n0x00007FF7B4F710FA, %MLIRSHIELD_MLIR_OPT%(0x00007FF7B4F70000) + 0x10FA byte(s)\n0x00007FFA3BD2E957, C:\\WINDOWS\\System32\\KERNEL32.DLL(0x00007FFA3BD00000) + 0x2E957 byte(s), BaseThreadInitThunk() + 0x17 byte(s)\n0x00007FFA3C8C7C1C, C:\\WINDOWS\\SYSTEM32\\ntdll.dll(0x00007FFA3C840000) + 0x87C1C byte(s), RtlUserThreadStart() + 0x2C byte(s)\n",
      "stdout_path": "outputs\\real_msys2_focus\\artifacts\\outputs_minimized_mlir22_memref_canonicalize_current_chunk_min__canonicalize_cse_sccp.stdout.mlir",
      "stderr_path": "outputs\\real_msys2_focus\\artifacts\\outputs_minimized_mlir22_memref_canonicalize_current_chunk_min__canonicalize_cse_sccp.stderr.txt",
      "category": "memory/assertion"
    },
    {
      "seed": "seeds\\outputs_minimized_mlir22_memref_canonicalize_current.chunk.min.mlir",
      "pipeline": "symbol_dce_inliner_canonicalize",
      "command": "%MLIRSHIELD_MLIR_OPT% outputs\\real_msys2_focus_seeds\\outputs_minimized_mlir22_memref_canonicalize_current.chunk.min.mlir --symbol-dce --inline --canonicalize --cse -o -",
      "return_code": 3221225477,
      "timed_out": false,
      "elapsed_ms": 76,
      "stdout": "",
      "stderr": "PLEASE submit a bug report to https://github.com/llvm/llvm-project/issues/ and include the crash backtrace and instructions to reproduce the bug.\nStack dump:\n0.\tProgram arguments: E:\\\\KiriTong\\\\msys64\\\\mingw64\\\\bin\\\\mlir-opt.exe outputs\\\\real_msys2_focus_seeds\\\\outputs_minimized_mlir22_memref_canonicalize_current.chunk.min.mlir --symbol-dce --inline --canonicalize --cse -o -\nException Code: 0xC0000005\n0x00007FF7B61E2BFA, %MLIRSHIELD_MLIR_OPT%(0x00007FF7B4F70000) + 0x1272BFA byte(s)\n0x00007FF7B8585FE8, %MLIRSHIELD_MLIR_OPT%(0x00007FF7B4F70000) + 0x3615FE8 byte(s)\n0x00007FF7B85861E2, %MLIRSHIELD_MLIR_OPT%(0x00007FF7B4F70000) + 0x36161E2 byte(s)\n0x00007FF7B8F0F6D7, %MLIRSHIELD_MLIR_OPT%(0x00007FF7B4F70000) + 0x3F9F6D7 byte(s)\n0x00007FF7B8F0D32F, %MLIRSHIELD_MLIR_OPT%(0x00007FF7B4F70000) + 0x3F9D32F byte(s)\n0x00007FF7B786BD42, %MLIRSHIELD_MLIR_OPT%(0x00007FF7B4F70000) + 0x28FBD42 byte(s)\n0x00007FF7B504C434, %MLIRSHIELD_MLIR_OPT%(0x00007FF7B4F70000) + 0xDC434 byte(s)\n0x00007FF7B504CE66, %MLIRSHIELD_MLIR_OPT%(0x00007FF7B4F70000) + 0xDCE66 byte(s)\n0x00007FF7B5051EE0, %MLIRSHIELD_MLIR_OPT%(0x00007FF7B4F70000) + 0xE1EE0 byte(s)\n0x00007FF7B9194FD1, %MLIRSHIELD_MLIR_OPT%(0x00007FF7B4F70000) + 0x4224FD1 byte(s)\n0x00007FF7B9194C58, %MLIRSHIELD_MLIR_OPT%(0x00007FF7B4F70000) + 0x4224C58 byte(s)\n0x00007FF7B9195CB5, %MLIRSHIELD_MLIR_OPT%(0x00007FF7B4F70000) + 0x4225CB5 byte(s)\n0x00007FF7B7871774, %MLIRSHIELD_MLIR_OPT%(0x00007FF7B4F70000) + 0x2901774 byte(s)\n0x00007FF7B504C434, %MLIRSHIELD_MLIR_OPT%(0x00007FF7B4F70000) + 0xDC434 byte(s)\n0x00007FF7B50501B9, %MLIRSHIELD_MLIR_OPT%(0x00007FF7B4F70000) + 0xE01B9 byte(s)\n0x00007FF7B4F7FAFC, %MLIRSHIELD_MLIR_OPT%(0x00007FF7B4F70000) + 0xFAFC byte(s)\n0x00007FF7B4F7ECEC, %MLIRSHIELD_MLIR_OPT%(0x00007FF7B4F70000) + 0xECEC byte(s)\n0x00007FF7B504705A, %MLIRSHIELD_MLIR_OPT%(0x00007FF7B4F70000) + 0xD705A byte(s)\n0x00007FF7B4F732C0, %MLIRSHIELD_MLIR_OPT%(0x00007FF7B4F70000) + 0x32C0 byte(s)\n0x00007FF7B4F73634, %MLIRSHIELD_MLIR_OPT%(0x00007FF7B4F70000) + 0x3634 byte(s)\n0x00007FF7B4F73904, %MLIRSHIELD_MLIR_OPT%(0x00007FF7B4F70000) + 0x3904 byte(s)\n0x00007FF7B4F71565, %MLIRSHIELD_MLIR_OPT%(0x00007FF7B4F70000) + 0x1565 byte(s)\n0x00007FF7B4F710FA, %MLIRSHIELD_MLIR_OPT%(0x00007FF7B4F70000) + 0x10FA byte(s)\n0x00007FFA3BD2E957, C:\\WINDOWS\\System32\\KERNEL32.DLL(0x00007FFA3BD00000) + 0x2E957 byte(s), BaseThreadInitThunk() + 0x17 byte(s)\n0x00007FFA3C8C7C1C, C:\\WINDOWS\\SYSTEM32\\ntdll.dll(0x00007FFA3C840000) + 0x87C1C byte(s), RtlUserThreadStart() + 0x2C byte(s)\n",
      "stdout_path": "outputs\\real_msys2_focus\\artifacts\\outputs_minimized_mlir22_memref_canonicalize_current_chunk_min__symbol_dce_inliner_canonicalize.stdout.mlir",
      "stderr_path": "outputs\\real_msys2_focus\\artifacts\\outputs_minimized_mlir22_memref_canonicalize_current_chunk_min__symbol_dce_inliner_canonicalize.stderr.txt",
      "category": "memory/assertion"
    },
    {
      "seed": "seeds\\outputs_minimized_mlir22_memref_canonicalize_current.chunk.min.mlir",
      "pipeline": "affine_lowering_stress",
      "command": "%MLIRSHIELD_MLIR_OPT% outputs\\real_msys2_focus_seeds\\outputs_minimized_mlir22_memref_canonicalize_current.chunk.min.mlir --lower-affine --canonicalize --cse -o -",
      "return_code": 0,
      "timed_out": false,
      "elapsed_ms": 31,
      "stdout": "module {\n  func.func @no_crash_dim_of_ambiguous_subview(%arg0: memref<?x?x?xf32, strided<[?, ?, ?], offset: ?>>, %arg1: index) -> index {\n    %c1 = arith.constant 1 : index\n    %subview = memref.subview %arg0[0, 0, 0] [1, %arg1, 1] [1, 1, 1] : memref<?x?x?xf32, strided<[?, ?, ?], offset: ?>> to memref<1x?xf32, strided<[?, ?], offset: ?>>\n    %dim = memref.dim %subview, %c1 : memref<1x?xf32, strided<[?, ?], offset: ?>>\n    return %dim : index\n  }\n}\n\n",
      "stderr": "",
      "stdout_path": "outputs\\real_msys2_focus\\artifacts\\outputs_minimized_mlir22_memref_canonicalize_current_chunk_min__affine_lowering_stress.stdout.mlir",
      "stderr_path": "outputs\\real_msys2_focus\\artifacts\\outputs_minimized_mlir22_memref_canonicalize_current_chunk_min__affine_lowering_stress.stderr.txt",
      "category": "success"
    },
    {
      "seed": "seeds\\outputs_minimized_mlir22_memref_canonicalize_current.chunk.min.mlir",
      "pipeline": "scf_to_cf_stress",
      "command": "%MLIRSHIELD_MLIR_OPT% outputs\\real_msys2_focus_seeds\\outputs_minimized_mlir22_memref_canonicalize_current.chunk.min.mlir --convert-scf-to-cf --canonicalize --cse -o -",
      "return_code": 3221225477,
      "timed_out": false,
      "elapsed_ms": 89,
      "stdout": "",
      "stderr": "PLEASE submit a bug report to https://github.com/llvm/llvm-project/issues/ and include the crash backtrace and instructions to reproduce the bug.\nStack dump:\n0.\tProgram arguments: E:\\\\KiriTong\\\\msys64\\\\mingw64\\\\bin\\\\mlir-opt.exe outputs\\\\real_msys2_focus_seeds\\\\outputs_minimized_mlir22_memref_canonicalize_current.chunk.min.mlir --convert-scf-to-cf --canonicalize --cse -o -\nException Code: 0xC0000005\n0x00007FF7B61E2BFA, %MLIRSHIELD_MLIR_OPT%(0x00007FF7B4F70000) + 0x1272BFA byte(s)\n0x00007FF7B8585FE8, %MLIRSHIELD_MLIR_OPT%(0x00007FF7B4F70000) + 0x3615FE8 byte(s)\n0x00007FF7B85861E2, %MLIRSHIELD_MLIR_OPT%(0x00007FF7B4F70000) + 0x36161E2 byte(s)\n0x00007FF7B8F0F6D7, %MLIRSHIELD_MLIR_OPT%(0x00007FF7B4F70000) + 0x3F9F6D7 byte(s)\n0x00007FF7B8F0D32F, %MLIRSHIELD_MLIR_OPT%(0x00007FF7B4F70000) + 0x3F9D32F byte(s)\n0x00007FF7B786BD42, %MLIRSHIELD_MLIR_OPT%(0x00007FF7B4F70000) + 0x28FBD42 byte(s)\n0x00007FF7B504C434, %MLIRSHIELD_MLIR_OPT%(0x00007FF7B4F70000) + 0xDC434 byte(s)\n0x00007FF7B50501B9, %MLIRSHIELD_MLIR_OPT%(0x00007FF7B4F70000) + 0xE01B9 byte(s)\n0x00007FF7B4F7FAFC, %MLIRSHIELD_MLIR_OPT%(0x00007FF7B4F70000) + 0xFAFC byte(s)\n0x00007FF7B4F7ECEC, %MLIRSHIELD_MLIR_OPT%(0x00007FF7B4F70000) + 0xECEC byte(s)\n0x00007FF7B504705A, %MLIRSHIELD_MLIR_OPT%(0x00007FF7B4F70000) + 0xD705A byte(s)\n0x00007FF7B4F732C0, %MLIRSHIELD_MLIR_OPT%(0x00007FF7B4F70000) + 0x32C0 byte(s)\n0x00007FF7B4F73634, %MLIRSHIELD_MLIR_OPT%(0x00007FF7B4F70000) + 0x3634 byte(s)\n0x00007FF7B4F73904, %MLIRSHIELD_MLIR_OPT%(0x00007FF7B4F70000) + 0x3904 byte(s)\n0x00007FF7B4F71565, %MLIRSHIELD_MLIR_OPT%(0x00007FF7B4F70000) + 0x1565 byte(s)\n0x00007FF7B4F710FA, %MLIRSHIELD_MLIR_OPT%(0x00007FF7B4F70000) + 0x10FA byte(s)\n0x00007FFA3BD2E957, C:\\WINDOWS\\System32\\KERNEL32.DLL(0x00007FFA3BD00000) + 0x2E957 byte(s), BaseThreadInitThunk() + 0x17 byte(s)\n0x00007FFA3C8C7C1C, C:\\WINDOWS\\SYSTEM32\\ntdll.dll(0x00007FFA3C840000) + 0x87C1C byte(s), RtlUserThreadStart() + 0x2C byte(s)\n",
      "stdout_path": "outputs\\real_msys2_focus\\artifacts\\outputs_minimized_mlir22_memref_canonicalize_current_chunk_min__scf_to_cf_stress.stdout.mlir",
      "stderr_path": "outputs\\real_msys2_focus\\artifacts\\outputs_minimized_mlir22_memref_canonicalize_current_chunk_min__scf_to_cf_stress.stderr.txt",
      "category": "memory/assertion"
    },
    {
      "seed": "seeds\\outputs_minimized_mlir22_memref_canonicalize_current.chunk.min.mlir",
      "pipeline": "vector_lowering_stress",
      "command": "%MLIRSHIELD_MLIR_OPT% outputs\\real_msys2_focus_seeds\\outputs_minimized_mlir22_memref_canonicalize_current.chunk.min.mlir --convert-vector-to-scf --convert-vector-to-llvm --canonicalize -o -",
      "return_code": 3221225477,
      "timed_out": false,
      "elapsed_ms": 84,
      "stdout": "",
      "stderr": "PLEASE submit a bug report to https://github.com/llvm/llvm-project/issues/ and include the crash backtrace and instructions to reproduce the bug.\nStack dump:\n0.\tProgram arguments: E:\\\\KiriTong\\\\msys64\\\\mingw64\\\\bin\\\\mlir-opt.exe outputs\\\\real_msys2_focus_seeds\\\\outputs_minimized_mlir22_memref_canonicalize_current.chunk.min.mlir --convert-vector-to-scf --convert-vector-to-llvm --canonicalize -o -\nException Code: 0xC0000005\n0x00007FF7B61E2BFA, %MLIRSHIELD_MLIR_OPT%(0x00007FF7B4F70000) + 0x1272BFA byte(s)\n0x00007FF7B8585FE8, %MLIRSHIELD_MLIR_OPT%(0x00007FF7B4F70000) + 0x3615FE8 byte(s)\n0x00007FF7B85861E2, %MLIRSHIELD_MLIR_OPT%(0x00007FF7B4F70000) + 0x36161E2 byte(s)\n0x00007FF7B8F0F6D7, %MLIRSHIELD_MLIR_OPT%(0x00007FF7B4F70000) + 0x3F9F6D7 byte(s)\n0x00007FF7B8F0D32F, %MLIRSHIELD_MLIR_OPT%(0x00007FF7B4F70000) + 0x3F9D32F byte(s)\n0x00007FF7B7A1D0B8, %MLIRSHIELD_MLIR_OPT%(0x00007FF7B4F70000) + 0x2AAD0B8 byte(s)\n0x00007FF7B504C434, %MLIRSHIELD_MLIR_OPT%(0x00007FF7B4F70000) + 0xDC434 byte(s)\n0x00007FF7B50501B9, %MLIRSHIELD_MLIR_OPT%(0x00007FF7B4F70000) + 0xE01B9 byte(s)\n0x00007FF7B4F7FAFC, %MLIRSHIELD_MLIR_OPT%(0x00007FF7B4F70000) + 0xFAFC byte(s)\n0x00007FF7B4F7ECEC, %MLIRSHIELD_MLIR_OPT%(0x00007FF7B4F70000) + 0xECEC byte(s)\n0x00007FF7B504705A, %MLIRSHIELD_MLIR_OPT%(0x00007FF7B4F70000) + 0xD705A byte(s)\n0x00007FF7B4F732C0, %MLIRSHIELD_MLIR_OPT%(0x00007FF7B4F70000) + 0x32C0 byte(s)\n0x00007FF7B4F73634, %MLIRSHIELD_MLIR_OPT%(0x00007FF7B4F70000) + 0x3634 byte(s)\n0x00007FF7B4F73904, %MLIRSHIELD_MLIR_OPT%(0x00007FF7B4F70000) + 0x3904 byte(s)\n0x00007FF7B4F71565, %MLIRSHIELD_MLIR_OPT%(0x00007FF7B4F70000) + 0x1565 byte(s)\n0x00007FF7B4F710FA, %MLIRSHIELD_MLIR_OPT%(0x00007FF7B4F70000) + 0x10FA byte(s)\n0x00007FFA3BD2E957, C:\\WINDOWS\\System32\\KERNEL32.DLL(0x00007FFA3BD00000) + 0x2E957 byte(s), BaseThreadInitThunk() + 0x17 byte(s)\n0x00007FFA3C8C7C1C, C:\\WINDOWS\\SYSTEM32\\ntdll.dll(0x00007FFA3C840000) + 0x87C1C byte(s), RtlUserThreadStart() + 0x2C byte(s)\n",
      "stdout_path": "outputs\\real_msys2_focus\\artifacts\\outputs_minimized_mlir22_memref_canonicalize_current_chunk_min__vector_lowering_stress.stdout.mlir",
      "stderr_path": "outputs\\real_msys2_focus\\artifacts\\outputs_minimized_mlir22_memref_canonicalize_current_chunk_min__vector_lowering_stress.stderr.txt",
      "category": "memory/assertion"
    },
    {
      "seed": "seeds\\outputs_minimized_mlir22_memref_canonicalize_current.chunk.min.mlir",
      "pipeline": "bufferization_probe",
      "command": "%MLIRSHIELD_MLIR_OPT% outputs\\real_msys2_focus_seeds\\outputs_minimized_mlir22_memref_canonicalize_current.chunk.min.mlir --one-shot-bufferize --canonicalize -o -",
      "return_code": 3221225477,
      "timed_out": false,
      "elapsed_ms": 78,
      "stdout": "",
      "stderr": "PLEASE submit a bug report to https://github.com/llvm/llvm-project/issues/ and include the crash backtrace and instructions to reproduce the bug.\nStack dump:\n0.\tProgram arguments: E:\\\\KiriTong\\\\msys64\\\\mingw64\\\\bin\\\\mlir-opt.exe outputs\\\\real_msys2_focus_seeds\\\\outputs_minimized_mlir22_memref_canonicalize_current.chunk.min.mlir --one-shot-bufferize --canonicalize -o -\nException Code: 0xC0000005\n0x00007FF7B5033FF0, %MLIRSHIELD_MLIR_OPT%(0x00007FF7B4F70000) + 0xC3FF0 byte(s)\n0x00007FF7B502A14C, %MLIRSHIELD_MLIR_OPT%(0x00007FF7B4F70000) + 0xBA14C byte(s)\n0x00007FF7B8F0F439, %MLIRSHIELD_MLIR_OPT%(0x00007FF7B4F70000) + 0x3F9F439 byte(s)\n0x00007FF7B8F0D32F, %MLIRSHIELD_MLIR_OPT%(0x00007FF7B4F70000) + 0x3F9D32F byte(s)\n0x00007FF7B786BD42, %MLIRSHIELD_MLIR_OPT%(0x00007FF7B4F70000) + 0x28FBD42 byte(s)\n0x00007FF7B504C434, %MLIRSHIELD_MLIR_OPT%(0x00007FF7B4F70000) + 0xDC434 byte(s)\n0x00007FF7B50501B9, %MLIRSHIELD_MLIR_OPT%(0x00007FF7B4F70000) + 0xE01B9 byte(s)\n0x00007FF7B4F7FAFC, %MLIRSHIELD_MLIR_OPT%(0x00007FF7B4F70000) + 0xFAFC byte(s)\n0x00007FF7B4F7ECEC, %MLIRSHIELD_MLIR_OPT%(0x00007FF7B4F70000) + 0xECEC byte(s)\n0x00007FF7B504705A, %MLIRSHIELD_MLIR_OPT%(0x00007FF7B4F70000) + 0xD705A byte(s)\n0x00007FF7B4F732C0, %MLIRSHIELD_MLIR_OPT%(0x00007FF7B4F70000) + 0x32C0 byte(s)\n0x00007FF7B4F73634, %MLIRSHIELD_MLIR_OPT%(0x00007FF7B4F70000) + 0x3634 byte(s)\n0x00007FF7B4F73904, %MLIRSHIELD_MLIR_OPT%(0x00007FF7B4F70000) + 0x3904 byte(s)\n0x00007FF7B4F71565, %MLIRSHIELD_MLIR_OPT%(0x00007FF7B4F70000) + 0x1565 byte(s)\n0x00007FF7B4F710FA, %MLIRSHIELD_MLIR_OPT%(0x00007FF7B4F70000) + 0x10FA byte(s)\n0x00007FFA3BD2E957, C:\\WINDOWS\\System32\\KERNEL32.DLL(0x00007FFA3BD00000) + 0x2E957 byte(s), BaseThreadInitThunk() + 0x17 byte(s)\n0x00007FFA3C8C7C1C, C:\\WINDOWS\\SYSTEM32\\ntdll.dll(0x00007FFA3C840000) + 0x87C1C byte(s), RtlUserThreadStart() + 0x2C byte(s)\n",
      "stdout_path": "outputs\\real_msys2_focus\\artifacts\\outputs_minimized_mlir22_memref_canonicalize_current_chunk_min__bufferization_probe.stdout.mlir",
      "stderr_path": "outputs\\real_msys2_focus\\artifacts\\outputs_minimized_mlir22_memref_canonicalize_current_chunk_min__bufferization_probe.stderr.txt",
      "category": "memory/assertion"
    },
    {
      "seed": "seeds\\outputs_minimized_mlir22_memref_canonicalize_current.chunk.min.mlir",
      "pipeline": "linalg_affine_probe",
      "command": "%MLIRSHIELD_MLIR_OPT% outputs\\real_msys2_focus_seeds\\outputs_minimized_mlir22_memref_canonicalize_current.chunk.min.mlir --convert-linalg-to-affine-loops --canonicalize -o -",
      "return_code": 3221225477,
      "timed_out": false,
      "elapsed_ms": 94,
      "stdout": "",
      "stderr": "PLEASE submit a bug report to https://github.com/llvm/llvm-project/issues/ and include the crash backtrace and instructions to reproduce the bug.\nStack dump:\n0.\tProgram arguments: E:\\\\KiriTong\\\\msys64\\\\mingw64\\\\bin\\\\mlir-opt.exe outputs\\\\real_msys2_focus_seeds\\\\outputs_minimized_mlir22_memref_canonicalize_current.chunk.min.mlir --convert-linalg-to-affine-loops --canonicalize -o -\nException Code: 0xC0000005\n0x00007FF7B61E2BFA, %MLIRSHIELD_MLIR_OPT%(0x00007FF7B4F70000) + 0x1272BFA byte(s)\n0x00007FF7B8585FE8, %MLIRSHIELD_MLIR_OPT%(0x00007FF7B4F70000) + 0x3615FE8 byte(s)\n0x00007FF7B85861E2, %MLIRSHIELD_MLIR_OPT%(0x00007FF7B4F70000) + 0x36161E2 byte(s)\n0x00007FF7B8F0F6D7, %MLIRSHIELD_MLIR_OPT%(0x00007FF7B4F70000) + 0x3F9F6D7 byte(s)\n0x00007FF7B8F0D32F, %MLIRSHIELD_MLIR_OPT%(0x00007FF7B4F70000) + 0x3F9D32F byte(s)\n0x00007FF7B7B25027, %MLIRSHIELD_MLIR_OPT%(0x00007FF7B4F70000) + 0x2BB5027 byte(s)\n0x00007FF7B504C434, %MLIRSHIELD_MLIR_OPT%(0x00007FF7B4F70000) + 0xDC434 byte(s)\n0x00007FF7B50501B9, %MLIRSHIELD_MLIR_OPT%(0x00007FF7B4F70000) + 0xE01B9 byte(s)\n0x00007FF7B4F7FAFC, %MLIRSHIELD_MLIR_OPT%(0x00007FF7B4F70000) + 0xFAFC byte(s)\n0x00007FF7B4F7ECEC, %MLIRSHIELD_MLIR_OPT%(0x00007FF7B4F70000) + 0xECEC byte(s)\n0x00007FF7B504705A, %MLIRSHIELD_MLIR_OPT%(0x00007FF7B4F70000) + 0xD705A byte(s)\n0x00007FF7B4F732C0, %MLIRSHIELD_MLIR_OPT%(0x00007FF7B4F70000) + 0x32C0 byte(s)\n0x00007FF7B4F73634, %MLIRSHIELD_MLIR_OPT%(0x00007FF7B4F70000) + 0x3634 byte(s)\n0x00007FF7B4F73904, %MLIRSHIELD_MLIR_OPT%(0x00007FF7B4F70000) + 0x3904 byte(s)\n0x00007FF7B4F71565, %MLIRSHIELD_MLIR_OPT%(0x00007FF7B4F70000) + 0x1565 byte(s)\n0x00007FF7B4F710FA, %MLIRSHIELD_MLIR_OPT%(0x00007FF7B4F70000) + 0x10FA byte(s)\n0x00007FFA3BD2E957, C:\\WINDOWS\\System32\\KERNEL32.DLL(0x00007FFA3BD00000) + 0x2E957 byte(s), BaseThreadInitThunk() + 0x17 byte(s)\n0x00007FFA3C8C7C1C, C:\\WINDOWS\\SYSTEM32\\ntdll.dll(0x00007FFA3C840000) + 0x87C1C byte(s), RtlUserThreadStart() + 0x2C byte(s)\n",
      "stdout_path": "outputs\\real_msys2_focus\\artifacts\\outputs_minimized_mlir22_memref_canonicalize_current_chunk_min__linalg_affine_probe.stdout.mlir",
      "stderr_path": "outputs\\real_msys2_focus\\artifacts\\outputs_minimized_mlir22_memref_canonicalize_current_chunk_min__linalg_affine_probe.stderr.txt",
      "category": "memory/assertion"
    },
    {
      "seed": "seeds\\outputs_minimized_mlir22_memref_canonicalize_current.chunk.min.mlir",
      "pipeline": "gpu_parallel_probe",
      "command": "%MLIRSHIELD_MLIR_OPT% outputs\\real_msys2_focus_seeds\\outputs_minimized_mlir22_memref_canonicalize_current.chunk.min.mlir --convert-parallel-loops-to-gpu --canonicalize -o -",
      "return_code": 3221225477,
      "timed_out": false,
      "elapsed_ms": 76,
      "stdout": "",
      "stderr": "PLEASE submit a bug report to https://github.com/llvm/llvm-project/issues/ and include the crash backtrace and instructions to reproduce the bug.\nStack dump:\n0.\tProgram arguments: E:\\\\KiriTong\\\\msys64\\\\mingw64\\\\bin\\\\mlir-opt.exe outputs\\\\real_msys2_focus_seeds\\\\outputs_minimized_mlir22_memref_canonicalize_current.chunk.min.mlir --convert-parallel-loops-to-gpu --canonicalize -o -\nException Code: 0xC0000005\n0x00007FF7B61E2BFA, %MLIRSHIELD_MLIR_OPT%(0x00007FF7B4F70000) + 0x1272BFA byte(s)\n0x00007FF7B8585FE8, %MLIRSHIELD_MLIR_OPT%(0x00007FF7B4F70000) + 0x3615FE8 byte(s)\n0x00007FF7B85861E2, %MLIRSHIELD_MLIR_OPT%(0x00007FF7B4F70000) + 0x36161E2 byte(s)\n0x00007FF7B8F0F6D7, %MLIRSHIELD_MLIR_OPT%(0x00007FF7B4F70000) + 0x3F9F6D7 byte(s)\n0x00007FF7B8F0D32F, %MLIRSHIELD_MLIR_OPT%(0x00007FF7B4F70000) + 0x3F9D32F byte(s)\n0x00007FF7B786BD42, %MLIRSHIELD_MLIR_OPT%(0x00007FF7B4F70000) + 0x28FBD42 byte(s)\n0x00007FF7B504C434, %MLIRSHIELD_MLIR_OPT%(0x00007FF7B4F70000) + 0xDC434 byte(s)\n0x00007FF7B50501B9, %MLIRSHIELD_MLIR_OPT%(0x00007FF7B4F70000) + 0xE01B9 byte(s)\n0x00007FF7B4F7FAFC, %MLIRSHIELD_MLIR_OPT%(0x00007FF7B4F70000) + 0xFAFC byte(s)\n0x00007FF7B4F7ECEC, %MLIRSHIELD_MLIR_OPT%(0x00007FF7B4F70000) + 0xECEC byte(s)\n0x00007FF7B504705A, %MLIRSHIELD_MLIR_OPT%(0x00007FF7B4F70000) + 0xD705A byte(s)\n0x00007FF7B4F732C0, %MLIRSHIELD_MLIR_OPT%(0x00007FF7B4F70000) + 0x32C0 byte(s)\n0x00007FF7B4F73634, %MLIRSHIELD_MLIR_OPT%(0x00007FF7B4F70000) + 0x3634 byte(s)\n0x00007FF7B4F73904, %MLIRSHIELD_MLIR_OPT%(0x00007FF7B4F70000) + 0x3904 byte(s)\n0x00007FF7B4F71565, %MLIRSHIELD_MLIR_OPT%(0x00007FF7B4F70000) + 0x1565 byte(s)\n0x00007FF7B4F710FA, %MLIRSHIELD_MLIR_OPT%(0x00007FF7B4F70000) + 0x10FA byte(s)\n0x00007FFA3BD2E957, C:\\WINDOWS\\System32\\KERNEL32.DLL(0x00007FFA3BD00000) + 0x2E957 byte(s), BaseThreadInitThunk() + 0x17 byte(s)\n0x00007FFA3C8C7C1C, C:\\WINDOWS\\SYSTEM32\\ntdll.dll(0x00007FFA3C840000) + 0x87C1C byte(s), RtlUserThreadStart() + 0x2C byte(s)\n",
      "stdout_path": "outputs\\real_msys2_focus\\artifacts\\outputs_minimized_mlir22_memref_canonicalize_current_chunk_min__gpu_parallel_probe.stdout.mlir",
      "stderr_path": "outputs\\real_msys2_focus\\artifacts\\outputs_minimized_mlir22_memref_canonicalize_current_chunk_min__gpu_parallel_probe.stderr.txt",
      "category": "memory/assertion"
    },
    {
      "seed": "seeds\\outputs_minimized_shape_fold_div_canonicalize.min.mlir",
      "pipeline": "parse_verify",
      "command": "%MLIRSHIELD_MLIR_OPT% outputs\\real_msys2_focus_seeds\\outputs_minimized_shape_fold_div_canonicalize.min.mlir  -o -",
      "return_code": 0,
      "timed_out": false,
      "elapsed_ms": 64,
      "stdout": "module {\n  func.func @fold_div_index_neg_rhs() -> index {\n    %c0 = arith.constant 0 : index\n    %0 = shape.div %c0, %c0 : index, index -> index\n    return %0 : index\n  }\n}\n\n",
      "stderr": "",
      "stdout_path": "outputs\\real_msys2_focus\\artifacts\\outputs_minimized_shape_fold_div_canonicalize_min__parse_verify.stdout.mlir",
      "stderr_path": "outputs\\real_msys2_focus\\artifacts\\outputs_minimized_shape_fold_div_canonicalize_min__parse_verify.stderr.txt",
      "category": "success"
    },
    {
      "seed": "seeds\\outputs_minimized_shape_fold_div_canonicalize.min.mlir",
      "pipeline": "canonicalize_cse_sccp",
      "command": "%MLIRSHIELD_MLIR_OPT% outputs\\real_msys2_focus_seeds\\outputs_minimized_shape_fold_div_canonicalize.min.mlir --canonicalize --cse --sccp --canonicalize -o -",
      "return_code": 0,
      "timed_out": false,
      "elapsed_ms": 33,
      "stdout": "module {\n  func.func @fold_div_index_neg_rhs() -> index {\n    %c0 = arith.constant 0 : index\n    %0 = shape.div %c0, %c0 : index, index -> index\n    return %0 : index\n  }\n}\n\n",
      "stderr": "",
      "stdout_path": "outputs\\real_msys2_focus\\artifacts\\outputs_minimized_shape_fold_div_canonicalize_min__canonicalize_cse_sccp.stdout.mlir",
      "stderr_path": "outputs\\real_msys2_focus\\artifacts\\outputs_minimized_shape_fold_div_canonicalize_min__canonicalize_cse_sccp.stderr.txt",
      "category": "success"
    },
    {
      "seed": "seeds\\outputs_minimized_shape_fold_div_canonicalize.min.mlir",
      "pipeline": "symbol_dce_inliner_canonicalize",
      "command": "%MLIRSHIELD_MLIR_OPT% outputs\\real_msys2_focus_seeds\\outputs_minimized_shape_fold_div_canonicalize.min.mlir --symbol-dce --inline --canonicalize --cse -o -",
      "return_code": 0,
      "timed_out": false,
      "elapsed_ms": 33,
      "stdout": "module {\n  func.func @fold_div_index_neg_rhs() -> index {\n    %c0 = arith.constant 0 : index\n    %0 = shape.div %c0, %c0 : index, index -> index\n    return %0 : index\n  }\n}\n\n",
      "stderr": "",
      "stdout_path": "outputs\\real_msys2_focus\\artifacts\\outputs_minimized_shape_fold_div_canonicalize_min__symbol_dce_inliner_canonicalize.stdout.mlir",
      "stderr_path": "outputs\\real_msys2_focus\\artifacts\\outputs_minimized_shape_fold_div_canonicalize_min__symbol_dce_inliner_canonicalize.stderr.txt",
      "category": "success"
    },
    {
      "seed": "seeds\\outputs_minimized_shape_fold_div_canonicalize.min.mlir",
      "pipeline": "affine_lowering_stress",
      "command": "%MLIRSHIELD_MLIR_OPT% outputs\\real_msys2_focus_seeds\\outputs_minimized_shape_fold_div_canonicalize.min.mlir --lower-affine --canonicalize --cse -o -",
      "return_code": 0,
      "timed_out": false,
      "elapsed_ms": 33,
      "stdout": "module {\n  func.func @fold_div_index_neg_rhs() -> index {\n    %c0 = arith.constant 0 : index\n    %0 = shape.div %c0, %c0 : index, index -> index\n    return %0 : index\n  }\n}\n\n",
      "stderr": "",
      "stdout_path": "outputs\\real_msys2_focus\\artifacts\\outputs_minimized_shape_fold_div_canonicalize_min__affine_lowering_stress.stdout.mlir",
      "stderr_path": "outputs\\real_msys2_focus\\artifacts\\outputs_minimized_shape_fold_div_canonicalize_min__affine_lowering_stress.stderr.txt",
      "category": "success"
    },
    {
      "seed": "seeds\\outputs_minimized_shape_fold_div_canonicalize.min.mlir",
      "pipeline": "scf_to_cf_stress",
      "command": "%MLIRSHIELD_MLIR_OPT% outputs\\real_msys2_focus_seeds\\outputs_minimized_shape_fold_div_canonicalize.min.mlir --convert-scf-to-cf --canonicalize --cse -o -",
      "return_code": 0,
      "timed_out": false,
      "elapsed_ms": 35,
      "stdout": "module {\n  func.func @fold_div_index_neg_rhs() -> index {\n    %c0 = arith.constant 0 : index\n    %0 = shape.div %c0, %c0 : index, index -> index\n    return %0 : index\n  }\n}\n\n",
      "stderr": "",
      "stdout_path": "outputs\\real_msys2_focus\\artifacts\\outputs_minimized_shape_fold_div_canonicalize_min__scf_to_cf_stress.stdout.mlir",
      "stderr_path": "outputs\\real_msys2_focus\\artifacts\\outputs_minimized_shape_fold_div_canonicalize_min__scf_to_cf_stress.stderr.txt",
      "category": "success"
    },
    {
      "seed": "seeds\\outputs_minimized_shape_fold_div_canonicalize.min.mlir",
      "pipeline": "vector_lowering_stress",
      "command": "%MLIRSHIELD_MLIR_OPT% outputs\\real_msys2_focus_seeds\\outputs_minimized_shape_fold_div_canonicalize.min.mlir --convert-vector-to-scf --convert-vector-to-llvm --canonicalize -o -",
      "return_code": 0,
      "timed_out": false,
      "elapsed_ms": 38,
      "stdout": "module {\n  func.func @fold_div_index_neg_rhs() -> index {\n    %c0 = arith.constant 0 : index\n    %0 = shape.div %c0, %c0 : index, index -> index\n    return %0 : index\n  }\n}\n\n",
      "stderr": "",
      "stdout_path": "outputs\\real_msys2_focus\\artifacts\\outputs_minimized_shape_fold_div_canonicalize_min__vector_lowering_stress.stdout.mlir",
      "stderr_path": "outputs\\real_msys2_focus\\artifacts\\outputs_minimized_shape_fold_div_canonicalize_min__vector_lowering_stress.stderr.txt",
      "category": "success"
    },
    {
      "seed": "seeds\\outputs_minimized_shape_fold_div_canonicalize.min.mlir",
      "pipeline": "bufferization_probe",
      "command": "%MLIRSHIELD_MLIR_OPT% outputs\\real_msys2_focus_seeds\\outputs_minimized_shape_fold_div_canonicalize.min.mlir --one-shot-bufferize --canonicalize -o -",
      "return_code": 0,
      "timed_out": false,
      "elapsed_ms": 36,
      "stdout": "module {\n  func.func @fold_div_index_neg_rhs() -> index {\n    %c0 = arith.constant 0 : index\n    %0 = shape.div %c0, %c0 : index, index -> index\n    return %0 : index\n  }\n}\n\n",
      "stderr": "",
      "stdout_path": "outputs\\real_msys2_focus\\artifacts\\outputs_minimized_shape_fold_div_canonicalize_min__bufferization_probe.stdout.mlir",
      "stderr_path": "outputs\\real_msys2_focus\\artifacts\\outputs_minimized_shape_fold_div_canonicalize_min__bufferization_probe.stderr.txt",
      "category": "success"
    },
    {
      "seed": "seeds\\outputs_minimized_shape_fold_div_canonicalize.min.mlir",
      "pipeline": "linalg_affine_probe",
      "command": "%MLIRSHIELD_MLIR_OPT% outputs\\real_msys2_focus_seeds\\outputs_minimized_shape_fold_div_canonicalize.min.mlir --convert-linalg-to-affine-loops --canonicalize -o -",
      "return_code": 0,
      "timed_out": false,
      "elapsed_ms": 32,
      "stdout": "module {\n  func.func @fold_div_index_neg_rhs() -> index {\n    %c0 = arith.constant 0 : index\n    %0 = shape.div %c0, %c0 : index, index -> index\n    return %0 : index\n  }\n}\n\n",
      "stderr": "",
      "stdout_path": "outputs\\real_msys2_focus\\artifacts\\outputs_minimized_shape_fold_div_canonicalize_min__linalg_affine_probe.stdout.mlir",
      "stderr_path": "outputs\\real_msys2_focus\\artifacts\\outputs_minimized_shape_fold_div_canonicalize_min__linalg_affine_probe.stderr.txt",
      "category": "success"
    },
    {
      "seed": "seeds\\outputs_minimized_shape_fold_div_canonicalize.min.mlir",
      "pipeline": "gpu_parallel_probe",
      "command": "%MLIRSHIELD_MLIR_OPT% outputs\\real_msys2_focus_seeds\\outputs_minimized_shape_fold_div_canonicalize.min.mlir --convert-parallel-loops-to-gpu --canonicalize -o -",
      "return_code": 0,
      "timed_out": false,
      "elapsed_ms": 36,
      "stdout": "module {\n  func.func @fold_div_index_neg_rhs() -> index {\n    %c0 = arith.constant 0 : index\n    %0 = shape.div %c0, %c0 : index, index -> index\n    return %0 : index\n  }\n}\n\n",
      "stderr": "",
      "stdout_path": "outputs\\real_msys2_focus\\artifacts\\outputs_minimized_shape_fold_div_canonicalize_min__gpu_parallel_probe.stdout.mlir",
      "stderr_path": "outputs\\real_msys2_focus\\artifacts\\outputs_minimized_shape_fold_div_canonicalize_min__gpu_parallel_probe.stderr.txt",
      "category": "success"
    },
    {
      "seed": "seeds\\seeds_current_mlir23_llvm_197158_mem2reg_dbg_declare_use_after_erase.mlir",
      "pipeline": "parse_verify",
      "command": "%MLIRSHIELD_MLIR_OPT% outputs\\real_msys2_focus_seeds\\seeds_current_mlir23_llvm_197158_mem2reg_dbg_declare_use_after_erase.mlir  -o -",
      "return_code": 0,
      "timed_out": false,
      "elapsed_ms": 32,
      "stdout": "#di_basic_type = #llvm.di_basic_type<tag = DW_TAG_base_type, name = \"double\", sizeInBits = 64>\n#di_file = #llvm.di_file<\"repro.ll\" in \"\">\n#di_compile_unit = #llvm.di_compile_unit<id = distinct[0]<>, sourceLanguage = DW_LANG_C_plus_plus_14, file = #di_file, producer = \"clang\", isOptimized = false, emissionKind = Full>\n#di_subprogram = #llvm.di_subprogram<compileUnit = #di_compile_unit, scope = #di_file, name = \"foo\", linkageName = \"foo\", file = #di_file, line = 1, subprogramFlags = Definition>\n#di_local_variable = #llvm.di_local_variable<scope = #di_subprogram, name = \"d\", file = #di_file, line = 2, type = #di_basic_type>\nmodule {\n  llvm.func @foo() {\n    %0 = llvm.mlir.constant(1 : i32) : i32\n    %1 = llvm.mlir.constant(4.000000e+00 : f64) : f64\n    %2 = llvm.alloca %0 x f64 : (i32) -> !llvm.ptr\n    llvm.intr.dbg.declare #di_local_variable = %2 : !llvm.ptr\n    llvm.store %1, %2 : f64, !llvm.ptr\n    %3 = llvm.load %2 : !llvm.ptr -> f64\n    llvm.store %3, %2 : f64, !llvm.ptr\n    llvm.return\n  }\n}\n\n",
      "stderr": "",
      "stdout_path": "outputs\\real_msys2_focus\\artifacts\\seeds_current_mlir23_llvm_197158_mem2reg_dbg_declare_use_after_erase__parse_verify.stdout.mlir",
      "stderr_path": "outputs\\real_msys2_focus\\artifacts\\seeds_current_mlir23_llvm_197158_mem2reg_dbg_declare_use_after_erase__parse_verify.stderr.txt",
      "category": "success"
    },
    {
      "seed": "seeds\\seeds_current_mlir23_llvm_197158_mem2reg_dbg_declare_use_after_erase.mlir",
      "pipeline": "canonicalize_cse_sccp",
      "command": "%MLIRSHIELD_MLIR_OPT% outputs\\real_msys2_focus_seeds\\seeds_current_mlir23_llvm_197158_mem2reg_dbg_declare_use_after_erase.mlir --canonicalize --cse --sccp --canonicalize -o -",
      "return_code": 0,
      "timed_out": false,
      "elapsed_ms": 30,
      "stdout": "#di_basic_type = #llvm.di_basic_type<tag = DW_TAG_base_type, name = \"double\", sizeInBits = 64>\n#di_file = #llvm.di_file<\"repro.ll\" in \"\">\n#di_compile_unit = #llvm.di_compile_unit<id = distinct[0]<>, sourceLanguage = DW_LANG_C_plus_plus_14, file = #di_file, producer = \"clang\", isOptimized = false, emissionKind = Full>\n#di_subprogram = #llvm.di_subprogram<compileUnit = #di_compile_unit, scope = #di_file, name = \"foo\", linkageName = \"foo\", file = #di_file, line = 1, subprogramFlags = Definition>\n#di_local_variable = #llvm.di_local_variable<scope = #di_subprogram, name = \"d\", file = #di_file, line = 2, type = #di_basic_type>\nmodule {\n  llvm.func @foo() {\n    %0 = llvm.mlir.constant(4.000000e+00 : f64) : f64\n    %1 = llvm.mlir.constant(1 : i32) : i32\n    %2 = llvm.alloca %1 x f64 : (i32) -> !llvm.ptr\n    llvm.intr.dbg.declare #di_local_variable = %2 : !llvm.ptr\n    llvm.store %0, %2 : f64, !llvm.ptr\n    %3 = llvm.load %2 : !llvm.ptr -> f64\n    llvm.store %3, %2 : f64, !llvm.ptr\n    llvm.return\n  }\n}\n\n",
      "stderr": "",
      "stdout_path": "outputs\\real_msys2_focus\\artifacts\\seeds_current_mlir23_llvm_197158_mem2reg_dbg_declare_use_after_erase__canonicalize_cse_sccp.stdout.mlir",
      "stderr_path": "outputs\\real_msys2_focus\\artifacts\\seeds_current_mlir23_llvm_197158_mem2reg_dbg_declare_use_after_erase__canonicalize_cse_sccp.stderr.txt",
      "category": "success"
    },
    {
      "seed": "seeds\\seeds_current_mlir23_llvm_197158_mem2reg_dbg_declare_use_after_erase.mlir",
      "pipeline": "symbol_dce_inliner_canonicalize",
      "command": "%MLIRSHIELD_MLIR_OPT% outputs\\real_msys2_focus_seeds\\seeds_current_mlir23_llvm_197158_mem2reg_dbg_declare_use_after_erase.mlir --symbol-dce --inline --canonicalize --cse -o -",
      "return_code": 0,
      "timed_out": false,
      "elapsed_ms": 30,
      "stdout": "#di_basic_type = #llvm.di_basic_type<tag = DW_TAG_base_type, name = \"double\", sizeInBits = 64>\n#di_file = #llvm.di_file<\"repro.ll\" in \"\">\n#di_compile_unit = #llvm.di_compile_unit<id = distinct[0]<>, sourceLanguage = DW_LANG_C_plus_plus_14, file = #di_file, producer = \"clang\", isOptimized = false, emissionKind = Full>\n#di_subprogram = #llvm.di_subprogram<compileUnit = #di_compile_unit, scope = #di_file, name = \"foo\", linkageName = \"foo\", file = #di_file, line = 1, subprogramFlags = Definition>\n#di_local_variable = #llvm.di_local_variable<scope = #di_subprogram, name = \"d\", file = #di_file, line = 2, type = #di_basic_type>\nmodule {\n  llvm.func @foo() {\n    %0 = llvm.mlir.constant(1 : i32) : i32\n    %1 = llvm.mlir.constant(4.000000e+00 : f64) : f64\n    %2 = llvm.alloca %0 x f64 : (i32) -> !llvm.ptr\n    llvm.intr.dbg.declare #di_local_variable = %2 : !llvm.ptr\n    llvm.store %1, %2 : f64, !llvm.ptr\n    %3 = llvm.load %2 : !llvm.ptr -> f64\n    llvm.store %3, %2 : f64, !llvm.ptr\n    llvm.return\n  }\n}\n\n",
      "stderr": "",
      "stdout_path": "outputs\\real_msys2_focus\\artifacts\\seeds_current_mlir23_llvm_197158_mem2reg_dbg_declare_use_after_erase__symbol_dce_inliner_canonicalize.stdout.mlir",
      "stderr_path": "outputs\\real_msys2_focus\\artifacts\\seeds_current_mlir23_llvm_197158_mem2reg_dbg_declare_use_after_erase__symbol_dce_inliner_canonicalize.stderr.txt",
      "category": "success"
    },
    {
      "seed": "seeds\\seeds_current_mlir23_llvm_197158_mem2reg_dbg_declare_use_after_erase.mlir",
      "pipeline": "affine_lowering_stress",
      "command": "%MLIRSHIELD_MLIR_OPT% outputs\\real_msys2_focus_seeds\\seeds_current_mlir23_llvm_197158_mem2reg_dbg_declare_use_after_erase.mlir --lower-affine --canonicalize --cse -o -",
      "return_code": 0,
      "timed_out": false,
      "elapsed_ms": 33,
      "stdout": "#di_basic_type = #llvm.di_basic_type<tag = DW_TAG_base_type, name = \"double\", sizeInBits = 64>\n#di_file = #llvm.di_file<\"repro.ll\" in \"\">\n#di_compile_unit = #llvm.di_compile_unit<id = distinct[0]<>, sourceLanguage = DW_LANG_C_plus_plus_14, file = #di_file, producer = \"clang\", isOptimized = false, emissionKind = Full>\n#di_subprogram = #llvm.di_subprogram<compileUnit = #di_compile_unit, scope = #di_file, name = \"foo\", linkageName = \"foo\", file = #di_file, line = 1, subprogramFlags = Definition>\n#di_local_variable = #llvm.di_local_variable<scope = #di_subprogram, name = \"d\", file = #di_file, line = 2, type = #di_basic_type>\nmodule {\n  llvm.func @foo() {\n    %0 = llvm.mlir.constant(1 : i32) : i32\n    %1 = llvm.mlir.constant(4.000000e+00 : f64) : f64\n    %2 = llvm.alloca %0 x f64 : (i32) -> !llvm.ptr\n    llvm.intr.dbg.declare #di_local_variable = %2 : !llvm.ptr\n    llvm.store %1, %2 : f64, !llvm.ptr\n    %3 = llvm.load %2 : !llvm.ptr -> f64\n    llvm.store %3, %2 : f64, !llvm.ptr\n    llvm.return\n  }\n}\n\n",
      "stderr": "",
      "stdout_path": "outputs\\real_msys2_focus\\artifacts\\seeds_current_mlir23_llvm_197158_mem2reg_dbg_declare_use_after_erase__affine_lowering_stress.stdout.mlir",
      "stderr_path": "outputs\\real_msys2_focus\\artifacts\\seeds_current_mlir23_llvm_197158_mem2reg_dbg_declare_use_after_erase__affine_lowering_stress.stderr.txt",
      "category": "success"
    },
    {
      "seed": "seeds\\seeds_current_mlir23_llvm_197158_mem2reg_dbg_declare_use_after_erase.mlir",
      "pipeline": "scf_to_cf_stress",
      "command": "%MLIRSHIELD_MLIR_OPT% outputs\\real_msys2_focus_seeds\\seeds_current_mlir23_llvm_197158_mem2reg_dbg_declare_use_after_erase.mlir --convert-scf-to-cf --canonicalize --cse -o -",
      "return_code": 0,
      "timed_out": false,
      "elapsed_ms": 34,
      "stdout": "#di_basic_type = #llvm.di_basic_type<tag = DW_TAG_base_type, name = \"double\", sizeInBits = 64>\n#di_file = #llvm.di_file<\"repro.ll\" in \"\">\n#di_compile_unit = #llvm.di_compile_unit<id = distinct[0]<>, sourceLanguage = DW_LANG_C_plus_plus_14, file = #di_file, producer = \"clang\", isOptimized = false, emissionKind = Full>\n#di_subprogram = #llvm.di_subprogram<compileUnit = #di_compile_unit, scope = #di_file, name = \"foo\", linkageName = \"foo\", file = #di_file, line = 1, subprogramFlags = Definition>\n#di_local_variable = #llvm.di_local_variable<scope = #di_subprogram, name = \"d\", file = #di_file, line = 2, type = #di_basic_type>\nmodule {\n  llvm.func @foo() {\n    %0 = llvm.mlir.constant(1 : i32) : i32\n    %1 = llvm.mlir.constant(4.000000e+00 : f64) : f64\n    %2 = llvm.alloca %0 x f64 : (i32) -> !llvm.ptr\n    llvm.intr.dbg.declare #di_local_variable = %2 : !llvm.ptr\n    llvm.store %1, %2 : f64, !llvm.ptr\n    %3 = llvm.load %2 : !llvm.ptr -> f64\n    llvm.store %3, %2 : f64, !llvm.ptr\n    llvm.return\n  }\n}\n\n",
      "stderr": "",
      "stdout_path": "outputs\\real_msys2_focus\\artifacts\\seeds_current_mlir23_llvm_197158_mem2reg_dbg_declare_use_after_erase__scf_to_cf_stress.stdout.mlir",
      "stderr_path": "outputs\\real_msys2_focus\\artifacts\\seeds_current_mlir23_llvm_197158_mem2reg_dbg_declare_use_after_erase__scf_to_cf_stress.stderr.txt",
      "category": "success"
    },
    {
      "seed": "seeds\\seeds_current_mlir23_llvm_197158_mem2reg_dbg_declare_use_after_erase.mlir",
      "pipeline": "vector_lowering_stress",
      "command": "%MLIRSHIELD_MLIR_OPT% outputs\\real_msys2_focus_seeds\\seeds_current_mlir23_llvm_197158_mem2reg_dbg_declare_use_after_erase.mlir --convert-vector-to-scf --convert-vector-to-llvm --canonicalize -o -",
      "return_code": 0,
      "timed_out": false,
      "elapsed_ms": 51,
      "stdout": "#di_basic_type = #llvm.di_basic_type<tag = DW_TAG_base_type, name = \"double\", sizeInBits = 64>\n#di_file = #llvm.di_file<\"repro.ll\" in \"\">\n#di_compile_unit = #llvm.di_compile_unit<id = distinct[0]<>, sourceLanguage = DW_LANG_C_plus_plus_14, file = #di_file, producer = \"clang\", isOptimized = false, emissionKind = Full>\n#di_subprogram = #llvm.di_subprogram<compileUnit = #di_compile_unit, scope = #di_file, name = \"foo\", linkageName = \"foo\", file = #di_file, line = 1, subprogramFlags = Definition>\n#di_local_variable = #llvm.di_local_variable<scope = #di_subprogram, name = \"d\", file = #di_file, line = 2, type = #di_basic_type>\nmodule {\n  llvm.func @foo() {\n    %0 = llvm.mlir.constant(1 : i32) : i32\n    %1 = llvm.mlir.constant(4.000000e+00 : f64) : f64\n    %2 = llvm.alloca %0 x f64 : (i32) -> !llvm.ptr\n    llvm.intr.dbg.declare #di_local_variable = %2 : !llvm.ptr\n    llvm.store %1, %2 : f64, !llvm.ptr\n    %3 = llvm.load %2 : !llvm.ptr -> f64\n    llvm.store %3, %2 : f64, !llvm.ptr\n    llvm.return\n  }\n}\n\n",
      "stderr": "",
      "stdout_path": "outputs\\real_msys2_focus\\artifacts\\seeds_current_mlir23_llvm_197158_mem2reg_dbg_declare_use_after_erase__vector_lowering_stress.stdout.mlir",
      "stderr_path": "outputs\\real_msys2_focus\\artifacts\\seeds_current_mlir23_llvm_197158_mem2reg_dbg_declare_use_after_erase__vector_lowering_stress.stderr.txt",
      "category": "success"
    },
    {
      "seed": "seeds\\seeds_current_mlir23_llvm_197158_mem2reg_dbg_declare_use_after_erase.mlir",
      "pipeline": "bufferization_probe",
      "command": "%MLIRSHIELD_MLIR_OPT% outputs\\real_msys2_focus_seeds\\seeds_current_mlir23_llvm_197158_mem2reg_dbg_declare_use_after_erase.mlir --one-shot-bufferize --canonicalize -o -",
      "return_code": 0,
      "timed_out": false,
      "elapsed_ms": 35,
      "stdout": "#di_basic_type = #llvm.di_basic_type<tag = DW_TAG_base_type, name = \"double\", sizeInBits = 64>\n#di_file = #llvm.di_file<\"repro.ll\" in \"\">\n#di_compile_unit = #llvm.di_compile_unit<id = distinct[0]<>, sourceLanguage = DW_LANG_C_plus_plus_14, file = #di_file, producer = \"clang\", isOptimized = false, emissionKind = Full>\n#di_subprogram = #llvm.di_subprogram<compileUnit = #di_compile_unit, scope = #di_file, name = \"foo\", linkageName = \"foo\", file = #di_file, line = 1, subprogramFlags = Definition>\n#di_local_variable = #llvm.di_local_variable<scope = #di_subprogram, name = \"d\", file = #di_file, line = 2, type = #di_basic_type>\nmodule {\n  llvm.func @foo() {\n    %0 = llvm.mlir.constant(1 : i32) : i32\n    %1 = llvm.mlir.constant(4.000000e+00 : f64) : f64\n    %2 = llvm.alloca %0 x f64 : (i32) -> !llvm.ptr\n    llvm.intr.dbg.declare #di_local_variable = %2 : !llvm.ptr\n    llvm.store %1, %2 : f64, !llvm.ptr\n    %3 = llvm.load %2 : !llvm.ptr -> f64\n    llvm.store %3, %2 : f64, !llvm.ptr\n    llvm.return\n  }\n}\n\n",
      "stderr": "",
      "stdout_path": "outputs\\real_msys2_focus\\artifacts\\seeds_current_mlir23_llvm_197158_mem2reg_dbg_declare_use_after_erase__bufferization_probe.stdout.mlir",
      "stderr_path": "outputs\\real_msys2_focus\\artifacts\\seeds_current_mlir23_llvm_197158_mem2reg_dbg_declare_use_after_erase__bufferization_probe.stderr.txt",
      "category": "success"
    },
    {
      "seed": "seeds\\seeds_current_mlir23_llvm_197158_mem2reg_dbg_declare_use_after_erase.mlir",
      "pipeline": "linalg_affine_probe",
      "command": "%MLIRSHIELD_MLIR_OPT% outputs\\real_msys2_focus_seeds\\seeds_current_mlir23_llvm_197158_mem2reg_dbg_declare_use_after_erase.mlir --convert-linalg-to-affine-loops --canonicalize -o -",
      "return_code": 0,
      "timed_out": false,
      "elapsed_ms": 34,
      "stdout": "#di_basic_type = #llvm.di_basic_type<tag = DW_TAG_base_type, name = \"double\", sizeInBits = 64>\n#di_file = #llvm.di_file<\"repro.ll\" in \"\">\n#di_compile_unit = #llvm.di_compile_unit<id = distinct[0]<>, sourceLanguage = DW_LANG_C_plus_plus_14, file = #di_file, producer = \"clang\", isOptimized = false, emissionKind = Full>\n#di_subprogram = #llvm.di_subprogram<compileUnit = #di_compile_unit, scope = #di_file, name = \"foo\", linkageName = \"foo\", file = #di_file, line = 1, subprogramFlags = Definition>\n#di_local_variable = #llvm.di_local_variable<scope = #di_subprogram, name = \"d\", file = #di_file, line = 2, type = #di_basic_type>\nmodule {\n  llvm.func @foo() {\n    %0 = llvm.mlir.constant(1 : i32) : i32\n    %1 = llvm.mlir.constant(4.000000e+00 : f64) : f64\n    %2 = llvm.alloca %0 x f64 : (i32) -> !llvm.ptr\n    llvm.intr.dbg.declare #di_local_variable = %2 : !llvm.ptr\n    llvm.store %1, %2 : f64, !llvm.ptr\n    %3 = llvm.load %2 : !llvm.ptr -> f64\n    llvm.store %3, %2 : f64, !llvm.ptr\n    llvm.return\n  }\n}\n\n",
      "stderr": "",
      "stdout_path": "outputs\\real_msys2_focus\\artifacts\\seeds_current_mlir23_llvm_197158_mem2reg_dbg_declare_use_after_erase__linalg_affine_probe.stdout.mlir",
      "stderr_path": "outputs\\real_msys2_focus\\artifacts\\seeds_current_mlir23_llvm_197158_mem2reg_dbg_declare_use_after_erase__linalg_affine_probe.stderr.txt",
      "category": "success"
    },
    {
      "seed": "seeds\\seeds_current_mlir23_llvm_197158_mem2reg_dbg_declare_use_after_erase.mlir",
      "pipeline": "gpu_parallel_probe",
      "command": "%MLIRSHIELD_MLIR_OPT% outputs\\real_msys2_focus_seeds\\seeds_current_mlir23_llvm_197158_mem2reg_dbg_declare_use_after_erase.mlir --convert-parallel-loops-to-gpu --canonicalize -o -",
      "return_code": 0,
      "timed_out": false,
      "elapsed_ms": 50,
      "stdout": "#di_basic_type = #llvm.di_basic_type<tag = DW_TAG_base_type, name = \"double\", sizeInBits = 64>\n#di_file = #llvm.di_file<\"repro.ll\" in \"\">\n#di_compile_unit = #llvm.di_compile_unit<id = distinct[0]<>, sourceLanguage = DW_LANG_C_plus_plus_14, file = #di_file, producer = \"clang\", isOptimized = false, emissionKind = Full>\n#di_subprogram = #llvm.di_subprogram<compileUnit = #di_compile_unit, scope = #di_file, name = \"foo\", linkageName = \"foo\", file = #di_file, line = 1, subprogramFlags = Definition>\n#di_local_variable = #llvm.di_local_variable<scope = #di_subprogram, name = \"d\", file = #di_file, line = 2, type = #di_basic_type>\nmodule {\n  llvm.func @foo() {\n    %0 = llvm.mlir.constant(1 : i32) : i32\n    %1 = llvm.mlir.constant(4.000000e+00 : f64) : f64\n    %2 = llvm.alloca %0 x f64 : (i32) -> !llvm.ptr\n    llvm.intr.dbg.declare #di_local_variable = %2 : !llvm.ptr\n    llvm.store %1, %2 : f64, !llvm.ptr\n    %3 = llvm.load %2 : !llvm.ptr -> f64\n    llvm.store %3, %2 : f64, !llvm.ptr\n    llvm.return\n  }\n}\n\n",
      "stderr": "",
      "stdout_path": "outputs\\real_msys2_focus\\artifacts\\seeds_current_mlir23_llvm_197158_mem2reg_dbg_declare_use_after_erase__gpu_parallel_probe.stdout.mlir",
      "stderr_path": "outputs\\real_msys2_focus\\artifacts\\seeds_current_mlir23_llvm_197158_mem2reg_dbg_declare_use_after_erase__gpu_parallel_probe.stderr.txt",
      "category": "success"
    },
    {
      "seed": "seeds\\seeds_issue_repros_llvm_113021_linalg_negative_indexing_tile.mlir",
      "pipeline": "parse_verify",
      "command": "%MLIRSHIELD_MLIR_OPT% outputs\\real_msys2_focus_seeds\\seeds_issue_repros_llvm_113021_linalg_negative_indexing_tile.mlir  -o -",
      "return_code": 0,
      "timed_out": false,
      "elapsed_ms": 40,
      "stdout": "#map = affine_map<(d0) -> (-d0 + 7)>\n#map1 = affine_map<(d0) -> (d0)>\nmodule {\n  func.func @test(%arg0: tensor<8xi8>, %arg1: tensor<8xi8>) -> tensor<8xi8> {\n    %0 = linalg.generic {indexing_maps = [#map, #map1], iterator_types = [\"parallel\"]} ins(%arg0 : tensor<8xi8>) outs(%arg1 : tensor<8xi8>) {\n    ^bb0(%in: i8, %out: i8):\n      linalg.yield %in : i8\n    } -> tensor<8xi8>\n    return %0 : tensor<8xi8>\n  }\n  module attributes {transform.with_named_sequence} {\n    transform.named_sequence @__transform_main(%arg0: !transform.any_op {transform.readonly}) {\n      %0 = transform.structured.match ops{[\"linalg.generic\"]} in %arg0 : (!transform.any_op) -> !transform.any_op\n      %tiled_linalg_op, %loops = transform.structured.tile_using_for %0 tile_sizes [2] : (!transform.any_op) -> (!transform.any_op, !transform.any_op)\n      transform.yield \n    }\n  }\n}\n\n",
      "stderr": "",
      "stdout_path": "outputs\\real_msys2_focus\\artifacts\\seeds_issue_repros_llvm_113021_linalg_negative_indexing_tile__parse_verify.stdout.mlir",
      "stderr_path": "outputs\\real_msys2_focus\\artifacts\\seeds_issue_repros_llvm_113021_linalg_negative_indexing_tile__parse_verify.stderr.txt",
      "category": "success"
    },
    {
      "seed": "seeds\\seeds_issue_repros_llvm_113021_linalg_negative_indexing_tile.mlir",
      "pipeline": "canonicalize_cse_sccp",
      "command": "%MLIRSHIELD_MLIR_OPT% outputs\\real_msys2_focus_seeds\\seeds_issue_repros_llvm_113021_linalg_negative_indexing_tile.mlir --canonicalize --cse --sccp --canonicalize -o -",
      "return_code": 0,
      "timed_out": false,
      "elapsed_ms": 40,
      "stdout": "#map = affine_map<(d0) -> (-d0 + 7)>\n#map1 = affine_map<(d0) -> (d0)>\nmodule {\n  func.func @test(%arg0: tensor<8xi8>, %arg1: tensor<8xi8>) -> tensor<8xi8> {\n    %0 = linalg.generic {indexing_maps = [#map, #map1], iterator_types = [\"parallel\"]} ins(%arg0 : tensor<8xi8>) outs(%arg1 : tensor<8xi8>) {\n    ^bb0(%in: i8, %out: i8):\n      linalg.yield %in : i8\n    } -> tensor<8xi8>\n    return %0 : tensor<8xi8>\n  }\n  module attributes {transform.with_named_sequence} {\n    transform.named_sequence @__transform_main(%arg0: !transform.any_op {transform.readonly}) {\n      %0 = transform.structured.match ops{[\"linalg.generic\"]} in %arg0 : (!transform.any_op) -> !transform.any_op\n      %tiled_linalg_op, %loops = transform.structured.tile_using_for %0 tile_sizes [2] : (!transform.any_op) -> (!transform.any_op, !transform.any_op)\n      transform.yield \n    }\n  }\n}\n\n",
      "stderr": "",
      "stdout_path": "outputs\\real_msys2_focus\\artifacts\\seeds_issue_repros_llvm_113021_linalg_negative_indexing_tile__canonicalize_cse_sccp.stdout.mlir",
      "stderr_path": "outputs\\real_msys2_focus\\artifacts\\seeds_issue_repros_llvm_113021_linalg_negative_indexing_tile__canonicalize_cse_sccp.stderr.txt",
      "category": "success"
    },
    {
      "seed": "seeds\\seeds_issue_repros_llvm_113021_linalg_negative_indexing_tile.mlir",
      "pipeline": "symbol_dce_inliner_canonicalize",
      "command": "%MLIRSHIELD_MLIR_OPT% outputs\\real_msys2_focus_seeds\\seeds_issue_repros_llvm_113021_linalg_negative_indexing_tile.mlir --symbol-dce --inline --canonicalize --cse -o -",
      "return_code": 0,
      "timed_out": false,
      "elapsed_ms": 40,
      "stdout": "#map = affine_map<(d0) -> (-d0 + 7)>\n#map1 = affine_map<(d0) -> (d0)>\nmodule {\n  func.func @test(%arg0: tensor<8xi8>, %arg1: tensor<8xi8>) -> tensor<8xi8> {\n    %0 = linalg.generic {indexing_maps = [#map, #map1], iterator_types = [\"parallel\"]} ins(%arg0 : tensor<8xi8>) outs(%arg1 : tensor<8xi8>) {\n    ^bb0(%in: i8, %out: i8):\n      linalg.yield %in : i8\n    } -> tensor<8xi8>\n    return %0 : tensor<8xi8>\n  }\n  module attributes {transform.with_named_sequence} {\n    transform.named_sequence @__transform_main(%arg0: !transform.any_op {transform.readonly}) {\n      %0 = transform.structured.match ops{[\"linalg.generic\"]} in %arg0 : (!transform.any_op) -> !transform.any_op\n      %tiled_linalg_op, %loops = transform.structured.tile_using_for %0 tile_sizes [2] : (!transform.any_op) -> (!transform.any_op, !transform.any_op)\n      transform.yield \n    }\n  }\n}\n\n",
      "stderr": "",
      "stdout_path": "outputs\\real_msys2_focus\\artifacts\\seeds_issue_repros_llvm_113021_linalg_negative_indexing_tile__symbol_dce_inliner_canonicalize.stdout.mlir",
      "stderr_path": "outputs\\real_msys2_focus\\artifacts\\seeds_issue_repros_llvm_113021_linalg_negative_indexing_tile__symbol_dce_inliner_canonicalize.stderr.txt",
      "category": "success"
    },
    {
      "seed": "seeds\\seeds_issue_repros_llvm_113021_linalg_negative_indexing_tile.mlir",
      "pipeline": "affine_lowering_stress",
      "command": "%MLIRSHIELD_MLIR_OPT% outputs\\real_msys2_focus_seeds\\seeds_issue_repros_llvm_113021_linalg_negative_indexing_tile.mlir --lower-affine --canonicalize --cse -o -",
      "return_code": 0,
      "timed_out": false,
      "elapsed_ms": 53,
      "stdout": "#map = affine_map<(d0) -> (-d0 + 7)>\n#map1 = affine_map<(d0) -> (d0)>\nmodule {\n  func.func @test(%arg0: tensor<8xi8>, %arg1: tensor<8xi8>) -> tensor<8xi8> {\n    %0 = linalg.generic {indexing_maps = [#map, #map1], iterator_types = [\"parallel\"]} ins(%arg0 : tensor<8xi8>) outs(%arg1 : tensor<8xi8>) {\n    ^bb0(%in: i8, %out: i8):\n      linalg.yield %in : i8\n    } -> tensor<8xi8>\n    return %0 : tensor<8xi8>\n  }\n  module attributes {transform.with_named_sequence} {\n    transform.named_sequence @__transform_main(%arg0: !transform.any_op {transform.readonly}) {\n      %0 = transform.structured.match ops{[\"linalg.generic\"]} in %arg0 : (!transform.any_op) -> !transform.any_op\n      %tiled_linalg_op, %loops = transform.structured.tile_using_for %0 tile_sizes [2] : (!transform.any_op) -> (!transform.any_op, !transform.any_op)\n      transform.yield \n    }\n  }\n}\n\n",
      "stderr": "",
      "stdout_path": "outputs\\real_msys2_focus\\artifacts\\seeds_issue_repros_llvm_113021_linalg_negative_indexing_tile__affine_lowering_stress.stdout.mlir",
      "stderr_path": "outputs\\real_msys2_focus\\artifacts\\seeds_issue_repros_llvm_113021_linalg_negative_indexing_tile__affine_lowering_stress.stderr.txt",
      "category": "success"
    },
    {
      "seed": "seeds\\seeds_issue_repros_llvm_113021_linalg_negative_indexing_tile.mlir",
      "pipeline": "scf_to_cf_stress",
      "command": "%MLIRSHIELD_MLIR_OPT% outputs\\real_msys2_focus_seeds\\seeds_issue_repros_llvm_113021_linalg_negative_indexing_tile.mlir --convert-scf-to-cf --canonicalize --cse -o -",
      "return_code": 0,
      "timed_out": false,
      "elapsed_ms": 39,
      "stdout": "#map = affine_map<(d0) -> (-d0 + 7)>\n#map1 = affine_map<(d0) -> (d0)>\nmodule {\n  func.func @test(%arg0: tensor<8xi8>, %arg1: tensor<8xi8>) -> tensor<8xi8> {\n    %0 = linalg.generic {indexing_maps = [#map, #map1], iterator_types = [\"parallel\"]} ins(%arg0 : tensor<8xi8>) outs(%arg1 : tensor<8xi8>) {\n    ^bb0(%in: i8, %out: i8):\n      linalg.yield %in : i8\n    } -> tensor<8xi8>\n    return %0 : tensor<8xi8>\n  }\n  module attributes {transform.with_named_sequence} {\n    transform.named_sequence @__transform_main(%arg0: !transform.any_op {transform.readonly}) {\n      %0 = transform.structured.match ops{[\"linalg.generic\"]} in %arg0 : (!transform.any_op) -> !transform.any_op\n      %tiled_linalg_op, %loops = transform.structured.tile_using_for %0 tile_sizes [2] : (!transform.any_op) -> (!transform.any_op, !transform.any_op)\n      transform.yield \n    }\n  }\n}\n\n",
      "stderr": "",
      "stdout_path": "outputs\\real_msys2_focus\\artifacts\\seeds_issue_repros_llvm_113021_linalg_negative_indexing_tile__scf_to_cf_stress.stdout.mlir",
      "stderr_path": "outputs\\real_msys2_focus\\artifacts\\seeds_issue_repros_llvm_113021_linalg_negative_indexing_tile__scf_to_cf_stress.stderr.txt",
      "category": "success"
    },
    {
      "seed": "seeds\\seeds_issue_repros_llvm_113021_linalg_negative_indexing_tile.mlir",
      "pipeline": "vector_lowering_stress",
      "command": "%MLIRSHIELD_MLIR_OPT% outputs\\real_msys2_focus_seeds\\seeds_issue_repros_llvm_113021_linalg_negative_indexing_tile.mlir --convert-vector-to-scf --convert-vector-to-llvm --canonicalize -o -",
      "return_code": 0,
      "timed_out": false,
      "elapsed_ms": 38,
      "stdout": "#map = affine_map<(d0) -> (-d0 + 7)>\n#map1 = affine_map<(d0) -> (d0)>\nmodule {\n  func.func @test(%arg0: tensor<8xi8>, %arg1: tensor<8xi8>) -> tensor<8xi8> {\n    %0 = linalg.generic {indexing_maps = [#map, #map1], iterator_types = [\"parallel\"]} ins(%arg0 : tensor<8xi8>) outs(%arg1 : tensor<8xi8>) {\n    ^bb0(%in: i8, %out: i8):\n      linalg.yield %in : i8\n    } -> tensor<8xi8>\n    return %0 : tensor<8xi8>\n  }\n  module attributes {transform.with_named_sequence} {\n    transform.named_sequence @__transform_main(%arg0: !transform.any_op {transform.readonly}) {\n      %0 = transform.structured.match ops{[\"linalg.generic\"]} in %arg0 : (!transform.any_op) -> !transform.any_op\n      %tiled_linalg_op, %loops = transform.structured.tile_using_for %0 tile_sizes [2] : (!transform.any_op) -> (!transform.any_op, !transform.any_op)\n      transform.yield \n    }\n  }\n}\n\n",
      "stderr": "",
      "stdout_path": "outputs\\real_msys2_focus\\artifacts\\seeds_issue_repros_llvm_113021_linalg_negative_indexing_tile__vector_lowering_stress.stdout.mlir",
      "stderr_path": "outputs\\real_msys2_focus\\artifacts\\seeds_issue_repros_llvm_113021_linalg_negative_indexing_tile__vector_lowering_stress.stderr.txt",
      "category": "success"
    },
    {
      "seed": "seeds\\seeds_issue_repros_llvm_113021_linalg_negative_indexing_tile.mlir",
      "pipeline": "bufferization_probe",
      "command": "%MLIRSHIELD_MLIR_OPT% outputs\\real_msys2_focus_seeds\\seeds_issue_repros_llvm_113021_linalg_negative_indexing_tile.mlir --one-shot-bufferize --canonicalize -o -",
      "return_code": 0,
      "timed_out": false,
      "elapsed_ms": 38,
      "stdout": "#map = affine_map<(d0) -> (-d0 + 7)>\n#map1 = affine_map<(d0) -> (d0)>\nmodule {\n  func.func @test(%arg0: tensor<8xi8>, %arg1: tensor<8xi8>) -> tensor<8xi8> {\n    %0 = bufferization.to_buffer %arg0 : tensor<8xi8> to memref<8xi8, strided<[?], offset: ?>>\n    %alloc = memref.alloc() {alignment = 64 : i64} : memref<8xi8>\n    linalg.generic {indexing_maps = [#map, #map1], iterator_types = [\"parallel\"]} ins(%0 : memref<8xi8, strided<[?], offset: ?>>) outs(%alloc : memref<8xi8>) {\n    ^bb0(%in: i8, %out: i8):\n      linalg.yield %in : i8\n    }\n    %1 = bufferization.to_tensor %alloc : memref<8xi8> to tensor<8xi8>\n    return %1 : tensor<8xi8>\n  }\n  module attributes {transform.with_named_sequence} {\n    transform.named_sequence @__transform_main(%arg0: !transform.any_op {transform.readonly}) {\n      %0 = transform.structured.match ops{[\"linalg.generic\"]} in %arg0 : (!transform.any_op) -> !transform.any_op\n      %tiled_linalg_op, %loops = transform.structured.tile_using_for %0 tile_sizes [2] : (!transform.any_op) -> (!transform.any_op, !transform.any_op)\n      transform.yield \n    }\n  }\n}\n\n",
      "stderr": "",
      "stdout_path": "outputs\\real_msys2_focus\\artifacts\\seeds_issue_repros_llvm_113021_linalg_negative_indexing_tile__bufferization_probe.stdout.mlir",
      "stderr_path": "outputs\\real_msys2_focus\\artifacts\\seeds_issue_repros_llvm_113021_linalg_negative_indexing_tile__bufferization_probe.stderr.txt",
      "category": "success"
    },
    {
      "seed": "seeds\\seeds_issue_repros_llvm_113021_linalg_negative_indexing_tile.mlir",
      "pipeline": "linalg_affine_probe",
      "command": "%MLIRSHIELD_MLIR_OPT% outputs\\real_msys2_focus_seeds\\seeds_issue_repros_llvm_113021_linalg_negative_indexing_tile.mlir --convert-linalg-to-affine-loops --canonicalize -o -",
      "return_code": 0,
      "timed_out": false,
      "elapsed_ms": 41,
      "stdout": "#map = affine_map<(d0) -> (-d0 + 7)>\n#map1 = affine_map<(d0) -> (d0)>\nmodule {\n  func.func @test(%arg0: tensor<8xi8>, %arg1: tensor<8xi8>) -> tensor<8xi8> {\n    %0 = linalg.generic {indexing_maps = [#map, #map1], iterator_types = [\"parallel\"]} ins(%arg0 : tensor<8xi8>) outs(%arg1 : tensor<8xi8>) {\n    ^bb0(%in: i8, %out: i8):\n      linalg.yield %in : i8\n    } -> tensor<8xi8>\n    return %0 : tensor<8xi8>\n  }\n  module attributes {transform.with_named_sequence} {\n    transform.named_sequence @__transform_main(%arg0: !transform.any_op {transform.readonly}) {\n      %0 = transform.structured.match ops{[\"linalg.generic\"]} in %arg0 : (!transform.any_op) -> !transform.any_op\n      %tiled_linalg_op, %loops = transform.structured.tile_using_for %0 tile_sizes [2] : (!transform.any_op) -> (!transform.any_op, !transform.any_op)\n      transform.yield \n    }\n  }\n}\n\n",
      "stderr": "",
      "stdout_path": "outputs\\real_msys2_focus\\artifacts\\seeds_issue_repros_llvm_113021_linalg_negative_indexing_tile__linalg_affine_probe.stdout.mlir",
      "stderr_path": "outputs\\real_msys2_focus\\artifacts\\seeds_issue_repros_llvm_113021_linalg_negative_indexing_tile__linalg_affine_probe.stderr.txt",
      "category": "success"
    },
    {
      "seed": "seeds\\seeds_issue_repros_llvm_113021_linalg_negative_indexing_tile.mlir",
      "pipeline": "gpu_parallel_probe",
      "command": "%MLIRSHIELD_MLIR_OPT% outputs\\real_msys2_focus_seeds\\seeds_issue_repros_llvm_113021_linalg_negative_indexing_tile.mlir --convert-parallel-loops-to-gpu --canonicalize -o -",
      "return_code": 0,
      "timed_out": false,
      "elapsed_ms": 41,
      "stdout": "#map = affine_map<(d0) -> (-d0 + 7)>\n#map1 = affine_map<(d0) -> (d0)>\nmodule {\n  func.func @test(%arg0: tensor<8xi8>, %arg1: tensor<8xi8>) -> tensor<8xi8> {\n    %0 = linalg.generic {indexing_maps = [#map, #map1], iterator_types = [\"parallel\"]} ins(%arg0 : tensor<8xi8>) outs(%arg1 : tensor<8xi8>) {\n    ^bb0(%in: i8, %out: i8):\n      linalg.yield %in : i8\n    } -> tensor<8xi8>\n    return %0 : tensor<8xi8>\n  }\n  module attributes {transform.with_named_sequence} {\n    transform.named_sequence @__transform_main(%arg0: !transform.any_op {transform.readonly}) {\n      %0 = transform.structured.match ops{[\"linalg.generic\"]} in %arg0 : (!transform.any_op) -> !transform.any_op\n      %tiled_linalg_op, %loops = transform.structured.tile_using_for %0 tile_sizes [2] : (!transform.any_op) -> (!transform.any_op, !transform.any_op)\n      transform.yield \n    }\n  }\n}\n\n",
      "stderr": "",
      "stdout_path": "outputs\\real_msys2_focus\\artifacts\\seeds_issue_repros_llvm_113021_linalg_negative_indexing_tile__gpu_parallel_probe.stdout.mlir",
      "stderr_path": "outputs\\real_msys2_focus\\artifacts\\seeds_issue_repros_llvm_113021_linalg_negative_indexing_tile__gpu_parallel_probe.stderr.txt",
      "category": "success"
    },
    {
      "seed": "seeds\\seeds_issue_repros_llvm_168695_vector_scatter_tensor_canonicalize.mlir",
      "pipeline": "parse_verify",
      "command": "%MLIRSHIELD_MLIR_OPT% outputs\\real_msys2_focus_seeds\\seeds_issue_repros_llvm_168695_vector_scatter_tensor_canonicalize.mlir  -o -",
      "return_code": 0,
      "timed_out": false,
      "elapsed_ms": 49,
      "stdout": "module {\n  func.func @scatter_tensor(%arg0: tensor<16xf32>, %arg1: vector<16xi1>, %arg2: vector<16xf32>) -> tensor<16xf32> {\n    %c0 = arith.constant 0 : index\n    %0 = vector.step : vector<16xindex>\n    %1 = vector.scatter %arg0[%c0] [%0], %arg1, %arg2 : tensor<16xf32>, vector<16xindex>, vector<16xi1>, vector<16xf32> -> tensor<16xf32>\n    return %1 : tensor<16xf32>\n  }\n}\n\n",
      "stderr": "",
      "stdout_path": "outputs\\real_msys2_focus\\artifacts\\seeds_issue_repros_llvm_168695_vector_scatter_tensor_canonicalize__parse_verify.stdout.mlir",
      "stderr_path": "outputs\\real_msys2_focus\\artifacts\\seeds_issue_repros_llvm_168695_vector_scatter_tensor_canonicalize__parse_verify.stderr.txt",
      "category": "success"
    },
    {
      "seed": "seeds\\seeds_issue_repros_llvm_168695_vector_scatter_tensor_canonicalize.mlir",
      "pipeline": "canonicalize_cse_sccp",
      "command": "%MLIRSHIELD_MLIR_OPT% outputs\\real_msys2_focus_seeds\\seeds_issue_repros_llvm_168695_vector_scatter_tensor_canonicalize.mlir --canonicalize --cse --sccp --canonicalize -o -",
      "return_code": 0,
      "timed_out": false,
      "elapsed_ms": 31,
      "stdout": "module {\n  func.func @scatter_tensor(%arg0: tensor<16xf32>, %arg1: vector<16xi1>, %arg2: vector<16xf32>) -> tensor<16xf32> {\n    %c0 = arith.constant 0 : index\n    %0 = vector.step : vector<16xindex>\n    %1 = vector.scatter %arg0[%c0] [%0], %arg1, %arg2 : tensor<16xf32>, vector<16xindex>, vector<16xi1>, vector<16xf32> -> tensor<16xf32>\n    return %1 : tensor<16xf32>\n  }\n}\n\n",
      "stderr": "",
      "stdout_path": "outputs\\real_msys2_focus\\artifacts\\seeds_issue_repros_llvm_168695_vector_scatter_tensor_canonicalize__canonicalize_cse_sccp.stdout.mlir",
      "stderr_path": "outputs\\real_msys2_focus\\artifacts\\seeds_issue_repros_llvm_168695_vector_scatter_tensor_canonicalize__canonicalize_cse_sccp.stderr.txt",
      "category": "success"
    },
    {
      "seed": "seeds\\seeds_issue_repros_llvm_168695_vector_scatter_tensor_canonicalize.mlir",
      "pipeline": "symbol_dce_inliner_canonicalize",
      "command": "%MLIRSHIELD_MLIR_OPT% outputs\\real_msys2_focus_seeds\\seeds_issue_repros_llvm_168695_vector_scatter_tensor_canonicalize.mlir --symbol-dce --inline --canonicalize --cse -o -",
      "return_code": 0,
      "timed_out": false,
      "elapsed_ms": 30,
      "stdout": "module {\n  func.func @scatter_tensor(%arg0: tensor<16xf32>, %arg1: vector<16xi1>, %arg2: vector<16xf32>) -> tensor<16xf32> {\n    %c0 = arith.constant 0 : index\n    %0 = vector.step : vector<16xindex>\n    %1 = vector.scatter %arg0[%c0] [%0], %arg1, %arg2 : tensor<16xf32>, vector<16xindex>, vector<16xi1>, vector<16xf32> -> tensor<16xf32>\n    return %1 : tensor<16xf32>\n  }\n}\n\n",
      "stderr": "",
      "stdout_path": "outputs\\real_msys2_focus\\artifacts\\seeds_issue_repros_llvm_168695_vector_scatter_tensor_canonicalize__symbol_dce_inliner_canonicalize.stdout.mlir",
      "stderr_path": "outputs\\real_msys2_focus\\artifacts\\seeds_issue_repros_llvm_168695_vector_scatter_tensor_canonicalize__symbol_dce_inliner_canonicalize.stderr.txt",
      "category": "success"
    },
    {
      "seed": "seeds\\seeds_issue_repros_llvm_168695_vector_scatter_tensor_canonicalize.mlir",
      "pipeline": "affine_lowering_stress",
      "command": "%MLIRSHIELD_MLIR_OPT% outputs\\real_msys2_focus_seeds\\seeds_issue_repros_llvm_168695_vector_scatter_tensor_canonicalize.mlir --lower-affine --canonicalize --cse -o -",
      "return_code": 0,
      "timed_out": false,
      "elapsed_ms": 31,
      "stdout": "module {\n  func.func @scatter_tensor(%arg0: tensor<16xf32>, %arg1: vector<16xi1>, %arg2: vector<16xf32>) -> tensor<16xf32> {\n    %c0 = arith.constant 0 : index\n    %0 = vector.step : vector<16xindex>\n    %1 = vector.scatter %arg0[%c0] [%0], %arg1, %arg2 : tensor<16xf32>, vector<16xindex>, vector<16xi1>, vector<16xf32> -> tensor<16xf32>\n    return %1 : tensor<16xf32>\n  }\n}\n\n",
      "stderr": "",
      "stdout_path": "outputs\\real_msys2_focus\\artifacts\\seeds_issue_repros_llvm_168695_vector_scatter_tensor_canonicalize__affine_lowering_stress.stdout.mlir",
      "stderr_path": "outputs\\real_msys2_focus\\artifacts\\seeds_issue_repros_llvm_168695_vector_scatter_tensor_canonicalize__affine_lowering_stress.stderr.txt",
      "category": "success"
    },
    {
      "seed": "seeds\\seeds_issue_repros_llvm_168695_vector_scatter_tensor_canonicalize.mlir",
      "pipeline": "scf_to_cf_stress",
      "command": "%MLIRSHIELD_MLIR_OPT% outputs\\real_msys2_focus_seeds\\seeds_issue_repros_llvm_168695_vector_scatter_tensor_canonicalize.mlir --convert-scf-to-cf --canonicalize --cse -o -",
      "return_code": 0,
      "timed_out": false,
      "elapsed_ms": 33,
      "stdout": "module {\n  func.func @scatter_tensor(%arg0: tensor<16xf32>, %arg1: vector<16xi1>, %arg2: vector<16xf32>) -> tensor<16xf32> {\n    %c0 = arith.constant 0 : index\n    %0 = vector.step : vector<16xindex>\n    %1 = vector.scatter %arg0[%c0] [%0], %arg1, %arg2 : tensor<16xf32>, vector<16xindex>, vector<16xi1>, vector<16xf32> -> tensor<16xf32>\n    return %1 : tensor<16xf32>\n  }\n}\n\n",
      "stderr": "",
      "stdout_path": "outputs\\real_msys2_focus\\artifacts\\seeds_issue_repros_llvm_168695_vector_scatter_tensor_canonicalize__scf_to_cf_stress.stdout.mlir",
      "stderr_path": "outputs\\real_msys2_focus\\artifacts\\seeds_issue_repros_llvm_168695_vector_scatter_tensor_canonicalize__scf_to_cf_stress.stderr.txt",
      "category": "success"
    },
    {
      "seed": "seeds\\seeds_issue_repros_llvm_168695_vector_scatter_tensor_canonicalize.mlir",
      "pipeline": "vector_lowering_stress",
      "command": "%MLIRSHIELD_MLIR_OPT% outputs\\real_msys2_focus_seeds\\seeds_issue_repros_llvm_168695_vector_scatter_tensor_canonicalize.mlir --convert-vector-to-scf --convert-vector-to-llvm --canonicalize -o -",
      "return_code": 0,
      "timed_out": false,
      "elapsed_ms": 38,
      "stdout": "module {\n  func.func @scatter_tensor(%arg0: tensor<16xf32>, %arg1: vector<16xi1>, %arg2: vector<16xf32>) -> tensor<16xf32> {\n    %c0 = arith.constant 0 : index\n    %cst = arith.constant dense<[0, 1, 2, 3, 4, 5, 6, 7, 8, 9, 10, 11, 12, 13, 14, 15]> : vector<16xindex>\n    %0 = vector.scatter %arg0[%c0] [%cst], %arg1, %arg2 : tensor<16xf32>, vector<16xindex>, vector<16xi1>, vector<16xf32> -> tensor<16xf32>\n    return %0 : tensor<16xf32>\n  }\n}\n\n",
      "stderr": "",
      "stdout_path": "outputs\\real_msys2_focus\\artifacts\\seeds_issue_repros_llvm_168695_vector_scatter_tensor_canonicalize__vector_lowering_stress.stdout.mlir",
      "stderr_path": "outputs\\real_msys2_focus\\artifacts\\seeds_issue_repros_llvm_168695_vector_scatter_tensor_canonicalize__vector_lowering_stress.stderr.txt",
      "category": "success"
    },
    {
      "seed": "seeds\\seeds_issue_repros_llvm_168695_vector_scatter_tensor_canonicalize.mlir",
      "pipeline": "bufferization_probe",
      "command": "%MLIRSHIELD_MLIR_OPT% outputs\\real_msys2_focus_seeds\\seeds_issue_repros_llvm_168695_vector_scatter_tensor_canonicalize.mlir --one-shot-bufferize --canonicalize -o -",
      "return_code": 0,
      "timed_out": false,
      "elapsed_ms": 34,
      "stdout": "module {\n  func.func @scatter_tensor(%arg0: tensor<16xf32>, %arg1: vector<16xi1>, %arg2: vector<16xf32>) -> tensor<16xf32> {\n    %c0 = arith.constant 0 : index\n    %0 = bufferization.to_buffer %arg0 : tensor<16xf32> to memref<16xf32, strided<[?], offset: ?>>\n    %alloc = memref.alloc() {alignment = 64 : i64} : memref<16xf32>\n    memref.copy %0, %alloc : memref<16xf32, strided<[?], offset: ?>> to memref<16xf32>\n    vector.maskedstore %alloc[%c0], %arg1, %arg2 : memref<16xf32>, vector<16xi1>, vector<16xf32>\n    %1 = bufferization.to_tensor %alloc : memref<16xf32> to tensor<16xf32>\n    return %1 : tensor<16xf32>\n  }\n}\n\n",
      "stderr": "",
      "stdout_path": "outputs\\real_msys2_focus\\artifacts\\seeds_issue_repros_llvm_168695_vector_scatter_tensor_canonicalize__bufferization_probe.stdout.mlir",
      "stderr_path": "outputs\\real_msys2_focus\\artifacts\\seeds_issue_repros_llvm_168695_vector_scatter_tensor_canonicalize__bufferization_probe.stderr.txt",
      "category": "success"
    },
    {
      "seed": "seeds\\seeds_issue_repros_llvm_168695_vector_scatter_tensor_canonicalize.mlir",
      "pipeline": "linalg_affine_probe",
      "command": "%MLIRSHIELD_MLIR_OPT% outputs\\real_msys2_focus_seeds\\seeds_issue_repros_llvm_168695_vector_scatter_tensor_canonicalize.mlir --convert-linalg-to-affine-loops --canonicalize -o -",
      "return_code": 0,
      "timed_out": false,
      "elapsed_ms": 44,
      "stdout": "module {\n  func.func @scatter_tensor(%arg0: tensor<16xf32>, %arg1: vector<16xi1>, %arg2: vector<16xf32>) -> tensor<16xf32> {\n    %c0 = arith.constant 0 : index\n    %0 = vector.step : vector<16xindex>\n    %1 = vector.scatter %arg0[%c0] [%0], %arg1, %arg2 : tensor<16xf32>, vector<16xindex>, vector<16xi1>, vector<16xf32> -> tensor<16xf32>\n    return %1 : tensor<16xf32>\n  }\n}\n\n",
      "stderr": "",
      "stdout_path": "outputs\\real_msys2_focus\\artifacts\\seeds_issue_repros_llvm_168695_vector_scatter_tensor_canonicalize__linalg_affine_probe.stdout.mlir",
      "stderr_path": "outputs\\real_msys2_focus\\artifacts\\seeds_issue_repros_llvm_168695_vector_scatter_tensor_canonicalize__linalg_affine_probe.stderr.txt",
      "category": "success"
    },
    {
      "seed": "seeds\\seeds_issue_repros_llvm_168695_vector_scatter_tensor_canonicalize.mlir",
      "pipeline": "gpu_parallel_probe",
      "command": "%MLIRSHIELD_MLIR_OPT% outputs\\real_msys2_focus_seeds\\seeds_issue_repros_llvm_168695_vector_scatter_tensor_canonicalize.mlir --convert-parallel-loops-to-gpu --canonicalize -o -",
      "return_code": 0,
      "timed_out": false,
      "elapsed_ms": 31,
      "stdout": "module {\n  func.func @scatter_tensor(%arg0: tensor<16xf32>, %arg1: vector<16xi1>, %arg2: vector<16xf32>) -> tensor<16xf32> {\n    %c0 = arith.constant 0 : index\n    %0 = vector.step : vector<16xindex>\n    %1 = vector.scatter %arg0[%c0] [%0], %arg1, %arg2 : tensor<16xf32>, vector<16xindex>, vector<16xi1>, vector<16xf32> -> tensor<16xf32>\n    return %1 : tensor<16xf32>\n  }\n}\n\n",
      "stderr": "",
      "stdout_path": "outputs\\real_msys2_focus\\artifacts\\seeds_issue_repros_llvm_168695_vector_scatter_tensor_canonicalize__gpu_parallel_probe.stdout.mlir",
      "stderr_path": "outputs\\real_msys2_focus\\artifacts\\seeds_issue_repros_llvm_168695_vector_scatter_tensor_canonicalize__gpu_parallel_probe.stderr.txt",
      "category": "success"
    },
    {
      "seed": "seeds\\seeds_issue_repros_llvm_61085_tosa_linalg_affine_assert.mlir",
      "pipeline": "parse_verify",
      "command": "%MLIRSHIELD_MLIR_OPT% outputs\\real_msys2_focus_seeds\\seeds_issue_repros_llvm_61085_tosa_linalg_affine_assert.mlir  -o -",
      "return_code": 1,
      "timed_out": false,
      "elapsed_ms": 37,
      "stdout": "",
      "stderr": "outputs\\real_msys2_focus_seeds\\seeds_issue_repros_llvm_61085_tosa_linalg_affine_assert.mlir:18:10: error: custom op 'linalg.init_tensor' is unknown\n    %3 = linalg.init_tensor [1, 4, 1, 1] : tensor<1x4x1x1xi32>\n         ^\n",
      "stdout_path": "outputs\\real_msys2_focus\\artifacts\\seeds_issue_repros_llvm_61085_tosa_linalg_affine_assert__parse_verify.stdout.mlir",
      "stderr_path": "outputs\\real_msys2_focus\\artifacts\\seeds_issue_repros_llvm_61085_tosa_linalg_affine_assert__parse_verify.stderr.txt",
      "category": "unknown failure"
    },
    {
      "seed": "seeds\\seeds_issue_repros_llvm_61085_tosa_linalg_affine_assert.mlir",
      "pipeline": "canonicalize_cse_sccp",
      "command": "%MLIRSHIELD_MLIR_OPT% outputs\\real_msys2_focus_seeds\\seeds_issue_repros_llvm_61085_tosa_linalg_affine_assert.mlir --canonicalize --cse --sccp --canonicalize -o -",
      "return_code": 1,
      "timed_out": false,
      "elapsed_ms": 32,
      "stdout": "",
      "stderr": "outputs\\real_msys2_focus_seeds\\seeds_issue_repros_llvm_61085_tosa_linalg_affine_assert.mlir:18:10: error: custom op 'linalg.init_tensor' is unknown\n    %3 = linalg.init_tensor [1, 4, 1, 1] : tensor<1x4x1x1xi32>\n         ^\n",
      "stdout_path": "outputs\\real_msys2_focus\\artifacts\\seeds_issue_repros_llvm_61085_tosa_linalg_affine_assert__canonicalize_cse_sccp.stdout.mlir",
      "stderr_path": "outputs\\real_msys2_focus\\artifacts\\seeds_issue_repros_llvm_61085_tosa_linalg_affine_assert__canonicalize_cse_sccp.stderr.txt",
      "category": "unknown failure"
    },
    {
      "seed": "seeds\\seeds_issue_repros_llvm_61085_tosa_linalg_affine_assert.mlir",
      "pipeline": "symbol_dce_inliner_canonicalize",
      "command": "%MLIRSHIELD_MLIR_OPT% outputs\\real_msys2_focus_seeds\\seeds_issue_repros_llvm_61085_tosa_linalg_affine_assert.mlir --symbol-dce --inline --canonicalize --cse -o -",
      "return_code": 1,
      "timed_out": false,
      "elapsed_ms": 33,
      "stdout": "",
      "stderr": "outputs\\real_msys2_focus_seeds\\seeds_issue_repros_llvm_61085_tosa_linalg_affine_assert.mlir:18:10: error: custom op 'linalg.init_tensor' is unknown\n    %3 = linalg.init_tensor [1, 4, 1, 1] : tensor<1x4x1x1xi32>\n         ^\n",
      "stdout_path": "outputs\\real_msys2_focus\\artifacts\\seeds_issue_repros_llvm_61085_tosa_linalg_affine_assert__symbol_dce_inliner_canonicalize.stdout.mlir",
      "stderr_path": "outputs\\real_msys2_focus\\artifacts\\seeds_issue_repros_llvm_61085_tosa_linalg_affine_assert__symbol_dce_inliner_canonicalize.stderr.txt",
      "category": "unknown failure"
    },
    {
      "seed": "seeds\\seeds_issue_repros_llvm_61085_tosa_linalg_affine_assert.mlir",
      "pipeline": "affine_lowering_stress",
      "command": "%MLIRSHIELD_MLIR_OPT% outputs\\real_msys2_focus_seeds\\seeds_issue_repros_llvm_61085_tosa_linalg_affine_assert.mlir --lower-affine --canonicalize --cse -o -",
      "return_code": 1,
      "timed_out": false,
      "elapsed_ms": 33,
      "stdout": "",
      "stderr": "outputs\\real_msys2_focus_seeds\\seeds_issue_repros_llvm_61085_tosa_linalg_affine_assert.mlir:18:10: error: custom op 'linalg.init_tensor' is unknown\n    %3 = linalg.init_tensor [1, 4, 1, 1] : tensor<1x4x1x1xi32>\n         ^\n",
      "stdout_path": "outputs\\real_msys2_focus\\artifacts\\seeds_issue_repros_llvm_61085_tosa_linalg_affine_assert__affine_lowering_stress.stdout.mlir",
      "stderr_path": "outputs\\real_msys2_focus\\artifacts\\seeds_issue_repros_llvm_61085_tosa_linalg_affine_assert__affine_lowering_stress.stderr.txt",
      "category": "unknown failure"
    },
    {
      "seed": "seeds\\seeds_issue_repros_llvm_61085_tosa_linalg_affine_assert.mlir",
      "pipeline": "scf_to_cf_stress",
      "command": "%MLIRSHIELD_MLIR_OPT% outputs\\real_msys2_focus_seeds\\seeds_issue_repros_llvm_61085_tosa_linalg_affine_assert.mlir --convert-scf-to-cf --canonicalize --cse -o -",
      "return_code": 1,
      "timed_out": false,
      "elapsed_ms": 33,
      "stdout": "",
      "stderr": "outputs\\real_msys2_focus_seeds\\seeds_issue_repros_llvm_61085_tosa_linalg_affine_assert.mlir:18:10: error: custom op 'linalg.init_tensor' is unknown\n    %3 = linalg.init_tensor [1, 4, 1, 1] : tensor<1x4x1x1xi32>\n         ^\n",
      "stdout_path": "outputs\\real_msys2_focus\\artifacts\\seeds_issue_repros_llvm_61085_tosa_linalg_affine_assert__scf_to_cf_stress.stdout.mlir",
      "stderr_path": "outputs\\real_msys2_focus\\artifacts\\seeds_issue_repros_llvm_61085_tosa_linalg_affine_assert__scf_to_cf_stress.stderr.txt",
      "category": "unknown failure"
    },
    {
      "seed": "seeds\\seeds_issue_repros_llvm_61085_tosa_linalg_affine_assert.mlir",
      "pipeline": "vector_lowering_stress",
      "command": "%MLIRSHIELD_MLIR_OPT% outputs\\real_msys2_focus_seeds\\seeds_issue_repros_llvm_61085_tosa_linalg_affine_assert.mlir --convert-vector-to-scf --convert-vector-to-llvm --canonicalize -o -",
      "return_code": 1,
      "timed_out": false,
      "elapsed_ms": 32,
      "stdout": "",
      "stderr": "outputs\\real_msys2_focus_seeds\\seeds_issue_repros_llvm_61085_tosa_linalg_affine_assert.mlir:18:10: error: custom op 'linalg.init_tensor' is unknown\n    %3 = linalg.init_tensor [1, 4, 1, 1] : tensor<1x4x1x1xi32>\n         ^\n",
      "stdout_path": "outputs\\real_msys2_focus\\artifacts\\seeds_issue_repros_llvm_61085_tosa_linalg_affine_assert__vector_lowering_stress.stdout.mlir",
      "stderr_path": "outputs\\real_msys2_focus\\artifacts\\seeds_issue_repros_llvm_61085_tosa_linalg_affine_assert__vector_lowering_stress.stderr.txt",
      "category": "unknown failure"
    },
    {
      "seed": "seeds\\seeds_issue_repros_llvm_61085_tosa_linalg_affine_assert.mlir",
      "pipeline": "bufferization_probe",
      "command": "%MLIRSHIELD_MLIR_OPT% outputs\\real_msys2_focus_seeds\\seeds_issue_repros_llvm_61085_tosa_linalg_affine_assert.mlir --one-shot-bufferize --canonicalize -o -",
      "return_code": 1,
      "timed_out": false,
      "elapsed_ms": 31,
      "stdout": "",
      "stderr": "outputs\\real_msys2_focus_seeds\\seeds_issue_repros_llvm_61085_tosa_linalg_affine_assert.mlir:18:10: error: custom op 'linalg.init_tensor' is unknown\n    %3 = linalg.init_tensor [1, 4, 1, 1] : tensor<1x4x1x1xi32>\n         ^\n",
      "stdout_path": "outputs\\real_msys2_focus\\artifacts\\seeds_issue_repros_llvm_61085_tosa_linalg_affine_assert__bufferization_probe.stdout.mlir",
      "stderr_path": "outputs\\real_msys2_focus\\artifacts\\seeds_issue_repros_llvm_61085_tosa_linalg_affine_assert__bufferization_probe.stderr.txt",
      "category": "unknown failure"
    },
    {
      "seed": "seeds\\seeds_issue_repros_llvm_61085_tosa_linalg_affine_assert.mlir",
      "pipeline": "linalg_affine_probe",
      "command": "%MLIRSHIELD_MLIR_OPT% outputs\\real_msys2_focus_seeds\\seeds_issue_repros_llvm_61085_tosa_linalg_affine_assert.mlir --convert-linalg-to-affine-loops --canonicalize -o -",
      "return_code": 1,
      "timed_out": false,
      "elapsed_ms": 32,
      "stdout": "",
      "stderr": "outputs\\real_msys2_focus_seeds\\seeds_issue_repros_llvm_61085_tosa_linalg_affine_assert.mlir:18:10: error: custom op 'linalg.init_tensor' is unknown\n    %3 = linalg.init_tensor [1, 4, 1, 1] : tensor<1x4x1x1xi32>\n         ^\n",
      "stdout_path": "outputs\\real_msys2_focus\\artifacts\\seeds_issue_repros_llvm_61085_tosa_linalg_affine_assert__linalg_affine_probe.stdout.mlir",
      "stderr_path": "outputs\\real_msys2_focus\\artifacts\\seeds_issue_repros_llvm_61085_tosa_linalg_affine_assert__linalg_affine_probe.stderr.txt",
      "category": "unknown failure"
    },
    {
      "seed": "seeds\\seeds_issue_repros_llvm_61085_tosa_linalg_affine_assert.mlir",
      "pipeline": "gpu_parallel_probe",
      "command": "%MLIRSHIELD_MLIR_OPT% outputs\\real_msys2_focus_seeds\\seeds_issue_repros_llvm_61085_tosa_linalg_affine_assert.mlir --convert-parallel-loops-to-gpu --canonicalize -o -",
      "return_code": 1,
      "timed_out": false,
      "elapsed_ms": 32,
      "stdout": "",
      "stderr": "outputs\\real_msys2_focus_seeds\\seeds_issue_repros_llvm_61085_tosa_linalg_affine_assert.mlir:18:10: error: custom op 'linalg.init_tensor' is unknown\n    %3 = linalg.init_tensor [1, 4, 1, 1] : tensor<1x4x1x1xi32>\n         ^\n",
      "stdout_path": "outputs\\real_msys2_focus\\artifacts\\seeds_issue_repros_llvm_61085_tosa_linalg_affine_assert__gpu_parallel_probe.stdout.mlir",
      "stderr_path": "outputs\\real_msys2_focus\\artifacts\\seeds_issue_repros_llvm_61085_tosa_linalg_affine_assert__gpu_parallel_probe.stderr.txt",
      "category": "unknown failure"
    },
    {
      "seed": "seeds\\seeds_issue_repros_llvm_75811_scf_parallel_to_gpu_destroyed_use.mlir",
      "pipeline": "parse_verify",
      "command": "%MLIRSHIELD_MLIR_OPT% outputs\\real_msys2_focus_seeds\\seeds_issue_repros_llvm_75811_scf_parallel_to_gpu_destroyed_use.mlir  -o -",
      "return_code": 1,
      "timed_out": false,
      "elapsed_ms": 33,
      "stdout": "",
      "stderr": "outputs\\real_msys2_focus_seeds\\seeds_issue_repros_llvm_75811_scf_parallel_to_gpu_destroyed_use.mlir:12:5: error: 'scf.parallel' op expects body to terminate with 'scf.reduce'\n    scf.parallel (%arg0) = (%c0_6) to (%c1) step (%c1_7) {\n    ^\noutputs\\real_msys2_focus_seeds\\seeds_issue_repros_llvm_75811_scf_parallel_to_gpu_destroyed_use.mlir:12:5: note: see current operation: \n\"scf.parallel\"(%3, %4, %5) <{operandSegmentSizes = array<i32: 1, 1, 1, 0>}> ({\n^bb0(%arg0: index):\n  %6 = \"arith.constant\"() <{value = 0 : index}> : () -> index\n  %7 = \"arith.constant\"() <{value = 1 : index}> : () -> index\n  %8 = \"arith.constant\"() <{value = 1 : index}> : () -> index\n  \"scf.parallel\"(%6, %7, %8) <{operandSegmentSizes = array<i32: 1, 1, 1, 0>}> ({\n  ^bb0(%arg1: index):\n    %9 = \"memref.load\"(%2, %arg0, %arg1) : (memref<1x1xf64>, index, index) -> f64\n    %10 = \"memref.load\"(%1, %arg0, %arg1) : (memref<1x1xf64>, index, index) -> f64\n    %11 = \"arith.addf\"(%9, %10) <{fastmath = #arith.fastmath<none>}> : (f64, f64) -> f64\n    \"memref.store\"(%11, %0, %arg0, %arg1) : (f64, memref<1x1xf64>, index, index) -> ()\n    \"scf.yield\"() : () -> ()\n  }) {mapping = [#gpu.loop_dim_map<processor = thread_x, map = (d0) -> (d0), bound = (d0) -> (d0)>]} : (index, index, index) -> ()\n  \"scf.yield\"() : () -> ()\n}) {mapping = [#gpu.loop_dim_map<processor = block_x, map = (d0) -> (d0), bound = (d0) -> (d0)>]} : (index, index, index) -> ()\noutputs\\real_msys2_focus_seeds\\seeds_issue_repros_llvm_75811_scf_parallel_to_gpu_destroyed_use.mlir:23:7: note: terminator here\n      scf.yield\n      ^\n",
      "stdout_path": "outputs\\real_msys2_focus\\artifacts\\seeds_issue_repros_llvm_75811_scf_parallel_to_gpu_destroyed_use__parse_verify.stdout.mlir",
      "stderr_path": "outputs\\real_msys2_focus\\artifacts\\seeds_issue_repros_llvm_75811_scf_parallel_to_gpu_destroyed_use__parse_verify.stderr.txt",
      "category": "unknown failure"
    },
    {
      "seed": "seeds\\seeds_issue_repros_llvm_75811_scf_parallel_to_gpu_destroyed_use.mlir",
      "pipeline": "canonicalize_cse_sccp",
      "command": "%MLIRSHIELD_MLIR_OPT% outputs\\real_msys2_focus_seeds\\seeds_issue_repros_llvm_75811_scf_parallel_to_gpu_destroyed_use.mlir --canonicalize --cse --sccp --canonicalize -o -",
      "return_code": 1,
      "timed_out": false,
      "elapsed_ms": 31,
      "stdout": "",
      "stderr": "outputs\\real_msys2_focus_seeds\\seeds_issue_repros_llvm_75811_scf_parallel_to_gpu_destroyed_use.mlir:12:5: error: 'scf.parallel' op expects body to terminate with 'scf.reduce'\n    scf.parallel (%arg0) = (%c0_6) to (%c1) step (%c1_7) {\n    ^\noutputs\\real_msys2_focus_seeds\\seeds_issue_repros_llvm_75811_scf_parallel_to_gpu_destroyed_use.mlir:12:5: note: see current operation: \n\"scf.parallel\"(%3, %4, %5) <{operandSegmentSizes = array<i32: 1, 1, 1, 0>}> ({\n^bb0(%arg0: index):\n  %6 = \"arith.constant\"() <{value = 0 : index}> : () -> index\n  %7 = \"arith.constant\"() <{value = 1 : index}> : () -> index\n  %8 = \"arith.constant\"() <{value = 1 : index}> : () -> index\n  \"scf.parallel\"(%6, %7, %8) <{operandSegmentSizes = array<i32: 1, 1, 1, 0>}> ({\n  ^bb0(%arg1: index):\n    %9 = \"memref.load\"(%2, %arg0, %arg1) : (memref<1x1xf64>, index, index) -> f64\n    %10 = \"memref.load\"(%1, %arg0, %arg1) : (memref<1x1xf64>, index, index) -> f64\n    %11 = \"arith.addf\"(%9, %10) <{fastmath = #arith.fastmath<none>}> : (f64, f64) -> f64\n    \"memref.store\"(%11, %0, %arg0, %arg1) : (f64, memref<1x1xf64>, index, index) -> ()\n    \"scf.yield\"() : () -> ()\n  }) {mapping = [#gpu.loop_dim_map<processor = thread_x, map = (d0) -> (d0), bound = (d0) -> (d0)>]} : (index, index, index) -> ()\n  \"scf.yield\"() : () -> ()\n}) {mapping = [#gpu.loop_dim_map<processor = block_x, map = (d0) -> (d0), bound = (d0) -> (d0)>]} : (index, index, index) -> ()\noutputs\\real_msys2_focus_seeds\\seeds_issue_repros_llvm_75811_scf_parallel_to_gpu_destroyed_use.mlir:23:7: note: terminator here\n      scf.yield\n      ^\n",
      "stdout_path": "outputs\\real_msys2_focus\\artifacts\\seeds_issue_repros_llvm_75811_scf_parallel_to_gpu_destroyed_use__canonicalize_cse_sccp.stdout.mlir",
      "stderr_path": "outputs\\real_msys2_focus\\artifacts\\seeds_issue_repros_llvm_75811_scf_parallel_to_gpu_destroyed_use__canonicalize_cse_sccp.stderr.txt",
      "category": "unknown failure"
    },
    {
      "seed": "seeds\\seeds_issue_repros_llvm_75811_scf_parallel_to_gpu_destroyed_use.mlir",
      "pipeline": "symbol_dce_inliner_canonicalize",
      "command": "%MLIRSHIELD_MLIR_OPT% outputs\\real_msys2_focus_seeds\\seeds_issue_repros_llvm_75811_scf_parallel_to_gpu_destroyed_use.mlir --symbol-dce --inline --canonicalize --cse -o -",
      "return_code": 1,
      "timed_out": false,
      "elapsed_ms": 30,
      "stdout": "",
      "stderr": "outputs\\real_msys2_focus_seeds\\seeds_issue_repros_llvm_75811_scf_parallel_to_gpu_destroyed_use.mlir:12:5: error: 'scf.parallel' op expects body to terminate with 'scf.reduce'\n    scf.parallel (%arg0) = (%c0_6) to (%c1) step (%c1_7) {\n    ^\noutputs\\real_msys2_focus_seeds\\seeds_issue_repros_llvm_75811_scf_parallel_to_gpu_destroyed_use.mlir:12:5: note: see current operation: \n\"scf.parallel\"(%3, %4, %5) <{operandSegmentSizes = array<i32: 1, 1, 1, 0>}> ({\n^bb0(%arg0: index):\n  %6 = \"arith.constant\"() <{value = 0 : index}> : () -> index\n  %7 = \"arith.constant\"() <{value = 1 : index}> : () -> index\n  %8 = \"arith.constant\"() <{value = 1 : index}> : () -> index\n  \"scf.parallel\"(%6, %7, %8) <{operandSegmentSizes = array<i32: 1, 1, 1, 0>}> ({\n  ^bb0(%arg1: index):\n    %9 = \"memref.load\"(%2, %arg0, %arg1) : (memref<1x1xf64>, index, index) -> f64\n    %10 = \"memref.load\"(%1, %arg0, %arg1) : (memref<1x1xf64>, index, index) -> f64\n    %11 = \"arith.addf\"(%9, %10) <{fastmath = #arith.fastmath<none>}> : (f64, f64) -> f64\n    \"memref.store\"(%11, %0, %arg0, %arg1) : (f64, memref<1x1xf64>, index, index) -> ()\n    \"scf.yield\"() : () -> ()\n  }) {mapping = [#gpu.loop_dim_map<processor = thread_x, map = (d0) -> (d0), bound = (d0) -> (d0)>]} : (index, index, index) -> ()\n  \"scf.yield\"() : () -> ()\n}) {mapping = [#gpu.loop_dim_map<processor = block_x, map = (d0) -> (d0), bound = (d0) -> (d0)>]} : (index, index, index) -> ()\noutputs\\real_msys2_focus_seeds\\seeds_issue_repros_llvm_75811_scf_parallel_to_gpu_destroyed_use.mlir:23:7: note: terminator here\n      scf.yield\n      ^\n",
      "stdout_path": "outputs\\real_msys2_focus\\artifacts\\seeds_issue_repros_llvm_75811_scf_parallel_to_gpu_destroyed_use__symbol_dce_inliner_canonicalize.stdout.mlir",
      "stderr_path": "outputs\\real_msys2_focus\\artifacts\\seeds_issue_repros_llvm_75811_scf_parallel_to_gpu_destroyed_use__symbol_dce_inliner_canonicalize.stderr.txt",
      "category": "unknown failure"
    },
    {
      "seed": "seeds\\seeds_issue_repros_llvm_75811_scf_parallel_to_gpu_destroyed_use.mlir",
      "pipeline": "affine_lowering_stress",
      "command": "%MLIRSHIELD_MLIR_OPT% outputs\\real_msys2_focus_seeds\\seeds_issue_repros_llvm_75811_scf_parallel_to_gpu_destroyed_use.mlir --lower-affine --canonicalize --cse -o -",
      "return_code": 1,
      "timed_out": false,
      "elapsed_ms": 30,
      "stdout": "",
      "stderr": "outputs\\real_msys2_focus_seeds\\seeds_issue_repros_llvm_75811_scf_parallel_to_gpu_destroyed_use.mlir:12:5: error: 'scf.parallel' op expects body to terminate with 'scf.reduce'\n    scf.parallel (%arg0) = (%c0_6) to (%c1) step (%c1_7) {\n    ^\noutputs\\real_msys2_focus_seeds\\seeds_issue_repros_llvm_75811_scf_parallel_to_gpu_destroyed_use.mlir:12:5: note: see current operation: \n\"scf.parallel\"(%3, %4, %5) <{operandSegmentSizes = array<i32: 1, 1, 1, 0>}> ({\n^bb0(%arg0: index):\n  %6 = \"arith.constant\"() <{value = 0 : index}> : () -> index\n  %7 = \"arith.constant\"() <{value = 1 : index}> : () -> index\n  %8 = \"arith.constant\"() <{value = 1 : index}> : () -> index\n  \"scf.parallel\"(%6, %7, %8) <{operandSegmentSizes = array<i32: 1, 1, 1, 0>}> ({\n  ^bb0(%arg1: index):\n    %9 = \"memref.load\"(%2, %arg0, %arg1) : (memref<1x1xf64>, index, index) -> f64\n    %10 = \"memref.load\"(%1, %arg0, %arg1) : (memref<1x1xf64>, index, index) -> f64\n    %11 = \"arith.addf\"(%9, %10) <{fastmath = #arith.fastmath<none>}> : (f64, f64) -> f64\n    \"memref.store\"(%11, %0, %arg0, %arg1) : (f64, memref<1x1xf64>, index, index) -> ()\n    \"scf.yield\"() : () -> ()\n  }) {mapping = [#gpu.loop_dim_map<processor = thread_x, map = (d0) -> (d0), bound = (d0) -> (d0)>]} : (index, index, index) -> ()\n  \"scf.yield\"() : () -> ()\n}) {mapping = [#gpu.loop_dim_map<processor = block_x, map = (d0) -> (d0), bound = (d0) -> (d0)>]} : (index, index, index) -> ()\noutputs\\real_msys2_focus_seeds\\seeds_issue_repros_llvm_75811_scf_parallel_to_gpu_destroyed_use.mlir:23:7: note: terminator here\n      scf.yield\n      ^\n",
      "stdout_path": "outputs\\real_msys2_focus\\artifacts\\seeds_issue_repros_llvm_75811_scf_parallel_to_gpu_destroyed_use__affine_lowering_stress.stdout.mlir",
      "stderr_path": "outputs\\real_msys2_focus\\artifacts\\seeds_issue_repros_llvm_75811_scf_parallel_to_gpu_destroyed_use__affine_lowering_stress.stderr.txt",
      "category": "unknown failure"
    },
    {
      "seed": "seeds\\seeds_issue_repros_llvm_75811_scf_parallel_to_gpu_destroyed_use.mlir",
      "pipeline": "scf_to_cf_stress",
      "command": "%MLIRSHIELD_MLIR_OPT% outputs\\real_msys2_focus_seeds\\seeds_issue_repros_llvm_75811_scf_parallel_to_gpu_destroyed_use.mlir --convert-scf-to-cf --canonicalize --cse -o -",
      "return_code": 1,
      "timed_out": false,
      "elapsed_ms": 31,
      "stdout": "",
      "stderr": "outputs\\real_msys2_focus_seeds\\seeds_issue_repros_llvm_75811_scf_parallel_to_gpu_destroyed_use.mlir:12:5: error: 'scf.parallel' op expects body to terminate with 'scf.reduce'\n    scf.parallel (%arg0) = (%c0_6) to (%c1) step (%c1_7) {\n    ^\noutputs\\real_msys2_focus_seeds\\seeds_issue_repros_llvm_75811_scf_parallel_to_gpu_destroyed_use.mlir:12:5: note: see current operation: \n\"scf.parallel\"(%3, %4, %5) <{operandSegmentSizes = array<i32: 1, 1, 1, 0>}> ({\n^bb0(%arg0: index):\n  %6 = \"arith.constant\"() <{value = 0 : index}> : () -> index\n  %7 = \"arith.constant\"() <{value = 1 : index}> : () -> index\n  %8 = \"arith.constant\"() <{value = 1 : index}> : () -> index\n  \"scf.parallel\"(%6, %7, %8) <{operandSegmentSizes = array<i32: 1, 1, 1, 0>}> ({\n  ^bb0(%arg1: index):\n    %9 = \"memref.load\"(%2, %arg0, %arg1) : (memref<1x1xf64>, index, index) -> f64\n    %10 = \"memref.load\"(%1, %arg0, %arg1) : (memref<1x1xf64>, index, index) -> f64\n    %11 = \"arith.addf\"(%9, %10) <{fastmath = #arith.fastmath<none>}> : (f64, f64) -> f64\n    \"memref.store\"(%11, %0, %arg0, %arg1) : (f64, memref<1x1xf64>, index, index) -> ()\n    \"scf.yield\"() : () -> ()\n  }) {mapping = [#gpu.loop_dim_map<processor = thread_x, map = (d0) -> (d0), bound = (d0) -> (d0)>]} : (index, index, index) -> ()\n  \"scf.yield\"() : () -> ()\n}) {mapping = [#gpu.loop_dim_map<processor = block_x, map = (d0) -> (d0), bound = (d0) -> (d0)>]} : (index, index, index) -> ()\noutputs\\real_msys2_focus_seeds\\seeds_issue_repros_llvm_75811_scf_parallel_to_gpu_destroyed_use.mlir:23:7: note: terminator here\n      scf.yield\n      ^\n",
      "stdout_path": "outputs\\real_msys2_focus\\artifacts\\seeds_issue_repros_llvm_75811_scf_parallel_to_gpu_destroyed_use__scf_to_cf_stress.stdout.mlir",
      "stderr_path": "outputs\\real_msys2_focus\\artifacts\\seeds_issue_repros_llvm_75811_scf_parallel_to_gpu_destroyed_use__scf_to_cf_stress.stderr.txt",
      "category": "unknown failure"
    },
    {
      "seed": "seeds\\seeds_issue_repros_llvm_75811_scf_parallel_to_gpu_destroyed_use.mlir",
      "pipeline": "vector_lowering_stress",
      "command": "%MLIRSHIELD_MLIR_OPT% outputs\\real_msys2_focus_seeds\\seeds_issue_repros_llvm_75811_scf_parallel_to_gpu_destroyed_use.mlir --convert-vector-to-scf --convert-vector-to-llvm --canonicalize -o -",
      "return_code": 1,
      "timed_out": false,
      "elapsed_ms": 32,
      "stdout": "",
      "stderr": "outputs\\real_msys2_focus_seeds\\seeds_issue_repros_llvm_75811_scf_parallel_to_gpu_destroyed_use.mlir:12:5: error: 'scf.parallel' op expects body to terminate with 'scf.reduce'\n    scf.parallel (%arg0) = (%c0_6) to (%c1) step (%c1_7) {\n    ^\noutputs\\real_msys2_focus_seeds\\seeds_issue_repros_llvm_75811_scf_parallel_to_gpu_destroyed_use.mlir:12:5: note: see current operation: \n\"scf.parallel\"(%3, %4, %5) <{operandSegmentSizes = array<i32: 1, 1, 1, 0>}> ({\n^bb0(%arg0: index):\n  %6 = \"arith.constant\"() <{value = 0 : index}> : () -> index\n  %7 = \"arith.constant\"() <{value = 1 : index}> : () -> index\n  %8 = \"arith.constant\"() <{value = 1 : index}> : () -> index\n  \"scf.parallel\"(%6, %7, %8) <{operandSegmentSizes = array<i32: 1, 1, 1, 0>}> ({\n  ^bb0(%arg1: index):\n    %9 = \"memref.load\"(%2, %arg0, %arg1) : (memref<1x1xf64>, index, index) -> f64\n    %10 = \"memref.load\"(%1, %arg0, %arg1) : (memref<1x1xf64>, index, index) -> f64\n    %11 = \"arith.addf\"(%9, %10) <{fastmath = #arith.fastmath<none>}> : (f64, f64) -> f64\n    \"memref.store\"(%11, %0, %arg0, %arg1) : (f64, memref<1x1xf64>, index, index) -> ()\n    \"scf.yield\"() : () -> ()\n  }) {mapping = [#gpu.loop_dim_map<processor = thread_x, map = (d0) -> (d0), bound = (d0) -> (d0)>]} : (index, index, index) -> ()\n  \"scf.yield\"() : () -> ()\n}) {mapping = [#gpu.loop_dim_map<processor = block_x, map = (d0) -> (d0), bound = (d0) -> (d0)>]} : (index, index, index) -> ()\noutputs\\real_msys2_focus_seeds\\seeds_issue_repros_llvm_75811_scf_parallel_to_gpu_destroyed_use.mlir:23:7: note: terminator here\n      scf.yield\n      ^\n",
      "stdout_path": "outputs\\real_msys2_focus\\artifacts\\seeds_issue_repros_llvm_75811_scf_parallel_to_gpu_destroyed_use__vector_lowering_stress.stdout.mlir",
      "stderr_path": "outputs\\real_msys2_focus\\artifacts\\seeds_issue_repros_llvm_75811_scf_parallel_to_gpu_destroyed_use__vector_lowering_stress.stderr.txt",
      "category": "unknown failure"
    },
    {
      "seed": "seeds\\seeds_issue_repros_llvm_75811_scf_parallel_to_gpu_destroyed_use.mlir",
      "pipeline": "bufferization_probe",
      "command": "%MLIRSHIELD_MLIR_OPT% outputs\\real_msys2_focus_seeds\\seeds_issue_repros_llvm_75811_scf_parallel_to_gpu_destroyed_use.mlir --one-shot-bufferize --canonicalize -o -",
      "return_code": 1,
      "timed_out": false,
      "elapsed_ms": 30,
      "stdout": "",
      "stderr": "outputs\\real_msys2_focus_seeds\\seeds_issue_repros_llvm_75811_scf_parallel_to_gpu_destroyed_use.mlir:12:5: error: 'scf.parallel' op expects body to terminate with 'scf.reduce'\n    scf.parallel (%arg0) = (%c0_6) to (%c1) step (%c1_7) {\n    ^\noutputs\\real_msys2_focus_seeds\\seeds_issue_repros_llvm_75811_scf_parallel_to_gpu_destroyed_use.mlir:12:5: note: see current operation: \n\"scf.parallel\"(%3, %4, %5) <{operandSegmentSizes = array<i32: 1, 1, 1, 0>}> ({\n^bb0(%arg0: index):\n  %6 = \"arith.constant\"() <{value = 0 : index}> : () -> index\n  %7 = \"arith.constant\"() <{value = 1 : index}> : () -> index\n  %8 = \"arith.constant\"() <{value = 1 : index}> : () -> index\n  \"scf.parallel\"(%6, %7, %8) <{operandSegmentSizes = array<i32: 1, 1, 1, 0>}> ({\n  ^bb0(%arg1: index):\n    %9 = \"memref.load\"(%2, %arg0, %arg1) : (memref<1x1xf64>, index, index) -> f64\n    %10 = \"memref.load\"(%1, %arg0, %arg1) : (memref<1x1xf64>, index, index) -> f64\n    %11 = \"arith.addf\"(%9, %10) <{fastmath = #arith.fastmath<none>}> : (f64, f64) -> f64\n    \"memref.store\"(%11, %0, %arg0, %arg1) : (f64, memref<1x1xf64>, index, index) -> ()\n    \"scf.yield\"() : () -> ()\n  }) {mapping = [#gpu.loop_dim_map<processor = thread_x, map = (d0) -> (d0), bound = (d0) -> (d0)>]} : (index, index, index) -> ()\n  \"scf.yield\"() : () -> ()\n}) {mapping = [#gpu.loop_dim_map<processor = block_x, map = (d0) -> (d0), bound = (d0) -> (d0)>]} : (index, index, index) -> ()\noutputs\\real_msys2_focus_seeds\\seeds_issue_repros_llvm_75811_scf_parallel_to_gpu_destroyed_use.mlir:23:7: note: terminator here\n      scf.yield\n      ^\n",
      "stdout_path": "outputs\\real_msys2_focus\\artifacts\\seeds_issue_repros_llvm_75811_scf_parallel_to_gpu_destroyed_use__bufferization_probe.stdout.mlir",
      "stderr_path": "outputs\\real_msys2_focus\\artifacts\\seeds_issue_repros_llvm_75811_scf_parallel_to_gpu_destroyed_use__bufferization_probe.stderr.txt",
      "category": "unknown failure"
    },
    {
      "seed": "seeds\\seeds_issue_repros_llvm_75811_scf_parallel_to_gpu_destroyed_use.mlir",
      "pipeline": "linalg_affine_probe",
      "command": "%MLIRSHIELD_MLIR_OPT% outputs\\real_msys2_focus_seeds\\seeds_issue_repros_llvm_75811_scf_parallel_to_gpu_destroyed_use.mlir --convert-linalg-to-affine-loops --canonicalize -o -",
      "return_code": 1,
      "timed_out": false,
      "elapsed_ms": 36,
      "stdout": "",
      "stderr": "outputs\\real_msys2_focus_seeds\\seeds_issue_repros_llvm_75811_scf_parallel_to_gpu_destroyed_use.mlir:12:5: error: 'scf.parallel' op expects body to terminate with 'scf.reduce'\n    scf.parallel (%arg0) = (%c0_6) to (%c1) step (%c1_7) {\n    ^\noutputs\\real_msys2_focus_seeds\\seeds_issue_repros_llvm_75811_scf_parallel_to_gpu_destroyed_use.mlir:12:5: note: see current operation: \n\"scf.parallel\"(%3, %4, %5) <{operandSegmentSizes = array<i32: 1, 1, 1, 0>}> ({\n^bb0(%arg0: index):\n  %6 = \"arith.constant\"() <{value = 0 : index}> : () -> index\n  %7 = \"arith.constant\"() <{value = 1 : index}> : () -> index\n  %8 = \"arith.constant\"() <{value = 1 : index}> : () -> index\n  \"scf.parallel\"(%6, %7, %8) <{operandSegmentSizes = array<i32: 1, 1, 1, 0>}> ({\n  ^bb0(%arg1: index):\n    %9 = \"memref.load\"(%2, %arg0, %arg1) : (memref<1x1xf64>, index, index) -> f64\n    %10 = \"memref.load\"(%1, %arg0, %arg1) : (memref<1x1xf64>, index, index) -> f64\n    %11 = \"arith.addf\"(%9, %10) <{fastmath = #arith.fastmath<none>}> : (f64, f64) -> f64\n    \"memref.store\"(%11, %0, %arg0, %arg1) : (f64, memref<1x1xf64>, index, index) -> ()\n    \"scf.yield\"() : () -> ()\n  }) {mapping = [#gpu.loop_dim_map<processor = thread_x, map = (d0) -> (d0), bound = (d0) -> (d0)>]} : (index, index, index) -> ()\n  \"scf.yield\"() : () -> ()\n}) {mapping = [#gpu.loop_dim_map<processor = block_x, map = (d0) -> (d0), bound = (d0) -> (d0)>]} : (index, index, index) -> ()\noutputs\\real_msys2_focus_seeds\\seeds_issue_repros_llvm_75811_scf_parallel_to_gpu_destroyed_use.mlir:23:7: note: terminator here\n      scf.yield\n      ^\n",
      "stdout_path": "outputs\\real_msys2_focus\\artifacts\\seeds_issue_repros_llvm_75811_scf_parallel_to_gpu_destroyed_use__linalg_affine_probe.stdout.mlir",
      "stderr_path": "outputs\\real_msys2_focus\\artifacts\\seeds_issue_repros_llvm_75811_scf_parallel_to_gpu_destroyed_use__linalg_affine_probe.stderr.txt",
      "category": "unknown failure"
    },
    {
      "seed": "seeds\\seeds_issue_repros_llvm_75811_scf_parallel_to_gpu_destroyed_use.mlir",
      "pipeline": "gpu_parallel_probe",
      "command": "%MLIRSHIELD_MLIR_OPT% outputs\\real_msys2_focus_seeds\\seeds_issue_repros_llvm_75811_scf_parallel_to_gpu_destroyed_use.mlir --convert-parallel-loops-to-gpu --canonicalize -o -",
      "return_code": 1,
      "timed_out": false,
      "elapsed_ms": 31,
      "stdout": "",
      "stderr": "outputs\\real_msys2_focus_seeds\\seeds_issue_repros_llvm_75811_scf_parallel_to_gpu_destroyed_use.mlir:12:5: error: 'scf.parallel' op expects body to terminate with 'scf.reduce'\n    scf.parallel (%arg0) = (%c0_6) to (%c1) step (%c1_7) {\n    ^\noutputs\\real_msys2_focus_seeds\\seeds_issue_repros_llvm_75811_scf_parallel_to_gpu_destroyed_use.mlir:12:5: note: see current operation: \n\"scf.parallel\"(%3, %4, %5) <{operandSegmentSizes = array<i32: 1, 1, 1, 0>}> ({\n^bb0(%arg0: index):\n  %6 = \"arith.constant\"() <{value = 0 : index}> : () -> index\n  %7 = \"arith.constant\"() <{value = 1 : index}> : () -> index\n  %8 = \"arith.constant\"() <{value = 1 : index}> : () -> index\n  \"scf.parallel\"(%6, %7, %8) <{operandSegmentSizes = array<i32: 1, 1, 1, 0>}> ({\n  ^bb0(%arg1: index):\n    %9 = \"memref.load\"(%2, %arg0, %arg1) : (memref<1x1xf64>, index, index) -> f64\n    %10 = \"memref.load\"(%1, %arg0, %arg1) : (memref<1x1xf64>, index, index) -> f64\n    %11 = \"arith.addf\"(%9, %10) <{fastmath = #arith.fastmath<none>}> : (f64, f64) -> f64\n    \"memref.store\"(%11, %0, %arg0, %arg1) : (f64, memref<1x1xf64>, index, index) -> ()\n    \"scf.yield\"() : () -> ()\n  }) {mapping = [#gpu.loop_dim_map<processor = thread_x, map = (d0) -> (d0), bound = (d0) -> (d0)>]} : (index, index, index) -> ()\n  \"scf.yield\"() : () -> ()\n}) {mapping = [#gpu.loop_dim_map<processor = block_x, map = (d0) -> (d0), bound = (d0) -> (d0)>]} : (index, index, index) -> ()\noutputs\\real_msys2_focus_seeds\\seeds_issue_repros_llvm_75811_scf_parallel_to_gpu_destroyed_use.mlir:23:7: note: terminator here\n      scf.yield\n      ^\n",
      "stdout_path": "outputs\\real_msys2_focus\\artifacts\\seeds_issue_repros_llvm_75811_scf_parallel_to_gpu_destroyed_use__gpu_parallel_probe.stdout.mlir",
      "stderr_path": "outputs\\real_msys2_focus\\artifacts\\seeds_issue_repros_llvm_75811_scf_parallel_to_gpu_destroyed_use__gpu_parallel_probe.stderr.txt",
      "category": "unknown failure"
    },
    {
      "seed": "seeds\\seeds_issue_repros_llvm_82382_linalg_parallel_loops_to_gpu_crash.mlir",
      "pipeline": "parse_verify",
      "command": "%MLIRSHIELD_MLIR_OPT% outputs\\real_msys2_focus_seeds\\seeds_issue_repros_llvm_82382_linalg_parallel_loops_to_gpu_crash.mlir  -o -",
      "return_code": 0,
      "timed_out": false,
      "elapsed_ms": 33,
      "stdout": "module {\n  func.func @main() {\n    %alloc = memref.alloc() : memref<16x230x230x3xf32>\n    %alloc_0 = memref.alloc() : memref<64x7x7x3xf32>\n    %alloc_1 = memref.alloc() : memref<16x112x112x64xf32>\n    linalg.conv_2d_nhwc_fhwc {dilations = dense<1> : tensor<2xi64>, strides = dense<2> : tensor<2xi64>} ins(%alloc, %alloc_0 : memref<16x230x230x3xf32>, memref<64x7x7x3xf32>) outs(%alloc_1 : memref<16x112x112x64xf32>)\n    return\n  }\n}\n\n",
      "stderr": "",
      "stdout_path": "outputs\\real_msys2_focus\\artifacts\\seeds_issue_repros_llvm_82382_linalg_parallel_loops_to_gpu_crash__parse_verify.stdout.mlir",
      "stderr_path": "outputs\\real_msys2_focus\\artifacts\\seeds_issue_repros_llvm_82382_linalg_parallel_loops_to_gpu_crash__parse_verify.stderr.txt",
      "category": "success"
    },
    {
      "seed": "seeds\\seeds_issue_repros_llvm_82382_linalg_parallel_loops_to_gpu_crash.mlir",
      "pipeline": "canonicalize_cse_sccp",
      "command": "%MLIRSHIELD_MLIR_OPT% outputs\\real_msys2_focus_seeds\\seeds_issue_repros_llvm_82382_linalg_parallel_loops_to_gpu_crash.mlir --canonicalize --cse --sccp --canonicalize -o -",
      "return_code": 0,
      "timed_out": false,
      "elapsed_ms": 35,
      "stdout": "module {\n  func.func @main() {\n    %alloc = memref.alloc() : memref<16x230x230x3xf32>\n    %alloc_0 = memref.alloc() : memref<64x7x7x3xf32>\n    %alloc_1 = memref.alloc() : memref<16x112x112x64xf32>\n    linalg.conv_2d_nhwc_fhwc {dilations = dense<1> : tensor<2xi64>, strides = dense<2> : tensor<2xi64>} ins(%alloc, %alloc_0 : memref<16x230x230x3xf32>, memref<64x7x7x3xf32>) outs(%alloc_1 : memref<16x112x112x64xf32>)\n    return\n  }\n}\n\n",
      "stderr": "",
      "stdout_path": "outputs\\real_msys2_focus\\artifacts\\seeds_issue_repros_llvm_82382_linalg_parallel_loops_to_gpu_crash__canonicalize_cse_sccp.stdout.mlir",
      "stderr_path": "outputs\\real_msys2_focus\\artifacts\\seeds_issue_repros_llvm_82382_linalg_parallel_loops_to_gpu_crash__canonicalize_cse_sccp.stderr.txt",
      "category": "success"
    },
    {
      "seed": "seeds\\seeds_issue_repros_llvm_82382_linalg_parallel_loops_to_gpu_crash.mlir",
      "pipeline": "symbol_dce_inliner_canonicalize",
      "command": "%MLIRSHIELD_MLIR_OPT% outputs\\real_msys2_focus_seeds\\seeds_issue_repros_llvm_82382_linalg_parallel_loops_to_gpu_crash.mlir --symbol-dce --inline --canonicalize --cse -o -",
      "return_code": 0,
      "timed_out": false,
      "elapsed_ms": 40,
      "stdout": "module {\n  func.func @main() {\n    %alloc = memref.alloc() : memref<16x230x230x3xf32>\n    %alloc_0 = memref.alloc() : memref<64x7x7x3xf32>\n    %alloc_1 = memref.alloc() : memref<16x112x112x64xf32>\n    linalg.conv_2d_nhwc_fhwc {dilations = dense<1> : tensor<2xi64>, strides = dense<2> : tensor<2xi64>} ins(%alloc, %alloc_0 : memref<16x230x230x3xf32>, memref<64x7x7x3xf32>) outs(%alloc_1 : memref<16x112x112x64xf32>)\n    return\n  }\n}\n\n",
      "stderr": "",
      "stdout_path": "outputs\\real_msys2_focus\\artifacts\\seeds_issue_repros_llvm_82382_linalg_parallel_loops_to_gpu_crash__symbol_dce_inliner_canonicalize.stdout.mlir",
      "stderr_path": "outputs\\real_msys2_focus\\artifacts\\seeds_issue_repros_llvm_82382_linalg_parallel_loops_to_gpu_crash__symbol_dce_inliner_canonicalize.stderr.txt",
      "category": "success"
    },
    {
      "seed": "seeds\\seeds_issue_repros_llvm_82382_linalg_parallel_loops_to_gpu_crash.mlir",
      "pipeline": "affine_lowering_stress",
      "command": "%MLIRSHIELD_MLIR_OPT% outputs\\real_msys2_focus_seeds\\seeds_issue_repros_llvm_82382_linalg_parallel_loops_to_gpu_crash.mlir --lower-affine --canonicalize --cse -o -",
      "return_code": 0,
      "timed_out": false,
      "elapsed_ms": 33,
      "stdout": "module {\n  func.func @main() {\n    %alloc = memref.alloc() : memref<16x230x230x3xf32>\n    %alloc_0 = memref.alloc() : memref<64x7x7x3xf32>\n    %alloc_1 = memref.alloc() : memref<16x112x112x64xf32>\n    linalg.conv_2d_nhwc_fhwc {dilations = dense<1> : tensor<2xi64>, strides = dense<2> : tensor<2xi64>} ins(%alloc, %alloc_0 : memref<16x230x230x3xf32>, memref<64x7x7x3xf32>) outs(%alloc_1 : memref<16x112x112x64xf32>)\n    return\n  }\n}\n\n",
      "stderr": "",
      "stdout_path": "outputs\\real_msys2_focus\\artifacts\\seeds_issue_repros_llvm_82382_linalg_parallel_loops_to_gpu_crash__affine_lowering_stress.stdout.mlir",
      "stderr_path": "outputs\\real_msys2_focus\\artifacts\\seeds_issue_repros_llvm_82382_linalg_parallel_loops_to_gpu_crash__affine_lowering_stress.stderr.txt",
      "category": "success"
    },
    {
      "seed": "seeds\\seeds_issue_repros_llvm_82382_linalg_parallel_loops_to_gpu_crash.mlir",
      "pipeline": "scf_to_cf_stress",
      "command": "%MLIRSHIELD_MLIR_OPT% outputs\\real_msys2_focus_seeds\\seeds_issue_repros_llvm_82382_linalg_parallel_loops_to_gpu_crash.mlir --convert-scf-to-cf --canonicalize --cse -o -",
      "return_code": 0,
      "timed_out": false,
      "elapsed_ms": 35,
      "stdout": "module {\n  func.func @main() {\n    %alloc = memref.alloc() : memref<16x230x230x3xf32>\n    %alloc_0 = memref.alloc() : memref<64x7x7x3xf32>\n    %alloc_1 = memref.alloc() : memref<16x112x112x64xf32>\n    linalg.conv_2d_nhwc_fhwc {dilations = dense<1> : tensor<2xi64>, strides = dense<2> : tensor<2xi64>} ins(%alloc, %alloc_0 : memref<16x230x230x3xf32>, memref<64x7x7x3xf32>) outs(%alloc_1 : memref<16x112x112x64xf32>)\n    return\n  }\n}\n\n",
      "stderr": "",
      "stdout_path": "outputs\\real_msys2_focus\\artifacts\\seeds_issue_repros_llvm_82382_linalg_parallel_loops_to_gpu_crash__scf_to_cf_stress.stdout.mlir",
      "stderr_path": "outputs\\real_msys2_focus\\artifacts\\seeds_issue_repros_llvm_82382_linalg_parallel_loops_to_gpu_crash__scf_to_cf_stress.stderr.txt",
      "category": "success"
    },
    {
      "seed": "seeds\\seeds_issue_repros_llvm_82382_linalg_parallel_loops_to_gpu_crash.mlir",
      "pipeline": "vector_lowering_stress",
      "command": "%MLIRSHIELD_MLIR_OPT% outputs\\real_msys2_focus_seeds\\seeds_issue_repros_llvm_82382_linalg_parallel_loops_to_gpu_crash.mlir --convert-vector-to-scf --convert-vector-to-llvm --canonicalize -o -",
      "return_code": 0,
      "timed_out": false,
      "elapsed_ms": 36,
      "stdout": "module {\n  func.func @main() {\n    %alloc = memref.alloc() : memref<16x230x230x3xf32>\n    %alloc_0 = memref.alloc() : memref<64x7x7x3xf32>\n    %alloc_1 = memref.alloc() : memref<16x112x112x64xf32>\n    linalg.conv_2d_nhwc_fhwc {dilations = dense<1> : tensor<2xi64>, strides = dense<2> : tensor<2xi64>} ins(%alloc, %alloc_0 : memref<16x230x230x3xf32>, memref<64x7x7x3xf32>) outs(%alloc_1 : memref<16x112x112x64xf32>)\n    return\n  }\n}\n\n",
      "stderr": "",
      "stdout_path": "outputs\\real_msys2_focus\\artifacts\\seeds_issue_repros_llvm_82382_linalg_parallel_loops_to_gpu_crash__vector_lowering_stress.stdout.mlir",
      "stderr_path": "outputs\\real_msys2_focus\\artifacts\\seeds_issue_repros_llvm_82382_linalg_parallel_loops_to_gpu_crash__vector_lowering_stress.stderr.txt",
      "category": "success"
    },
    {
      "seed": "seeds\\seeds_issue_repros_llvm_82382_linalg_parallel_loops_to_gpu_crash.mlir",
      "pipeline": "bufferization_probe",
      "command": "%MLIRSHIELD_MLIR_OPT% outputs\\real_msys2_focus_seeds\\seeds_issue_repros_llvm_82382_linalg_parallel_loops_to_gpu_crash.mlir --one-shot-bufferize --canonicalize -o -",
      "return_code": 0,
      "timed_out": false,
      "elapsed_ms": 32,
      "stdout": "module {\n  func.func @main() {\n    %alloc = memref.alloc() : memref<16x230x230x3xf32>\n    %alloc_0 = memref.alloc() : memref<64x7x7x3xf32>\n    %alloc_1 = memref.alloc() : memref<16x112x112x64xf32>\n    linalg.conv_2d_nhwc_fhwc {dilations = dense<1> : tensor<2xi64>, strides = dense<2> : tensor<2xi64>} ins(%alloc, %alloc_0 : memref<16x230x230x3xf32>, memref<64x7x7x3xf32>) outs(%alloc_1 : memref<16x112x112x64xf32>)\n    return\n  }\n}\n\n",
      "stderr": "",
      "stdout_path": "outputs\\real_msys2_focus\\artifacts\\seeds_issue_repros_llvm_82382_linalg_parallel_loops_to_gpu_crash__bufferization_probe.stdout.mlir",
      "stderr_path": "outputs\\real_msys2_focus\\artifacts\\seeds_issue_repros_llvm_82382_linalg_parallel_loops_to_gpu_crash__bufferization_probe.stderr.txt",
      "category": "success"
    },
    {
      "seed": "seeds\\seeds_issue_repros_llvm_82382_linalg_parallel_loops_to_gpu_crash.mlir",
      "pipeline": "linalg_affine_probe",
      "command": "%MLIRSHIELD_MLIR_OPT% outputs\\real_msys2_focus_seeds\\seeds_issue_repros_llvm_82382_linalg_parallel_loops_to_gpu_crash.mlir --convert-linalg-to-affine-loops --canonicalize -o -",
      "return_code": 0,
      "timed_out": false,
      "elapsed_ms": 51,
      "stdout": "module {\n  func.func @main() {\n    %alloc = memref.alloc() : memref<16x230x230x3xf32>\n    %alloc_0 = memref.alloc() : memref<64x7x7x3xf32>\n    %alloc_1 = memref.alloc() : memref<16x112x112x64xf32>\n    affine.for %arg0 = 0 to 16 {\n      affine.for %arg1 = 0 to 112 {\n        affine.for %arg2 = 0 to 112 {\n          affine.for %arg3 = 0 to 64 {\n            affine.for %arg4 = 0 to 7 {\n              affine.for %arg5 = 0 to 7 {\n                affine.for %arg6 = 0 to 3 {\n                  %0 = affine.load %alloc[%arg0, %arg1 * 2 + %arg4, %arg2 * 2 + %arg5, %arg6] : memref<16x230x230x3xf32>\n                  %1 = affine.load %alloc_0[%arg3, %arg4, %arg5, %arg6] : memref<64x7x7x3xf32>\n                  %2 = affine.load %alloc_1[%arg0, %arg1, %arg2, %arg3] : memref<16x112x112x64xf32>\n                  %3 = arith.mulf %0, %1 : f32\n                  %4 = arith.addf %2, %3 : f32\n                  affine.store %4, %alloc_1[%arg0, %arg1, %arg2, %arg3] : memref<16x112x112x64xf32>\n                }\n              }\n            }\n          }\n        }\n      }\n    }\n    return\n  }\n}\n\n",
      "stderr": "",
      "stdout_path": "outputs\\real_msys2_focus\\artifacts\\seeds_issue_repros_llvm_82382_linalg_parallel_loops_to_gpu_crash__linalg_affine_probe.stdout.mlir",
      "stderr_path": "outputs\\real_msys2_focus\\artifacts\\seeds_issue_repros_llvm_82382_linalg_parallel_loops_to_gpu_crash__linalg_affine_probe.stderr.txt",
      "category": "success"
    },
    {
      "seed": "seeds\\seeds_issue_repros_llvm_82382_linalg_parallel_loops_to_gpu_crash.mlir",
      "pipeline": "gpu_parallel_probe",
      "command": "%MLIRSHIELD_MLIR_OPT% outputs\\real_msys2_focus_seeds\\seeds_issue_repros_llvm_82382_linalg_parallel_loops_to_gpu_crash.mlir --convert-parallel-loops-to-gpu --canonicalize -o -",
      "return_code": 0,
      "timed_out": false,
      "elapsed_ms": 33,
      "stdout": "module {\n  func.func @main() {\n    %alloc = memref.alloc() : memref<16x230x230x3xf32>\n    %alloc_0 = memref.alloc() : memref<64x7x7x3xf32>\n    %alloc_1 = memref.alloc() : memref<16x112x112x64xf32>\n    linalg.conv_2d_nhwc_fhwc {dilations = dense<1> : tensor<2xi64>, strides = dense<2> : tensor<2xi64>} ins(%alloc, %alloc_0 : memref<16x230x230x3xf32>, memref<64x7x7x3xf32>) outs(%alloc_1 : memref<16x112x112x64xf32>)\n    return\n  }\n}\n\n",
      "stderr": "",
      "stdout_path": "outputs\\real_msys2_focus\\artifacts\\seeds_issue_repros_llvm_82382_linalg_parallel_loops_to_gpu_crash__gpu_parallel_probe.stdout.mlir",
      "stderr_path": "outputs\\real_msys2_focus\\artifacts\\seeds_issue_repros_llvm_82382_linalg_parallel_loops_to_gpu_crash__gpu_parallel_probe.stderr.txt",
      "category": "success"
    },
    {
      "seed": "seeds\\seeds_original_candidates_orig_001_inliner_nested_region_returned_func.mlir",
      "pipeline": "parse_verify",
      "command": "%MLIRSHIELD_MLIR_OPT% outputs\\real_msys2_focus_seeds\\seeds_original_candidates_orig_001_inliner_nested_region_returned_func.mlir  -o -",
      "return_code": 1,
      "timed_out": false,
      "elapsed_ms": 43,
      "stdout": "",
      "stderr": "outputs\\real_msys2_focus_seeds\\seeds_original_candidates_orig_001_inliner_nested_region_returned_func.mlir:3:10: error: operation being parsed with an unregistered dialect. If this is intended, please use -allow-unregistered-dialect with the MLIR tool used\n    \"a.b\"() ({\n         ^\n",
      "stdout_path": "outputs\\real_msys2_focus\\artifacts\\seeds_original_candidates_orig_001_inliner_nested_region_returned_func__parse_verify.stdout.mlir",
      "stderr_path": "outputs\\real_msys2_focus\\artifacts\\seeds_original_candidates_orig_001_inliner_nested_region_returned_func__parse_verify.stderr.txt",
      "category": "dialect registration"
    },
    {
      "seed": "seeds\\seeds_original_candidates_orig_001_inliner_nested_region_returned_func.mlir",
      "pipeline": "canonicalize_cse_sccp",
      "command": "%MLIRSHIELD_MLIR_OPT% outputs\\real_msys2_focus_seeds\\seeds_original_candidates_orig_001_inliner_nested_region_returned_func.mlir --canonicalize --cse --sccp --canonicalize -o -",
      "return_code": 1,
      "timed_out": false,
      "elapsed_ms": 29,
      "stdout": "",
      "stderr": "outputs\\real_msys2_focus_seeds\\seeds_original_candidates_orig_001_inliner_nested_region_returned_func.mlir:3:10: error: operation being parsed with an unregistered dialect. If this is intended, please use -allow-unregistered-dialect with the MLIR tool used\n    \"a.b\"() ({\n         ^\n",
      "stdout_path": "outputs\\real_msys2_focus\\artifacts\\seeds_original_candidates_orig_001_inliner_nested_region_returned_func__canonicalize_cse_sccp.stdout.mlir",
      "stderr_path": "outputs\\real_msys2_focus\\artifacts\\seeds_original_candidates_orig_001_inliner_nested_region_returned_func__canonicalize_cse_sccp.stderr.txt",
      "category": "dialect registration"
    },
    {
      "seed": "seeds\\seeds_original_candidates_orig_001_inliner_nested_region_returned_func.mlir",
      "pipeline": "symbol_dce_inliner_canonicalize",
      "command": "%MLIRSHIELD_MLIR_OPT% outputs\\real_msys2_focus_seeds\\seeds_original_candidates_orig_001_inliner_nested_region_returned_func.mlir --symbol-dce --inline --canonicalize --cse -o -",
      "return_code": 1,
      "timed_out": false,
      "elapsed_ms": 30,
      "stdout": "",
      "stderr": "outputs\\real_msys2_focus_seeds\\seeds_original_candidates_orig_001_inliner_nested_region_returned_func.mlir:3:10: error: operation being parsed with an unregistered dialect. If this is intended, please use -allow-unregistered-dialect with the MLIR tool used\n    \"a.b\"() ({\n         ^\n",
      "stdout_path": "outputs\\real_msys2_focus\\artifacts\\seeds_original_candidates_orig_001_inliner_nested_region_returned_func__symbol_dce_inliner_canonicalize.stdout.mlir",
      "stderr_path": "outputs\\real_msys2_focus\\artifacts\\seeds_original_candidates_orig_001_inliner_nested_region_returned_func__symbol_dce_inliner_canonicalize.stderr.txt",
      "category": "dialect registration"
    },
    {
      "seed": "seeds\\seeds_original_candidates_orig_001_inliner_nested_region_returned_func.mlir",
      "pipeline": "affine_lowering_stress",
      "command": "%MLIRSHIELD_MLIR_OPT% outputs\\real_msys2_focus_seeds\\seeds_original_candidates_orig_001_inliner_nested_region_returned_func.mlir --lower-affine --canonicalize --cse -o -",
      "return_code": 1,
      "timed_out": false,
      "elapsed_ms": 38,
      "stdout": "",
      "stderr": "outputs\\real_msys2_focus_seeds\\seeds_original_candidates_orig_001_inliner_nested_region_returned_func.mlir:3:10: error: operation being parsed with an unregistered dialect. If this is intended, please use -allow-unregistered-dialect with the MLIR tool used\n    \"a.b\"() ({\n         ^\n",
      "stdout_path": "outputs\\real_msys2_focus\\artifacts\\seeds_original_candidates_orig_001_inliner_nested_region_returned_func__affine_lowering_stress.stdout.mlir",
      "stderr_path": "outputs\\real_msys2_focus\\artifacts\\seeds_original_candidates_orig_001_inliner_nested_region_returned_func__affine_lowering_stress.stderr.txt",
      "category": "dialect registration"
    },
    {
      "seed": "seeds\\seeds_original_candidates_orig_001_inliner_nested_region_returned_func.mlir",
      "pipeline": "scf_to_cf_stress",
      "command": "%MLIRSHIELD_MLIR_OPT% outputs\\real_msys2_focus_seeds\\seeds_original_candidates_orig_001_inliner_nested_region_returned_func.mlir --convert-scf-to-cf --canonicalize --cse -o -",
      "return_code": 1,
      "timed_out": false,
      "elapsed_ms": 32,
      "stdout": "",
      "stderr": "outputs\\real_msys2_focus_seeds\\seeds_original_candidates_orig_001_inliner_nested_region_returned_func.mlir:3:10: error: operation being parsed with an unregistered dialect. If this is intended, please use -allow-unregistered-dialect with the MLIR tool used\n    \"a.b\"() ({\n         ^\n",
      "stdout_path": "outputs\\real_msys2_focus\\artifacts\\seeds_original_candidates_orig_001_inliner_nested_region_returned_func__scf_to_cf_stress.stdout.mlir",
      "stderr_path": "outputs\\real_msys2_focus\\artifacts\\seeds_original_candidates_orig_001_inliner_nested_region_returned_func__scf_to_cf_stress.stderr.txt",
      "category": "dialect registration"
    },
    {
      "seed": "seeds\\seeds_original_candidates_orig_001_inliner_nested_region_returned_func.mlir",
      "pipeline": "vector_lowering_stress",
      "command": "%MLIRSHIELD_MLIR_OPT% outputs\\real_msys2_focus_seeds\\seeds_original_candidates_orig_001_inliner_nested_region_returned_func.mlir --convert-vector-to-scf --convert-vector-to-llvm --canonicalize -o -",
      "return_code": 1,
      "timed_out": false,
      "elapsed_ms": 28,
      "stdout": "",
      "stderr": "outputs\\real_msys2_focus_seeds\\seeds_original_candidates_orig_001_inliner_nested_region_returned_func.mlir:3:10: error: operation being parsed with an unregistered dialect. If this is intended, please use -allow-unregistered-dialect with the MLIR tool used\n    \"a.b\"() ({\n         ^\n",
      "stdout_path": "outputs\\real_msys2_focus\\artifacts\\seeds_original_candidates_orig_001_inliner_nested_region_returned_func__vector_lowering_stress.stdout.mlir",
      "stderr_path": "outputs\\real_msys2_focus\\artifacts\\seeds_original_candidates_orig_001_inliner_nested_region_returned_func__vector_lowering_stress.stderr.txt",
      "category": "dialect registration"
    },
    {
      "seed": "seeds\\seeds_original_candidates_orig_001_inliner_nested_region_returned_func.mlir",
      "pipeline": "bufferization_probe",
      "command": "%MLIRSHIELD_MLIR_OPT% outputs\\real_msys2_focus_seeds\\seeds_original_candidates_orig_001_inliner_nested_region_returned_func.mlir --one-shot-bufferize --canonicalize -o -",
      "return_code": 1,
      "timed_out": false,
      "elapsed_ms": 38,
      "stdout": "",
      "stderr": "outputs\\real_msys2_focus_seeds\\seeds_original_candidates_orig_001_inliner_nested_region_returned_func.mlir:3:10: error: operation being parsed with an unregistered dialect. If this is intended, please use -allow-unregistered-dialect with the MLIR tool used\n    \"a.b\"() ({\n         ^\n",
      "stdout_path": "outputs\\real_msys2_focus\\artifacts\\seeds_original_candidates_orig_001_inliner_nested_region_returned_func__bufferization_probe.stdout.mlir",
      "stderr_path": "outputs\\real_msys2_focus\\artifacts\\seeds_original_candidates_orig_001_inliner_nested_region_returned_func__bufferization_probe.stderr.txt",
      "category": "dialect registration"
    },
    {
      "seed": "seeds\\seeds_original_candidates_orig_001_inliner_nested_region_returned_func.mlir",
      "pipeline": "linalg_affine_probe",
      "command": "%MLIRSHIELD_MLIR_OPT% outputs\\real_msys2_focus_seeds\\seeds_original_candidates_orig_001_inliner_nested_region_returned_func.mlir --convert-linalg-to-affine-loops --canonicalize -o -",
      "return_code": 1,
      "timed_out": false,
      "elapsed_ms": 30,
      "stdout": "",
      "stderr": "outputs\\real_msys2_focus_seeds\\seeds_original_candidates_orig_001_inliner_nested_region_returned_func.mlir:3:10: error: operation being parsed with an unregistered dialect. If this is intended, please use -allow-unregistered-dialect with the MLIR tool used\n    \"a.b\"() ({\n         ^\n",
      "stdout_path": "outputs\\real_msys2_focus\\artifacts\\seeds_original_candidates_orig_001_inliner_nested_region_returned_func__linalg_affine_probe.stdout.mlir",
      "stderr_path": "outputs\\real_msys2_focus\\artifacts\\seeds_original_candidates_orig_001_inliner_nested_region_returned_func__linalg_affine_probe.stderr.txt",
      "category": "dialect registration"
    },
    {
      "seed": "seeds\\seeds_original_candidates_orig_001_inliner_nested_region_returned_func.mlir",
      "pipeline": "gpu_parallel_probe",
      "command": "%MLIRSHIELD_MLIR_OPT% outputs\\real_msys2_focus_seeds\\seeds_original_candidates_orig_001_inliner_nested_region_returned_func.mlir --convert-parallel-loops-to-gpu --canonicalize -o -",
      "return_code": 1,
      "timed_out": false,
      "elapsed_ms": 29,
      "stdout": "",
      "stderr": "outputs\\real_msys2_focus_seeds\\seeds_original_candidates_orig_001_inliner_nested_region_returned_func.mlir:3:10: error: operation being parsed with an unregistered dialect. If this is intended, please use -allow-unregistered-dialect with the MLIR tool used\n    \"a.b\"() ({\n         ^\n",
      "stdout_path": "outputs\\real_msys2_focus\\artifacts\\seeds_original_candidates_orig_001_inliner_nested_region_returned_func__gpu_parallel_probe.stdout.mlir",
      "stderr_path": "outputs\\real_msys2_focus\\artifacts\\seeds_original_candidates_orig_001_inliner_nested_region_returned_func__gpu_parallel_probe.stderr.txt",
      "category": "dialect registration"
    },
    {
      "seed": "seeds\\seeds_real_official_affine_canonicalize.mlir",
      "pipeline": "parse_verify",
      "command": "%MLIRSHIELD_MLIR_OPT% outputs\\real_msys2_focus_seeds\\seeds_real_official_affine_canonicalize.mlir  -o -",
      "return_code": 1,
      "timed_out": false,
      "elapsed_ms": 81,
      "stdout": "",
      "stderr": "outputs\\real_msys2_focus_seeds\\seeds_real_official_affine_canonicalize.mlir:441:13: error: operation being parsed with an unregistered dialect. If this is intended, please use -allow-unregistered-dialect with the MLIR tool used\n  %l = \"foo\"() : () -> index\n            ^\n",
      "stdout_path": "outputs\\real_msys2_focus\\artifacts\\seeds_real_official_affine_canonicalize__parse_verify.stdout.mlir",
      "stderr_path": "outputs\\real_msys2_focus\\artifacts\\seeds_real_official_affine_canonicalize__parse_verify.stderr.txt",
      "category": "dialect registration"
    },
    {
      "seed": "seeds\\seeds_real_official_affine_canonicalize.mlir",
      "pipeline": "canonicalize_cse_sccp",
      "command": "%MLIRSHIELD_MLIR_OPT% outputs\\real_msys2_focus_seeds\\seeds_real_official_affine_canonicalize.mlir --canonicalize --cse --sccp --canonicalize -o -",
      "return_code": 1,
      "timed_out": false,
      "elapsed_ms": 33,
      "stdout": "",
      "stderr": "outputs\\real_msys2_focus_seeds\\seeds_real_official_affine_canonicalize.mlir:441:13: error: operation being parsed with an unregistered dialect. If this is intended, please use -allow-unregistered-dialect with the MLIR tool used\n  %l = \"foo\"() : () -> index\n            ^\n",
      "stdout_path": "outputs\\real_msys2_focus\\artifacts\\seeds_real_official_affine_canonicalize__canonicalize_cse_sccp.stdout.mlir",
      "stderr_path": "outputs\\real_msys2_focus\\artifacts\\seeds_real_official_affine_canonicalize__canonicalize_cse_sccp.stderr.txt",
      "category": "dialect registration"
    },
    {
      "seed": "seeds\\seeds_real_official_affine_canonicalize.mlir",
      "pipeline": "symbol_dce_inliner_canonicalize",
      "command": "%MLIRSHIELD_MLIR_OPT% outputs\\real_msys2_focus_seeds\\seeds_real_official_affine_canonicalize.mlir --symbol-dce --inline --canonicalize --cse -o -",
      "return_code": 1,
      "timed_out": false,
      "elapsed_ms": 30,
      "stdout": "",
      "stderr": "outputs\\real_msys2_focus_seeds\\seeds_real_official_affine_canonicalize.mlir:441:13: error: operation being parsed with an unregistered dialect. If this is intended, please use -allow-unregistered-dialect with the MLIR tool used\n  %l = \"foo\"() : () -> index\n            ^\n",
      "stdout_path": "outputs\\real_msys2_focus\\artifacts\\seeds_real_official_affine_canonicalize__symbol_dce_inliner_canonicalize.stdout.mlir",
      "stderr_path": "outputs\\real_msys2_focus\\artifacts\\seeds_real_official_affine_canonicalize__symbol_dce_inliner_canonicalize.stderr.txt",
      "category": "dialect registration"
    },
    {
      "seed": "seeds\\seeds_real_official_affine_canonicalize.mlir",
      "pipeline": "affine_lowering_stress",
      "command": "%MLIRSHIELD_MLIR_OPT% outputs\\real_msys2_focus_seeds\\seeds_real_official_affine_canonicalize.mlir --lower-affine --canonicalize --cse -o -",
      "return_code": 1,
      "timed_out": false,
      "elapsed_ms": 31,
      "stdout": "",
      "stderr": "outputs\\real_msys2_focus_seeds\\seeds_real_official_affine_canonicalize.mlir:441:13: error: operation being parsed with an unregistered dialect. If this is intended, please use -allow-unregistered-dialect with the MLIR tool used\n  %l = \"foo\"() : () -> index\n            ^\n",
      "stdout_path": "outputs\\real_msys2_focus\\artifacts\\seeds_real_official_affine_canonicalize__affine_lowering_stress.stdout.mlir",
      "stderr_path": "outputs\\real_msys2_focus\\artifacts\\seeds_real_official_affine_canonicalize__affine_lowering_stress.stderr.txt",
      "category": "dialect registration"
    },
    {
      "seed": "seeds\\seeds_real_official_affine_canonicalize.mlir",
      "pipeline": "scf_to_cf_stress",
      "command": "%MLIRSHIELD_MLIR_OPT% outputs\\real_msys2_focus_seeds\\seeds_real_official_affine_canonicalize.mlir --convert-scf-to-cf --canonicalize --cse -o -",
      "return_code": 1,
      "timed_out": false,
      "elapsed_ms": 32,
      "stdout": "",
      "stderr": "outputs\\real_msys2_focus_seeds\\seeds_real_official_affine_canonicalize.mlir:441:13: error: operation being parsed with an unregistered dialect. If this is intended, please use -allow-unregistered-dialect with the MLIR tool used\n  %l = \"foo\"() : () -> index\n            ^\n",
      "stdout_path": "outputs\\real_msys2_focus\\artifacts\\seeds_real_official_affine_canonicalize__scf_to_cf_stress.stdout.mlir",
      "stderr_path": "outputs\\real_msys2_focus\\artifacts\\seeds_real_official_affine_canonicalize__scf_to_cf_stress.stderr.txt",
      "category": "dialect registration"
    },
    {
      "seed": "seeds\\seeds_real_official_affine_canonicalize.mlir",
      "pipeline": "vector_lowering_stress",
      "command": "%MLIRSHIELD_MLIR_OPT% outputs\\real_msys2_focus_seeds\\seeds_real_official_affine_canonicalize.mlir --convert-vector-to-scf --convert-vector-to-llvm --canonicalize -o -",
      "return_code": 1,
      "timed_out": false,
      "elapsed_ms": 31,
      "stdout": "",
      "stderr": "outputs\\real_msys2_focus_seeds\\seeds_real_official_affine_canonicalize.mlir:441:13: error: operation being parsed with an unregistered dialect. If this is intended, please use -allow-unregistered-dialect with the MLIR tool used\n  %l = \"foo\"() : () -> index\n            ^\n",
      "stdout_path": "outputs\\real_msys2_focus\\artifacts\\seeds_real_official_affine_canonicalize__vector_lowering_stress.stdout.mlir",
      "stderr_path": "outputs\\real_msys2_focus\\artifacts\\seeds_real_official_affine_canonicalize__vector_lowering_stress.stderr.txt",
      "category": "dialect registration"
    },
    {
      "seed": "seeds\\seeds_real_official_affine_canonicalize.mlir",
      "pipeline": "bufferization_probe",
      "command": "%MLIRSHIELD_MLIR_OPT% outputs\\real_msys2_focus_seeds\\seeds_real_official_affine_canonicalize.mlir --one-shot-bufferize --canonicalize -o -",
      "return_code": 1,
      "timed_out": false,
      "elapsed_ms": 31,
      "stdout": "",
      "stderr": "outputs\\real_msys2_focus_seeds\\seeds_real_official_affine_canonicalize.mlir:441:13: error: operation being parsed with an unregistered dialect. If this is intended, please use -allow-unregistered-dialect with the MLIR tool used\n  %l = \"foo\"() : () -> index\n            ^\n",
      "stdout_path": "outputs\\real_msys2_focus\\artifacts\\seeds_real_official_affine_canonicalize__bufferization_probe.stdout.mlir",
      "stderr_path": "outputs\\real_msys2_focus\\artifacts\\seeds_real_official_affine_canonicalize__bufferization_probe.stderr.txt",
      "category": "dialect registration"
    },
    {
      "seed": "seeds\\seeds_real_official_affine_canonicalize.mlir",
      "pipeline": "linalg_affine_probe",
      "command": "%MLIRSHIELD_MLIR_OPT% outputs\\real_msys2_focus_seeds\\seeds_real_official_affine_canonicalize.mlir --convert-linalg-to-affine-loops --canonicalize -o -",
      "return_code": 1,
      "timed_out": false,
      "elapsed_ms": 31,
      "stdout": "",
      "stderr": "outputs\\real_msys2_focus_seeds\\seeds_real_official_affine_canonicalize.mlir:441:13: error: operation being parsed with an unregistered dialect. If this is intended, please use -allow-unregistered-dialect with the MLIR tool used\n  %l = \"foo\"() : () -> index\n            ^\n",
      "stdout_path": "outputs\\real_msys2_focus\\artifacts\\seeds_real_official_affine_canonicalize__linalg_affine_probe.stdout.mlir",
      "stderr_path": "outputs\\real_msys2_focus\\artifacts\\seeds_real_official_affine_canonicalize__linalg_affine_probe.stderr.txt",
      "category": "dialect registration"
    },
    {
      "seed": "seeds\\seeds_real_official_affine_canonicalize.mlir",
      "pipeline": "gpu_parallel_probe",
      "command": "%MLIRSHIELD_MLIR_OPT% outputs\\real_msys2_focus_seeds\\seeds_real_official_affine_canonicalize.mlir --convert-parallel-loops-to-gpu --canonicalize -o -",
      "return_code": 1,
      "timed_out": false,
      "elapsed_ms": 32,
      "stdout": "",
      "stderr": "outputs\\real_msys2_focus_seeds\\seeds_real_official_affine_canonicalize.mlir:441:13: error: operation being parsed with an unregistered dialect. If this is intended, please use -allow-unregistered-dialect with the MLIR tool used\n  %l = \"foo\"() : () -> index\n            ^\n",
      "stdout_path": "outputs\\real_msys2_focus\\artifacts\\seeds_real_official_affine_canonicalize__gpu_parallel_probe.stdout.mlir",
      "stderr_path": "outputs\\real_msys2_focus\\artifacts\\seeds_real_official_affine_canonicalize__gpu_parallel_probe.stderr.txt",
      "category": "dialect registration"
    },
    {
      "seed": "seeds\\seeds_real_official_arith_int_range_opts_crash.mlir",
      "pipeline": "parse_verify",
      "command": "%MLIRSHIELD_MLIR_OPT% outputs\\real_msys2_focus_seeds\\seeds_real_official_arith_int_range_opts_crash.mlir  -o -",
      "return_code": 1,
      "timed_out": false,
      "elapsed_ms": 32,
      "stdout": "",
      "stderr": "outputs\\real_msys2_focus_seeds\\seeds_real_official_arith_int_range_opts_crash.mlir:4:35: error: `!\"test\"<\"i32\">` type created with unregistered dialect. If this is intended, please call allowUnregisteredDialects() on the MLIRContext, or use -allow-unregistered-dialect with the MLIR opt tool used\nfunc.func @repro_crash() -> !test.i32 {\n                                  ^\n",
      "stdout_path": "outputs\\real_msys2_focus\\artifacts\\seeds_real_official_arith_int_range_opts_crash__parse_verify.stdout.mlir",
      "stderr_path": "outputs\\real_msys2_focus\\artifacts\\seeds_real_official_arith_int_range_opts_crash__parse_verify.stderr.txt",
      "category": "dialect registration"
    },
    {
      "seed": "seeds\\seeds_real_official_arith_int_range_opts_crash.mlir",
      "pipeline": "canonicalize_cse_sccp",
      "command": "%MLIRSHIELD_MLIR_OPT% outputs\\real_msys2_focus_seeds\\seeds_real_official_arith_int_range_opts_crash.mlir --canonicalize --cse --sccp --canonicalize -o -",
      "return_code": 1,
      "timed_out": false,
      "elapsed_ms": 30,
      "stdout": "",
      "stderr": "outputs\\real_msys2_focus_seeds\\seeds_real_official_arith_int_range_opts_crash.mlir:4:35: error: `!\"test\"<\"i32\">` type created with unregistered dialect. If this is intended, please call allowUnregisteredDialects() on the MLIRContext, or use -allow-unregistered-dialect with the MLIR opt tool used\nfunc.func @repro_crash() -> !test.i32 {\n                                  ^\n",
      "stdout_path": "outputs\\real_msys2_focus\\artifacts\\seeds_real_official_arith_int_range_opts_crash__canonicalize_cse_sccp.stdout.mlir",
      "stderr_path": "outputs\\real_msys2_focus\\artifacts\\seeds_real_official_arith_int_range_opts_crash__canonicalize_cse_sccp.stderr.txt",
      "category": "dialect registration"
    },
    {
      "seed": "seeds\\seeds_real_official_arith_int_range_opts_crash.mlir",
      "pipeline": "symbol_dce_inliner_canonicalize",
      "command": "%MLIRSHIELD_MLIR_OPT% outputs\\real_msys2_focus_seeds\\seeds_real_official_arith_int_range_opts_crash.mlir --symbol-dce --inline --canonicalize --cse -o -",
      "return_code": 1,
      "timed_out": false,
      "elapsed_ms": 48,
      "stdout": "",
      "stderr": "outputs\\real_msys2_focus_seeds\\seeds_real_official_arith_int_range_opts_crash.mlir:4:35: error: `!\"test\"<\"i32\">` type created with unregistered dialect. If this is intended, please call allowUnregisteredDialects() on the MLIRContext, or use -allow-unregistered-dialect with the MLIR opt tool used\nfunc.func @repro_crash() -> !test.i32 {\n                                  ^\n",
      "stdout_path": "outputs\\real_msys2_focus\\artifacts\\seeds_real_official_arith_int_range_opts_crash__symbol_dce_inliner_canonicalize.stdout.mlir",
      "stderr_path": "outputs\\real_msys2_focus\\artifacts\\seeds_real_official_arith_int_range_opts_crash__symbol_dce_inliner_canonicalize.stderr.txt",
      "category": "dialect registration"
    },
    {
      "seed": "seeds\\seeds_real_official_arith_int_range_opts_crash.mlir",
      "pipeline": "affine_lowering_stress",
      "command": "%MLIRSHIELD_MLIR_OPT% outputs\\real_msys2_focus_seeds\\seeds_real_official_arith_int_range_opts_crash.mlir --lower-affine --canonicalize --cse -o -",
      "return_code": 1,
      "timed_out": false,
      "elapsed_ms": 30,
      "stdout": "",
      "stderr": "outputs\\real_msys2_focus_seeds\\seeds_real_official_arith_int_range_opts_crash.mlir:4:35: error: `!\"test\"<\"i32\">` type created with unregistered dialect. If this is intended, please call allowUnregisteredDialects() on the MLIRContext, or use -allow-unregistered-dialect with the MLIR opt tool used\nfunc.func @repro_crash() -> !test.i32 {\n                                  ^\n",
      "stdout_path": "outputs\\real_msys2_focus\\artifacts\\seeds_real_official_arith_int_range_opts_crash__affine_lowering_stress.stdout.mlir",
      "stderr_path": "outputs\\real_msys2_focus\\artifacts\\seeds_real_official_arith_int_range_opts_crash__affine_lowering_stress.stderr.txt",
      "category": "dialect registration"
    },
    {
      "seed": "seeds\\seeds_real_official_arith_int_range_opts_crash.mlir",
      "pipeline": "scf_to_cf_stress",
      "command": "%MLIRSHIELD_MLIR_OPT% outputs\\real_msys2_focus_seeds\\seeds_real_official_arith_int_range_opts_crash.mlir --convert-scf-to-cf --canonicalize --cse -o -",
      "return_code": 1,
      "timed_out": false,
      "elapsed_ms": 31,
      "stdout": "",
      "stderr": "outputs\\real_msys2_focus_seeds\\seeds_real_official_arith_int_range_opts_crash.mlir:4:35: error: `!\"test\"<\"i32\">` type created with unregistered dialect. If this is intended, please call allowUnregisteredDialects() on the MLIRContext, or use -allow-unregistered-dialect with the MLIR opt tool used\nfunc.func @repro_crash() -> !test.i32 {\n                                  ^\n",
      "stdout_path": "outputs\\real_msys2_focus\\artifacts\\seeds_real_official_arith_int_range_opts_crash__scf_to_cf_stress.stdout.mlir",
      "stderr_path": "outputs\\real_msys2_focus\\artifacts\\seeds_real_official_arith_int_range_opts_crash__scf_to_cf_stress.stderr.txt",
      "category": "dialect registration"
    },
    {
      "seed": "seeds\\seeds_real_official_arith_int_range_opts_crash.mlir",
      "pipeline": "vector_lowering_stress",
      "command": "%MLIRSHIELD_MLIR_OPT% outputs\\real_msys2_focus_seeds\\seeds_real_official_arith_int_range_opts_crash.mlir --convert-vector-to-scf --convert-vector-to-llvm --canonicalize -o -",
      "return_code": 1,
      "timed_out": false,
      "elapsed_ms": 29,
      "stdout": "",
      "stderr": "outputs\\real_msys2_focus_seeds\\seeds_real_official_arith_int_range_opts_crash.mlir:4:35: error: `!\"test\"<\"i32\">` type created with unregistered dialect. If this is intended, please call allowUnregisteredDialects() on the MLIRContext, or use -allow-unregistered-dialect with the MLIR opt tool used\nfunc.func @repro_crash() -> !test.i32 {\n                                  ^\n",
      "stdout_path": "outputs\\real_msys2_focus\\artifacts\\seeds_real_official_arith_int_range_opts_crash__vector_lowering_stress.stdout.mlir",
      "stderr_path": "outputs\\real_msys2_focus\\artifacts\\seeds_real_official_arith_int_range_opts_crash__vector_lowering_stress.stderr.txt",
      "category": "dialect registration"
    },
    {
      "seed": "seeds\\seeds_real_official_arith_int_range_opts_crash.mlir",
      "pipeline": "bufferization_probe",
      "command": "%MLIRSHIELD_MLIR_OPT% outputs\\real_msys2_focus_seeds\\seeds_real_official_arith_int_range_opts_crash.mlir --one-shot-bufferize --canonicalize -o -",
      "return_code": 1,
      "timed_out": false,
      "elapsed_ms": 29,
      "stdout": "",
      "stderr": "outputs\\real_msys2_focus_seeds\\seeds_real_official_arith_int_range_opts_crash.mlir:4:35: error: `!\"test\"<\"i32\">` type created with unregistered dialect. If this is intended, please call allowUnregisteredDialects() on the MLIRContext, or use -allow-unregistered-dialect with the MLIR opt tool used\nfunc.func @repro_crash() -> !test.i32 {\n                                  ^\n",
      "stdout_path": "outputs\\real_msys2_focus\\artifacts\\seeds_real_official_arith_int_range_opts_crash__bufferization_probe.stdout.mlir",
      "stderr_path": "outputs\\real_msys2_focus\\artifacts\\seeds_real_official_arith_int_range_opts_crash__bufferization_probe.stderr.txt",
      "category": "dialect registration"
    },
    {
      "seed": "seeds\\seeds_real_official_arith_int_range_opts_crash.mlir",
      "pipeline": "linalg_affine_probe",
      "command": "%MLIRSHIELD_MLIR_OPT% outputs\\real_msys2_focus_seeds\\seeds_real_official_arith_int_range_opts_crash.mlir --convert-linalg-to-affine-loops --canonicalize -o -",
      "return_code": 1,
      "timed_out": false,
      "elapsed_ms": 29,
      "stdout": "",
      "stderr": "outputs\\real_msys2_focus_seeds\\seeds_real_official_arith_int_range_opts_crash.mlir:4:35: error: `!\"test\"<\"i32\">` type created with unregistered dialect. If this is intended, please call allowUnregisteredDialects() on the MLIRContext, or use -allow-unregistered-dialect with the MLIR opt tool used\nfunc.func @repro_crash() -> !test.i32 {\n                                  ^\n",
      "stdout_path": "outputs\\real_msys2_focus\\artifacts\\seeds_real_official_arith_int_range_opts_crash__linalg_affine_probe.stdout.mlir",
      "stderr_path": "outputs\\real_msys2_focus\\artifacts\\seeds_real_official_arith_int_range_opts_crash__linalg_affine_probe.stderr.txt",
      "category": "dialect registration"
    },
    {
      "seed": "seeds\\seeds_real_official_arith_int_range_opts_crash.mlir",
      "pipeline": "gpu_parallel_probe",
      "command": "%MLIRSHIELD_MLIR_OPT% outputs\\real_msys2_focus_seeds\\seeds_real_official_arith_int_range_opts_crash.mlir --convert-parallel-loops-to-gpu --canonicalize -o -",
      "return_code": 1,
      "timed_out": false,
      "elapsed_ms": 30,
      "stdout": "",
      "stderr": "outputs\\real_msys2_focus_seeds\\seeds_real_official_arith_int_range_opts_crash.mlir:4:35: error: `!\"test\"<\"i32\">` type created with unregistered dialect. If this is intended, please call allowUnregisteredDialects() on the MLIRContext, or use -allow-unregistered-dialect with the MLIR opt tool used\nfunc.func @repro_crash() -> !test.i32 {\n                                  ^\n",
      "stdout_path": "outputs\\real_msys2_focus\\artifacts\\seeds_real_official_arith_int_range_opts_crash__gpu_parallel_probe.stdout.mlir",
      "stderr_path": "outputs\\real_msys2_focus\\artifacts\\seeds_real_official_arith_int_range_opts_crash__gpu_parallel_probe.stderr.txt",
      "category": "dialect registration"
    },
    {
      "seed": "seeds\\seeds_real_official_bufferization_one_shot_bufferize.mlir",
      "pipeline": "parse_verify",
      "command": "%MLIRSHIELD_MLIR_OPT% outputs\\real_msys2_focus_seeds\\seeds_real_official_bufferization_one_shot_bufferize.mlir  -o -",
      "return_code": 1,
      "timed_out": false,
      "elapsed_ms": 36,
      "stdout": "",
      "stderr": "outputs\\real_msys2_focus_seeds\\seeds_real_official_bufferization_one_shot_bufferize.mlir:61:23: error: operation being parsed with an unregistered dialect. If this is intended, please use -allow-unregistered-dialect with the MLIR tool used\n  %t = \"test.dummy_op\"() : () -> (tensor<10xf32>)\n                      ^\noutputs\\real_msys2_focus_seeds\\seeds_real_official_bufferization_one_shot_bufferize.mlir:149:6: error: expected error \"not bufferizable under the given constraints: would write to read-only buffer\" was not produced\n  // expected-error @below{{not bufferizable under the given constraints: would write to read-only buffer}}\n     ^~~~~~~~~~~~~~~~~~~~~~~~~~~~~~~~~~~~~~~~~~~~~~~~~~~~~~~~~~~~~~~~~~~~~~~~~~~~~\noutputs\\real_msys2_focus_seeds\\seeds_real_official_bufferization_one_shot_bufferize.mlir:163:6: error: expected error \"not bufferizable under the given constraints: cannot avoid RaW conflict\" was not produced\n  // expected-error @below{{not bufferizable under the given constraints: cannot avoid RaW conflict}}\n     ^~~~~~~~~~~~~~~~~~~~~~~~~~~~~~~~~~~~~~~~~~~~~~~~~~~~~~~~~~~~~~~~~~~~~~~\n",
      "stdout_path": "outputs\\real_msys2_focus\\artifacts\\seeds_real_official_bufferization_one_shot_bufferize__parse_verify.stdout.mlir",
      "stderr_path": "outputs\\real_msys2_focus\\artifacts\\seeds_real_official_bufferization_one_shot_bufferize__parse_verify.stderr.txt",
…
      "stderr_path": "outputs\\real_msys2_focus\\artifacts\\seeds_real_official_vector_constant_fold__gpu_parallel_probe.stderr.txt",
      "category": "success"
    }
  ],
  "issues": [
    {
      "seed": "seeds\\outputs_minimized_mlir22_memref_canonicalize_current.chunk.min.mlir",
      "severity": "high",
      "kind": "pipeline divergence",
      "summary": "Some pipelines succeeded while others failed.",
      "details": "pipeline | return_code | category | timed_out\n--- | --- | --- | ---\nparse_verify | 0 | success | false\ncanonicalize_cse_sccp | 3221225477 | memory/assertion | false\nsymbol_dce_inliner_canonicalize | 3221225477 | memory/assertion | false\naffine_lowering_stress | 0 | success | false\nscf_to_cf_stress | 3221225477 | memory/assertion | false\nvector_lowering_stress | 3221225477 | memory/assertion | false\nbufferization_probe | 3221225477 | memory/assertion | false\nlinalg_affine_probe | 3221225477 | memory/assertion | false\ngpu_parallel_probe | 3221225477 | memory/assertion | false"
    },
    {
      "seed": "seeds\\seeds_issue_repros_llvm_61085_tosa_linalg_affine_assert.mlir",
      "severity": "medium",
      "kind": "all pipelines failed",
      "summary": "All pipelines failed. Categories: unknown failure.",
      "details": "pipeline | return_code | category | timed_out\n--- | --- | --- | ---\nparse_verify | 1 | unknown failure | false\ncanonicalize_cse_sccp | 1 | unknown failure | false\nsymbol_dce_inliner_canonicalize | 1 | unknown failure | false\naffine_lowering_stress | 1 | unknown failure | false\nscf_to_cf_stress | 1 | unknown failure | false\nvector_lowering_stress | 1 | unknown failure | false\nbufferization_probe | 1 | unknown failure | false\nlinalg_affine_probe | 1 | unknown failure | false\ngpu_parallel_probe | 1 | unknown failure | false"
    },
    {
      "seed": "seeds\\seeds_issue_repros_llvm_75811_scf_parallel_to_gpu_destroyed_use.mlir",
      "severity": "medium",
      "kind": "all pipelines failed",
      "summary": "All pipelines failed. Categories: unknown failure.",
      "details": "pipeline | return_code | category | timed_out\n--- | --- | --- | ---\nparse_verify | 1 | unknown failure | false\ncanonicalize_cse_sccp | 1 | unknown failure | false\nsymbol_dce_inliner_canonicalize | 1 | unknown failure | false\naffine_lowering_stress | 1 | unknown failure | false\nscf_to_cf_stress | 1 | unknown failure | false\nvector_lowering_stress | 1 | unknown failure | false\nbufferization_probe | 1 | unknown failure | false\nlinalg_affine_probe | 1 | unknown failure | false\ngpu_parallel_probe | 1 | unknown failure | false"
    },
    {
      "seed": "seeds\\seeds_original_candidates_orig_001_inliner_nested_region_returned_func.mlir",
      "severity": "medium",
      "kind": "all pipelines failed",
      "summary": "All pipelines failed. Categories: dialect registration.",
      "details": "pipeline | return_code | category | timed_out\n--- | --- | --- | ---\nparse_verify | 1 | dialect registration | false\ncanonicalize_cse_sccp | 1 | dialect registration | false\nsymbol_dce_inliner_canonicalize | 1 | dialect registration | false\naffine_lowering_stress | 1 | dialect registration | false\nscf_to_cf_stress | 1 | dialect registration | false\nvector_lowering_stress | 1 | dialect registration | false\nbufferization_probe | 1 | dialect registration | false\nlinalg_affine_probe | 1 | dialect registration | false\ngpu_parallel_probe | 1 | dialect registration | false"
    },
    {
      "seed": "seeds\\seeds_real_official_affine_canonicalize.mlir",
      "severity": "medium",
      "kind": "all pipelines failed",
      "summary": "All pipelines failed. Categories: dialect registration.",
      "details": "pipeline | return_code | category | timed_out\n--- | --- | --- | ---\nparse_verify | 1 | dialect registration | false\ncanonicalize_cse_sccp | 1 | dialect registration | false\nsymbol_dce_inliner_canonicalize | 1 | dialect registration | false\naffine_lowering_stress | 1 | dialect registration | false\nscf_to_cf_stress | 1 | dialect registration | false\nvector_lowering_stress | 1 | dialect registration | false\nbufferization_probe | 1 | dialect registration | false\nlinalg_affine_probe | 1 | dialect registration | false\ngpu_parallel_probe | 1 | dialect registration | false"
    },
    {
      "seed": "seeds\\seeds_real_official_arith_int_range_opts_crash.mlir",
      "severity": "medium",
      "kind": "all pipelines failed",
      "summary": "All pipelines failed. Categories: dialect registration.",
      "details": "pipeline | return_code | category | timed_out\n--- | --- | --- | ---\nparse_verify | 1 | dialect registration | false\ncanonicalize_cse_sccp | 1 | dialect registration | false\nsymbol_dce_inliner_canonicalize | 1 | dialect registration | false\naffine_lowering_stress | 1 | dialect registration | false\nscf_to_cf_stress | 1 | dialect registration | false\nvector_lowering_stress | 1 | dialect registration | false\nbufferization_probe | 1 | dialect registration | false\nlinalg_affine_probe | 1 | dialect registration | false\ngpu_parallel_probe | 1 | dialect registration | false"
    },
    {
      "seed": "seeds\\seeds_real_official_bufferization_one_shot_bufferize.mlir",
      "severity": "medium",
      "kind": "all pipelines failed",
      "summary": "All pipelines failed. Categories: dialect registration.",
      "details": "pipeline | return_code | category | timed_out\n--- | --- | --- | ---\nparse_verify | 1 | dialect registration | false\ncanonicalize_cse_sccp | 1 | dialect registration | false\nsymbol_dce_inliner_canonicalize | 1 | dialect registration | false\naffine_lowering_stress | 1 | dialect registration | false\nscf_to_cf_stress | 1 | dialect registration | false\nvector_lowering_stress | 1 | dialect registration | false\nbufferization_probe | 1 | dialect registration | false\nlinalg_affine_probe | 1 | dialect registration | false\ngpu_parallel_probe | 1 | dialect registration | false"
    },
    {
      "seed": "seeds\\seeds_real_official_conversion_vector_to_llvm.mlir",
      "severity": "medium",
      "kind": "all pipelines failed",
      "summary": "All pipelines failed. Categories: unknown failure.",
      "details": "pipeline | return_code | category | timed_out\n--- | --- | --- | ---\nparse_verify | 1 | unknown failure | false\ncanonicalize_cse_sccp | 1 | unknown failure | false\nsymbol_dce_inliner_canonicalize | 1 | unknown failure | false\naffine_lowering_stress | 1 | unknown failure | false\nscf_to_cf_stress | 1 | unknown failure | false\nvector_lowering_stress | 1 | unknown failure | false\nbufferization_probe | 1 | unknown failure | false\nlinalg_affine_probe | 1 | unknown failure | false\ngpu_parallel_probe | 1 | unknown failure | false"
    },
    {
      "seed": "seeds\\seeds_real_official_gpu_canonicalize.mlir",
      "severity": "medium",
      "kind": "all pipelines failed",
      "summary": "All pipelines failed. Categories: unknown failure.",
      "details": "pipeline | return_code | category | timed_out\n--- | --- | --- | ---\nparse_verify | 1 | unknown failure | false\ncanonicalize_cse_sccp | 1 | unknown failure | false\nsymbol_dce_inliner_canonicalize | 1 | unknown failure | false\naffine_lowering_stress | 1 | unknown failure | false\nscf_to_cf_stress | 1 | unknown failure | false\nvector_lowering_stress | 1 | unknown failure | false\nbufferization_probe | 1 | unknown failure | false\nlinalg_affine_probe | 1 | unknown failure | false\ngpu_parallel_probe | 1 | unknown failure | false"
    },
    {
      "seed": "seeds\\seeds_real_official_linalg_canonicalize.mlir",
      "severity": "medium",
      "kind": "all pipelines failed",
      "summary": "All pipelines failed. Categories: unknown failure.",
      "details": "pipeline | return_code | category | timed_out\n--- | --- | --- | ---\nparse_verify | 1 | unknown failure | false\ncanonicalize_cse_sccp | 1 | unknown failure | false\nsymbol_dce_inliner_canonicalize | 1 | unknown failure | false\naffine_lowering_stress | 1 | unknown failure | false\nscf_to_cf_stress | 1 | unknown failure | false\nvector_lowering_stress | 1 | unknown failure | false\nbufferization_probe | 1 | unknown failure | false\nlinalg_affine_probe | 1 | unknown failure | false\ngpu_parallel_probe | 1 | unknown failure | false"
    },
    {
      "seed": "seeds\\seeds_real_official_memref_canonicalize_extra.mlir",
      "severity": "medium",
      "kind": "all pipelines failed",
      "summary": "All pipelines failed. Categories: dialect registration.",
      "details": "pipeline | return_code | category | timed_out\n--- | --- | --- | ---\nparse_verify | 1 | dialect registration | false\ncanonicalize_cse_sccp | 1 | dialect registration | false\nsymbol_dce_inliner_canonicalize | 1 | dialect registration | false\naffine_lowering_stress | 1 | dialect registration | false\nscf_to_cf_stress | 1 | dialect registration | false\nvector_lowering_stress | 1 | dialect registration | false\nbufferization_probe | 1 | dialect registration | false\nlinalg_affine_probe | 1 | dialect registration | false\ngpu_parallel_probe | 1 | dialect registration | false"
    },
    {
      "seed": "seeds\\seeds_real_official_scf_canonicalize.mlir",
      "severity": "medium",
      "kind": "all pipelines failed",
      "summary": "All pipelines failed. Categories: dialect registration.",
      "details": "pipeline | return_code | category | timed_out\n--- | --- | --- | ---\nparse_verify | 1 | dialect registration | false\ncanonicalize_cse_sccp | 1 | dialect registration | false\nsymbol_dce_inliner_canonicalize | 1 | dialect registration | false\naffine_lowering_stress | 1 | dialect registration | false\nscf_to_cf_stress | 1 | dialect registration | false\nvector_lowering_stress | 1 | dialect registration | false\nbufferization_probe | 1 | dialect registration | false\nlinalg_affine_probe | 1 | dialect registration | false\ngpu_parallel_probe | 1 | dialect registration | false"
    }
  ],
  "summary": {
    "run_categories": {
      "dialect registration": 54,
      "memory/assertion": 7,
      "success": 74,
      "unknown failure": 45
    },
    "issue_severities": {
      "high": 1,
      "medium": 11
    },
    "issue_kinds": {
      "all pipelines failed": 11,
      "pipeline divergence": 1
    },
    "failure_clusters": [
      {
        "signature": "dialect registration:392a4799d5",
        "category": "dialect registration",
        "count": 9,
        "seed_count": 1,
        "pipeline_count": 9,
        "seeds": [
          "seeds\\seeds_real_official_affine_canonicalize.mlir"
        ],
        "pipelines": [
          "affine_lowering_stress",
          "bufferization_probe",
          "canonicalize_cse_sccp",
          "gpu_parallel_probe",
          "linalg_affine_probe",
          "parse_verify",
          "scf_to_cf_stress",
          "symbol_dce_inliner_canonicalize"
        ],
        "example": "outputs\\real_msys2_focus_seeds\\seeds_real_official_affine_canonicalize.mlir:441:13: error: operation being parsed with an unregistered dialect. If this is intended, please use -allow-unregistered-dialect with the MLIR tool used\n  %l = \"foo\"() : () -> index\n            ^"
      },
      {
        "signature": "dialect registration:49d30f8efb",
        "category": "dialect registration",
        "count": 9,
        "seed_count": 1,
        "pipeline_count": 9,
        "seeds": [
          "seeds\\seeds_original_candidates_orig_001_inliner_nested_region_returned_func.mlir"
        ],
        "pipelines": [
          "affine_lowering_stress",
          "bufferization_probe",
          "canonicalize_cse_sccp",
          "gpu_parallel_probe",
          "linalg_affine_probe",
          "parse_verify",
          "scf_to_cf_stress",
          "symbol_dce_inliner_canonicalize"
        ],
        "example": "outputs\\real_msys2_focus_seeds\\seeds_original_candidates_orig_001_inliner_nested_region_returned_func.mlir:3:10: error: operation being parsed with an unregistered dialect. If this is intended, please use -allow-unregistered-dialect with the MLIR tool used\n    \"a.b\"() ({\n         ^"
      },
      {
        "signature": "dialect registration:56f7267e2c",
        "category": "dialect registration",
        "count": 9,
        "seed_count": 1,
        "pipeline_count": 9,
        "seeds": [
          "seeds\\seeds_real_official_arith_int_range_opts_crash.mlir"
        ],
        "pipelines": [
          "affine_lowering_stress",
          "bufferization_probe",
          "canonicalize_cse_sccp",
          "gpu_parallel_probe",
          "linalg_affine_probe",
          "parse_verify",
          "scf_to_cf_stress",
          "symbol_dce_inliner_canonicalize"
        ],
        "example": "outputs\\real_msys2_focus_seeds\\seeds_real_official_arith_int_range_opts_crash.mlir:4:35: error: `!\"test\"<\"i32\">` type created with unregistered dialect. If this is intended, please call allowUnregisteredDialects() on the MLIRContext, or use -allow-unregistered-dialect with the MLIR opt tool used\nfunc.func @repro_cra..."
      },
      {
        "signature": "dialect registration:8207af8950",
        "category": "dialect registration",
        "count": 9,
        "seed_count": 1,
        "pipeline_count": 9,
        "seeds": [
          "seeds\\seeds_real_official_bufferization_one_shot_bufferize.mlir"
        ],
        "pipelines": [
          "affine_lowering_stress",
          "bufferization_probe",
          "canonicalize_cse_sccp",
          "gpu_parallel_probe",
          "linalg_affine_probe",
          "parse_verify",
          "scf_to_cf_stress",
          "symbol_dce_inliner_canonicalize"
        ],
        "example": "outputs\\real_msys2_focus_seeds\\seeds_real_official_bufferization_one_shot_bufferize.mlir:61:23: error: operation being parsed with an unregistered dialect. If this is intended, please use -allow-unregistered-dialect with the MLIR tool used\n  %t = \"test.dummy_op\"() : () -> (tensor<10xf32>)\n                      ^\nout..."
      },
      {
        "signature": "dialect registration:9ee208fa1f",
        "category": "dialect registration",
        "count": 9,
        "seed_count": 1,
        "pipeline_count": 9,
        "seeds": [
          "seeds\\seeds_real_official_memref_canonicalize_extra.mlir"
        ],
        "pipelines": [
          "affine_lowering_stress",
          "bufferization_probe",
          "canonicalize_cse_sccp",
          "gpu_parallel_probe",
          "linalg_affine_probe",
          "parse_verify",
          "scf_to_cf_stress",
          "symbol_dce_inliner_canonicalize"
        ],
        "example": "outputs\\real_msys2_focus_seeds\\seeds_real_official_memref_canonicalize_extra.mlir:594:24: error: operation being parsed with an unregistered dialect. If this is intended, please use -allow-unregistered-dialect with the MLIR tool used\n    %cnt = \"test.count\"() : () -> index\n                       ^"
      },
      {
        "signature": "dialect registration:f413e3d78d",
        "category": "dialect registration",
        "count": 9,
        "seed_count": 1,
        "pipeline_count": 9,
        "seeds": [
          "seeds\\seeds_real_official_scf_canonicalize.mlir"
        ],
        "pipelines": [
          "affine_lowering_stress",
          "bufferization_probe",
          "canonicalize_cse_sccp",
          "gpu_parallel_probe",
          "linalg_affine_probe",
          "parse_verify",
          "scf_to_cf_stress",
          "symbol_dce_inliner_canonicalize"
        ],
        "example": "outputs\\real_msys2_focus_seeds\\seeds_real_official_scf_canonicalize.mlir:136:24: error: operation being parsed with an unregistered dialect. If this is intended, please use -allow-unregistered-dialect with the MLIR tool used\n    %c0 = \"test.value0\"() : () -> (index)\n                       ^"
      },
      {
        "signature": "unknown failure:0e12c0e948",
        "category": "unknown failure",
        "count": 9,
        "seed_count": 1,
        "pipeline_count": 9,
        "seeds": [
          "seeds\\seeds_real_official_linalg_canonicalize.mlir"
        ],
        "pipelines": [
          "affine_lowering_stress",
          "bufferization_probe",
          "canonicalize_cse_sccp",
          "gpu_parallel_probe",
          "linalg_affine_probe",
          "parse_verify",
          "scf_to_cf_stress",
          "symbol_dce_inliner_canonicalize"
        ],
        "example": "outputs\\real_msys2_focus_seeds\\seeds_real_official_linalg_canonicalize.mlir:147:1: error: redefinition of attribute alias id 'map'\n#map = affine_map<(d0, d1, d2) -> (d0, d1, d2)>\n^"
      },
      {
        "signature": "unknown failure:25f6160ae3",
        "category": "unknown failure",
        "count": 9,
        "seed_count": 1,
        "pipeline_count": 9,
        "seeds": [
          "seeds\\seeds_issue_repros_llvm_61085_tosa_linalg_affine_assert.mlir"
        ],
        "pipelines": [
          "affine_lowering_stress",
          "bufferization_probe",
          "canonicalize_cse_sccp",
          "gpu_parallel_probe",
          "linalg_affine_probe",
          "parse_verify",
          "scf_to_cf_stress",
          "symbol_dce_inliner_canonicalize"
        ],
        "example": "outputs\\real_msys2_focus_seeds\\seeds_issue_repros_llvm_61085_tosa_linalg_affine_assert.mlir:18:10: error: custom op 'linalg.init_tensor' is unknown\n    %3 = linalg.init_tensor [1, 4, 1, 1] : tensor<1x4x1x1xi32>\n         ^"
      },
      {
        "signature": "unknown failure:38f68d838e",
        "category": "unknown failure",
        "count": 9,
        "seed_count": 1,
        "pipeline_count": 9,
        "seeds": [
          "seeds\\seeds_real_official_conversion_vector_to_llvm.mlir"
        ],
        "pipelines": [
          "affine_lowering_stress",
          "bufferization_probe",
          "canonicalize_cse_sccp",
          "gpu_parallel_probe",
          "linalg_affine_probe",
          "parse_verify",
          "scf_to_cf_stress",
          "symbol_dce_inliner_canonicalize"
        ],
        "example": "outputs\\real_msys2_focus_seeds\\seeds_real_official_conversion_vector_to_llvm.mlir:1320:1: error: redefinition of symbol named 'insert_strided_slice_f32_2d_into_3d'\nfunc.func @insert_strided_slice_f32_2d_into_3d(%arg0: vector<2x4xf32>, %arg1: vector<16x4x8xf32>) -> vector<16x4x8xf32> {\n^\noutputs\\real_msys2_focus_seed..."
      },
      {
        "signature": "unknown failure:a1ee8dd7d5",
        "category": "unknown failure",
        "count": 9,
        "seed_count": 1,
        "pipeline_count": 9,
        "seeds": [
          "seeds\\seeds_issue_repros_llvm_75811_scf_parallel_to_gpu_destroyed_use.mlir"
        ],
        "pipelines": [
          "affine_lowering_stress",
          "bufferization_probe",
          "canonicalize_cse_sccp",
          "gpu_parallel_probe",
          "linalg_affine_probe",
          "parse_verify",
          "scf_to_cf_stress",
          "symbol_dce_inliner_canonicalize"
        ],
        "example": "outputs\\real_msys2_focus_seeds\\seeds_issue_repros_llvm_75811_scf_parallel_to_gpu_destroyed_use.mlir:12:5: error: 'scf.parallel' op expects body to terminate with 'scf.reduce'\n    scf.parallel (%arg0) = (%c0_6) to (%c1) step (%c1_7) {\n    ^\noutputs\\real_msys2_focus_seeds\\seeds_issue_repros_llvm_75811_scf_parallel_to_..."
      },
      {
        "signature": "unknown failure:fe9a80c52c",
        "category": "unknown failure",
        "count": 9,
        "seed_count": 1,
        "pipeline_count": 9,
        "seeds": [
          "seeds\\seeds_real_official_gpu_canonicalize.mlir"
        ],
        "pipelines": [
          "affine_lowering_stress",
          "bufferization_probe",
          "canonicalize_cse_sccp",
          "gpu_parallel_probe",
          "linalg_affine_probe",
          "parse_verify",
          "scf_to_cf_stress",
          "symbol_dce_inliner_canonicalize"
        ],
        "example": "outputs\\real_msys2_focus_seeds\\seeds_real_official_gpu_canonicalize.mlir:30:15: error: custom op 'memfence' is unknown (tried 'func.memfence' as well)\n  gpu.barrier memfence [#gpu.address_space<workgroup>]\n              ^"
      },
      {
        "signature": "memory/assertion:51bc491603",
        "category": "memory/assertion",
        "count": 1,
        "seed_count": 1,
        "pipeline_count": 1,
        "seeds": [
          "seeds\\outputs_minimized_mlir22_memref_canonicalize_current.chunk.min.mlir"
        ],
        "pipelines": [
          "canonicalize_cse_sccp"
        ],
        "example": "PLEASE submit a bug report to https://github.com/llvm/llvm-project/issues/ and include the crash backtrace and instructions to reproduce the bug.\nStack dump:\n0.\tProgram arguments: E:\\\\KiriTong\\\\msys64\\\\mingw64\\\\bin\\\\mlir-opt.exe outputs\\\\real_msys2_focus_seeds\\\\outputs_minimized_mlir22_memref_canonicalize_current.ch..."
      },
      {
        "signature": "memory/assertion:7a4130d446",
        "category": "memory/assertion",
        "count": 1,
        "seed_count": 1,
        "pipeline_count": 1,
        "seeds": [
          "seeds\\outputs_minimized_mlir22_memref_canonicalize_current.chunk.min.mlir"
        ],
        "pipelines": [
          "bufferization_probe"
        ],
        "example": "PLEASE submit a bug report to https://github.com/llvm/llvm-project/issues/ and include the crash backtrace and instructions to reproduce the bug.\nStack dump:\n0.\tProgram arguments: E:\\\\KiriTong\\\\msys64\\\\mingw64\\\\bin\\\\mlir-opt.exe outputs\\\\real_msys2_focus_seeds\\\\outputs_minimized_mlir22_memref_canonicalize_current.ch..."
      },
      {
        "signature": "memory/assertion:ad8be0d0fc",
        "category": "memory/assertion",
        "count": 1,
        "seed_count": 1,
        "pipeline_count": 1,
        "seeds": [
          "seeds\\outputs_minimized_mlir22_memref_canonicalize_current.chunk.min.mlir"
        ],
        "pipelines": [
          "linalg_affine_probe"
        ],
        "example": "PLEASE submit a bug report to https://github.com/llvm/llvm-project/issues/ and include the crash backtrace and instructions to reproduce the bug.\nStack dump:\n0.\tProgram arguments: E:\\\\KiriTong\\\\msys64\\\\mingw64\\\\bin\\\\mlir-opt.exe outputs\\\\real_msys2_focus_seeds\\\\outputs_minimized_mlir22_memref_canonicalize_current.ch..."
      },
      {
        "signature": "memory/assertion:b223a484fd",
        "category": "memory/assertion",
        "count": 1,
        "seed_count": 1,
        "pipeline_count": 1,
        "seeds": [
          "seeds\\outputs_minimized_mlir22_memref_canonicalize_current.chunk.min.mlir"
        ],
        "pipelines": [
          "gpu_parallel_probe"
        ],
        "example": "PLEASE submit a bug report to https://github.com/llvm/llvm-project/issues/ and include the crash backtrace and instructions to reproduce the bug.\nStack dump:\n0.\tProgram arguments: E:\\\\KiriTong\\\\msys64\\\\mingw64\\\\bin\\\\mlir-opt.exe outputs\\\\real_msys2_focus_seeds\\\\outputs_minimized_mlir22_memref_canonicalize_current.ch..."
      },
      {
        "signature": "memory/assertion:c4f6cfe43b",
        "category": "memory/assertion",
        "count": 1,
        "seed_count": 1,
        "pipeline_count": 1,
        "seeds": [
          "seeds\\outputs_minimized_mlir22_memref_canonicalize_current.chunk.min.mlir"
        ],
        "pipelines": [
          "symbol_dce_inliner_canonicalize"
        ],
        "example": "PLEASE submit a bug report to https://github.com/llvm/llvm-project/issues/ and include the crash backtrace and instructions to reproduce the bug.\nStack dump:\n0.\tProgram arguments: E:\\\\KiriTong\\\\msys64\\\\mingw64\\\\bin\\\\mlir-opt.exe outputs\\\\real_msys2_focus_seeds\\\\outputs_minimized_mlir22_memref_canonicalize_current.ch..."
      },
      {
        "signature": "memory/assertion:fcb4885e44",
        "category": "memory/assertion",
        "count": 1,
        "seed_count": 1,
        "pipeline_count": 1,
        "seeds": [
          "seeds\\outputs_minimized_mlir22_memref_canonicalize_current.chunk.min.mlir"
        ],
        "pipelines": [
          "vector_lowering_stress"
        ],
        "example": "PLEASE submit a bug report to https://github.com/llvm/llvm-project/issues/ and include the crash backtrace and instructions to reproduce the bug.\nStack dump:\n0.\tProgram arguments: E:\\\\KiriTong\\\\msys64\\\\mingw64\\\\bin\\\\mlir-opt.exe outputs\\\\real_msys2_focus_seeds\\\\outputs_minimized_mlir22_memref_canonicalize_current.ch..."
      },
      {
        "signature": "memory/assertion:fe30c7a90e",
        "category": "memory/assertion",
        "count": 1,
        "seed_count": 1,
        "pipeline_count": 1,
        "seeds": [
          "seeds\\outputs_minimized_mlir22_memref_canonicalize_current.chunk.min.mlir"
        ],
        "pipelines": [
          "scf_to_cf_stress"
        ],
        "example": "PLEASE submit a bug report to https://github.com/llvm/llvm-project/issues/ and include the crash backtrace and instructions to reproduce the bug.\nStack dump:\n0.\tProgram arguments: E:\\\\KiriTong\\\\msys64\\\\mingw64\\\\bin\\\\mlir-opt.exe outputs\\\\real_msys2_focus_seeds\\\\outputs_minimized_mlir22_memref_canonicalize_current.ch..."
      }
    ],
    "invariant_findings": [
      {
        "seed": "seeds\\seeds_issue_repros_llvm_113021_linalg_negative_indexing_tile.mlir",
        "pipeline": "linalg_affine_probe",
        "kind": "residual dialect after lowering",
        "severity": "info",
        "summary": "A lowering pipeline completed but the output still contains high-level dialect(s): linalg.",
        "evidence": "%0 = linalg.generic {indexing_maps = [#map, #map1], iterator_types = [\"parallel\"]} ins(%arg0 : tensor<8xi8>) outs(%arg1 : tensor<8xi8>) {\nlinalg.yield %in : i8\n%0 = transform.structured.match ops{[\"linalg.generic\"]} in %arg0 : (!transform.any_op) -> !transform.any_op"
      },
      {
        "seed": "seeds\\seeds_issue_repros_llvm_168695_vector_scatter_tensor_canonicalize.mlir",
        "pipeline": "vector_lowering_stress",
        "kind": "residual dialect after lowering",
        "severity": "info",
        "summary": "A lowering pipeline completed but the output still contains high-level dialect(s): vector.",
        "evidence": "%0 = vector.scatter %arg0[%c0] [%cst], %arg1, %arg2 : tensor<16xf32>, vector<16xindex>, vector<16xi1>, vector<16xf32> -> tensor<16xf32>"
      }
    ],
    "invariant_kinds": {
      "residual dialect after lowering": 2
    },
    "output_deltas": [
      {
        "seed": "seeds\\seeds_current_mlir23_llvm_197158_mem2reg_dbg_declare_use_after_erase.mlir",
        "summary": "Successful pipelines produced different IR text. This is an analysis signal, not a security issue by itself.",
        "details": "Structured IR summary\n- parse_verify: operations=9, functions=0, dialects=llvm:9\n- canonicalize_cse_sccp: operations=9, functions=0, dialects=llvm:9\n\nText diff\n--- parse_verify\n+++ canonicalize_cse_sccp\n@@ -5,11 +5,11 @@\n #di_local_variable = #llvm.di_local_variable<scope = #di_subprogram, name = \"d\", file = #di_file, line = 2, type = #di_basic_type>\n module {\n llvm.func @foo() {\n-%0 = llvm.mlir.constant(1 : i32) : i32\n-%1 = llvm.mlir.constant(4.000000e+00 : f64) : f64\n-%2 = llvm.alloca %0 x f64 : (i32) -> !llvm.ptr\n+%0 = llvm.mlir.constant(4.000000e+00 : f64) : f64\n+%1 = llvm.mlir.constant(1 : i32) : i32\n+%2 = llvm.alloca %1 x f64 : (i32) -> !llvm.ptr\n llvm.intr.dbg.declare #di_local_variable = %2 : !llvm.ptr\n-llvm.store %1, %2 : f64, !llvm.ptr\n+llvm.store %0, %2 : f64, !llvm.ptr\n %3 = llvm.load %2 : !llvm.ptr -> f64\n llvm.store %3, %2 : f64, !llvm.ptr\n llvm.return"
      },
      {
        "seed": "seeds\\seeds_issue_repros_llvm_113021_linalg_negative_indexing_tile.mlir",
        "summary": "Successful pipelines produced different IR text. This is an analysis signal, not a security issue by itself.",
        "details": "Structured IR summary\n- parse_verify: operations=7, functions=1, dialects=func:1, linalg:2, transform:4\n- bufferization_probe: operations=10, functions=1, dialects=bufferization:2, func:1, linalg:2, memref:1, transform:4\n- type-count changes: i64:0->1, memref:0->6, tensor:7->6\n\nText diff\n--- parse_verify\n+++ bufferization_probe\n@@ -2,11 +2,14 @@\n #map1 = affine_map<(d0) -> (d0)>\n module {\n func.func @test(%arg0: tensor<8xi8>, %arg1: tensor<8xi8>) -> tensor<8xi8> {\n-%0 = linalg.generic {indexing_maps = [#map, #map1], iterator_types = [\"parallel\"]} ins(%arg0 : tensor<8xi8>) outs(%arg1 : tensor<8xi8>) {\n+%0 = bufferization.to_buffer %arg0 : tensor<8xi8> to memref<8xi8, strided<[?], offset: ?>>\n+%alloc = memref.alloc() {alignment = 64 : i64} : memref<8xi8>\n+linalg.generic {indexing_maps = [#map, #map1], iterator_types = [\"parallel\"]} ins(%0 : memref<8xi8, strided<[?], offset: ?>>) outs(%alloc : memref<8xi8>) {\n ^bb0(%in: i8, %out: i8):\n linalg.yield %in : i8\n-} -> tensor<8xi8>\n-return %0 : tensor<8xi8>\n+}\n+%1 = bufferization.to_tensor %alloc : memref<8xi8> to tensor<8xi8>\n+return %1 : tensor<8xi8>\n }\n module attributes {transform.with_named_sequence} {\n transform.named_sequence @__transform_main(%arg0: !transform.any_op {transform.readonly}) {"
      },
      {
        "seed": "seeds\\seeds_issue_repros_llvm_168695_vector_scatter_tensor_canonicalize.mlir",
        "summary": "Successful pipelines produced different IR text. This is an analysis signal, not a security issue by itself.",
        "details": "Structured IR summary\n- parse_verify: operations=4, functions=1, dialects=arith:1, func:1, vector:2\n- vector_lowering_stress: operations=4, functions=1, dialects=arith:2, func:1, vector:1\n- type-count changes: vector:8->7\n\nText diff\n--- parse_verify\n+++ vector_lowering_stress\n@@ -1,8 +1,8 @@\n module {\n func.func @scatter_tensor(%arg0: tensor<16xf32>, %arg1: vector<16xi1>, %arg2: vector<16xf32>) -> tensor<16xf32> {\n %c0 = arith.constant 0 : index\n-%0 = vector.step : vector<16xindex>\n-%1 = vector.scatter %arg0[%c0] [%0], %arg1, %arg2 : tensor<16xf32>, vector<16xindex>, vector<16xi1>, vector<16xf32> -> tensor<16xf32>\n-return %1 : tensor<16xf32>\n+%cst = arith.constant dense<[0, 1, 2, 3, 4, 5, 6, 7, 8, 9, 10, 11, 12, 13, 14, 15]> : vector<16xindex>\n+%0 = vector.scatter %arg0[%c0] [%cst], %arg1, %arg2 : tensor<16xf32>, vector<16xindex>, vector<16xi1>, vector<16xf32> -> tensor<16xf32>\n+return %0 : tensor<16xf32>\n }\n }"
      },
      {
        "seed": "seeds\\seeds_issue_repros_llvm_82382_linalg_parallel_loops_to_gpu_crash.mlir",
        "summary": "Successful pipelines produced different IR text. This is an analysis signal, not a security issue by itself.",
        "details": "Structured IR summary\n- parse_verify: operations=5, functions=1, dialects=func:1, linalg:1, memref:3\n- linalg_affine_probe: operations=17, functions=1, dialects=affine:11, arith:2, func:1, memref:3\n- type-count changes: f32:0->2, memref:9->10, tensor:2->0\n\nText diff\n--- parse_verify\n+++ linalg_affine_probe\n@@ -3,7 +3,26 @@\n %alloc = memref.alloc() : memref<16x230x230x3xf32>\n %alloc_0 = memref.alloc() : memref<64x7x7x3xf32>\n %alloc_1 = memref.alloc() : memref<16x112x112x64xf32>\n-linalg.conv_2d_nhwc_fhwc {dilations = dense<1> : tensor<2xi64>, strides = dense<2> : tensor<2xi64>} ins(%alloc, %alloc_0 : memref<16x230x230x3xf32>, memref<64x7x7x3xf32>) outs(%alloc_1 : memref<16x112x112x64xf32>)\n+affine.for %arg0 = 0 to 16 {\n+affine.for %arg1 = 0 to 112 {\n+affine.for %arg2 = 0 to 112 {\n+affine.for %arg3 = 0 to 64 {\n+affine.for %arg4 = 0 to 7 {\n+affine.for %arg5 = 0 to 7 {\n+affine.for %arg6 = 0 to 3 {\n+%0 = affine.load %alloc[%arg0, %arg1 * 2 + %arg4, %arg2 * 2 + %arg5, %arg6] : memref<16x230x230x3xf32>\n+%1 = affine.load %alloc_0[%arg3, %arg4, %arg5, %arg6] : memref<64x7x7x3xf32>\n+%2 = affine.load %alloc_1[%arg0, %arg1, %arg2, %arg3] : memref<16x112x112x64xf32>\n+%3 = arith.mulf %0, %1 : f32\n+%4 = arith.addf %2, %3 : f32\n+affine.store %4, %alloc_1[%arg0, %arg1, %arg2, %arg3] : memref<16x112x112x64xf32>\n+}\n+}\n+}\n+}\n+}\n+}\n+}\n return\n }\n }"
      },
      {
        "seed": "seeds\\seeds_real_official_conversion_scf_to_gpu_parallel_loop.mlir",
        "summary": "Successful pipelines produced different IR text. This is an analysis signal, not a security issue by itself.",
        "details": "Structured IR summary\n- parse_verify: operations=240, functions=18, dialects=affine:6, arith:79, func:18, memref:74, scf:63\n- canonicalize_cse_sccp: operations=106, functions=18, dialects=affine:6, arith:31, func:18, memref:30, scf:21\n- type-count changes: f32:42->10, f64:1->0, i64:1->0, index:97->58, memref:170->82\n\nText diff\n--- parse_verify\n+++ canonicalize_cse_sccp\n@@ -1,5 +1,5 @@\n-#map = affine_map<(d0)[s0] -> (2, -d0 + s0)>\n-#map1 = affine_map<(d0)[s0] -> (3, -d0 + s0)>\n+#map = affine_map<(d0)[s0] -> (-d0 + s0, 2)>\n+#map1 = affine_map<(d0)[s0] -> (-d0 + s0, 3)>\n #map2 = affine_map<(d0) -> (d0 * 128)>\n module {\n func.func @parallel_loop_bidy_bidx(%arg0: index, %arg1: index, %arg2: index, %arg3: index, %arg4: index, %arg5: memref<?x?xf32>, %arg6: memref<?x?xf32>) {\n@@ -12,19 +12,16 @@\n return\n }\n func.func @parallel_loop_tiled(%arg0: index, %arg1: index, %arg2: index, %arg3: index, %arg4: memref<?x?xf32>, %arg5: memref<?x?xf32>) {\n+%c4 = arith.constant 4 : index\n+%c1 = arith.constant 1 : index\n %c0 = arith.constant 0 : index\n-%c1 = arith.constant 1 : index\n-%c4 = arith.constant 4 : index\n-scf.parallel (%arg6, %arg7) = (%arg0, %arg1) to (%arg2, %arg3) step (%c4, %c4) {\n-scf.parallel (%arg8, %arg9) = (%c0, %c0) to (%c4, %c4) step (%c1, %c1) {\n+scf.parallel (%arg6, %arg7, %arg8, %arg9) = (%arg0, %arg1, %c0, %c0) to (%arg2, %arg3, %c4, %c4) step (%c4, %c4, %c1, %c1) {\n %0 = arith.addi %arg6, %arg8 : index\n %1 = arith.addi %arg7, %arg9 : index\n %2 = memref.load %arg4[%0, %1] : memref<?x?xf32>\n memref.store %2, %arg5[%1, %0] : memref<?x?xf32>\n scf.reduce\n-} {mapping = [#gpu.loop_dim_map<processor = thread_y, map = (d0) -> (d0), bound = (d0) -> (d0)>, #gpu.loop_dim_map<processor = thread_x, map = (d0) -> (d0), bound = (d0) -> (d0)>]}\n-scf.reduce\n-} {mapping = [#gpu.loop_dim_map<processor = block_y, map = (d0) -> (d0), bound = (d0) -> (d0)>, #gpu.loop_dim_map<processor = block_x, map = (d0) -> (d0), bound = (d0) -> (d0)>]}\n+}\n return\n }\n func.func @parallel_loop_bidy_seq(%arg0: index, %arg1: index, %arg2: index, %arg3: index, %arg4: index, %arg5: memref<?x?xf32>, %arg6: memref<?x?xf32>) {\n@@ -37,53 +34,47 @@\n return\n }\n func.func @parallel_loop_tiled_seq(%arg0: index, %arg1: index, %arg2: index, %arg3: index, %arg4: memref<?x?xf32>, %arg5: memref<?x?xf32>) {\n+%c4 = arith.constant 4 : index\n+%c1 = arith.constant 1 : index\n %c0 = arith.constant 0 : index\n-%c1 = arith.constant 1 : index\n-%c4 = arith.constant 4 : index\n-scf.parallel (%arg6, %arg7) = (%arg0, %arg1) to (%arg2, %arg3) step (%c4, %c4) {\n-scf.parallel (%arg8, %arg9) = (%c0, %c0) to (%c4, %c4) step (%c1, %c1) {\n+scf.parallel (%arg6, %arg7, %arg8, %arg9) = (%arg0, %arg1, %c0, %c0) to (%arg2, %arg3, %c4, %c4) step (%c4, %c4, %c1, %c1) {\n %0 = arith.addi %arg6, %arg8 : index\n %1 = arith.addi %arg7, %arg9 : index\n %2 = memref.load %arg4[%0, %1] : memref<?x?xf32>\n memref.store %2, %arg5[%1, %0] : memref<?x?xf32>\n scf.reduce\n-} {mapping = [#gpu.loop_dim_map<processor = thread_y, map = (d0) -> (d0), bound = (d0) -> (d0)>, #gpu.loop_dim_map<processor = sequential, map = (d0) -> (d0), bound = (d0) -> (d0)>]}\n-scf.reduce\n-} {mapping = [#gpu.loop_dim_map<processor = block_y, map = (d0) -> (d0), bound = (d0) -> (d0)>, #gpu.loop_dim_map<processor = sequential, map = (d0) -> (d0), bound = (d0) -> (d0)>]}\n+}\n return\n }\n module {\n func.func @sum(%arg0: memref<?x?xf32, strided<[?, 1], offset: ?>>, %arg1: memref<?x?xf32, strided<[?, 1], offset: ?>>, %arg2: memref<?x?xf32, strided<[?, 1], offset: ?>>) {\n+%c2 = arith.constant 2 : index\n+%c3 = arith.constant 3 : index\n+%c0 = arith.constant 0 : index\n %c1 = arith.constant 1 : index\n-%c0 = arith.constant 0 : index\n-%c3 = arith.constant 3 : index\n-%c2 = arith.constant 2 : index\n %dim = memref.dim %arg0, %c0 : memref<?x?xf32, strided<[?, 1], offset: ?>>\n %dim_0 = memref.dim %arg0, %c1 : memref<?x?xf32, strided<[?, 1], offset: ?>>\n scf.parallel (%arg3, %arg4) = (%c0, %c0) to (%dim, %dim_0) step (%c2, %c3) {\n-%dim_1 = memref.dim %arg0, %c0 : memref<?x?xf32, strided<[?, 1], offset: ?>>\n-%0 = affine.min #map(%arg3)[%dim_1]\n+%0 = affine.min #map(%arg3)[%dim]\n %1 = arith.muli %0, %0 : index\n-%dim_2 = memref.dim %arg0, %c1 : memref<?x?xf32, strided<[?, 1], offset: ?>>\n-%2 = arith.subi %dim_2, %arg4 : index\n-%3 = arith.minsi %c3, %2 : index\n-%subview = memref.subview %arg0[%arg3, %arg4] [%1, %3] [%c1, %c1] : memref<?x?xf32, strided<[?, 1], offset: ?>> to memref<?x?xf32, strided<[?, ?], offset: ?>>\n-%dim_3 = memref.dim %arg1, %c0 : memref<?x?xf32, strided<[?, 1], offset: ?>>\n-%4 = affine.min #map(%arg3)[%dim_3]\n-%dim_4 = memref.dim %arg1, %c1 : memref<?x?xf32, strided<[?, 1], offset: ?>>\n-%5 = affine.min #map1(%arg4)[%dim_4]\n-%subview_5 = memref.subview %arg1[%arg3, %arg4] [%4, %5] [%c1, %c1] : memref<?x?xf32, strided<[?, 1], offset: ?>> to memref<?x?xf32, strided<[?, ?], offset: ?>>\n-%dim_6 = memref.dim %arg2, %c0 : memref<?x?xf32, strided<[?, 1], offset: ?>>\n-%6 = affine.min #map(%arg3)[%dim_6]\n-%dim_7 = memref.dim %arg2, %c1 : memref<?x?xf32, strided<[?, 1], offset: ?>>\n-%7 = affine.min #map1(%arg4)[%dim_7]\n-%subview_8 = memref.subview %arg2[%arg3, %arg4] [%6, %7] [%c1, %c1] : memref<?x?xf32, strided<[?, 1], offset: ?>> to memref<?x?xf32, strided<[?, ?], offset: ?>>\n+%2 = arith.subi %dim_0, %arg4 : index\n+%3 = arith.minsi %2, %c3 : index\n+%subview = memref.subview %arg0[%arg3, %arg4] [%1, %3] [1, 1] : memref<?x?xf32, strided<[?, 1], offset: ?>> to memref<?x?xf32, strided<[?, 1], offset: ?>>\n+%dim_1 = memref.dim %arg1, %c0 : memref<?x?xf32, strided<[?, 1], offset: ?>>\n+%4 = affine.min #map(%arg3)[%dim_1]\n+%dim_2 = memref.dim %arg1, %c1 : memref<?x?xf32, strided<[?, 1], offset: ?>>\n+%5 = affine.min #map1(%arg4)[%dim_2]\n+%subview_3 = memref.subview %arg1[%arg3, %arg4] [%4, %5] [1, 1] : memref<?x?xf32, strided<[?, 1], offset: ?>> to memref<?x?xf32, strided<[?, 1], offset: ?>>\n+%dim_4 = memref.dim %arg2, %c0 : memref<?x?xf32, strided<[?, 1], offset: ?>>\n+%6 = affine.min #map(%arg3)[%dim_4]\n+%dim_5 = memref.dim %arg2, %c1 : memref<?x?xf32, strided<[?, 1], offset: ?>>\n+%7 = affine.min #map1(%arg4)[%dim_5]\n+%subview_6 = memref.subview %arg2[%arg3, %arg4] [%6, %7] [1, 1] : memref<?x?xf32, strided<[?, 1], offset: ?>> to memref<?x?xf32, strided<[?, 1], offset: ?>>\n scf.parallel (%arg5, %arg6) = (%c0, %c0) to (%1, %3) step (%c1, %c1) {\n-%8 = memref.load %subview[%arg5, %arg6] : memref<?x?xf32, strided<[?, ?], offset: ?>>\n-%9 = memref.load %subview_5[%arg5, %arg6] : memref<?x?xf32, strided<[?, ?], offset: ?>>\n-%10 = memref.load %subview_8[%arg5, %arg6] : memref<?x?xf32, strided<[?, ?], offset: ?>>\n-%11 = arith.addf %8, %9 : f32\n-memref.store %11, %subview_8[%arg5, %arg6] : memref<?x?xf32, strided<[?, ?], offset: ?>>\n+%8 = memref.load %subview[%arg5, %arg6] : memref<?x?xf32, strided<[?, 1], offset: ?>>\n+%9 = memref.load %subview_3[%arg5, %arg6] : memref<?x?xf32, strided<[?, 1], offset: ?>>\n+%10 = arith.addf %8, %9 : f32\n+memref.store %10, %subview_6[%arg5, %arg6] : memref<?x?xf32, strided<[?, 1], offset: ?>>\n scf.reduce\n } {mapping = [#gpu.loop_dim_map<processor = thread_x, map = (d0) -> (d0), bound = (d0) -> (d0)>, #gpu.loop_dim_map<processor = thread_y, map = (d0) -> (d0), bound = (d0) -> (d0)>]}\n scf.reduce\n@@ -92,24 +83,15 @@\n }\n }\n func.func @parallel_loop_optional_attr() {\n-%c0 = arith.constant 0 : index\n-%c1 = arith.constant 1 : index\n-scf.parallel (%arg0) = (%c0) to (%c1) step (%c1) {\n-scf.reduce\n-} {mapping = [#gpu.loop_dim_map<processor = block_x, map = (d0) -> (d0), bound = (d0) -> (d0)>], optional_attr = 1 : i64}\n return\n }\n func.func @parallel_double_map(%arg0: index, %arg1: index, %arg2: index, %arg3: index, %arg4: memref<?x?xf32>, %arg5: memref<?x?xf32>) {\n-%c4 = arith.constant 4 : index\n-scf.parallel (%arg6, %arg7) = (%arg0, %arg1) to (%arg2, %arg3) step (%c4, %c4) {\n-scf.reduce\n-} {mapping = [#gpu.loop_dim_map<processor = block_y, map = (d0) -> (d0), bound = (d0) -> (d0)>, #gpu.loop_dim_map<processor = block_y, map = (d0) -> (d0), bound = (d0) -> (d0)>]}\n return\n }\n func.func @parallel_loop_loop_variant_bound(%arg0: index, %arg1: index, %arg2: index, %arg3: index, %arg4: memref<?x?xf32>, %arg5: memref<?x?xf32>) {\n+%c4 = arith.constant 4 : index\n+%c1 = arith.constant 1 : index\n %c0 = arith.constant 0 : index\n-%c1 = arith.constant 1 : index\n-%c4 = arith.constant 4 : index\n scf.parallel (%arg6, %arg7) = (%arg0, %arg1) to (%arg2, %arg3) step (%c4, %c4) {\n scf.parallel (%arg8, %arg9) = (%c0, %c0) to (%arg6, %arg7) step (%c1, %c1) {\n %0 = arith.addi %arg6, %arg8 : index\n@@ -123,89 +105,23 @@\n return\n }\n func.func @parallel_no_annotations(%arg0: index, %arg1: index, %arg2: index, %arg3: index, %arg4: memref<?x?xf32>, %arg5: memref<?x?xf32>) {\n-%c4 = arith.constant 4 : index\n-scf.parallel (%arg6, %arg7) = (%arg0, %arg1) to (%arg2, %arg3) step (%c4, %c4) {\n-scf.reduce\n-}\n return\n }\n func.func @step_invariant() {\n-%alloc = memref.alloc() : memref<1x1xf64>\n-%alloc_0 = memref.alloc() : memref<1x1xf64>\n-%alloc_1 = memref.alloc() : memref<1x1xf64>\n-%c0 = arith.constant 0 : index\n-%c1 = arith.constant 1 : index\n-%c1_2 = arith.constant 1 : index\n-scf.parallel (%arg0) = (%c0) to (%c1) step (%c1_2) {\n-%c0_3 = arith.constant 0 : index\n-%c1_4 = arith.constant 1 : index\n-%c1_5 = arith.constant 1 : index\n-scf.parallel (%arg1) = (%c0_3) to (%c1_4) step (%c1_5) {\n-%0 = memref.load %alloc_1[%arg0, %arg1] : memref<1x1xf64>\n-%1 = memref.load %alloc_0[%arg0, %arg1] : memref<1x1xf64>\n-%2 = arith.addf %0, %1 : f64\n-memref.store %2, %alloc[%arg0, %arg1] : memref<1x1xf64>\n-scf.reduce\n-} {mapping = [#gpu.loop_dim_map<processor = thread_x, map = (d0) -> (d0), bound = (d0) -> (d0)>]}\n-scf.reduce\n-} {mapping = [#gpu.loop_dim_map<processor = block_x, map = (d0) -> (d0), bound = (d0) -> (d0)>]}\n-memref.dealloc %alloc_1 : memref<1x1xf64>\n-memref.dealloc %alloc_0 : memref<1x1xf64>\n-memref.dealloc %alloc : memref<1x1xf64>\n return\n }\n func.func @parallel_reduction_1d() {\n-%alloc = memref.alloc() : memref<f32>\n-%alloc_0 = memref.alloc() : memref<64xf32>\n-%c1 = arith.constant 1 : index\n-%c64 = arith.constant 64 : index\n-%c0 = arith.constant 0 : index\n-%cst = arith.constant 0.000000e+00 : f32\n-scf.parallel (%arg0) = (%c0) to (%c1) step (%c1) {\n-%0 = scf.parallel (%arg1) = (%c0) to (%c64) step (%c1) init (%cst) -> f32 {\n-%1 = memref.load %alloc_0[%arg1] : memref<64xf32>\n-scf.reduce(%1 : f32) {\n-^bb0(%arg2: f32, %arg3: f32):\n-%2 = arith.addf %arg2, %arg3 : f32\n-scf.reduce.return %2 : f32\n-}\n-} {mapping = [#gpu.loop_dim_map<processor = thread_x, map = (d0) -> (d0), bound = (d0) -> (d0)>]}\n-memref.store %0, %alloc[] : memref<f32>\n-scf.reduce\n-} {mapping = [#gpu.loop_dim_map<processor = block_x, map = (d0) -> (d0), bound = (d0) -> (d0)>]}\n-memref.dealloc %alloc : memref<f32>\n-memref.dealloc %alloc_0 : memref<64xf32>\n return\n }\n func.func @parallel_reduction_2d() {\n-%alloc = memref.alloc() : memref<f32>\n-%alloc_0 = memref.alloc() : memref<8x8xf32>\n-%c1 = arith.constant 1 : index\n-%c8 = arith.constant 8 : index\n-%c0 = arith.constant 0 : index\n-%cst = arith.constant 0.000000e+00 : f32\n-scf.parallel (%arg0) = (%c0) to (%c1) step (%c1) {\n-%0 = scf.parallel (%arg1, %arg2) = (%c0, %c0) to (%c8, %c8) step (%c1, %c1) init (%cst) -> f32 {\n-%1 = memref.load %alloc_0[%arg1, %arg2] : memref<8x8xf32>\n-scf.reduce(%1 : f32) {\n-^bb0(%arg3: f32, %arg4: f32):\n-%2 = arith.addf %arg3, %arg4 : f32\n-scf.reduce.return %2 : f32\n-}\n-} {mapping = [#gpu.loop_dim_map<processor = thread_x, map = (d0) -> (d0), bound = (d0) -> (d0)>, #gpu.loop_dim_map<processor = thread_y, map = (d0) -> (d0), bound = (d0) -> (d0)>]}\n-memref.store %0, %alloc[] : memref<f32>\n-scf.reduce\n-} {mapping = [#gpu.loop_dim_map<processor = block_x, map = (d0) -> (d0), bound = (d0) -> (d0)>]}\n-memref.dealloc %alloc : memref<f32>\n-memref.dealloc %alloc_0 : memref<8x8xf32>\n return\n }\n func.func @parallel_reduction_1d_tiled() {\n+%cst = arith.constant 0.000000e+00 : f32\n+%c0 = arith.constant 0 : index\n+%c64 = arith.constant 64 : index\n+%c1 = arith.constant 1 : index\n %c128 = arith.constant 128 : index\n-%c1 = arith.constant 1 : index\n-%c64 = arith.constant 64 : index\n-%c0 = arith.constant 0 : index\n-%cst = arith.constant 0.000000e+00 : f32\n %alloc = memref.alloc() : memref<8192xf32>\n %alloc_0 = memref.alloc() : memref<64xf32>\n scf.parallel (%arg0) = (%c0) to (%c64) step (%c1) {\n@@ -228,95 +144,18 @@\n return\n }\n func.func @parallel_reduction_1d_uint(%arg0: ui32) {\n-%alloc = memref.alloc() : memref<ui32>\n-%alloc_0 = memref.alloc() : memref<64xui32>\n-%c1 = arith.constant 1 : index\n-%c64 = arith.constant 64 : index\n-%c0 = arith.constant 0 : index\n-scf.parallel (%arg1) = (%c0) to (%c1) step (%c1) {\n-%0 = scf.parallel (%arg2) = (%c0) to (%c64) step (%c1) init (%arg0) -> ui32 {\n-%1 = memref.load %alloc_0[%arg2] : memref<64xui32>\n-scf.reduce(%1 : ui32) {\n-^bb0(%arg3: ui32, %arg4: ui32):\n-scf.reduce.return %arg3 : ui32\n-}\n-} {mapping = [#gpu.loop_dim_map<processor = thread_x, map = (d0) -> (d0), bound = (d0) -> (d0)>]}\n-memref.store %0, %alloc[] : memref<ui32>\n-scf.reduce\n-} {mapping = [#gpu.loop_dim_map<processor = block_x, map = (d0) -> (d0), bound = (d0) -> (d0)>]}\n-memref.dealloc %alloc : memref<ui32>\n-memref.dealloc %alloc_0 : memref<64xui32>\n return\n }\n func.func @parallel_reduction_1d_outside() {\n-%alloc = memref.alloc() : memref<f32>\n-%alloc_0 = memref.alloc() : memref<64xf32>\n-%c1 = arith.constant 1 : index\n-%c64 = arith.constant 64 : index\n-%c0 = arith.constant 0 : index\n-%cst = arith.constant 0.000000e+00 : f32\n-%cst_1 = arith.constant 1.000000e+00 : f32\n-scf.parallel (%arg0) = (%c0) to (%c1) step (%c1) {\n-%0 = scf.parallel (%arg1) = (%c0) to (%c64) step (%c1) init (%cst) -> f32 {\n-%1 = memref.load %alloc_0[%arg1] : memref<64xf32>\n-scf.reduce(%1 : f32) {\n-^bb0(%arg2: f32, %arg3: f32):\n-%2 = arith.addf %arg2, %arg3 : f32\n-%3 = arith.addf %2, %cst_1 : f32\n-scf.reduce.return %3 : f32\n-}\n-} {mapping = [#gpu.loop_dim_map<processor = thread_x, map = (d0) -> (d0), bound = (d0) -> (d0)>]}\n-memref.store %0, %alloc[] : memref<f32>\n-scf.reduce\n-} {mapping = [#gpu.loop_dim_map<processor = block_x, map = (d0) -> (d0), bound = (d0) -> (d0)>]}\n-memref.dealloc %alloc : memref<f32>\n-memref.dealloc %alloc_0 : memref<64xf32>\n return\n }\n func.func @nested_parallel_with_side_effect() {\n-%c65536 = arith.constant 65536 : index\n-%c2 = arith.constant 2 : index\n-%c256 = arith.constant 256 : index\n-%c0 = arith.constant 0 : index\n-%c4 = arith.constant 4 : index\n-%c1 = arith.constant 1 : index\n-%alloc = memref.alloc() : memref<2x256x256xf32>\n-%alloc_0 = memref.alloc() : memref<2x4x256x256xf32>\n-%alloc_1 = memref.alloc() : memref<4x4xf32>\n-%alloc_2 = memref.alloc() : memref<4x4xf32>\n-scf.parallel (%arg0, %arg1, %arg2) = (%c0, %c0, %c0) to (%c2, %c4, %c65536) step (%c1, %c1, %c1) {\n-%0 = arith.remsi %arg2, %c256 : index\n-%1 = arith.divsi %arg2, %c256 : index\n-%2 = memref.load %alloc[%arg0, %1, %0] : memref<2x256x256xf32>\n-memref.store %2, %alloc_0[%arg0, %arg1, %1, %0] : memref<2x4x256x256xf32>\n-scf.parallel (%arg3) = (%c0) to (%c4) step (%c1) {\n-%3 = memref.load %alloc_1[%arg3, %c0] : memref<4x4xf32>\n-memref.store %3, %alloc_2[%arg3, %c0] : memref<4x4xf32>\n-scf.reduce\n-} {mapping = [#gpu.loop_dim_map<processor = thread_x, map = (d0) -> (d0), bound = (d0) -> (d0)>]}\n-scf.reduce\n-} {mapping = [#gpu.loop_dim_map<processor = block_z, map = (d0) -> (d0), bound = (d0) -> (d0)>, #gpu.loop_dim_map<processor = block_y, map = (d0) -> (d0), bound = (d0) -> (d0)>, #gpu.loop_dim_map<processor = block_x, map = (d0) -> (d0), bound = (d0) -> (d0)>]}\n return\n }\n func.func @scf2gpu_index_creation_2d() {\n-%c0 = arith.constant 0 : index\n-%c1 = arith.constant 1 : index\n-%c32 = arith.constant 32 : index\n-scf.parallel (%arg0, %arg1) = (%c0, %c0) to (%c32, %c32) step (%c1, %c1) {\n-%0 = arith.addi %arg0, %c0 : index\n-%1 = arith.addi %arg1, %c0 : index\n-scf.reduce\n-} {mapping = [#gpu.loop_dim_map<processor = block_x, map = (d0) -> (d0), bound = (d0) -> (d0)>, #gpu.loop_dim_map<processor = thread_x, map = (d0) -> (d0), bound = (d0) -> (d0)>]}\n return\n }\n func.func @scf2gpu_index_creation_1d() {\n-%c0 = arith.constant 0 : index\n-%c1 = arith.constant 1 : index\n-%c64 = arith.constant 64 : index\n-scf.parallel (%arg0) = (%c0) to (%c64) step (%c1) {\n-%0 = arith.addi %arg0, %c0 : index\n-scf.reduce\n-} {mapping = [#gpu.loop_dim_map<processor = thread_x, map = (d0) -> (d0), bound = (d0) -> (d0)>]}\n return\n }\n }"
      },
      {
        "seed": "seeds\\seeds_real_official_vector_constant_fold.mlir",
        "summary": "Successful pipelines produced different IR text. This is an analysis signal, not a security issue by itself.",
        "details": "Structured IR summary\n- parse_verify: operations=5, functions=1, dialects=arith:1, func:1, vector:3\n- canonicalize_cse_sccp: operations=4, functions=1, dialects=func:1, vector:3\n- type-count changes: vector:13->12\n\nText diff\n--- parse_verify\n+++ canonicalize_cse_sccp\n@@ -1,7 +1,6 @@\n module {\n func.func @fold_extract_transpose_negative(%arg0: vector<4x4xf16>) -> vector<4x4xf16> {\n-%cst = arith.constant dense<0.000000e+00> : vector<1x4x4xf16>\n-%0 = vector.insert %arg0, %cst [0] : vector<4x4xf16> into vector<1x4x4xf16>\n+%0 = vector.broadcast %arg0 : vector<4x4xf16> to vector<1x4x4xf16>\n %1 = vector.transpose %0, [0, 2, 1] : vector<1x4x4xf16> to vector<1x4x4xf16>\n %2 = vector.extract %1[0] : vector<4x4xf16> from vector<1x4x4xf16>\n return %2 : vector<4x4xf16>"
      }
    ],
    "output_delta_count": 6
  }
}